Predict/storage/MLP_256_200_SGD_11/trained_35.pt (torch, 339061 bytes, 13 tensors)

weight f4 [256, 58]
0	0xbd82157e	-0.063517556
1	0x3da27cdb	0.079339705
2	0x3dc3453d	0.095346905
3	0x3db4867c	0.08814713
4	0xbd57a257	-0.052645054
5	0x3ddc3ec2	0.107541576
6	0x3d52fb3f	0.05150914
7	0xbd885cee	-0.0665835
8	0x3da08215	0.07837311
9	0xbcf22230	-0.029557317
10	0xbcf442f9	-0.029817091
11	0x3ddd1de3	0.10796716
12	0xbced51eb	-0.028969726
13	0x3deff639	0.11716885
14	0x3d592e07	0.05302241
15	0xbd0201fd	-0.031740177
16	0xbdde8f69	-0.10867197
17	0xbde52801	-0.11189271
18	0xbbac8774	-0.0052651707
19	0xbda3346b	-0.07968982
20	0xbdd09a06	-0.10185628
21	0xbdefee49	-0.11715371
22	0x3d36dfd9	0.04464707
23	0xbdb94d0d	-0.090478994
24	0x3dd462be	0.10370396
25	0xbc3e6e9f	-0.011623054
26	0x3d60d004	0.05488588
27	0xbd64c113	-0.055848192
28	0x3dfa8e09	0.12234122
29	0x3d36c687	0.044622924
30	0x3ce1bad1	0.027554901
31	0xbd22d2c9	-0.0397518
32	0x3e04363c	0.12911314
33	0xbd4edd48	-0.050504
34	0xbddbb6a4	-0.10728195
35	0xbe04b8d5	-0.12961133
36	0xbde9af97	-0.11410444
37	0xbdb65cac	-0.089043945
38	0x3dc21c78	0.09478086
39	0xbdd877e9	-0.10569746
40	0xbc9672ba	-0.018365253
41	0x3e01ba15	0.12668641
42	0xbd1be2d6	-0.038058124
43	0x3c775f3c	0.015098389
44	0x3d928901	0.07155038
45	0xbd31ffb6	-0.043456756
46	0xbd302490	-0.04300362
47	0x3d03df1a	0.032195188
48	0xbd9801b9	-0.074222036
49	0x3dac221e	0.08404945
50	0xbdcb3e4e	-0.09923993
51	0xbd89f512	-0.067361966
52	0xbdd03198	-0.10165709
53	0x3d828a18	0.063739955
54	0xbb795cdc	-0.0038049733
55	0xbdf4553a	-0.11930318
56	0x3db2dbf9	0.08733363
57	0x3db12e96	0.08651464
58	0xbdad88bd	-0.084733464
59	0x3bf9caa2	0.0076230327
60	0xbc6e1290	-0.014530793
61	0xba9552a8	-0.0011392431
62	0x3c9cec9d	0.019155795
63	0xbdfcaa0c	-0.12337121
64	0x3d8bdfc2	0.06829788
65	0xbdf645ef	-0.120250575
66	0xbd97e36e	-0.07416426
67	0x3d8bfada	0.068349555
68	0x3dead6df	0.11466765
69	0x3da5d053	0.08096375
70	0x3de5f622	0.11228587
71	0xbd57b092	-0.052658625
72	0xbd1c67ee	-0.038185053
73	0x3cd146ce	0.025546458
74	0xbdeb86ec	-0.11500344
75	0xbdec8ba7	-0.11550074
76	0x3dc30715	0.09522835
77	0xbdde6fd9	-0.10861177
78	0xbe022aac	-0.1271159
79	0xbd52bc87	-0.051449325
80	0xbd510b9d	-0.051036466
81	0xbd807f6d	-0.062743045
82	0x3dd29f16	0.102842495
83	0x3ddfd884	0.10929969
84	0xbd0eda11	-0.034875933
85	0x3d368775	0.044562776
86	0xbcf9c1b9	-0.030487882
87	0x3cbc3cdf	0.022978244
88	0xbdaa6f60	-0.08322024
89	0x3cdc2da9	0.026877241
90	0xbb99ee83	-0.0046976223
91	0xbd98754e	-0.07444249
92	0x3cac2abf	0.021016477
93	0x3c8a6cf4	0.016897656
94	0xbdbcd5b7	-0.0922045
95	0xbdd2d4ac	-0.1029447
96	0x3de49ba0	0.111624956
97	0xbc8db681	-0.017298939
98	0x3d856347	0.06513076
99	0x3b7627a6	0.0037560253
100	0xbd494a00	-0.049142838
101	0x3d012072	0.031525083
102	0x3cdfaa69	0.027302938
103	0xbe0b3207	-0.13593303
104	0x3c728061	0.014801116
105	0x3dcd6f9e	0.10031055
106	0x3d27e860	0.040993094
107	0x3e061ec1	0.13097669
108	0x3db510c9	0.08841092
109	0xbddcfab7	-0.107900076
110	0xb93b76dd	-0.0001787799
111	0x3ddf2602	0.10895921
112	0xbd946158	-0.07245129
113	0x3d845973	0.064623736
114	0x3c95feab	0.018309912
115	0x3d99571f	0.0748732
116	0xbab9d0d9	-0.0014176621
117	0xbdb2c058	-0.08728093
118	0x3c19eca2	0.009394797
119	0xbd5348f5	-0.05158325
120	0x3db4a6a1	0.088208444
121	0x3c15b477	0.009137264
122	0xbd64a3e1	-0.05582035
123	0x3d562218	0.052278608
124	0xbdf9f68e	-0.1220523
125	0xbdcd5b0b	-0.10027131
126	0x3d1f2e45	0.038862485
127	0xbd8527ca	-0.0650173
128	0xbd44a47b	-0.048008423
129	0x3d081c03	0.03322984
130	0x3c40973f	0.01175481
131	0xbdb17422	-0.08664729
132	0xbdbc654b	-0.091990076
133	0x3deb4293	0.114873074
134	0x3cfd8549	0.030947344
135	0xbde6fdf6	-0.11278908
136	0x3dae7686	0.085187
137	0xbd756261	-0.059908275
138	0x3d7f1bd7	0.06228241
139	0x3db42efe	0.087980255
140	0xbd9cb0be	-0.076508984
141	0x3c1cdac4	0.009573642
142	0xbc514d92	-0.012774842
143	0xbdb0580f	-0.08610546
144	0x3d52e9fe	0.051492684
145	0xbb5e6057	-0.0033931935
146	0xbb36c4c5	-0.002788828
147	0xbdb7748c	-0.089577764
148	0x3cba3699	0.022731112
149	0x3dc0b284	0.09409049
150	0x3c72f6d2	0.014829354
151	0xbd620a1b	-0.05518542
152	0xbd3c284d	-0.04593687
153	0x3d638af8	0.055552453
154	0xbdcd3691	-0.10020173
155	0x3d69c113	0.057068896
156	0xbcc5c655	-0.024142424
157	0x3dd02462	0.101631895
158	0xbd34460c	-0.044012114
159	0xbe05998b	-0.13046853
160	0x3d5c96a1	0.05385459
161	0x3dd28ded	0.102809764
162	0x3e0ee6e5	0.13955267
163	0xbdaae895	-0.08345143
164	0xbdc52ad4	-0.096273094
165	0xbdb4d0f7	-0.088289194
166	0x3d3ff5c9	0.04686526
167	0xbdfc3595	-0.123149075
168	0xbdf326e7	-0.118726544
169	0xbe0d3d1b	-0.13792841
170	0xbd4f5391	-0.050616805
171	0xbdc47ded	-0.09594331
172	0xbd4d8045	-0.050171155
173	0xbe007813	-0.12545805
174	0xbdf81122	-0.12112643
175	0xbd1e2eb5	-0.038618762
176	0x3d146840	0.036232233
177	0x3d9b5099	0.07583732
178	0x3dbf942a	0.09354432
179	0xbd703cd5	-0.058651764
180	0x3d718d67	0.058972742
181	0x3c6c89f1	0.014437185
182	0x3c53bbee	0.012923224
183	0x3d642c28	0.055706173
184	0xbd974ffe	-0.07388304
185	0xbd59ef3f	-0.05320668
186	0xbd0a1933	-0.033715438
187	0xbe04d4f6	-0.12971863
188	0x3d548fbc	0.05189489
189	0x3d57e266	0.052706145
190	0x3c6566a1	0.014001519
191	0xbde91f83	-0.113829635
192	0xbdb40994	-0.087908894
193	0x3d863260	0.06552577
194	0xbd38b25a	-0.045091964
195	0xbddf951d	-0.10917113
196	0xbd56733a	-0.052355982
197	0xbd974d07	-0.07387739
198	0x3d707a4a	0.058710374
199	0xbd0cee02	-0.03440667
200	0xbdce22ba	-0.10065217
201	0xbd402610	-0.0469113
202	0xbd1b3f38	-0.037902087
203	0x3c9d3ea9	0.019194918
204	0x3da65124	0.08120945
205	0xbda7995f	-0.0818355
206	0xbdc0795f	-0.0939815
207	0x3d404019	0.04693613
208	0xbd3efade	-0.046625964
209	0x3dbd438a	0.09241398
210	0x3dce706b	0.10080036
211	0x3dada04b	0.08477839
212	0xbd59959a	-0.053121187
213	0x3de3c56f	0.11121642
214	0x3de3796a	0.11107142
215	0xbd9773c8	-0.073951304
216	0x3e000873	0.12503223
217	0x3df832a3	0.12119033
218	0xbc1e9114	-0.009678144
219	0xbdc6c5bd	-0.09705684
220	0x3d0aee53	0.03391869
221	0xbd1ccd54	-0.038281754
222	0xbcee85e4	-0.029116578
223	0xbdf68947	-0.12037902
224	0x3d56ade8	0.052411944
225	0xbce577af	-0.028011171
226	0x3db1d67b	0.08683487
227	0x3e08dfa6	0.13366565
228	0x3d64ad17	0.055829134
229	0x3d2b8d9b	0.041883092
230	0xbd997486	-0.07492928
231	0xbd16eff1	-0.03684992
232	0xbd917281	-0.07101918
233	0xbdc6affb	-0.09701534
234	0x3df94823	0.12171962
235	0xbd81e011	-0.063415654
236	0x3e03165f	0.12801503
237	0xbc8c22fa	-0.017106522
238	0x3d1d34ee	0.038380556
239	0x3d951df1	0.072811015
240	0xbdb11955	-0.0864741
241	0xbd85eea5	-0.065396585
242	0xbd870d4e	-0.065943345
243	0xbd8246d0	-0.06361163
244	0x3dda6bc1	0.10665084
245	0x3d82eeae	0.06393181
246	0x3d9cba13	0.07652678
247	0x3cc1f068	0.023674205
248	0xbda356b9	-0.079755254
249	0x3df66604	0.12031177
250	0x3d050c73	0.032482576
251	0x3c9f6d5d	0.019461328
252	0xbde18dc2	-0.11013366
253	0x3d88682d	0.06660495
254	0xbd9eeff9	-0.07760615
255	0x3cad8583	0.021181827

bias f4 [256]
0	0x3d990304	0.07471278
1	0x3d579851	0.052635495
2	0x3d49f61f	0.049306985
3	0x3d28033b	0.041018706
4	0xbda4736c	-0.080298275
5	0x3df5ebe8	0.12007886
6	0x3be9fbd5	0.0071406164
7	0xbd397c8b	-0.04528479
8	0xbdc877a1	-0.097884424
9	0x3df4248b	0.119210325
10	0xbdc1ab66	-0.0945652
11	0xbcd0000b	-0.025390645
12	0x3da13977	0.07872289
13	0xbd71fb7d	-0.05907773
14	0xbcd712c6	-0.026254069
15	0xbdb5b780	-0.088728905
16	0xbdb28d94	-0.0871841
17	0x3dd87da4	0.10570839
18	0xbdf33f64	-0.11877325
19	0xbc5dbcec	-0.013533812
20	0x3c1aa159	0.009437882
21	0x3df1916f	0.117953174
22	0xbcc374fa	-0.02385949
23	0x3dc7c4ee	0.09754358
24	0xbd2a425a	-0.041567184
25	0xbda9518b	-0.08267506
26	0xbdebdbf2	-0.115165606
27	0xbd9ad6ed	-0.07560525
28	0x3d9f85c6	0.07789187
29	0xbba38e57	-0.0049913335
30	0xbdba1c92	-0.090874806
31	0x3df485f5	0.11939613
32	0x3c2e0e1e	0.010623483
33	0xbd18fc76	-0.03735014
34	0xbccfdfc0	-0.025375247
35	0x3a99c30b	0.0011731101
36	0xbc3646b3	-0.011125254
37	0x3c57241b	0.013131167
38	0x3e0578a2	0.13034299
39	0xbd50bc44	-0.050960794
40	0x3daedc06	0.0853806
41	0x3e05e155	0.13074239
42	0xbd2227e8	-0.03958884
43	0xbdfc4da5	-0.12319497
44	0x3deb4d48	0.114893496
45	0x3a7973da	0.00095158594
46	0xbd9fa4f1	-0.07795132
47	0xbe00a17a	-0.12561598
48	0xbd8d577c	-0.06901452
49	0xbdf5afef	-0.11996447
50	0x3d65983a	0.056053378
51	0x3d4ce185	0.05001976
52	0x3d2c6e7c	0.042097554
53	0xbd988f3f	-0.07449197
54	0x3d8cc26f	0.06873023
55	0xbdf1ebc6	-0.11812548
56	0x3cf2a187	0.029618038
57	0xbae8bd07	-0.001775653
58	0x3c716958	0.014734589
59	0xbd93c2b1	-0.07214869
60	0xbda0685e	-0.078324065
61	0xbd344d87	-0.04401925
62	0x3d165c95	0.036709387
63	0x3d48200c	0.048858687
64	0xbd8c2499	-0.06842918
65	0x3d44b08a	0.048019923
66	0xbddce95b	-0.107866965
67	0xbd13e504	-0.03610708
68	0x3de618a7	0.11235171
69	0xbe006d7d	-0.12541766
70	0xbd17c0fb	-0.037049275
71	0x3dde3cdd	0.108514525
72	0xbc6252a3	-0.013813647
73	0x3dbc61fa	0.09198375
74	0xbdd3ee11	-0.10348142
75	0x3d9906cd	0.07472
76	0x3acad62c	0.0015475205
77	0x3d42b25a	0.04753337
78	0xbcdf79c2	-0.027279738
79	0x3dca695f	0.09883379
80	0x3e040e26	0.12896022
81	0x3bbff41f	0.005857959
82	0xbddc9d17	-0.1077215
83	0xbd1914f7	-0.03737351
84	0x3d4fb777	0.050712075
85	0x3dc1154f	0.094278924
86	0xbddbfcc4	-0.107415706
87	0xbbf5ef12	-0.007505306
88	0x3de8fd04	0.11376384
89	0xbda94c4f	-0.08266508
90	0xbd9fbb5f	-0.0779941
91	0x3df5af34	0.11996308
92	0x3dd9a591	0.106272824
93	0x3d62d238	0.05537626
94	0x3d516844	0.051124826
95	0xbcca7041	-0.02471173
96	0xbdb84e67	-0.08999329
97	0xbe019d2c	-0.12657613
98	0x3defa267	0.11700898
99	0x3dd05622	0.101726785
100	0x3d79004e	0.060791306
101	0x3d7ee0e1	0.06222618
102	0xbc22d036	-0.009937337
103	0xbd95f479	-0.0732202
104	0xbdc5c1df	-0.096561186
105	0xbdf02fc1	-0.11727858
106	0xbdee2ae8	-0.116292775
107	0x3dc30bcb	0.09523734
108	0xbdaf0f81	-0.08547879
109	0xb98d4f15	-0.00026952536
110	0x3d166336	0.03671571
111	0x3d6a6101	0.057221416
112	0x3db417e0	0.08793616
113	0xbaf05792	-0.0018336645
114	0x3bcce804	0.0062532444
115	0xbc530084	-0.012878541
116	0x3d239928	0.039940983
117	0xbbe494e1	-0.0069757556
118	0xbd615c5f	-0.055019733
119	0x3d7ba5a2	0.061437257
120	0x3d56eb95	0.052470762
121	0xbd78b7b9	-0.060722087
122	0x3dc973e5	0.09836558
123	0x3d5e5818	0.05428323
124	0x3c9a8c02	0.018865589
125	0x3d50e6fb	0.05100153
126	0xbdba4dc8	-0.09096867
127	0x3d9cb916	0.0765249
128	0xbdf620b7	-0.120179586
129	0xbda7660e	-0.08173762
130	0xbd82502a	-0.06362946
131	0xbdd0e61c	-0.1020014
132	0x3d85636c	0.06513104
133	0x3d1c39d3	0.038141083
134	0xbd01c7cc	-0.03168468
135	0x3d5888b4	0.052864745
136	0xbdd8816f	-0.105715625
137	0xbd1b57d0	-0.03792554
138	0x3d288159	0.04113898
139	0x3dc1884f	0.09449827
140	0x3d934957	0.07191723
141	0xbde64e03	-0.11245348
142	0xbdb27935	-0.08714525
143	0xbdb59ce5	-0.08867816
144	0x3dd64e20	0.1046412
145	0x3c96bb07	0.018399728
146	0xbdadb6ef	-0.084821574
147	0x3daf8a51	0.08571304
148	0xbd8cfbc8	-0.06883961
149	0xbdb60f73	-0.088896655
150	0x3c90b162	0.017662708
151	0x3d820b49	0.06349809
152	0xbc868888	-0.016422525
153	0xbdb2f00a	-0.0873719
154	0x3db8f984	0.09031966
155	0xbdf452c8	-0.11929852
156	0xbc5bd07e	-0.013416408
157	0x3cb1a533	0.021685218
158	0xbd8c102e	-0.068390235
159	0x3d3b1b97	0.04568061
160	0xbcee8793	-0.029117381
161	0xbd4befb4	-0.049789146
162	0x3caf99e0	0.021435678
163	0x3db2c1bd	0.08728359
164	0xbdedb463	-0.11606672
165	0x3c376d64	0.011195514
166	0x3d389e8e	0.045073085
167	0x3e04a216	0.12952456
168	0xbd9556f8	-0.072919786
169	0x3d1aafa9	0.03776518
170	0x3daf5f13	0.08563056
171	0xbe002fb6	-0.125182
172	0xbdc63505	-0.096780814
173	0x3d9d66dc	0.076856345
174	0xbcaf5ed2	-0.021407519
175	0x3de9dba7	0.114188485
176	0x3daba456	0.08380954
177	0xbdb3a1af	-0.08771073
178	0x3df24222	0.1182902
179	0xbd450b24	-0.048106328
180	0xbd85241b	-0.06501027
181	0xbd266d2a	-0.04063145
182	0x3d1da87b	0.038490754
183	0x3df0ce31	0.11758078
184	0x3de7309d	0.11288569
185	0xbdb1af36	-0.08675997
186	0x3c80f92b	0.015743813
187	0xbdf9974a	-0.12187059
188	0xbdb8e5d4	-0.09028211
189	0x3de4b680	0.111676216
190	0x3d8f1272	0.0698594
191	0xbddaf51a	-0.10691281
192	0xbdd94c34	-0.10610238
193	0xbd8af359	-0.06784696
194	0x3bd872ec	0.0066054966
195	0xbcad9e58	-0.021193668
196	0x3d8a1449	0.0674215
197	0xbdf8802f	-0.12133824
198	0x3c7c6db5	0.015407016
199	0x3aacbbc4	0.0013178517
200	0xbdc45288	-0.09586054
201	0x3dcaffab	0.09912046
202	0x3dbd3138	0.09237903
203	0x3d5cc6bd	0.05390047
204	0x3dfeab17	0.124349765
205	0x3db457a0	0.08805776
206	0x3cf82c32	0.030294511
207	0xbdeddcd0	-0.11614382
208	0xbd4c61ad	-0.04989784
209	0x3d5b074e	0.053473763
210	0x3c1d7c3e	0.009612141
211	0x3c6037e3	0.013685199
212	0x3ba16d06	0.0049263267
213	0x3d341c67	0.0439724
214	0x3ce8c2b3	0.028413152
215	0xbd94034c	-0.07227191
216	0x3d3bc5aa	0.045842804
217	0x3dcdce2d	0.100490905
218	0x3d0ae9b1	0.03391427
219	0x3c3aa428	0.011391677
220	0xbd9e2f1f	-0.077238314
221	0xbdc3e1ad	-0.095645286
222	0xbd6d864e	-0.05798941
223	0x3da94316	0.08264749
224	0xbd91d84e	-0.07121335
225	0xbcd54878	-0.026035532
226	0x3d48e093	0.049042296
227	0x3d1f7000	0.03892517
228	0x3daad365	0.083411016
229	0x3e02fc92	0.1279166
230	0x3c3f9594	0.011693377
231	0xbdf6b696	-0.12046544
232	0x3dc42995	0.09578244
233	0x3b5235e9	0.003207559
234	0xbdafe3ac	-0.08588347
235	0x3dec1bba	0.11528726
236	0xbdc17c04	-0.09447482
237	0xbd84aab9	-0.06477875
238	0x3de3a9a3	0.1111634
239	0x3b65b87a	0.0035052584
240	0x3ce6ef89	0.028190391
241	0xbd018bb0	-0.031627357
242	0x3cb68351	0.022279413
243	0xbcb76969	-0.02238913
244	0x3ce561e2	0.028000776
245	0xbd1a5652	-0.037679978
246	0x3d2e88ad	0.042610813
247	0xbcd250fe	-0.025673386
248	0xbdc14453	-0.0943686
249	0xbdb05b87	-0.086112075
250	0xbc7b054e	-0.015321089
251	0x3bce2f38	0.00629225
252	0x3dc37f77	0.09545796
253	0xbd805b89	-0.06267459
254	0xbd08daec	-0.033411905
255	0xbd18ee54	-0.037336662

weight f4 [256]
0	0x3f7f475d	0.99718267
1	0x3f80bcee	1.0057657
2	0x3f800a30	1.0003109
3	0x3f7ecc7a	0.99530756
4	0x3f801e60	1.000927
5	0x3f8036bb	1.0016702
6	0x3f80ff5a	1.0077927
7	0x3f80bd7c	1.0057826
8	0x3f7f8079	0.9980541
9	0x3f800187	1.0000466
10	0x3f7dcb62	0.9913846
11	0x3f7fbd22	0.9989797
12	0x3f7d81a1	0.99025923
13	0x3f8022fc	1.0010676
14	0x3f811966	1.0085876
15	0x3f80e272	1.0069106
16	0x3f80455c	1.0021167
17	0x3f802104	1.0010076
18	0x3f802a4f	1.0012912
19	0x3f7fd48d	0.999337
20	0x3f809012	1.0043967
21	0x3f805a42	1.0027544
22	0x3f7e115b	0.9924523
23	0x3f7e497d	0.99330884
24	0x3f7ce416	0.9878553
25	0x3f80b3e2	1.0054896
26	0x3f803cea	1.001859
27	0x3f7eae07	0.99484295
28	0x3f7fef09	0.99974114
29	0x3f7cf01b	0.9880387
30	0x3f81c7b4	1.013907
31	0x3f80642f	1.0030574
32	0x3f7dcd32	0.9914123
33	0x3f7f051f	0.9961719
34	0x3f7f6d02	0.9977571
35	0x3f7dd1c9	0.9914823
36	0x3f803fd5	1.001948
37	0x3f805da1	1.0028573
38	0x3f7dd835	0.9915803
39	0x3f7e1de5	0.99264365
40	0x3f7f62bf	0.9976005
41	0x3f803f95	1.0019404
42	0x3f8069b7	1.0032262
43	0x3f8053d2	1.002558
44	0x3f7d41ab	0.98928326
45	0x3f80e1b1	1.0068876
46	0x3f7d318c	0.9890373
47	0x3f8017b3	1.0007232
48	0x3f80848a	1.0040448
49	0x3f7d75d8	0.9900794
50	0x3f7d1f99	0.9887634
51	0x3f80204b	1.0009855
52	0x3f80c93a	1.006141
53	0x3f7f9177	0.99831337
54	0x3f7e162c	0.9925258
55	0x3f801ed5	1.0009409
56	0x3f802ef9	1.0014335
57	0x3f81067c	1.0080104
58	0x3f7d1281	0.9885636
59	0x3f801ece	1.0009401
60	0x3f7e6cc5	0.9938472
61	0x3f8059c8	1.0027399
62	0x3f80f486	1.0074623
63	0x3f807871	1.0036756
64	0x3f7d691c	0.9898851
65	0x3f7fffac	0.999995
66	0x3f804315	1.0020472
67	0x3f801a35	1.0007998
68	0x3f803657	1.0016583
69	0x3f7d81b6	0.9902605
70	0x3f7e39f4	0.9930718
71	0x3f7f00e1	0.99610716
72	0x3f808cdc	1.0042987
73	0x3f804027	1.0019578
74	0x3f80b33c	1.0054698
75	0x3f80add6	1.005305
76	0x3f7e4df6	0.9933771
77	0x3f81dfc8	1.0146418
78	0x3f809591	1.0045644
79	0x3f80d15e	1.0063894
80	0x3f800efa	1.000457
81	0x3f7cdae6	0.9877151
82	0x3f80664d	1.003122
83	0x3f806813	1.0031761
84	0x3f7f0c65	0.9962829
85	0x3f8064fa	1.0030816
86	0x3f80a143	1.0049213
87	0x3f8061da	1.0029862
88	0x3f80343f	1.0015944
89	0x3f7fd67f	0.9993667
90	0x3f7d458e	0.9893426
91	0x3f807ab3	1.0037445
92	0x3f7fb0a5	0.99878913
93	0x3f7fdcc9	0.99946266
94	0x3f80749e	1.0035589
95	0x3f8067a2	1.0031626
96	0x3f80104f	1.0004977
97	0x3f8027ed	1.0012184
98	0x3f801983	1.0007786
99	0x3f7fa3d5	0.9985936
100	0x3f80335b	1.0015672
101	0x3f80a191	1.0049306
102	0x3f7deb3f	0.9918708
103	0x3f7df18a	0.99196684
104	0x3f808868	1.0041628
105	0x3f7d1acb	0.9886901
106	0x3f7f57d1	0.9974337
107	0x3f82f3b4	1.0230622
108	0x3f7d11cc	0.9885528
109	0x3f7daa7f	0.9908828
110	0x3f8063fe	1.0030515
111	0x3f801cf4	1.0008836
112	0x3f7f7dc1	0.9980126
113	0x3f807a76	1.0037372
114	0x3f805506	1.0025947
115	0x3f7fc67e	0.9991225
116	0x3f804da7	1.0023698
117	0x3f7ff0aa	0.999766
118	0x3f7caaad	0.9869793
119	0x3f7e61b6	0.99367845
120	0x3f80c561	1.0060235
121	0x3f7d6596	0.9898313
122	0x3f7f73a9	0.9978586
123	0x3f8068a5	1.0031935
124	0x3f8060df	1.0029563
125	0x3f801f79	1.0009605
126	0x3f80279f	1.0012091
127	0x3f80d860	1.0066032
128	0x3f807ff4	1.0039048
129	0x3f80bed4	1.0058236
130	0x3f7e1f3b	0.99266404
131	0x3f7d2cf3	0.9889671
132	0x3f802b52	1.001322
133	0x3f7e10ce	0.9924439
134	0x3f807a47	1.0037316
135	0x3f7dcfe5	0.99145347
136	0x3f800b12	1.0003378
137	0x3f7de742	0.99180996
138	0x3f80717b	1.0034631
139	0x3f8034a6	1.0016067
140	0x3f802708	1.0011911
141	0x3f80c4a0	1.0060005
142	0x3f7f728c	0.9978416
143	0x3f80026f	1.0000743
144	0x3f7d22a2	0.9888097
145	0x3f80018c	1.0000472
146	0x3f7fece5	0.9997085
147	0x3f8027b6	1.0012119
148	0x3f805437	1.00257
149	0x3f7e7fa1	0.99413496
150	0x3f80508e	1.0024583
151	0x3f805257	1.0025128
152	0x3f809733	1.0046142
153	0x3f800b65	1.0003477
154	0x3f80ac55	1.0052592
155	0x3f80b8fb	1.0056452
156	0x3f805b48	1.0027857
157	0x3f7f53a9	0.9973703
158	0x3f80b962	1.0056574
159	0x3f8160d7	1.0107678
160	0x3f834209	1.0254527
161	0x3f7c902c	0.9865749
162	0x3f7e2957	0.9928183
163	0x3f7c6b53	0.98601264
164	0x3f7e6a24	0.9938071
165	0x3f7f6927	0.99769825
166	0x3f811afa	1.0086358
167	0x3f7cdde7	0.98776096
168	0x3f80399b	1.001758
169	0x3f7e55c7	0.99349636
170	0x3f807ec9	1.0038692
171	0x3f803fac	1.0019431
172	0x3f8089cb	1.0042051
173	0x3f7e57c3	0.99352664
174	0x3f7f339b	0.9968812
175	0x3f805830	1.0026913
176	0x3f80e5f5	1.0070177
177	0x3f806d3d	1.0033337
178	0x3f80d7ee	1.0065897
179	0x3f80a4f7	1.0050343
180	0x3f802c9d	1.0013615
181	0x3f7ec41c	0.9951799
182	0x3f8053fa	1.0025628
183	0x3f80279b	1.0012087
184	0x3f7fcd91	0.99923044
185	0x3f80b970	1.0056591
186	0x3f7eeac9	0.99577004
187	0x3f7f1548	0.9964185
188	0x3f810dec	1.0082374
189	0x3f804a98	1.0022764
190	0x3f7fca04	0.99917626
191	0x3f8146a5	1.0099684
192	0x3f7e2b6b	0.99285
193	0x3f80b303	1.005463
194	0x3f7d1386	0.98857915
195	0x3f7d9b53	0.9906513
196	0x3f809ec8	1.0048456
197	0x3f8017f1	1.0007306
198	0x3f800f04	1.0004582
199	0x3f7dc6d7	0.9913153
200	0x3f801e49	1.0009242
201	0x3f826885	1.0188147
202	0x3f7efcbb	0.99604386
203	0x3f809e04	1.0048223
204	0x3f80e464	1.0069699
205	0x3f80904b	1.0044035
206	0x3f7c4f95	0.9855893
207	0x3f7d89bb	0.99038285
208	0x3f82aa7c	1.0208278
209	0x3f81ad19	1.013095
210	0x3f812401	1.0089113
211	0x3f80516f	1.0024852
212	0x3f804c9f	1.0023383
213	0x3f80709a	1.0034363
214	0x3f8083b1	1.0040189
215	0x3f80ecb8	1.0072241
216	0x3f800bd3	1.0003608
217	0x3f7fba1f	0.99893373
218	0x3f807741	1.0036393
219	0x3f7e9425	0.994448
220	0x3f807c0d	1.0037857
221	0x3f7ec8df	0.99525255
222	0x3f7f3ea0	0.99704933
223	0x3f7e39d0	0.99306965
224	0x3f7e4800	0.99328613
225	0x3f7f3e7e	0.9970473
226	0x3f7b9408	0.9827275
227	0x3f7d8a83	0.9903948
228	0x3f7e2f72	0.99291146
229	0x3f815cc1	1.0106431
230	0x3f7ff875	0.9998849
231	0x3f7efc59	0.996038
232	0x3f811ba5	1.0086561
233	0x3f8037de	1.0017049
234	0x3f7e5d42	0.9936105
235	0x3f7f03ac	0.9961498
236	0x3f8050d4	1.0024667
237	0x3f802dba	1.0013955
238	0x3f807ed5	1.0038706
239	0x3f80a219	1.0049468
240	0x3f7e2200	0.9927063
241	0x3f7f32da	0.9968697
242	0x3f805853	1.0026954
243	0x3f7cb3fb	0.9871213
244	0x3f8062f3	1.0030197
245	0x3f803199	1.0015136
246	0x3f806c37	1.0033025
247	0x3f8166e5	1.0109526
248	0x3f8112f3	1.0083908
249	0x3f7e9484	0.99445367
250	0x3f80809a	1.0039246
251	0x3f809cbf	1.0047835
252	0x3f803c92	1.0018485
253	0x3f7eb26a	0.9949099
254	0x3f7d88d8	0.9903693
255	0x3f80f338	1.0074224

bias f4 [256]
0	0xba36b548	-0.0006969762
1	0x3ba03de7	0.004890192
2	0x37f2db51	2.8950775e-05
3	0x3bb6f20c	0.0055830535
4	0x3ba59fdc	0.005054457
5	0x3baa88c8	0.005204294
6	0x3b858356	0.0040744944
7	0x3b8cb4ff	0.0042940374
8	0x3b26850a	0.0025408887
9	0x3b9c4a77	0.004769619
10	0xbab47fa3	-0.0013770949
11	0x3b5523b8	0.003252251
12	0xbb3f53c9	-0.0029194227
13	0xba5ba6a0	-0.0008379016
14	0xbae184b0	-0.0017205682
15	0x3c2b0d32	0.010440158
16	0xbb6290d5	-0.003457119
17	0x3a87431e	0.0010319685
18	0xbbbf9b5d	-0.005847378
19	0xbb240e90	-0.0025033094
20	0xbb076c5a	-0.0020663948
21	0x37846443	1.5782314e-05
22	0xbb16a5cd	-0.0022987009
23	0xbb2060f8	-0.002447186
24	0xbad4a68b	-0.001622395
25	0x3b1cf917	0.002395218
26	0x3bb2453c	0.0054403823
27	0xbafc0d14	-0.0019229972
28	0xbb78d54d	-0.0037968934
29	0x3b309293	0.0026942834
30	0x3bb98094	0.0056610797
31	0xbb0cf054	-0.0021505551
32	0xb9925480	-0.00027910247
33	0xba63ff07	-0.0008697365
34	0xba3abc5a	-0.00071234035
35	0xbb81c2ac	-0.0039599743
36	0xbb1fc71a	-0.0024380148
37	0xba2b9dfe	-0.0006546675
38	0xbbcbd299	-0.0062201736
39	0xb917a12a	-0.0001446052
40	0xbb3a390b	-0.0028415348
41	0x3ac262a1	0.0014830419
42	0x3b732f66	0.003710711
43	0xba7238a8	-0.000924001
44	0xbac75365	-0.0015207349
45	0x3b9921e0	0.0046732277
46	0xbbdc2d62	-0.0067192772
47	0xbb09c946	-0.002102451
48	0x3bb7d44f	0.005610026
49	0x3b04d423	0.0020268045
50	0x3bbadbe5	0.005702483
51	0xba2112ff	-0.0006144493
52	0x3c2f54aa	0.010701338
53	0x3be10560	0.006867096
54	0xbbef6e33	-0.007306838
55	0xba9df989	-0.0012052517
56	0x3bad94e0	0.0052972883
57	0x3b8a4e5b	0.0042207665
58	0xbb867be3	-0.004104124
59	0x3ad2e436	0.0016089741
60	0xb96056fc	-0.00021394709
61	0x3c1b9d5f	0.009497969
62	0x3bf39787	0.007433835
63	0x3ba7245e	0.005100771
64	0xbb86bece	-0.004112101
65	0x3b8b30ba	0.004247752
66	0x39a745ea	0.00031904812
67	0x3bbac39e	0.005699589
68	0xba971630	-0.0011526998
69	0x3a0d886d	0.0005399052
70	0x3b30fd75	0.002700654
71	0xb9163d22	-0.00014327888
72	0xba4b7aa9	-0.0007762113
73	0xbbe4a600	-0.0069777966
74	0x3b89e43e	0.004208117
75	0x3becd72e	0.0072278
76	0xbb11694a	-0.0022188001
77	0x3ba16884	0.0049257893
78	0x3c3ef941	0.011656106
79	0x3bd8fff4	0.006622309
80	0xbb807d66	-0.0039211987
81	0xbb811e3e	-0.0039403727
82	0x3bf32efd	0.007421373
83	0x3ba81371	0.0051292707
84	0xbc06f042	-0.008235993
85	0x3adf8c44	0.0017055352
86	0x3b6c20ab	0.0036030214
87	0x3acce51c	0.0015632245
88	0x3aa69043	0.0012707788
89	0x3bcd82ba	0.0062716873
90	0xbacc6989	-0.0015595417
91	0x39378437	0.00017501494
92	0xbb66f334	-0.0035240175
93	0xbadfcc43	-0.0017074425
94	0x3add16ad	0.001686772
95	0x3bc18754	0.005906025
96	0x3a32085b	0.0006791406
97	0x3bf98b02	0.007615448
98	0x3a8cd13c	0.0010743509
99	0x3b0d38a7	0.002154866
100	0x3ad682be	0.0016365869
101	0xba0871df	-0.00052049564
102	0xbbea811a	-0.0071565034
103	0xbc13d0f1	-0.0090219835
104	0x3bfab06f	0.007650427
105	0x3b6d256e	0.003618564
106	0xba09d337	-0.0005257609
107	0x3b02f602	0.0019983058
108	0x3bbd9278	0.0057852827
109	0xbac99f01	-0.001538247
110	0x3bcf5117	0.0063268053
111	0xbb2bd848	-0.0026221443
112	0x39ae74c9	0.00033274878
113	0x3b83b826	0.004019755
114	0xbabcf855	-0.001441727
115	0xba88900c	-0.0010418906
116	0xbb39b315	-0.00283355
117	0xbac3aa3c	-0.0014928053
118	0xbb5fd0ad	-0.003415148
119	0xbb5e7ce5	-0.0033948955
120	0x3a883644	0.0010392149
121	0xbb548fe8	-0.0032434408
122	0xbb8d13e6	-0.0043053506
123	0x3ab6bf0b	0.0013942433
124	0x3b626f53	0.0034551218
125	0x3acebe81	0.0015773327
126	0xba72b57a	-0.00092586095
127	0x3b970591	0.004608818
128	0xb945ab53	-0.00018851207
129	0x3acc2909	0.0015576194
130	0x3a08db75	0.000522069
131	0xbae2c7d2	-0.0017301983
132	0x3b0d89c0	0.0021596998
133	0x3aa04985	0.0012228942
134	0x3b7b5fb4	0.0038356604
135	0xbb93bdbe	-0.004508703
136	0xbb0e9714	-0.002175753
137	0x3a7c5f42	0.00096272316
138	0x3bbe8b22	0.005814926
139	0x3bc68668	0.006058503
140	0x3ad63df0	0.0016345363
141	0x3bd0bfe8	0.0063705333
142	0x3a6259b0	0.00086345803
143	0xbb51351d	-0.0031922527
144	0xbbc1144e	-0.005892313
145	0xb9cf041f	-0.00039485187
146	0xba781e34	-0.000946495
147	0xbb304cc4	-0.0026901225
148	0x3b9d35d2	0.0047976756
149	0x3a6cba18	0.00090304157
150	0x3b80b3c6	0.0039276807
151	0x38ffcac4	0.000121971156
152	0x3b615211	0.003438119
153	0x3b1e480b	0.0024151828
154	0x3be4d518	0.0069834106
155	0xb8ece41f	-0.00011295848
156	0x3b8cc1dd	0.0042955712
157	0x3b2b5feb	0.00261497
158	0x3b2e6980	0.0026613176
159	0x3beb132e	0.0071739173
160	0x3b762dfc	0.003756403
161	0xbaa4df0a	-0.0012578678
162	0xba36a9e6	-0.0006968066
163	0xbbeed913	-0.007289061
164	0x3b6b45ca	0.0035899752
165	0xbb58546b	-0.0033009301
166	0x3bf01c3a	0.0073275836
167	0xbb05ebc0	-0.0020434707
168	0x3bbf2d0f	0.005834229
169	0x3b626d75	0.0034550105
170	0x3b7c8f7b	0.003853767
171	0x3ad88374	0.0016518668
172	0x3b738941	0.0037160667
173	0x3a64e373	0.00087314023
174	0x3b64100e	0.0034799608
175	0x3a6548ce	0.00087465055
176	0x3b986687	0.004650894
177	0x3a06c6e8	0.00051413337
178	0x3c1ddcbe	0.009635149
179	0x3c435318	0.011921667
180	0x3bc7b158	0.006094139
181	0xbc0ef804	-0.008726124
182	0xbb245ed2	-0.0025080931
183	0x3b371009	0.0027933142
184	0x3bad603c	0.005291013
185	0x3ba20f83	0.004945697
186	0x3ba7e880	0.0051241517
187	0x3b921d67	0.0044590714
188	0x3c585ad9	0.0132052535
189	0x3b88ecef	0.0041786353
190	0x3b5c8cb8	0.003365321
191	0x389bd565	7.430724e-05
192	0x3b0cc539	0.0021479859
193	0x3c2fb25f	0.010723679
194	0xba91c661	-0.0011121744
195	0x3b76965c	0.0037626242
196	0x3b90deef	0.004421107
197	0xba8bebea	-0.0010675166
198	0xbc189dad	-0.009314937
199	0xbb6b9996	-0.0035949699
200	0xbaddab18	-0.0016911952
201	0x3b822ddd	0.0039727525
202	0xba75b271	-0.0009372598
203	0x3aa93856	0.0012910466
204	0x3b5200a5	0.0032043841
205	0x3b2a4688	0.0025981981
206	0x399c5366	0.00029816775
207	0x3b1935e3	0.0023378066
208	0x3adbe676	0.0016777057
209	0x3b6ab39a	0.0035812617
210	0x3c048d92	0.008090394
211	0x3bcd9ed1	0.006275036
212	0xbbd3a942	-0.006459386
213	0x3b96eafd	0.0046056495
214	0x3bedb535	0.0072542676
215	0x3bf98c44	0.007615598
216	0x3a1c21f9	0.000595599
217	0x3b6379c3	0.0034710027
218	0x3b260bfd	0.0025336735
219	0xbb2573cd	-0.0025246025
220	0x3b81723f	0.003950387
221	0xbb033a92	-0.0020023924
222	0xbb6464c5	-0.0034850102
223	0xba60491c	-0.0008555816
224	0xbacbb1ea	-0.0015540693
225	0xbb075e39	-0.0020655526
226	0x3b0aa921	0.0021157938
227	0x3a9deee1	0.0012049341
228	0x3a91dba4	0.001112808
229	0x3bd1a920	0.006398335
230	0x3b8f86ef	0.004380099
231	0xbaa5ee4a	-0.0012659517
232	0x3bca65df	0.0061766948
233	0xbb0105fd	-0.0019687407
234	0xbaa1497d	-0.0012305226
235	0xba9c689d	-0.0011933033
236	0x3b61a589	0.0034430942
237	0xbb340e08	-0.0027474184
238	0x3b970482	0.0046086917
239	0x3b44da9e	0.0030037533
240	0xbbbad6db	-0.0057018823
241	0xba69bf0a	-0.00089167117
242	0x3ab4ab05	0.0013783878
243	0xbb927151	-0.004469075
244	0x3c02244d	0.007943225
245	0xbb0ccb7d	-0.0021483593
246	0x3b28c167	0.0025750042
247	0x3b133c9f	0.0022466553
248	0x3b3ddc00	0.0028970242
249	0x3a77fade	0.00094596844
250	0x3b56abee	0.0032756287
251	0x3b6a6a0f	0.0035768782
252	0xbb7ca804	-0.0038552294
253	0x3bab25c6	0.005223009
254	0xbc061ec6	-0.008186048
255	0x3bcf6432	0.006329083

running_mean f4 [256]
0	0xc1ba840e	-23.31448
1	0xc38f407b	-286.50375
2	0x439008d8	288.0691
3	0xc362d9a4	-226.85016
4	0x439010f3	288.13242
5	0xc326f67c	-166.96283
6	0x442192d2	646.29407
7	0x4362f146	226.94247
8	0x43ae600f	348.75046
9	0x43b6f810	365.938
10	0xc30566cf	-133.4016
11	0xc2674fb1	-57.827824
12	0xc3311934	-177.09845
13	0xc2d769c4	-107.70657
14	0x44072dd4	540.71606
15	0xc357e4db	-215.89397
16	0x42d1c7b2	104.89003
17	0x43ccbb21	409.46194
18	0xc3944be2	-296.59283
19	0x43ad6926	346.82147
20	0x42a9dde7	84.9334
21	0xc1c61d36	-24.764263
22	0x4363a4bc	227.6435
23	0xc3632887	-227.15831
24	0xc37069fe	-240.41403
25	0xc38748ad	-270.56778
26	0x437b4f8e	251.31076
27	0x43a9f91e	339.94623
28	0xc310abc8	-144.67102
29	0x412ea194	10.914448
30	0xc3d6182b	-428.1888
31	0xc3414d6d	-193.30244
32	0xc18aa7eb	-17.331991
33	0xc39c243a	-312.28302
34	0xc3bc1087	-376.12912
35	0xc26a9332	-58.643745
36	0xc210ce12	-36.20124
37	0xc33be8f5	-187.90999
38	0xc0c857e3	-6.2607284
39	0x439499ac	297.20056
40	0xc3cca5a1	-409.29398
41	0x425622c6	53.53396
42	0xc394a121	-297.25882
43	0x43ab6851	342.81497
44	0xc3689994	-232.59991
45	0x428d6926	70.70537
46	0xc2e11772	-112.54579
47	0x4289b957	68.86199
48	0x43b3eb51	359.8384
49	0xc381015c	-258.01062
50	0xc3717a8d	-241.47871
51	0x42179120	37.891724
52	0xc3602106	-224.129
53	0x42150d5e	37.263054
54	0x4354b7c7	212.71788
55	0xc37c53f2	-252.32791
56	0x427e396d	63.55608
57	0x4269f49c	58.488876
58	0x42d0668c	104.20029
59	0x43c32ed6	390.3659
60	0x42459474	49.394974
61	0x42a1b322	80.84987
62	0xc2cafd4f	-101.49474
63	0x436951fb	233.32024
64	0xc365c617	-229.77379
65	0xc19510ad	-18.633142
66	0x420d99a4	35.40004
67	0xc1e40282	-28.501225
68	0x438755b9	270.6697
69	0xc20e617f	-35.59521
70	0xc341d689	-193.83803
71	0x43183211	152.19557
72	0x4288a4ab	68.32162
73	0x404e22c4	3.220872
74	0xc34b892b	-203.53581
75	0x4389baad	275.4584
76	0x4360cc0a	224.79703
77	0x43a8fad5	337.95963
78	0x411dcc4e	9.862379
79	0xc2f0f563	-120.47927
80	0xc260cb69	-56.198643
81	0x419592ee	18.696743
82	0x438c1032	280.12653
83	0x431ee772	158.90408
84	0xc14bfba3	-12.748935
85	0xc2878a28	-67.76984
86	0x42f0dbf7	120.42962
87	0x4300030a	128.01187
88	0x42c4e8e8	98.454895
89	0x4350b70a	208.715
90	0xc35f420a	-223.25797
91	0x43b3bc6a	359.472
92	0x43af7843	350.93954
93	0x42778b2e	61.885918
94	0x40ab56c8	5.3543434
95	0x43568b05	214.54305
96	0xc21970b4	-38.36006
97	0x430d4089	141.25209
98	0xc2fe8c3d	-127.2739
99	0x431f7f2e	159.4968
100	0x41ac050c	21.502464
101	0xc38941b3	-274.51328
102	0xc30e3b24	-142.23102
103	0x43cc8c0e	409.09418
104	0xc3038ab1	-131.54176
105	0x430e1145	142.06746
106	0xc3baa248	-373.26782
107	0x4412b259	586.7867
108	0xc3667899	-230.47108
109	0x42d74635	107.63712
110	0xc34153bf	-193.32713
111	0x420f867c	35.881332
112	0xc39a9762	-309.18268
113	0x42ab8285	85.75492
114	0x43dec259	445.51834
115	0xc242ea99	-48.7291
116	0x4336e92f	182.91087
117	0x43cf869d	415.05167
118	0x412f745a	10.965906
119	0xc1da33b2	-27.275242
120	0xc398ebe5	-305.84293
121	0xc33f573e	-191.34079
122	0x43288508	168.51965
123	0x4326f3e7	166.95274
124	0x43299782	169.59183
125	0x43331196	179.0687
126	0xc38f2c51	-286.34622
127	0x43b85ca4	368.72375
128	0xc3767f93	-246.49834
129	0xc3a944e7	-338.5383
130	0x43a4415d	328.51065
131	0xc2f72454	-123.57095
132	0x43568566	214.52109
133	0xc3b283ff	-357.03122
134	0xc377fb3f	-247.98143
135	0xc2c69b41	-99.30323
136	0x438ab973	277.44882
137	0x43960d66	300.10468
138	0x42426c0f	48.605526
139	0x43798973	249.53691
140	0xc307d513	-135.83232
141	0x42f45305	122.16215
142	0x435ed2dc	222.82367
143	0xc388a491	-273.28568
144	0x43a99ec4	339.24036
145	0x4377b42a	247.70377
146	0xc3a00da0	-320.10645
147	0xc3192d92	-153.17801
148	0x432c255e	172.14597
149	0x432a7358	170.45056
150	0x42c6d987	99.42486
151	0x438174a5	258.9113
152	0xc36fcf83	-239.8106
153	0x43354cf4	181.3006
154	0x43477350	199.45044
155	0xc3afe8b7	-351.81808
156	0x42ae7bd3	87.241844
157	0xc2d1de75	-104.93449
158	0xc39b37de	-310.43646
159	0xc39cb270	-313.39404
160	0x43dce6ba	441.80255
161	0x423cc16d	47.188892
162	0xc333cf0c	-179.80878
163	0xc3872e32	-270.3609
164	0xc380d2b2	-257.64606
165	0xc344db9b	-196.85783
166	0xc3c60456	-396.03387
167	0xc38d577c	-282.68347
168	0xc18bea47	-17.489393
169	0x42bd68a7	94.7044
170	0x433715f2	183.08572
171	0xc3930fca	-294.12335
172	0x430403e1	132.01515
173	0x438098fd	257.19522
174	0xc2502ff2	-52.04682
175	0xc328c2ac	-168.76044
176	0x4383e0d8	263.7566
177	0x430b4aa0	139.2915
178	0xc2d16c6b	-104.711754
179	0xc34b43c7	-203.26476
180	0x41abda50	21.481598
181	0xc2915ea7	-72.68487
182	0xc3abeffe	-343.87494
183	0xc2f8522f	-124.160515
184	0xc2db149d	-109.54026
185	0xc3bd475c	-378.5575
186	0x43725f45	242.37215
187	0xc3517a04	-209.47662
188	0xc2e9d8d6	-116.92351
189	0xc2ffb758	-127.85809
190	0x42ff14fd	127.54099
191	0x43c454e3	392.66318
192	0x3f9759ab	1.182424
193	0xc3aaa02c	-341.25134
194	0xc2ae1ed3	-87.0602
195	0x41b7fa8a	22.997334
196	0xc36309eb	-227.03874
197	0xc30e1d94	-142.11554
198	0x43c114f5	386.16373
199	0x433a411f	186.25438
200	0x438310cf	262.13132
201	0x43c0e20b	385.76596
202	0x431ecb0f	158.7932
203	0xc38c1a41	-280.2051
204	0xc3b2c362	-357.52643
205	0xc37dd8f3	-253.84746
206	0xc2f61a52	-123.05141
207	0x42a144bb	80.63424
208	0x440b13fe	556.3124
209	0x4407eb53	543.67694
210	0x42616952	56.35285
211	0x41fbc8a7	31.472975
212	0xc2d41880	-106.04785
213	0xc3b841a5	-368.51285
214	0x430a1442	138.07913
215	0x4282b2df	65.34936
216	0x42b86967	92.205864
217	0xc33b6f36	-187.43442
218	0x43d506a9	426.05203
219	0x43a3b952	327.4478
220	0xc3be52e0	-380.64746
221	0xc350c00d	-208.7502
222	0x430be25b	139.8842
223	0x43173696	151.21323
224	0x42ecfe1e	118.49632
225	0xc29b1d5a	-77.55733
226	0xc36cc1d1	-236.7571
227	0xc35d7988	-221.47473
228	0x426c1d7f	59.028805
229	0xc35d4a42	-221.29007
230	0x437d4d87	253.30284
231	0x432eeccc	174.92499
232	0x432e781a	174.46915
233	0x431c4874	156.28302
234	0xc2b063c4	-88.194855
235	0xc0f2f8b3	-7.592859
236	0x42f3549c	121.66525
237	0xc3835c85	-262.7228
238	0xc378c22d	-248.7585
239	0x42b7d3fe	91.91405
240	0xc36a2efb	-234.18352
241	0xc38bf285	-279.89468
242	0x43baa230	373.2671
243	0x420637e6	33.55459
244	0xc2ab26ef	-85.57604
245	0x42447365	49.11269
246	0x434057fd	192.3437
247	0xc2381f7d	-46.03075
248	0xc37a87b1	-250.53004
249	0x438b16cc	278.1781
250	0xc330feec	-176.99579
251	0xc2e9d26e	-116.910995
252	0x43a767e5	334.81168
253	0xc236c3a3	-45.69105
254	0xc2cea6bc	-103.32565
255	0x43d3eb17	423.83664

running_var f4 [256]
0	0x42a4c8d8	82.39227
1	0x4113d993	9.240619
2	0x40f0b9e7	7.522693
3	0x41806139	16.047472
4	0x4302b432	130.70389
5	0x42011f8e	32.280815
6	0x429c46e1	78.138435
7	0x42c260f1	97.18934
8	0x4245e19a	49.470314
9	0x41d44706	26.53468
10	0x428fa53c	71.82272
11	0x40e0a5ce	7.02024
12	0x42c2fde2	97.495865
13	0x425931d4	54.29866
14	0x41809182	16.071049
15	0x42c44271	98.12977
16	0x41a002e3	20.00141
17	0x43b1421a	354.51642
18	0x438a434b	276.52573
19	0x418f1566	17.885448
20	0x42555c74	53.340286
21	0x4300a307	128.63683
22	0x42e10273	112.50478
23	0x43381559	184.08339
24	0x41d47f09	26.562029
25	0x40ebc6db	7.3680243
26	0x42a2b6b1	81.35682
27	0x43835d6e	262.72992
28	0x42ec6bef	118.21081
29	0x415c74f0	13.778549
30	0x414c4ae1	12.768281
31	0x43a4e911	329.82083
32	0x40e7b640	7.2409973
33	0x4162a783	14.165896
34	0x4225f1b0	41.486023
35	0x42f7d235	123.91056
36	0x428cedb3	70.46426
37	0x42d1b247	104.8482
38	0x42528cfd	52.637684
39	0x435b39d9	219.22597
40	0x4428b455	674.8177
41	0x420606b9	33.506565
42	0x41a9e69a	21.237598
43	0x4181a4be	16.20544
44	0x429de4e1	78.94703
45	0x41325570	11.145859
46	0x42f7832c	123.756195
47	0x42f1c91e	120.89281
48	0x42c783a1	99.75709
49	0x42829b9c	65.303925
50	0x42ab7570	85.72937
51	0x4294db34	74.42813
52	0x432713d6	167.07748
53	0x43621d84	226.1153
54	0x423335a8	44.8024
55	0x42c5c8ed	98.89243
56	0x42abaf00	85.8418
57	0x41e6957f	28.822996
58	0x42a2b584	81.35452
59	0x4219b0ad	38.422535
60	0x416453a7	14.270423
61	0x43071b46	135.10654
62	0x411b4fef	9.707015
63	0x426b8ec7	58.88943
64	0x42d90a3c	108.51999
65	0x421676df	37.616085
66	0x41f503c8	30.626846
67	0x4209308a	34.2974
68	0x4387eeaa	271.86456
69	0x42b21702	89.04494
70	0x432d3181	173.19337
71	0x42036cc1	32.856205
72	0x42b94690	92.63782
73	0x4136e9ac	11.432049
74	0x419d7f41	19.687136
75	0x42910032	72.50038
76	0x41a3b549	20.463518
77	0x4196e312	18.860874
78	0x41b19e65	22.202341
79	0x42925bb9	73.179146
80	0x42caa56e	101.323105
81	0x423c5581	47.0835
82	0x433da498	189.64294
83	0x42387970	46.11859
84	0x4124d540	10.302063
85	0x429f39d3	79.61294
86	0x40875ffa	4.230466
87	0x417c1752	15.755693
88	0x424e2358	51.534515
89	0x4221de4f	40.4671
90	0x42ffd5aa	127.91731
91	0x40b61665	5.6902337
92	0x428d8eb0	70.77869
93	0x40e9d8ef	7.307731
94	0x41aa070c	21.25344
95	0x4308a5eb	136.64812
96	0x42a3fbdf	81.991936
97	0x42def7eb	111.484215
98	0x41d2aa5c	26.333183
99	0x42f5b4e6	122.85332
100	0x42a1a083	80.8135
101	0x42f27f3e	121.24852
102	0x4294ea16	74.4572
103	0x445e0922	888.1427
104	0x4309a374	137.63849
105	0x4289a35f	68.819084
106	0x418695e9	16.823198
107	0x418817ac	17.011559
108	0x43016b52	129.41922
109	0x420e1f3b	35.5305
110	0x4282602b	65.18783
111	0x42fed4c9	127.415596
112	0x40ff7791	7.9833455
113	0x42d6d03e	107.40672
114	0x42843200	66.09766
115	0x42d50876	106.516525
116	0x41fe64c6	31.799206
117	0x418b2b4d	17.396143
118	0x42cafad1	101.489876
119	0x41d01c72	26.01389
120	0x41f9065d	31.128107
121	0x42fc812a	126.25227
122	0x42b97f40	92.748535
123	0x42b0f017	88.468925
124	0x41bf58ce	23.918362
125	0x42a373ba	81.72603
126	0x42551962	53.274788
127	0x43415f9c	193.37347
128	0x412cddb9	10.8041315
129	0x41339be8	11.225563
130	0x421adce7	38.715725
131	0x40b92e3b	5.7868934
132	0x42d3c670	105.88757
133	0x42a22392	81.06947
134	0x4219c360	38.440796
135	0x42b16c3d	88.7114
136	0x425f1bb5	55.777058
137	0x42bec5ec	95.386566
138	0x42f2b91f	121.361565
139	0x428605ca	67.01131
140	0x414f991f	12.974883
141	0x419b86c1	19.440798
142	0x4323c449	163.76674
143	0x43953167	298.38596
144	0x420c4ac5	35.073017
145	0x40c96e66	6.2947264
146	0x410100a3	8.062655
147	0x42524ea5	52.5768
148	0x428b4aba	69.64595
149	0x42d0480e	104.14073
150	0x41ec8bbb	29.568228
151	0x422ca408	43.160187
152	0x4206cffd	33.703114
153	0x406917aa	3.6420693
154	0x4258ea47	54.228786
155	0x41d6d27c	26.852776
156	0x422e8456	43.629234
157	0x4307a1d9	135.63222
158	0x414e9dd7	12.913535
159	0x4157e7ae	13.494062
160	0x41ab0b91	21.380648
161	0x42112fd4	36.296707
162	0x42ddd538	110.91644
163	0x4246df04	49.71779
164	0x4237674b	45.850872
165	0x41c9a02c	25.203209
166	0x42268b7b	41.63621
167	0x42b7ef48	91.96735
168	0x41f676b2	30.807957
169	0x42ab9adc	85.80246
170	0x426e4fca	59.57792
171	0x429381f6	73.75383
172	0x42c57624	98.73074
173	0x42fc3b1e	126.11546
174	0x4302312a	130.19205
175	0x40d1f6db	6.5613837
176	0x4272891e	60.633904
177	0x42126176	36.595177
178	0x41393bb8	11.57708
179	0x41d59124	26.69587
180	0x42a6f12b	83.47103
181	0x42569d10	53.65338
182	0x413e2e69	11.886331
183	0x415f262a	13.946817
184	0x425c2a8d	55.041553
185	0x4124da6c	10.303326
186	0x40f4e5e7	7.6530643
187	0x416b9a78	14.725212
188	0x416152bb	14.082698
189	0x42b9bf27	92.873344
190	0x41649203	14.285647
191	0x41316a1a	11.088404
192	0x42b27d27	89.24444
193	0x42ca9cdd	101.30637
194	0x440b971a	558.36096
195	0x42edc2c1	118.88038
196	0x42d4441a	106.13301
197	0x418aa4fb	17.330557
198	0x43dec13b	445.5096
199	0x423e7231	47.611515
200	0x4312ba50	146.72778
201	0x44278053	670.00507
202	0x42d33b8a	105.61629
203	0x41d06f3d	26.054316
204	0x4126b854	10.420002
205	0x42dc14eb	110.040855
206	0x42a0d21d	80.41038
207	0x40feec57	7.96635
208	0x43c89db0	401.23193
209	0x418cd266	17.602734
210	0x41632e3d	14.198789
211	0x420fd13f	35.95434
212	0x422d7f8f	43.37457
213	0x42e8cdcb	116.40194
214	0x4281f906	64.986374
215	0x41862b81	16.771242
216	0x41425144	12.14484
217	0x42102b9c	36.042587
218	0x4115276e	9.322126
219	0x413cd3a9	11.801675
220	0x42785bd1	62.089664
221	0x4168cb2f	14.549605
222	0x41bb1008	23.382828
223	0x42fe3d79	127.12006
224	0x42d8ebe0	108.46069
225	0x431bee10	155.92993
226	0x42e2909d	113.28245
227	0x419866c6	19.050182
228	0x412f9925	10.974889
229	0x40b84e6f	5.7595744
230	0x420dfec0	35.49878
231	0x42fbbed4	125.87271
232	0x4200e11d	32.219837
233	0x419e7d71	19.81125
234	0x40ed100d	7.4082093
235	0x42a6dba6	83.429
236	0x430e538f	142.3264
237	0x43209458	160.57947
238	0x41ba7cdc	23.310966
239	0x42564d8f	53.57574
240	0x40afbcdd	5.4918046
241	0x418ef31e	17.86871
242	0x42a437fe	82.10936
243	0x4281dc23	64.929955
244	0x42c943d4	100.63248
245	0x4245f6f1	49.491154
246	0x428eb3d2	71.35121
247	0x41bca202	23.579105
248	0x41a440de	20.531673
249	0x4261fda9	56.497715
250	0x41b06e98	22.054
251	0x42a27089	81.219795
252	0x420ee28e	35.721245
253	0x40b1df26	5.55849
254	0x42764d42	61.575447
255	0x4213249b	36.785748

weight f4 [256, 256]
0	0xbca9c76e	-0.020724978
1	0xbd59ee51	-0.05320579
2	0x3d7a745f	0.061146136
3	0xbc9b3c49	-0.018949645
4	0xbc7a69de	-0.01528403
5	0x3d69a860	0.05704534
6	0x3d18f268	0.03734055
7	0xbd54a304	-0.051913276
8	0xbc761dee	-0.015021784
9	0x3ab4b06f	0.0013785491
10	0xbc9a21ba	-0.01881491
11	0xb9a71630	-0.00031869253
12	0x3d288d33	0.041150283
13	0x3d465385	0.048419494
14	0xbc5bc16b	-0.013412814
15	0xbbfcb333	-0.007711792
16	0xbd4c9fb2	-0.049956985
17	0xbc8e26cc	-0.017352484
18	0xbd277247	-0.040880468
19	0x3d269980	0.040673733
20	0x3d36bb32	0.044612117
21	0x3d161767	0.036643412
22	0x3c92e32d	0.017930591
23	0x3d7cf260	0.061754584
24	0xbd2b7aae	-0.041865043
25	0x3cd0e764	0.02550096
26	0x3a437b5e	0.0007457043
27	0xbd0458f8	-0.03231141
28	0xbd6462da	-0.055758335
29	0x3c35c92a	0.0110953245
30	0xbcb18a37	-0.021672351
31	0xbd6d93d3	-0.058002304
32	0x3d562c26	0.052288197
33	0xbc556a5d	-0.013025847
34	0x3d295ae7	0.041346457
35	0xbd4d0d03	-0.050061237
36	0xbcc01be4	-0.0234508
37	0xbd5f7232	-0.054552265
38	0x3d416165	0.047212023
39	0xbd30b662	-0.043142684
40	0x3d18d150	0.03730899
41	0x3d44c73d	0.04804157
42	0xbc2fdbe2	-0.0107335765
43	0x3c3bbf47	0.011459178
44	0xbd66aad9	-0.056315277
45	0xbd36e30f	-0.044650134
46	0x3d2efe41	0.042722944
47	0xbcd9c66c	-0.026583873
48	0xbce1015e	-0.027466472
49	0xbd6b8ff5	-0.057510335
50	0x3c98c426	0.018648218
51	0xbd3b2ac4	-0.04569508
52	0x3d3d3aac	0.046198532
53	0xbcbef237	-0.023308856
54	0xbc6e14ed	-0.014531356
55	0xbcf3a639	-0.029742347
56	0x3cb81792	0.022472177
57	0x39ddaef7	0.00042282764
58	0xbd4362a7	-0.047701504
59	0x3d5a5d4e	0.05331164
60	0x3d0ec24e	0.034853272
61	0x3d3ea5f9	0.046545003
62	0x3d213d63	0.039365184
63	0x3b2700dd	0.0025482692
64	0xbd287ab1	-0.041132633
65	0xbd081f87	-0.03323319
66	0xbcd78ee7	-0.026313258
67	0x3d1737cd	0.03691845
68	0x39b9143b	0.00035301023
69	0xbd38da5f	-0.04513013
70	0x3cadb68d	0.021205211
71	0x3bcc6085	0.006237092
72	0xbcf1e8fc	-0.02953004
73	0xbc609b5e	-0.013708917
74	0xbc0e2444	-0.008675639
75	0x3d4e8bf2	0.05042643
76	0xbb9beaec	-0.0047582295
77	0xbc9cd600	-0.019145012
78	0x3c6bddf0	0.014396176
79	0x3d568052	0.05236847
80	0xbd32fb58	-0.04369673
81	0xbd714ddd	-0.058912147
82	0x3d530dc4	0.0515268
83	0xbd24935f	-0.040179607
84	0xbd0036e4	-0.031302348
85	0xbc5613b5	-0.013066222
86	0x3cc9eee9	0.024650054
87	0x3be29fe9	0.0069160354
88	0xbd832df4	-0.06405249
89	0xbc7c574f	-0.015401675
90	0x3c9e411c	0.019318156
91	0xbd813869	-0.063095875
92	0xbd5c4b1a	-0.05378256
93	0x3b68db21	0.0035531002
94	0xbd61d0d4	-0.055130795
95	0xbcdaffe1	-0.02673334
96	0xbce944c2	-0.02847517
97	0x3cac178d	0.021007324
98	0x3d16a98b	0.036782783
99	0xbd8437f9	-0.064559884
100	0x3cc991ab	0.024605593
101	0xbd143b82	-0.036189564
102	0x3bfafa54	0.007659236
103	0x3cfa401c	0.030548148
104	0xbcd1d7fc	-0.025615685
105	0xbd2d5af4	-0.042323068
106	0x3d43cae7	0.047800925
107	0xbcfcc3c6	-0.03085507
108	0x3cd8a59c	0.026446156
109	0xbcb459cb	-0.022015473
110	0x3d435a1a	0.04769335
111	0xbd51bd2c	-0.0512058
112	0x3c8b0a6f	0.016972749
113	0xbd604611	-0.05475432
114	0xbc832541	-0.016008975
115	0x3d2596f7	0.040427174
116	0x3d362114	0.04446514
117	0x3d5a828b	0.05334715
118	0x3d52d982	0.051476963
119	0x3d823f64	0.06359747
120	0x3d74575c	0.059653625
121	0x3bb5e5c8	0.0055510737
122	0x3c224fe1	0.00990674
123	0xbc374528	-0.011185922
124	0x3d0d1cf9	0.03445146
125	0x3d26e1d2	0.040742703
126	0xbd1a4db4	-0.03767176
127	0xbd77fd0d	-0.060544062
128	0xbd076ead	-0.033064533
129	0x3b0373a6	0.0020057946
130	0x3d54a0a4	0.05191101
131	0xbc84710c	-0.016167186
132	0x3cebd52a	0.028788168
133	0x3bc7feab	0.006103357
134	0x3d68bb2c	0.056819126
135	0xbd2d9532	-0.042378612
136	0x3d4fcc1c	0.050731763
137	0x3c9192f3	0.017770266
138	0xbc7a387b	-0.015272255
139	0x3d3767bb	0.04477666
140	0xbd6e084a	-0.058113374
141	0xbc473c5b	-0.012160386
142	0x3d088a65	0.03333511
143	0x3c6e5c52	0.014548378
144	0x3bf6820a	0.007522826
145	0xbc8ef8b1	-0.01745257
146	0xbd421660	-0.04738462
147	0xbd04737e	-0.032336704
148	0x3cde84e3	0.027162975
149	0xbc144241	-0.009048999
150	0xbd3f8f98	-0.0467678
151	0xbd000735	-0.031256873
152	0xbd2a79cb	-0.041620057
153	0xbd8008ea	-0.062517
154	0x3c1c9d3c	0.009558972
155	0x3d1e15ba	0.03859494
156	0xbce83c44	-0.02834905
157	0xbce048e4	-0.027378507
158	0xbd684e87	-0.056715515
159	0x3c4fe0d2	0.012687879
160	0x3cd439b2	0.025906418
161	0xbd29fe65	-0.041502375
162	0x3c7b047f	0.015320896
163	0x3d24fce9	0.040280256
164	0x3bc12e38	0.0058954023
165	0xbd35a671	-0.044348184
166	0xbcdb2775	-0.026752213
167	0x3d506b44	0.050883546
168	0x3c860d17	0.016363664
169	0x3c8ea115	0.017410794
170	0xbc3836bb	-0.0112435175
171	0xbd4fe588	-0.050756007
172	0xbcaf8d49	-0.021429675
173	0x3cbf79b0	0.023373455
174	0x3d7db5fd	0.061941136
175	0xbd25d6b6	-0.040487967
176	0x3cf533f1	0.029931994
177	0xbd2937cb	-0.041312974
178	0xbca8345a	-0.020532776
179	0x3d5d83f2	0.05408091
180	0xbd3dae98	-0.046309084
181	0xbd55c22b	-0.052187126
182	0xbd68ee78	-0.056868047
183	0x3d325235	0.04353543
184	0x3d4a6e99	0.04942188
185	0xbcec167d	-0.028819317
186	0xbd311606	-0.043233894
187	0x3bcdb5ec	0.0062777903
188	0xbcf981f3	-0.030457472
189	0xbc2525a7	-0.010079778
190	0xbc97b8a1	-0.018520655
191	0x3d2c9df1	0.042142812
192	0xbd457406	-0.04820635
193	0xbd694aee	-0.056956224
194	0x3cc9281c	0.024555258
195	0x3c80c504	0.015718944
196	0xbd21359b	-0.039357763
197	0x3bf0d5b4	0.007349694
198	0x3d41f764	0.04735507
199	0xbd1a7113	-0.037705492
200	0x3d3596d2	0.044333287
201	0xbc1db77d	-0.009626267
202	0x3cebdd39	0.02879201
203	0xbd815d8b	-0.0631667
204	0x3d4fc39e	0.050723664
205	0x3d1ddf12	0.038542815
206	0xbc0912cb	-0.008366297
207	0x3d05648e	0.0325666
208	0xbceec0f4	-0.029144742
209	0x3d7d907c	0.06190537
210	0x3c9bce86	0.019019376
211	0x3bea69d6	0.00715373
212	0xbd338f0a	-0.043837585
213	0x3c8aa68e	0.016925123
214	0x3bc43c2d	0.005988619
215	0xbcc41ab0	-0.023938507
216	0x3d08444a	0.03326825
217	0x3d436b73	0.047709893
218	0xbd1b1d4f	-0.037869748
219	0x3d68e1ae	0.05685585
220	0xbb9d0f4b	-0.004793083
221	0xbc8b4539	-0.017000781
222	0xbd64519a	-0.055741884
223	0xbd33a2b6	-0.043856345
224	0xbd689403	-0.05678178
225	0x3d0e93e9	0.034809027
226	0xbd0ae76c	-0.033912107
227	0x3d192804	0.037391677
228	0xbd2a25da	-0.041540004
229	0xbd2e1929	-0.042504463
230	0xbc83fd74	-0.016112067
231	0xbc527471	-0.012845145
232	0xbd816b54	-0.06319299
233	0x3d117998	0.03551635
234	0x3d188f98	0.037246317
235	0x3d376057	0.04476961
236	0xbd7412d1	-0.059588257
237	0xbd828b25	-0.06374196
238	0xbc4389b2	-0.011934685
239	0x3d115110	0.035477698
240	0xbcd1d353	-0.025613463
241	0xbcee315b	-0.029076269
242	0xbd6308e7	-0.05542841
243	0x3cc7f758	0.024409935
244	0x3c90b1e6	0.017662954
245	0xbd0d02d9	-0.034426544
246	0xbc6e6395	-0.014550109
247	0x3d5b3a67	0.053522494
248	0x3d4aec84	0.049541965
249	0x3cef9ab6	0.029248577
250	0xbbae8d6d	-0.005326918
251	0xbd662510	-0.05618769
252	0xbd17b69c	-0.037039384
253	0xbd6da50a	-0.05801872
254	0x3c514aea	0.012774209
255	0xbd65cfed	-0.056106497
