Predict/storage/MLP_256_200_SGD_11/trained_240.pt (torch, 339061 bytes, 13 tensors)

weight f4 [256, 58]
-0.05854526 0.080467686 -0.06251356 0.08209503 -0.051656336 0.10859896 0.050133154 -0.065546535
0.07890435 -0.032560226 -0.028608268 0.10996229 -0.05025896 0.12104386 0.052433487 -0.033013046
-0.10678821 -0.11024237 -0.0037220018 -0.078167416 -0.10334654 -0.115870714 0.043085065 -0.08658914
0.10334539 -0.01349135 0.05429485 -0.050408587 0.12505572 0.042430956 0.023295837 -0.04034327
0.12892193 -0.06547148 -0.111274354 -0.1330896 -0.11493111 -0.07955447 0.093967564 -0.10342452
-0.017886782 0.12689002 -0.038362306 0.015015809 0.06855299 -0.08915298 -0.055183295 0.021651562
-0.07353463 0.0817143 -0.10124591 -0.06440316 -0.1064312 0.065187685 -0.0037691882 -0.11872121
0.08746111 0.089069664 -0.07822991 0.006578641 0.006737932 0.013068806 0.019681826 -0.12467606
0.069934264 -0.12068934 -0.07496349 0.07017606 0.112672724 0.080826946 0.123931445 -0.052338492
-0.037460607 0.029787624 -0.11993147 -0.11746658 0.093094796 -0.11014682 -0.12770596 -0.053560063
-0.05022149 -0.06469427 0.099084936 0.10947943 -0.03613444 0.027497882 -0.03571178 0.023167303
-0.09003509 0.028290795 -0.0054460373 -0.03917871 0.028777238 0.023373479 -0.090026975 -0.12456616
0.110537894 -0.01740055 0.060727406 0.003163416 -0.04793365 0.03156146 0.00712998 -0.28500557
0.02767524 0.101024866 0.040752836 0.12788059 0.095688365 -0.10821473 -0.0067943973 0.090990186
-0.0738689 0.06257017 0.01296491 0.0610801 0.013378089 -0.08707892 -0.023000358 -0.075873464
0.08451993 0.0063870274 -0.0521628 0.04680355 -0.1253252 -0.09962007 0.02598536 -0.052775923
-0.08372846 0.029016556 0.0024782524 -0.0703698 -0.09893252 0.116147675 0.031926207 -0.13217334
0.07656143 -0.07228915 0.05559032 0.07935549 -0.091589265 -0.0004825968 -0.015233019 -0.11978695
0.038868375 -0.013915037 -0.017244855 -0.09388826 0.029139213 0.104224525 0.023072245 -0.046425782
-0.04398532 0.011193702 -0.10741552 0.06766595 -0.03431827 0.098915584 -0.04122547 -0.13035089
0.039859653 0.040628057 0.20953655 -0.089646816 -0.10096183 -0.1144425 0.060005937 -0.12330758
-0.17087463 -0.17259017 -0.054261137 -0.10020359 -0.065538876 -0.16103806 -0.13593046 -0.028182987
-0.080899864 0.05966933 0.09358304 -0.05383819 0.055204485 0.02054838 0.0243549 0.0577298
-0.06471329 -0.0642667 0.12428809 -0.12895645 0.06343212 0.030012654 0.025110694 -0.11270699
-0.08648679 0.075760424 -0.047285575 -0.10314906 -0.057953212 -0.08214962 0.06894061 -0.031199852
-0.098967284 0.004642359 -0.027972562 0.021792402 0.101474494 -0.08723937 -0.0992136 0.026300864
-0.06465505 0.07327786 0.09545742 0.14198317 -0.046284195 0.10699988 0.12698084 -0.07165556
0.12009991 0.12101977 0.00032299984 -0.06969713 0.04159756 0.041377086 -0.020961717 -0.1091034
0.023847759 -0.03719542 0.18882917 0.20330244 0.06155512 0.04584177 -0.0507414 0.008116571
-0.050860137 -0.0930574 0.040547 -0.05120405 0.12854396 -0.019561287 0.041011892 0.07403764
-0.090510145 -0.06436373 -0.06888205 -0.06164319 0.12399355 0.071417905 0.077737845 0.025489032
-0.08280013 0.11954435 0.031435236 0.015796468 -0.1064114 0.06987316 -0.0731081 0.028446527
00000000: 28cd 6fbd 3ecc a43d 1c07 80bd 7021 a83d
00000010: 9895 53bd 2269 de3d 6c58 4d3d 433d 86bd
00000020: 9b98 a13d df5d 05bd e35b eabc e933 e13d
00000030: 57dc 4dbd d8e5 f73d 7fc4 563d b038 07bd
00000040: c7b3 dabd c0c6 e1bd d4ec 73bb 3d16 a0bd
00000050: 5aa7 d3bd a04d edbd f779 303d a655 b1bd
00000060: bfa6 d33d d30a 5dbc 4764 5e3d 3c79 4ebd
00000070: 9b0e 003e 15cc 2d3d e9d6 be3c fc3e 25bd
00000080: 1c04 043e e915 86bd cfe3 e3bd a448 08be
00000090: 0061 ebbd 74ed a2bd 1172 c03d 3cd0 d3bd
000000a0: 4d87 92bc 75ef 013e cb21 1dbd de04 763c
000000b0: 8365 8c3d d695 b6bd e107 62bd 9e5e b13c
000000c0: 5399 96bd d459 a73d 045a cfbd cee5 83bd
000000d0: 9af8 d9bd 1f81 853d 7c04 77bb 1b24 f3bd
000000e0: cf1e b33d 286a b63d 0137 a0bd a491 d73b
000000f0: dfc9 dc3b 8c1e 563c c83b a13c 2a56 ffbd
00000100: b239 8f3d f92b f7bd 7586 99bd 77b8 8f3d
00000110: f5c0 e63d 9988 a53d c5cf fd3d e360 56bd
00000120: 4b70 19bd 2d05 f43c a19e f5bd 5192 f0bd
00000130: 7ca8 be3d a894 e1bd 5ac5 02be cc61 5bbd
00000140: 0db5 4dbd 6e7e 84bd 0bed ca3d c036 e03d
00000150: b501 14bd 3d43 e13c 8446 12bd 5bc9 bd3c
00000160: 5164 b8bd 19c2 e73c ac74 b2bb db79 20bd
00000170: 3ebe eb3c bd79 bf3c 1060 b8bd 8b1c ffbd
00000180: b161 e23d 998b 8ebc 4dbd 783d 5051 4f3b
00000190: 1356 44bd 9746 013d 9ba2 e93b 40ec 91be
000001a0: 2fb7 e23c 20e6 ce3d 72ec 263d 21f3 023e
000001b0: 43f8 c33d af9f ddbd 89a3 debb 1059 ba3d
000001c0: 9448 97bd ca24 803d c66a 543c 202f 7a3d
000001d0: c62f 5b3c 6f56 b2bd 3f6b bcbc 8c63 9bbd
000001e0: c918 ad3d 454a d13b a9a8 55bd 14b5 3f3d
000001f0: 4055 00be 9b05 ccbd 40df d43c 912b 58bd
00000200: d479 abbd 21b4 ed3c 2d6a 223b 0b1e 90bd
00000210: 229d cabd d5de ed3d 0ec5 023d 7358 07be
00000220: 3dcc 9c3d 550c 94bd adb2 633d 2285 a23d
00000230: 2793 bbbd 0c05 fdb9 ea93 79bc dc52 f5bd
00000240: 7234 1f3d e5fb 63bc 1545 8dbc 7d48 c0bd
00000250: 5cb5 ee3c ab73 d53d 0102 bd3c f628 3ebd
00000260: f329 34bd ca65 373c abfc dbbd 7294 8a3d
00000270: 5091 0cbd 4194 ca3d 0adc 28bd b47a 05be
00000280: e043 233d 9b69 263d c090 563e c098 b7bd
00000290: 13c5 cebd d460 eabd c9c8 753d af88 fcbd
000002a0: c2f9 2ebe 7abb 30be ed40 5ebd 8a37 cdbd
000002b0: 3f39 86bd 29e7 24be 5b31 0bbe 02e0 e6bc
000002c0: d4ae a5bd d467 743d 77a8 bf3d 6f85 5cbd
000002d0: 191e 623d 1455 a83c ed83 c73c 1576 6c3d
000002e0: 6788 84bd 429e 83bd c18a fe3d 290d 04be
000002f0: b3e8 813d 19dd f53c f1b4 cd3c ecd2 e6bd
00000300: fc1f b1bd 4828 9b3d 85ae 41bd d03f d3bd
00000310: 5960 6dbd 0f3e a8bd bc30 8d3d d596 ffbc
00000320: 5caf cabd ee1e 983b b726 e5bc fb85 b23c
00000330: dcd1 cf3d 8eaa b2bd 8030 cbbd e974 d73c
00000340: de69 84bd b412 963d 2e7f c33d 0964 113e
00000350: 7f94 3dbd c122 db3d 4407 023e 26c0 92bd
00000360: f1f6 f53d 37d9 f73d 4e58 a939 5ebd 8ebd
00000370: 3462 2a3d 057b 293d e8b7 abbc 9a71 dfbd
00000380: 605c c33c 3a5a 18bd 6f5c 413e 842e 503e
00000390: 3921 7c3d 94c4 3b3d 37d6 4fbd 5efb 043c
000003a0: b852 50bd e194 bebd 9c14 263d 57bb 51bd
000003b0: 07a1 033e fe3e a0bc 16fc 273d 0ca1 973d
000003c0: 625d b9bd 22d1 83bd 0812 8dbd 927d 7cbd
000003d0: 55f0 fd3d 8d43 923d 0535 9f3d 60ce d03c
000003e0: 1d93 a9bd abd3 f43d 3cc2 003d 9867 813c
000003f0: 38ee d9bd a919 8f3d b3b9 95bd b108 e93c

bias f4 [256]
0.07471278 0.052635495 0.049306963 0.041018687 -0.080298275 0.12007886 0.0071403077 -0.04528479
-0.09788442 0.119210325 -0.09456519 -0.025390645 0.07872289 -0.05907773 -0.026253812 -0.088728905
-0.0871841 0.10570839 -0.11877325 -0.0135338055 0.009437873 0.117953174 -0.023859467 0.09754358
-0.041567184 -0.082675055 -0.11516561 -0.07560525 0.07789187 -0.0049913316 -0.090874754 0.11939613
0.010623483 -0.037350144 -0.0253752 0.0011730968 -0.011125255 0.013131167 0.13034299 -0.05096079
0.0853806 0.13074239 -0.03958884 -0.12319497 0.114893496 0.000951522 -0.07795132 -0.12561598
-0.06901452 -0.11996447 0.056053374 0.05001976 0.042097554 -0.07449197 0.06873023 -0.11812548
0.029618038 -0.00177564 0.014734587 -0.07214869 -0.078324065 -0.04401925 0.036709387 0.04885868
-0.06842918 0.048019923 -0.107866965 -0.03610708 0.11235171 -0.12541766 -0.037049275 0.108514525
-0.013813647 0.09198375 -0.10348142 0.07472 0.0015474841 0.04753337 -0.027279738 0.09883379
0.12896022 0.005857959 -0.1077215 -0.03737351 0.050712083 0.094278924 -0.107415706 -0.0075053014
0.11376384 -0.08266508 -0.0779941 0.11996307 0.10627282 0.05537626 0.051124826 -0.02471173
-0.08999329 -0.12657613 0.11700898 0.101726785 0.060791306 0.06222618 -0.009937293 -0.0732202
-0.096561186 -0.11727858 -0.116292775 0.09523734 -0.08547876 -0.00026952248 0.03671572 0.057221416
0.08793618 -0.0018336645 0.006253047 -0.012878541 0.039940987 -0.0069756103 -0.055019733 0.061437257
0.052470762 -0.060722083 0.09836558 0.05428323 0.018865589 0.05100153 -0.09096867 0.0765249
-0.120179586 -0.0817376 -0.06362946 -0.1020014 0.06513104 0.038141083 -0.03168468 0.052864745
-0.105715625 -0.03792554 0.04113898 0.09449826 0.07191723 -0.11245348 -0.08714525 -0.08867816
0.1046412 0.01839968 -0.084821574 0.08571304 -0.06883961 -0.088896655 0.017662708 0.06349809
-0.016422518 -0.0873719 0.09031966 -0.11929852 -0.013416408 0.021685218 -0.068390235 0.04568061
-0.029117374 -0.049789142 0.021435682 0.08728358 -0.11606672 0.01119551 0.045073085 0.12952456
-0.072919786 0.037765175 0.08563056 -0.125182 -0.096780814 0.076856345 -0.021407515 0.114188485
0.08380954 -0.08771073 0.1182902 -0.048106328 -0.06501027 -0.040631436 0.038490754 0.11758078
0.11288569 -0.08675997 0.015743801 -0.12187059 -0.09028211 0.111676216 0.0698594 -0.1069128
-0.10610238 -0.06784696 0.0066054966 -0.021193668 0.0674215 -0.12133824 0.015407016 0.0013178427
-0.09586054 0.09912045 0.09237903 0.05390047 0.124349765 0.08805776 0.030294511 -0.11614382
-0.04989782 0.053473786 0.00961214 0.013685199 0.0049263258 0.0439724 0.028413152 -0.07227191
0.045842804 0.100490905 0.03391427 0.011391657 -0.077238314 -0.095645286 -0.05798941 0.08264749
-0.07121335 -0.026035532 0.049042296 0.03892517 0.083411016 0.1279166 0.011693358 -0.12046544
0.09578244 0.003207505 -0.08588347 0.11528726 -0.09447482 -0.06477875 0.1111634 0.0035052567
0.02819039 -0.03162735 0.022279374 -0.02238913 0.028000776 -0.037679978 0.042610813 -0.025673335
-0.0943686 -0.08611209 -0.015321086 0.00629225 0.09545796 -0.06267459 -0.033411905 -0.03733666
00000000: 0403 993d 5198 573d 19f6 493d 3603 283d
00000010: 6c73 a4bd e8eb f53d 3ef9 e93b 8b7c 39bd
00000020: a077 c8bd 8b24 f43d 65ab c1bd 0b00 d0bc
00000030: 7739 a13d 7dfb 71bd 3c12 d7bc 80b7 b5bd
00000040: 948d b2bd a47d d83d 643f f3bd e5bc 5dbc
00000050: 4fa1 1a3c 6f91 f13d ee74 c3bc eec4 c73d
00000060: 5a42 2abd 8a51 a9bd f3db ebbd edd6 9abd
00000070: c685 9f3d 538e a3bb 8b1c babd f585 f43d
00000080: 1e0e 2e3c 77fc 18bd a7df cfbc 99c2 993a
00000090: b446 36bc 1b24 573c a278 053e 43bc 50bd
000000a0: 06dc ae3d 55e1 053e e827 22bd a54d fcbd
000000b0: 484d eb3d 8f6f 793a f1a4 9fbd 7aa1 00be
000000c0: 7c57 8dbd efaf f5bd 3998 653d 85e1 4c3d
000000d0: 7c6e 2c3d 3f8f 98bd 6fc2 8c3d c6eb f1bd
000000e0: 87a1 f23c 97bc e8ba 5669 713c b1c2 93bd
000000f0: 5e68 a0bd 874d 34bd 955c 163d 0a20 483d
00000100: 9924 8cbd 8ab0 443d 5be9 dcbd 04e5 13bd
00000110: a718 e63d 7d6d 00be fbc0 17bd dd3c de3d
00000120: a352 62bc fa61 bc3d 11ee d3bd cd06 993d
00000130: f3d4 ca3a 5ab2 423d c279 dfbc 5f69 ca3d
00000140: 260e 043e 1ff4 bf3b 179d dcbd f714 19bd
00000150: 79b7 4f3d 4f15 c13d c4fc dbbd 08ef f5bb
00000160: 04fd e83d 4f4c a9bd 5fbb 9fbd 33af f53d
00000170: 90a5 d93d 38d2 623d 4468 513d 4170 cabc
00000180: 674e b8bd 2c9d 01be 67a2 ef3d 2256 d03d
00000190: 4e00 793d e1e0 7e3d 07d0 22bc 79f4 95bd
000001a0: dfc1 c5bd c12f f0bd e82a eebd cb0b c33d
000001b0: 7d0f afbd b24e 8db9 3963 163d 0161 6a3d
000001c0: e217 b43d 9257 f0ba 5ce6 cc3b 8400 53bc
000001d0: 2999 233d a993 e4bb 5f5c 61bd a2a5 7b3d
000001e0: 95eb 563d b8b7 78bd e573 c93d 1858 5e3d
000001f0: 028c 9a3c fbe6 503d c84d babd 16b9 9c3d
00000200: b720 f6bd 0b66 a7bd 2a50 82bd 1ce6 d0bd
00000210: 6c63 853d d339 1c3d ccc7 01bd b488 583d
00000220: 6f81 d8bd d057 1bbd 5981 283d 4e88 c13d
00000230: 5749 933d 034e e6bd 3579 b2bd e59c b5bd
00000240: 204e d63d edba 963c efb6 adbd 518a af3d
00000250: c8fb 8cbd 730f b6bd 62b1 903c 490b 823d
00000260: 8488 86bc 0af0 b2bd 84f9 b83d c852 f4bd
00000270: 7ed0 5bbc 33a5 b13c 2e10 8cbd 971b 3b3d
00000280: 8f87 eebc b3ef 4bbd e299 af3c bcc1 b23d
00000290: 63b4 edbd 5f6d 373c 8e9e 383d 16a2 043e
000002a0: f856 95bd a8af 1a3d 135f af3d b62f 00be
000002b0: 0535 c6bd dc66 9d3d d05e afbc a7db e93d
000002c0: 56a4 ab3d afa1 b3bd 2242 f23d 240b 45bd
000002d0: 1b24 85bd 266d 26bd 7ba8 1d3d 31ce f03d
000002e0: 9d30 e73d 36af b1bd 25f9 803c 4a97 f9bd
000002f0: d4e5 b8bd 80b6 e43d 7212 8f3d 19f5 dabd
00000300: 344c d9bd 59f3 8abd ec72 d83b 589e adbc
00000310: 4914 8a3d 2f80 f8bd b56d 7c3c 77bb ac3a
00000320: 8852 c4bd aaff ca3d 3831 bd3d bdc6 5c3d
00000330: 17ab fe3d a057 b43d 322c f83c d0dc edbd
00000340: a861 4cbd 5407 5b3d 3d7c 1d3c e337 603c
00000350: 046d a13b 671c 343d b3c2 e83c 4c03 94bd
00000360: aac5 3b3d 2dce cd3d b1e9 0a3d 13a4 3a3c
00000370: 1f2f 9ebd ade1 c3bd 4e86 6dbd 1643 a93d
00000380: 4ed8 91bd 7848 d5bc 93e0 483d 0070 1f3d
00000390: 65d3 aa3d 92fc 023e 8095 3f3c 96b6 f6bd
000003a0: 9529 c43d 0135 523b ace3 afbd ba1b ec3d
000003b0: 047c c1bd b9aa 84bd a3a9 e33d 73b8 653b
000003c0: 88ef e63c ae8b 01bd 3c83 b63c 6969 b7bc
000003d0: e261 e53c 5256 1abd ad88 2e3d e350 d2bc
000003e0: 5344 c1bd 895b b0bd 4b05 7bbc 382f ce3b
000003f0: 777f c33d 895b 80bd ecda 08bd 53ee 18bd

weight f4 [256]
0.9853071 1.0122637 1.0228343 0.96931934 1.0074823 1.0166514 1.0683337 1.020534
0.96624625 0.963935 0.99405164 1.0292132 0.9766342 1.0167205 1.1378503 1.0229342
1.021741 1.0113237 1.0109841 0.9273523 1.0194364 1.0246991 0.97253054 0.9608954
1.0042125 1.0150865 0.9433518 0.8888702 1.0081652 0.9964417 1.0278648 1.01559
0.98553354 0.9565918 1.0141175 0.9587013 0.9746548 1.0271777 0.97661203 0.9098148
1.004013 1.0144329 1.0325133 1.035304 0.99158543 1.0243951 0.9424778 1.0151107
1.0249504 0.9844039 0.9877383 1.0243638 1.0429925 0.97716594 0.99140656 1.0196679
1.0292035 1.0275298 0.9569138 1.0111198 1.0340135 1.0163366 1.063058 1.0207443
0.9878157 1.015654 1.0158161 0.9997043 0.9900721 0.942871 0.9701507 0.95999724
1.0309074 1.0161598 1.0411553 0.9671514 0.99539083 1.0280054 1.0334114 1.0312248
1.0138949 0.99003226 1.0118134 1.0161649 0.9977268 1.0260267 1.0268077 1.0257291
0.9276154 0.9914431 0.96887183 0.9992151 0.9878384 1.0301218 1.0223237 1.023524
1.0225667 1.0153562 1.0158446 0.94866693 1.0231228 1.020776 0.99003583 0.89856434
1.0218458 0.96984875 1.035243 0.9580305 0.92632157 0.9939244 1.0082226 1.0160896
0.9992367 1.013177 1.0149672 1.0059682 0.98286504 1.0220201 0.91262525 1.0104655
1.0448911 0.9190159 1.0060819 1.0260749 0.9110939 1.0182648 1.0111002 1.020586
1.0333638 1.0304422 0.95594364 1.0128309 1.0090874 1.0044291 0.95499885 0.9931482
0.9418642 0.8921843 1.0208813 1.0132382 1.029531 0.92607075 0.933478 1.010803
0.99108255 0.97359836 0.9990736 1.0126538 1.0250515 0.9130159 1.0186704 1.020863
1.0251006 0.89379853 0.98819906 1.0475372 1.0249325 0.9419041 1.071955 1.0796114
0.94863653 0.89659923 0.9835868 0.9232769 1.0095015 1.0137473 1.0506763 0.9608739
0.9910189 0.9893624 1.0092428 1.0227882 1.0227443 0.95333743 0.97078484 1.0358424
1.0162748 1.0215871 1.0451505 1.0424589 1.0230813 0.9841413 1.0397391 0.977933
1.0225626 1.0132166 0.9653966 1.0027568 1.0438194 1.0132626 1.014744 0.9152138
0.9350643 1.0376405 0.88231015 0.956501 1.0329565 1.0067922 1.0061028 0.9965088
1.0123703 0.99621767 0.9789916 1.0246052 1.0456067 1.0161138 0.982478 1.0017881
1.0489206 1.0523314 1.0192802 1.0203735 1.0128257 1.0199845 1.02302 1.0412968
0.9053284 0.99929166 0.8982647 0.99792737 1.0426381 1.0143566 1.0081961 0.90557534
0.9888317 1.0101507 0.94750816 0.9985592 0.99757415 1.0231923 0.908175 1.0125077
1.0409955 0.9875299 1.000363 0.956253 1.0245378 1.0144981 1.0361451 1.0454171
1.03778 1.0015712 0.9405992 0.94490165 1.0172023 1.0176475 1.0117611 1.1504751
1.0660334 0.9775315 1.0271093 1.0290391 0.930488 0.99292916 0.927228 0.97161037
00000000: 163d 7c3f db91 813f 3cec 823f 5025 783f
00000010: 2ef5 803f a221 823f 29bf 883f dca0 823f
00000020: ea5b 773f 72c4 763f 2b7a 7e3f 42bd 833f
00000030: b304 7a3f e623 823f 14a5 913f 82ef 823f
00000040: 69c8 823f 0e73 813f ed67 813f f666 6d3f
00000050: e47c 823f 5729 833f c3f7 783f 3efd 753f
00000060: 098a 803f 5bee 813f 817f 713f ff8c 633f
00000070: 8f0b 813f ce16 7f3f 1391 833f dafe 813f
00000080: ed4b 7c3f 33e3 743f 9ace 813f 736d 753f
00000090: fa82 793f 8f7a 833f 3f03 7a3f 9fe9 683f
000000a0: 7f83 803f f0d8 813f 6529 843f d784 843f
000000b0: 8bd8 7d3f 611f 833f 3a46 713f 26ef 813f
000000c0: 9331 833f e501 7c3f 6bdc 7c3f 5a1e 833f
000000d0: c780 853f 8c27 7a3f d2cc 7d3f 7a84 823f
000000e0: f1bc 833f 1986 833f 4ef8 743f 606c 813f
000000f0: 8e5a 843f 5117 823f 4912 883f c0a7 823f
00000100: 7de1 7c3f f300 823f 4306 823f 9fec 7f3f
00000110: 5d75 7d3f fe5f 713f cc5b 783f 61c2 753f
00000120: c6f4 833f 8611 823f 9444 853f 3c97 773f
00000130: efd1 7e3f ae95 833f d346 843f 2dff 833f
00000140: 4fc7 813f c172 7d3f 1a83 813f b111 823f
00000150: 066b 7f3f d854 833f 6f6e 833f 174b 833f
00000160: 3478 6d3f 37cf 7d3f fc07 783f 90cc 7f3f
00000170: fae2 7c3f 08db 833f 81db 823f d602 833f
00000180: 77e3 823f 31f7 813f 3207 823f d6db 723f
00000190: b0f5 823f caa8 823f fd72 7d3f 5008 663f
000001a0: d8cb 823f 0248 783f d882 843f 7d41 753f
000001b0: 6923 6d3f d471 7e3f 700d 813f 390f 823f
000001c0: facd 7f3f c9af 813f 72ea 813f 91c3 803f
000001d0: 0b9d 7b3f 8ed1 823f cfa1 693f ef56 813f
000001e0: febe 853f a044 6b3f 4bc7 803f 6c56 833f
000001f0: 733d 693f 8056 823f bb6b 813f 90a2 823f
00000200: 4445 843f 88e5 833f b9b8 743f 71a4 813f
00000210: c729 813f 2291 803f ce7a 743f f63e 7e3f
00000220: 031e 713f 3166 643f 3dac 823f cab1 813f
00000230: acc7 833f f912 6d3f 6af8 6e3f fe61 813f
00000240: 96b7 7d3f be3d 793f 4ac3 7f3f a49e 813f
00000250: e334 833f 69bb 693f cb63 823f a4ab 823f
00000260: 7f36 833f fbcf 643f 9dfa 7c3f b315 863f
00000270: fd30 833f a120 713f d235 893f b530 8a3f
00000280: d8d9 723f 8787 653f 58cc 7b3f e05b 6c3f
00000290: 5837 813f 79c2 813f 907c 863f d5fb 753f
000002a0: 6ab3 7d3f db46 7d3f de2e 813f b9ea 823f
000002b0: 49e9 823f ec0d 743f 5b85 783f 7c96 843f
000002c0: 4b15 823f 5ec3 823f 7ec7 853f 4b6f 853f
000002d0: 54f4 823f aff0 7b3f 2c16 853f d159 7a3f
000002e0: 55e3 823f 15b1 813f 3b24 773f 565a 803f
000002f0: e09b 853f 97b2 813f 22e3 813f 744b 6a3f
00000300: 6060 6f3f 67d1 843f 14df 613f 40dd 743f
00000310: eb37 843f 91de 803f fac7 803f 331b 7f3f
00000320: 5a95 813f 1f08 7f3f 329f 7a3f 4326 833f
00000330: 71d6 853f 0410 823f ae83 7b3f 983a 803f
00000340: 0843 863f ccb2 863f c677 823f 999b 823f
00000350: 46a4 813f da8e 823f 52f2 823f 3749 853f
00000360: 9ac3 673f 94d1 7f3f adf4 653f 2b78 7f3f
00000370: 2a75 853f 70d6 813f 920c 813f c9d3 673f
00000380: 1324 7d3f 9e4c 813f e58f 723f 93a1 7f3f
00000390: 0561 7f3f f7f7 823f 287e 683f da99 813f
000003a0: 573f 853f c2ce 7c3f e50b 803f ffcc 743f
000003b0: 0e24 833f 13db 813f 67a0 843f 3ad0 853f
000003c0: fad5 843f 7c33 803f 1ccb 703f 13e5 713f
000003d0: af33 823f 4642 823f 6381 813f c542 933f
000003e0: c873 883f 813f 7a3f 5178 833f 8eb7 833f
000003f0: 7634 6e3f 9b30 7e3f d05e 6d3f 75bb 783f

bias f4 [256]
0.0053962176 0.008794699 -0.007491335 0.010236161 0.022502333 0.00459173 -0.010140888 -0.00020209201
0.00080408686 -0.0026557064 -0.009643961 -0.0019476238 -0.01863341 0.0063218693 -0.024974106 0.030575063
-0.0145798465 0.002772369 -0.01675453 -0.02557368 0.0032201558 0.015295677 -0.0022133559 -0.026715664
-0.0136508485 0.0046591763 -0.0058102338 -0.030834202 0.0021506192 -0.008389268 0.04026327 -0.0022577331
0.007981509 0.00042696405 0.014376912 -0.010720873 -0.0032711122 0.026217476 -0.011831048 -0.024994465
-0.010673646 0.01980796 0.022278706 0.004592646 0.0046693427 0.025705801 -0.0229885 0.0024833684
0.043000214 0.019844836 0.0010706171 0.011428708 0.04264584 -0.0046682977 0.0026424692 0.012512304
0.03939524 0.008305211 -0.01700781 0.017890092 -0.0018817623 0.020783436 0.032104872 0.022718728
0.0063959886 0.027972782 -0.015114624 0.031346478 0.0061910315 0.008884064 0.002696913 -0.016866103
0.03178626 -0.034648586 -0.0020813951 0.009157592 -0.006483366 0.007893389 0.06620883 0.007274984
0.0069780806 0.0053257863 0.007987052 0.03379883 -0.028780285 0.028307812 -0.013448144 0.007900249
-0.0133495 0.011191788 -0.009463381 0.0035403778 0.004929248 -0.007556572 0.024837831 0.047272854
0.012398292 0.02235418 -0.0013028595 -0.016360914 0.01017528 0.020336539 -0.006243936 -0.057151206
0.032088507 0.01572823 0.0057513826 -0.020735923 -0.0038050662 0.0031979145 0.016475858 0.0025382207
0.0015863689 0.029131105 -0.04044698 -0.0053973044 -0.008342186 0.023124272 -0.031441435 0.012653869
0.016819285 -0.018202549 -0.0041342843 0.016441481 -0.025379814 0.018767487 0.005640801 0.0071875774
0.02142645 0.0018684444 0.0044630365 0.011434347 0.003930497 0.013104026 0.0074147913 -0.01355403
-0.03328632 -0.037573785 0.03729772 0.024877615 0.0066759954 -0.0017322669 -0.011292525 -0.003876227
-0.024898658 -0.013652173 0.0053205597 -0.0066938773 0.0377199 -0.021444334 0.012660328 0.019714184
0.013241628 -0.03437461 0.024836041 0.023645215 0.0036155647 -0.011361955 0.0056771045 0.030586023
-0.028646754 -0.021480808 0.007812796 -0.042688135 -0.0056237853 -0.018569417 0.016063444 -0.0004443984
0.032651983 -0.01311605 -0.0024764477 0.011318662 0.0195163 -0.015166582 -0.0024081348 -0.0005782969
0.013739586 0.012325166 0.013033067 0.041269273 0.037654564 -0.0062819077 0.022417488 0.004656773
0.014417325 -0.00088763214 0.0051784418 0.0016553493 0.046864085 0.015895505 0.01326518 -0.0057976884
0.010331985 0.05985991 -0.03306444 -0.000541745 0.029365607 0.011173455 -0.027931996 0.0051320647
0.002564147 -0.028831149 0.0045177555 0.015505668 0.022603339 0.0054380964 0.012142865 0.02103703
-0.01032818 0.006518861 0.0052822344 0.00025555558 -0.008221869 0.019015063 0.047578905 0.045195147
-0.032455653 0.02829463 -0.012186225 -0.0016881024 0.021471167 0.02329195 0.0061599202 -0.050058316
-0.0017454824 0.017750842 -0.011370501 0.0050364123 0.021056276 0.042600367 -0.03329567 -0.0046813213
0.026590299 -0.025620604 -0.018349338 -0.010841685 0.027786788 0.0102386335 0.036403403 0.017497482
0.021558406 0.020524569 0.00910762 -0.007868326 0.043600444 0.0094442675 0.006838435 -0.030249985
0.044614546 0.040756207 0.026265493 0.026809406 -0.025125556 -0.007221487 -0.0317829 -0.002210629
00000000: c1d2 b03b a417 103c df79 f5bb 92b5 273c
00000010: d056 b83c 3976 963b f825 26bc a9e8 53b9
00000020: 5bc9 523a 5c0b 2ebb b401 1ebc 6947 ffba
00000030: 18a5 98bc af27 cf3b 7f96 ccbc 8e78 fa3c
00000040: 4fe0 6ebc a2b0 353b cc40 89bc e57f d1bc
00000050: 4009 533b b89a 7a3c f30d 11bb cfda dabc
00000060: cfa7 5fbc 01ac 983b c663 bebb 0298 fcbc
00000070: 67f1 0c3b 2473 09bc 19eb 243d 7af6 13bb
00000080: e0c4 023c 25da df39 248d 6b3c 9aa6 2fbc
00000090: 2860 56bb 08c6 d63c 03d7 41bc 31c1 ccbc
000000a0: 84e0 2ebc 4e44 a23c d581 b63c e87d 963b
000000b0: 4901 993b f994 d23c 6152 bcbc 02c0 223b
000000c0: fe20 303d a391 a23c f353 8c3a 7a3f 3b3c
000000d0: 68ad 2e3d 85f8 98bb 472d 2d3b 6800 4d3c
000000e0: e75c 213d 9412 083c f653 8bbc 3e8e 923c
000000f0: 77a5 f6ba 0642 aa3c 6680 033d a01c ba3c
00000100: 7195 d13b 2d27 e53c 54a3 77bc 2a65 003d
00000110: 23de ca3b 778e 113c b1be 303b c82a 8abc
00000120: 4f32 023d adeb 0dbd 0468 08bb ba09 163c
00000130: 6a72 d4bb 4653 013c 7f98 873d fd62 ee3b
00000140: 62a8 e43b ef83 ae3b 20dc 023c a470 0a3d
00000150: a2c4 ebbc c9e5 e73c 9b55 5cbc 0c70 013c
00000160: dcb7 5abc c35d 373c 4c0c 1bbc af05 683b
00000170: 8785 a13b 1f9d f7bb b578 cb3c 2ea1 413d
00000180: 3522 4b3c 1d20 b73c b6c4 aaba 5307 86bc
00000190: 38b6 263c d098 a63c ee99 ccbb 6217 6abd
000001a0: 3d6f 033d 7dd8 803c 1876 bc3b 62de a9bc
000001b0: 6b5e 79bb 1a94 513b 61f8 863c 4758 263b
000001c0: b5ed cf3a 5ba4 ee3c bcab 25bd dfdb b0bb
000001d0: aaad 08bc 1d6f bd3c bcc8 00bd 2c52 4f3c
000001e0: 99c8 893c 831d 95bc e478 87bb 49b0 863c
000001f0: 54e9 cfbc 46be 993c 78d6 b83b c585 eb3b
00000200: 8686 af3c 97e6 f43a aa3e 923b 2157 3b3c
00000210: 66cb 803b 45b2 563c c7f7 f23b b911 5ebc
00000220: 3c57 08bd f8e6 19bd 7ec5 183d 24cc cb3c
00000230: 4fc2 da3b 3b0d e3ba 4804 39bc 4c08 7ebb
00000240: 45f8 cbbc 5dad 5fbc 1758 ae3b 5058 dbbb
00000250: 2f80 1a3d 07ac afbc 446d 4f3c a47f a13c
00000260: 6af3 583c 64cc 0cbd f474 cb3c 9cb3 c13c
00000270: 1cf3 6c3b 7e27 3abc 0107 ba3b 8a8f fa3c
00000280: 99ac eabc 85f8 afbc 3e01 003c c1d9 2ebd
00000290: bb47 b8bb e41e 98bc 7c97 833c 25fe e8b9
000002a0: 16be 053d b3e4 56bc e64b 22bb e971 393c
000002b0: a6e0 9f3c 417d 78bc ccd1 1dbb d998 17ba
000002c0: 001c 613c 7eef 493c a588 553c f809 293d
000002d0: ac3b 1a3d 76d8 cdbb e1a4 b73c d897 983b
000002e0: a536 6c3c fcaf 68ba ebaf a93b 4ef8 d83a
000002f0: 8ef4 3f3d 4a37 823c 3356 593c 89fa bdbb
00000300: 7c47 293c aa2f 753d 946e 07bd e403 0eba
00000310: 2490 f03c de10 373c a4d1 e4bc e12a a83b
00000320: 400b 283b 4d2f ecbc ae09 943b 7c0b 7e3c
00000330: a32a b93c 0f32 b23b def2 463c d955 ac3c
00000340: 8737 29bc 2b9c d53b 9816 ad3b 17fc 8539
00000350: 05b5 06bc 7ac5 9b3c 19e2 423d 8c1e 393d
00000360: 38f0 04bd 24ca e73c bba8 47bc 5143 ddba
00000370: 4de4 af3c c2ce be3c 28d9 c93b f309 4dbd
00000380: acc8 e4ba 376a 913c 564b 3abc 7d08 a53b
00000390: 367e ac3c b97d 2e3d 0a61 08bd c565 99bb
000003a0: e6d3 d93c 4de2 d1bc 5a51 96bc 53a1 31bc
000003b0: 1ea1 e33c f1bf 273c bc1b 153d e156 8f3c
000003c0: 419b b03c 2423 a83c 2138 153c 27ea 00bc
000003d0: 6196 323d 21bc 1a3c f314 e03b d1ce f7bc
000003e0: bebd 363d fbef 263d bb2a d73c 669f db3c
000003f0: 1cd4 cdbc 39a2 ecbb c92e 02bd 33e0 10bb

running_mean f4 [256]
-148.64944 -643.7145 129.00368 -164.93108 826.954 -229.5705 2013.7635 219.70816
670.0214 673.2996 -537.50397 -119.23423 -369.0168 -103.49304 1800.912 -223.70169
105.50245 418.16348 -306.79004 467.32092 358.17526 -54.251003 342.7151 -553.86505
-410.44888 -354.39685 598.91614 437.49652 -130.96503 22.98661 -884.5968 -230.52254
-48.501766 -567.74384 -641.187 -273.0336 163.59615 -149.77951 -35.466347 543.8726
-433.21738 98.01514 -203.54279 387.28503 -330.9049 299.85458 -283.9115 47.308723
326.49994 -414.78827 -367.74307 47.086918 -136.86302 -9.457259 234.04984 -295.31525
-75.05898 315.76813 16.322464 329.7557 -170.12106 91.728325 -55.75999 344.97583
-465.5979 -34.862247 277.85928 -109.92107 310.73557 -214.78831 -317.92233 240.23482
72.95451 -13.508033 -343.64874 321.73233 148.91881 332.24777 -89.91472 -144.06194
-44.85545 -106.9558 301.20758 223.36366 -603.5097 -124.2617 -48.505165 77.79398
27.002611 410.9451 -394.56403 506.81268 652.09296 -80.13857 -163.46107 131.54247
-49.044178 84.64012 -79.960175 240.37456 -205.78967 -260.36047 -563.16077 450.448
-219.32573 -65.425575 -551.72766 1229.9156 -831.0841 72.46224 -501.4911 -59.889965
-495.01068 22.661995 1203.4575 -1.067521 134.97925 848.11957 -249.76639 -108.031555
-335.18765 -433.3908 234.72977 170.16193 65.273315 175.6638 -525.37054 404.01746
-339.39163 -676.6802 747.02924 -141.41148 188.76991 -674.226 -138.37794 -161.61626
174.20679 301.3537 -78.62029 552.8589 -218.27074 246.24666 232.0788 -209.00018
325.2341 407.19467 -456.9029 -191.18604 220.9916 477.22855 -38.08916 200.59676
-536.0445 216.56703 -43.945538 -291.14148 74.01249 -64.78468 -287.60208 -352.6209
721.9812 174.00621 -363.14746 -718.9318 -349.85156 -363.0379 -566.6685 -485.61258
-126.495995 38.434578 443.13693 -307.5924 152.2722 361.92145 -207.33783 -362.4989
266.7817 137.0709 -131.44604 -405.47772 12.09821 -212.5523 -466.97818 -268.57358
-65.63539 -399.59326 889.48395 -322.5231 -97.28732 -214.53406 131.1031 746.0083
-35.43386 -327.28088 -255.29688 -118.910545 -256.16626 -257.70026 360.94418 291.06705
231.02342 1227.6394 111.39048 -317.61444 -380.1346 -305.19852 -185.84245 132.96555
781.86884 1037.5133 62.99923 10.671518 -192.32439 -367.79633 187.6716 -126.40475
131.85567 -458.57666 560.7258 357.96698 -571.72144 -403.9773 216.37515 -99.93853
190.33662 -142.23723 -193.40155 -155.06761 -0.1896362 -306.7884 339.25912 338.7132
31.845167 -13.682912 -338.40292 -82.54738 16.768532 -290.54468 -274.78165 28.491142
-357.2313 -313.58307 -174.09106 -17.4874 -91.11294 -51.64287 218.4101 931.36725
-355.18863 725.03094 -50.42782 -103.36471 624.6405 -119.439545 -129.6682 -4.6545944
00000000: 42a6 14c3 baed 20c4 f100 0143 5bee 24c3
00000010: 0ebd 4e44 0c92 65c3 6fb8 fb44 4ab5 5b43
00000020: 5f81 2744 2d53 2844 4160 06c4 ed77 eec2
00000030: 2782 b8c3 70fc cec2 2f1d e144 a2b3 5fc3
00000040: 4101 d342 ed14 d143 2065 99c3 14a9 e943
00000050: 6f16 b343 0701 59c2 885b ab43 5d77 0ac4
00000060: 7539 cdc3 cc32 b1c3 a2ba 1544 8ebf da43
00000070: 0cf7 02c3 94e4 b741 3226 5dc4 c585 66c3
00000080: cf01 42c2 9bef 0dc4 f84b 20c4 4d84 88c3
00000090: 9d98 2343 8ec7 15c3 8add 0dc2 d9f7 0744
000000a0: d39b d8c3 c007 c442 f48a 4bc3 7ca4 c143
000000b0: d473 a5c3 63ed 9543 acf4 8dc3 223c 3d42
000000c0: fe3f a343 e664 cfc3 1ddf b7c3 0159 3c42
000000d0: efdc 08c3 ef50 17c1 c20c 6a43 5aa8 93c3
000000e0: 331e 96c2 52e2 9d43 6894 8241 bbe0 a443
000000f0: fe1e 2ac3 e774 b742 3b0a 5fc2 e87c ac43
00000100: 88cc e8c3 f172 0bc2 fded 8a43 96d7 dbc2
00000110: 275e 9b43 cfc9 56c3 0ff6 9ec3 1d3c 7043
00000120: b6e8 9142 e720 58c1 0ad3 abc3 bddd a043
00000130: 37eb 1443 b71f a643 56d4 b3c2 db0f 10c3
00000140: fb6b 33c2 5fe9 d5c2 929a 9643 195d 5f43
00000150: 9fe0 16c4 fe85 f8c2 4a05 42c2 8596 9b42
00000160: 5905 d841 f978 cd43 3248 c5c3 0668 fd43
00000170: f305 2344 f346 a0c2 0976 23c3 df8a 0343
00000180: 3d2d 44c2 be47 a942 9ceb 9fc2 e35f 7043
00000190: 28ca 4dc3 242e 82c3 4aca 0cc4 5839 e143
000001a0: 6353 5bc3 e5d9 82c2 92ee 09c4 4dbd 9944
000001b0: 62c5 4fc4 abec 9042 dcbe fac3 538f 6fc2
000001c0: 5e81 f7c3 c44b b541 a46e 9644 87a4 88bf
000001d0: b0fa 0643 a707 5444 32c4 79c3 2810 d8c2
000001e0: 0598 a7c3 06b2 d8c3 d2ba 6a43 7429 2a43
000001f0: f08b 8242 efa9 2f43 b757 03c4 3c02 ca43
00000200: 21b2 a9c3 882b 29c4 dfc1 3a44 5769 0dc3
00000210: 19c5 3c43 778e 28c4 c160 0ac3 c39d 21c3
00000220: f034 2e43 46ad 9643 973d 9dc2 f836 0a44
00000230: 4f45 5ac3 253f 7643 2c14 6843 0c00 51c3
00000240: f79d a243 eb98 cb43 9273 e4c3 a02f 3fc3
00000250: d9fd 5c43 419d ee43 4d5b 18c2 c598 4843
00000260: d902 06c4 2991 5843 3bc8 2fc2 1c92 91c3
00000270: 6506 9442 c291 81c2 11cd 8fc3 7a4f b0c3
00000280: cc7e 3444 9701 2e43 e092 b5c3 a3bb 33c4
00000290: 00ed aec3 da84 b5c3 c9aa 0dc4 69ce f2c3
000002a0: f3fd fcc2 02bd 1942 8791 dd43 d4cb 99c3
000002b0: af45 1843 f2f5 b443 7c56 4fc3 dc3f b5c3
000002c0: 0f64 8543 2712 0943 3072 03c3 26bd cac3
000002d0: 4592 4141 648d 54c3 357d e9c3 6b49 86c3
000002e0: 5245 83c2 f0cb c7c3 f95e 5e44 f542 a1c3
000002f0: 1c93 c2c2 b888 56c3 651a 0343 8880 3a44
00000300: 46bc 0dc2 f4a3 a3c3 004c 7fc3 33d2 edc2
00000310: 4815 80c3 a2d9 80c3 db78 b443 9588 9143
00000320: ff05 6743 7674 9944 edc7 de42 a6ce 9ec3
00000330: 3b11 bec3 6999 98c3 abd7 39c3 2ef7 0443
00000340: 9b77 4344 6db0 8144 36ff 7b42 8abe 2a41
00000350: 0b53 40c3 eee5 b7c3 eeab 3b43 3bcf fcc2
00000360: 0ddb 0343 d049 e5c3 742e 0c44 c6fb b243
00000370: 2cee 0ec4 18fd c9c3 0a60 5843 87e0 c7c2
00000380: 2d56 3e43 bb3c 0ec3 cc66 41c3 4f11 1bc3
00000390: fe2f 42be ea64 99c3 2ba1 a943 4a5b a943
000003a0: e7c2 fe41 35ed 5ac1 9333 a9c3 4218 a5c2
000003b0: f425 8641 b845 91c3 0d64 89c3 dced e341
000003c0: 9b9d b2c3 a2ca 9cc3 5017 2ec3 32e6 8bc1
000003d0: d339 b6c2 4d92 4ec2 fc68 5a43 81d7 6844
000003e0: 2598 b1c3 fb41 3544 16b6 49c2 bbba cec2
000003f0: fe28 1c44 0ce1 eec2 0fab 01c3 70f2 94c0

running_var f4 [256]
28.595211 23.351797 12.707857 41.649063 43.332394 198.89557 698.84375 59.23808
108.233795 193.18744 75.30554 9.841361 15.792287 37.918053 666.6249 49.22187
8.595756 213.88972 155.62975 282.6132 244.39844 67.28269 6.3962517 37.43877
32.235893 191.19092 134.8132 66.36938 128.38855 756.56494 524.0429 190.26303
7.670642 25.673107 33.44751 30.459135 22.720798 47.103687 7.122326 290.97406
467.97626 15.807147 11.774004 22.322662 16.681261 151.35954 68.21766 48.14951
93.3268 34.34043 15.664312 41.822582 120.2792 54.92378 77.37045 10.610332
13.962077 87.716545 9.048652 62.926617 20.666609 96.13045 15.536259 238.90837
21.851845 29.215702 34.25412 21.847878 42.73492 60.499146 17.816141 41.21651
48.047523 5.408547 22.832163 11.017059 16.174332 40.981472 17.288265 9.606896
8.984518 32.21664 123.85083 357.7577 403.3271 22.2448 14.650864 6.509338
37.083237 23.30241 21.448544 43.891735 26.958607 8.91247 11.466826 71.4251
21.106455 109.088844 21.9598 61.03742 18.006193 21.821566 106.659485 538.5899
88.76331 32.209396 20.5492 147.10019 81.82245 102.27287 84.5061 56.48076
204.85803 84.870834 394.2549 33.579712 36.438446 141.31696 7.1892495 32.03827
23.2695 106.381165 14.802153 91.92533 48.90389 58.71028 150.66098 96.38911
33.437565 111.13963 201.32507 10.440971 102.19207 20.943203 23.183746 28.877598
35.761585 14.195454 19.235128 85.01835 19.479975 131.98303 12.798755 196.99069
13.111062 36.90352 45.621124 50.12748 31.97142 223.91644 20.751293 59.045532
14.994287 533.51794 193.8292 23.09801 15.308128 385.48395 23.23187 30.648113
71.11279 308.80713 24.44381 32.913044 17.569065 21.681442 20.698 44.98622
141.29112 16.285229 51.562347 14.537937 15.109864 56.761528 8.439554 14.997501
57.38604 223.90515 24.77446 22.753471 41.40075 2505.3416 30.310837 32.39439
51.0498 251.28194 60.797867 19.476353 19.517538 64.40549 23.20275 975.8063
8.905209 35.70871 274.0257 28.95939 25.669546 119.75183 319.18277 56.11014
113.79486 205.17555 43.596546 12.296946 22.479914 63.43495 101.58813 18.225351
81.4563 490.73703 316.1438 12.79436 13.726563 47.286938 19.203934 4.291322
81.46362 70.48711 249.32507 317.98688 21.143545 15.984913 18.306925 9.024411
33.39177 36.6678 15.3963 9.984771 14.631335 82.57162 474.38327 40.28294
23.83158 21.933147 15.691042 97.1432 74.67512 124.05207 19.026873 15.811555
24.656836 42.743103 729.666 18.888676 29.5945 16.507822 45.55647 268.6211
31.43471 26.248257 9.783762 52.72132 58.835247 6.7853155 23.005241 39.614357
00000000: fec2 e441 7bd0 ba41 6253 4b41 a498 2642
00000010: 5f54 2d42 44e5 4643 00b6 2e44 cbf3 6c42
00000020: b477 d842 fc2f 4143 709c 9642 3776 1d41
00000030: 35ad 7c41 16ac 1742 fea7 2644 32e3 4442
00000040: 3788 0941 c5e3 5543 37a1 1b43 7d4e 8d43
00000050: 0066 7443 bd90 8642 18ae cc40 4dc1 1542
00000060: 8ef1 0042 e030 3f43 2ed0 0643 1fbd 8442
00000070: 7863 0043 2824 3d44 bf02 0344 5643 3e43
00000080: e675 f540 8662 cd41 40ca 0542 4fac f341
00000090: 32c4 b541 2d6a 3c42 18ea e340 ae7c 9143
000000a0: f6fc e943 13ea 7c41 5262 3c41 d094 b241
000000b0: 3973 8541 0b5c 1743 716f 8842 1999 4042
000000c0: 52a7 ba42 9a5c 0942 06a1 7a41 534a 2742
000000d0: f38e f042 f3b1 5b42 acbd 9a42 ebc3 2941
000000e0: ab64 5f41 df6e af42 47c7 1041 dbb4 7b42
000000f0: 3755 a541 ca42 c042 8494 7841 8be8 6e43
00000100: 94d0 ae41 c2b9 e941 3804 0942 74c8 ae41
00000110: 8ff0 2a42 20ff 7142 7587 8e41 b5dd 2442
00000120: aa30 4042 d112 ad40 45a8 b641 e045 3041
00000130: 0865 8141 07ed 2342 5e4e 8a41 d9b5 1941
00000140: 96c0 0f41 d7dd 0042 a0b3 f742 fce0 b243
00000150: dea9 c943 5af5 b141 f069 6a41 7f4c d040
00000160: 3c55 1442 566b ba41 9e96 ab41 2391 2f42
00000170: 3aab d741 7a99 0e41 1f78 3741 a7d9 8e42
00000180: 05da a841 7d2d da42 acad af41 5126 7442
00000190: af0c 9041 9192 ae41 a851 d542 c1a5 0644
000001a0: d186 b142 6cd6 0042 c364 a441 a619 1343
000001b0: 18a5 a342 b68b cc42 2003 a942 4cec 6142
000001c0: a8db 4c43 debd a942 a120 c543 a051 0642
000001d0: f8c0 1142 2451 0d43 550e e640 3027 0042
000001e0: f027 ba41 28c3 d442 9ed5 6c41 c5d9 b742
000001f0: 959d 4342 54d7 6a42 36a9 1643 39c7 c042
00000200: 11c0 0542 7e47 de42 3853 4943 380e 2741
00000210: 5762 cc42 ae8b a741 5078 b941 5205 e741
00000220: dd0b 0f42 9420 6341 8be1 9941 6509 aa42
00000230: fdd6 9b41 a8fb 0343 b3c7 4c41 9efd 4443
00000240: e9c6 5141 349d 1342 087c 3642 8a82 4842
00000250: 78c5 ff41 9cea 5f43 a602 a641 a02e 6c42
00000260: 99e8 6f41 2661 0544 46d4 4143 b9c8 b841
00000270: 18ee 7441 f2bd c043 dfda b941 562f f541
00000280: c039 8e42 5067 9a43 ec8c c341 f5a6 0342
00000290: 728d 8c41 9873 ad41 8195 a541 e4f1 3342
000002a0: 874a 0d43 2648 8241 d83f 4e42 649b 6841
000002b0: 01c2 7141 ce0b 6342 6a08 0741 c4f5 6f41
000002c0: 4e8b 6542 b8e7 5f43 1832 c641 1c07 b641
000002d0: 5e9a 2542 7795 1c45 987c f241 db93 0142
000002e0: ff32 4c42 2d48 7b43 0431 7342 92cf 9b41
000002f0: eb23 9c41 9ccf 8042 3b9f b941 9af3 7344
00000300: bc7b 0e41 b8d5 0e42 4a03 8943 d5ac e741
00000310: 3b5b cd41 f080 ef42 6597 9f43 c970 6042
00000320: f896 e342 f12c 4d43 dd62 2e42 4ac0 4441
00000330: ddd6 b341 64bd 7d42 1f2d cb42 85cd 9141
00000340: a0e9 a242 575e f543 6812 9e43 b3b5 4c41
00000350: 01a0 5b41 d325 3d42 a8a1 9941 8352 8940
00000360: 60ed a242 66f9 8c42 3853 7943 52fe 9e43
00000370: fb25 a941 34c2 7f41 9574 9241 fd63 1041
00000380: 2c91 0542 d4ab 1242 3f57 7641 9fc1 1f41
00000390: f319 6a41 ab24 a542 0f31 ed43 bb21 2142
000003a0: 13a7 be41 1677 af41 820e 7b41 5249 c242
000003b0: a959 9542 a91a f842 0937 9841 21fc 7c41
000003c0: 3341 c541 f0f8 2a42 a06a 3644 021c 9741
000003d0: 89c1 ec41 0510 8441 d339 3642 804f 8643
000003e0: 497a fb41 6efc d141 4a8a 1c41 a2e2 5242
000003f0: 4b57 6b42 4e21 d940 bc0a b841 1a75 1e42

weight f4 [256, 256]
-0.024890034 -0.04578682 0.06040798 -0.025260214 0.005825525 0.058384746 0.035211664 -0.05270426
-0.014091656 -0.001810181 -0.01661264 -0.002035461 0.044824295 0.040567342 0.0038982409 -0.013328485
-0.06080929 -0.022096042 -0.041192703 0.011940967 0.0558456 0.033781745 0.012549199 0.06758277
-0.041879904 0.024266822 -0.028789772 -0.04411962 -0.055444714 0.021672998 -0.019349426 -0.058653746
0.05011744 -0.03791836 0.04266834 -0.044046808 -0.03296382 -0.057913322 0.043373067 -0.07206185
0.03909462 0.0380908 -0.007747736 0.0059094448 -0.056738984 -0.040251303 0.03741326 -0.027867768
-0.033605993 -0.054762118 0.0222177 -0.048195392 0.042972364 -0.025624858 -0.019188128 -0.0099529335
0.016388264 0.002632228 -0.049336515 0.04851988 0.025812142 0.043292228 0.059421778 -0.00020284705
-0.034435853 -0.030073982 -0.028475052 0.03727645 0.0032071106 -0.042372316 0.015413097 -0.0057276865
-0.034331754 -0.021453865 -0.012370512 0.037566844 -0.009461046 -0.018752242 0.011625631 0.0515565
-0.046352357 -0.06324794 0.047036346 -0.047740918 -0.039329134 -0.014937955 0.01666036 6.839536e-05
-0.08616586 -0.0038469806 0.022392938 -0.06740075 -0.041952237 0.0017846259 -0.054658473 -0.033545673
-0.03150022 0.016366499 0.030372519 -0.06538803 0.019147767 -0.03019969 0.009172272 0.006354022
-0.024232717 -0.04198717 0.046639036 -0.034691323 0.0083595 -0.016861005 0.05390799 -0.05439387
0.017276855 -0.057395063 -0.01365309 0.039171148 0.034926858 0.05166776 0.036691654 0.05629023
0.06175735 -0.017218404 0.0016840546 -0.015779031 0.020356726 0.03391151 -0.03610983 -0.06679537
-0.03693968 0.002567274 0.062377334 -0.017542245 0.02654099 0.012033272 0.047623873 -0.03636356
0.02563655 -0.007829538 -0.019442985 0.06461636 -0.0586344 -0.01596387 0.027535472 0.013999056
0.00081467594 -0.012559833 -0.05172589 -0.025812453 0.023314863 -0.029336402 -0.048848055 -0.036424115
-0.04059261 -0.078634 0.0026182176 0.037730206 -0.033653628 -0.04432845 -0.0673573 0.010840916
0.009615538 -0.06940181 0.014449699 0.006118049 0.007966167 -0.046150785 -0.027842695 0.052984312
0.016948229 0.019808017 0.0016661177 -0.048104867 -0.020826863 0.016910981 0.067378186 -0.0430093
0.024730362 -0.044237565 -0.018616427 0.047174238 -0.048453804 -0.05433194 -0.05925263 0.03791375
0.044455454 -0.02628789 -0.039000012 0.010115516 -0.03096758 -0.004902471 -0.025542319 0.0152060585
-0.07997154 -0.054305818 0.004036283 0.010679063 -0.033822227 0.0021943923 0.0427878 -0.03766074
0.039526284 -0.0111685535 0.023924934 -0.04994382 0.04323914 0.034178108 -0.012917426 0.030852094
-0.011176343 0.06464392 0.01547133 0.0027382376 -0.04857874 0.019122496 0.00012941605 -0.03197439
0.024752721 0.0525396 -0.05842345 0.05314332 -0.00565113 -0.017801484 -0.062007755 -0.052375905
-0.054101665 0.034195676 -0.026230367 0.04797997 -0.061767217 -0.06393436 -0.03148268 -0.0053528617
-0.06675103 0.028987834 0.030811075 0.044643227 -0.06267065 -0.06253551 -0.016380612 0.029478718
-0.027893301 -0.033490587 -0.05835262 0.022370275 0.0132702105 -0.038574073 -0.024108788 0.06389225
0.046176303 0.045422006 -0.0028784962 -0.053803492 -0.06897952 -0.054221105 0.0066237585 -0.06727678
00000000: 2fe6 cbbc f68a 3bbd 5c6e 773d 82ee cebc
00000010: 0ce4 be3b d824 6f3d 1b3a 103d 6ce0 57bd
00000020: b0e0 66bc 9843 edba 3b17 88bc 5e65 05bb
00000030: ae99 373d f129 263d a179 7f3b b85f 5abc
00000040: 2913 79bd c202 b5bc aeb9 28bd 0ca4 433c
00000050: 5bbe 643d ba5e 0a3d 289b 4d3c d668 8a3d
00000060: 438a 2bbd 37cb c63c 87d8 ebbc c6b6 34bd
00000070: ff19 63bd 928b b13c b082 9ebc e93e 70bd
00000080: f247 4d3d 4850 1bbd ffc4 2e3d 6d6a 34bd
00000090: 1205 07bd 8536 6dbd f5a7 313d 2a95 93bd
000000a0: ae21 203d 1905 1c3d b8e0 fdbb 04a4 c13b
000000b0: 2367 68bd 8dde 24bd a63e 193d f24a e4bc
000000c0: 70a6 09bd 3e4e 60bd e501 b63c 8868 45bd
000000d0: ca03 303d 39eb d1bc 6c30 9dbc a111 23bc
000000e0: ae40 863c 7581 2c3b 1615 4abd c8bc 463d
000000f0: fc73 d33c 3153 313d 4064 733d 57b3 54b9
00000100: 9c0c 0dbd b65d f6bc 8344 e9bc 31af 183d
00000110: 632e 523b 988e 2dbd 3787 7c3c 51af bbbb
00000120: 749f 0cbd 04c0 afbc b0ad 4abc b1df 193d
00000130: 8102 1bbc 4d9e 99bc 6e79 3e3c e92c 533d
00000140: f8db 3dbd 2388 81bd 2fa9 403d fb8b 43bd
00000150: 9617 21bd 53be 74bc 4f7b 883c 7b6f 8f38
00000160: ba77 b0bd a01d 7cbb 6571 b73c 6809 8abd
00000170: 1cd6 2bbd 1cea e93a 90e1 5fbd 3067 09bd
00000180: 6006 01bd 0913 863c cacf f83c 29ea 85bd
00000190: c7db 9c3c 5765 f7bc 4c47 163c 6635 d03b
000001a0: b183 c6bc bdfa 2bbd 9308 3f3d 7d18 0ebd
000001b0: 49f6 083c 1720 8abc a0ce 5c3d 1bcc 5ebd
000001c0: 3188 8d3c 1617 6bbd 36b1 5fbc ed71 203d
000001d0: 770f 0f3d 93a1 533d fd49 163d 9690 663d
000001e0: 46f5 7c3d 9c0d 8dbc 7fbb dc3a 0743 81bc
000001f0: 26c3 a63c cce6 0a3d e7e7 13bd 03cc 88bd
00000200: 104e 17bd b63f 283b 607f 7f3d c1b4 8fbc
00000210: 7e6c d93c 3327 453c 4011 433d f5f1 14bd
00000220: be03 d23c 7647 00bc e546 9fbc 9555 843d
00000230: a02a 70bd a9c6 82bc 1292 e13c 4c5c 653c
00000240: fa8f 553a c2c7 4dbc 87de 53bd a374 d3bc
00000250: d0fe be3c e552 f0bc e614 48bd 7431 15bd
00000260: 7044 26bd dd0a a1bd 6796 2b3b fd8a 1a3d
00000270: 63d8 09bd c091 35bd a0f2 89bd 199e 313c
00000280: 7d8a 1d3c 8922 8ebd 6ebe 6c3c ea79 c83b
00000290: 8784 023c 9b08 3dbd 5d16 e4bc 1406 593d
000002a0: 03d7 8a3c 6c44 a23c a261 da3a 9c09 45bd
000002b0: 199d aabc e688 8a3c 93fd 893d 852a 30bd
000002c0: 5497 ca3c 7332 35bd 7a81 98bc c639 413d
000002d0: 7f77 46bd 2b8b 5ebd e3b2 72bd 734b 1b3d
000002e0: ec16 363d b359 d7bc 7abe 1fbd 8dbb 253c
000002f0: b9af fdbc e8a4 a0bb 203e d1bc d522 793c
00000300: 1ec8 a3bd c76f 5ebd cc42 843b 3df7 2e3c
00000310: 2d89 0abd cbcf 0f3b 4342 2f3d 2642 1abd
00000320: 50e6 213d 4ffc 36bc 39fe c33c e491 4cbd
00000330: 861b 313d 58fe 0b3d 9da3 53bc 88bd fc3c
00000340: fb1c 37bc 0864 843d 767b 7d3c 0174 333b
00000350: 80fa 46bd c8a6 9c3c dbb3 0739 94f7 02bd
00000360: 38c6 ca3c c333 573d 6d4d 6fbd cfac 593d
00000370: 1d2d b9bb 6bd4 91bc d8fb 7dbd 1e88 56bd
00000380: b599 5dbd c410 0c3d 11e1 d6bc a586 443d
00000390: 9fff 7cbd 05f0 82bd fcf3 00bd 0f67 afbb
000003a0: c4b4 88bd e577 ed3c 8267 fc3c d1db 363d
000003b0: 7859 80bd 9e12 80bd a230 86bc 5a7d f13c
000003c0: 7e80 e4bc 6d2d 09bd 2803 6fbd de41 b73c
000003d0: 4c6b 593c d9ff 1dbd cb7f c5bc f1d9 823d
000003e0: 5d23 3d3d 6d0c 3a3d 27a5 3cbb 0d61 5cbd
000003f0: 2245 8dbd f316 5ebd 1d0c d93b 69c8 89bd

bias f4 [256]
0.036257118 -0.046935037 0.007790733 -0.047511376 -0.0033113419 0.03452705 -0.023477316 -0.022992052
0.027094565 -0.033335112 0.05001106 0.026733294 0.0032149756 0.041537337 -0.037521586 0.017729804
0.019580305 0.028026968 0.039314345 0.038005464 0.01649464 -0.029033102 0.034004122 -0.043426014
0.011821702 0.0006261913 0.023949951 -0.040705495 0.006475419 0.018320534 -0.058416665 -0.029194152
0.0052380925 0.036341496 -0.0018414732 0.03814687 -0.026074544 -0.008599363 -0.010920538 -0.038060233
-0.050193563 -0.0014821979 0.06016031 0.043354157 -0.022127502 -0.003576635 0.006183364 0.028559078
-0.036287345 -0.032513455 0.05030661 -0.0054338104 0.023062631 -0.024098925 -0.035060726 0.03782949
0.042569235 0.04644067 -0.01006189 -0.042782433 -0.051988028 0.038917243 -0.06050262 -0.055534318
-0.023320554 0.04864133 -0.036139645 0.019126868 -0.033486776 0.013368212 0.04350692 0.051875606
0.029597087 0.009972244 -0.037500717 0.01213697 0.023321472 0.04805044 -0.050480284 -0.019003816
-0.0077273655 -0.027677074 0.0513201 0.034019418 -0.027426764 0.020776235 0.044835843 -0.051625542
0.056752943 0.032992475 0.026064372 -0.009188976 0.022312224 0.059623428 0.029984504 -0.022034451
-0.009797918 -0.06137617 0.04185278 0.014947965 0.026427649 0.05746592 0.012971462 0.052604504
-0.030046664 0.045924112 -0.051726766 0.045307912 -0.024137987 0.0017460221 -0.0057182624 -0.0016000121
0.032955915 -0.013855494 0.028519623 0.029147863 -0.028998882 0.026090167 -0.0459719 -0.057128616
-0.04451233 -0.04799796 0.037471816 0.060004212 0.041989245 0.039861865 -0.0027656928 -0.025453992
0.029704973 0.01989393 -0.05283507 -0.00013042316 -0.019716702 -0.007411508 0.02716592 -0.028392121
0.023778558 -0.03069894 0.06061662 -0.028231643 0.0018672014 -0.05090189 0.02423212 0.056667782
-0.04931142 0.015429056 0.058630705 -0.045830302 0.007464463 -0.017404057 0.03684812 -0.037494205
0.059301563 -0.010716538 0.019854225 0.020710133 -0.04939808 0.013242095 0.013581306 0.053548433
-0.0072282623 -0.053953163 -0.05549998 -0.028138123 -0.013181999 0.044410024 -0.052188978 0.032606
-0.014094589 0.0036391537 -0.040428035 -0.0034098986 -0.01442045 -0.013566501 0.03994053 0.0101656765
-0.012920469 0.055134058 0.028382856 -0.020056821 -0.014949739 -0.0072070803 -0.002440318 -0.05058319
0.047034025 -0.027269525 0.061379276 -0.03446517 -0.034053005 0.04825202 -0.02127079 -0.008850966
-0.005119972 0.00288374 -0.059549622 -0.05233428 -0.016961604 -0.030384079 0.0555968 -0.029818758
-0.030071914 0.02724642 0.01159624 -0.028656088 0.04910916 0.03687609 -0.011738682 -0.016257621
-0.0068023633 -0.060109213 0.020162731 0.035600156 -0.03508742 0.033432372 0.01850493 -0.003918592
0.017342642 -0.04497263 0.026712492 -0.060963765 -0.0578549 0.007796898 -0.04872407 0.04119063
-0.027999096 -0.04300292 -0.017683104 -0.051073834 0.027434781 -0.050701365 0.040767476 0.010681381
0.0048424765 -0.004964697 0.023307629 0.059417598 -0.05780697 0.0075341077 0.05873639 -0.04726301
0.022009157 0.048004687 0.05639433 -0.057214715 0.015503812 0.042617112 0.033863537 -0.011874354
0.012997337 0.053981423 0.04137785 -0.06076976 0.010463045 0.05975361 -0.029667173 0.055232905
00000000: 5882 143d f43e 40bd 6849 ff3b 4a9b 42bd
00000010: 1903 59bb 3c6c 0d3d 8053 c0bc d459 bcbc
00000020: 6cf5 dd3c 668a 08bd 66d8 4c3d c8ff da3c
00000030: 57b2 523b 0e23 2a3d 3cb0 19bd 183e 913c
00000040: e066 a03c d098 e53c 1408 213d 9eab 1b3d
00000050: c41f 873c d4d6 edbc e847 0b3d 7adf 31bd
00000060: d0af 413c fd26 243a b032 c43c ceba 26bd
00000070: c02f d43b f214 963c 5046 6fbd 9328 efbc
00000080: 4ea4 ab3b d2da 143d 965d f1ba e43f 1c3d
00000090: 489a d5bc 58e4 0cbc 0eec 32bc 0ce5 1bbd
000000a0: c497 4dbd 4f46 c2ba a86a 763d 2194 313d
000000b0: bc44 b5bc fa65 6abb d19d ca3b baf4 e93c
000000c0: 0aa2 14bd d42c 05bd 4e0e 4e3d 1b0e b2bb
000000d0: d8ed bc3c 1c6b c5bc d69b 0fbd 18f3 1a3d
000000e0: 145d 2e3d 9238 3e3d a0da 24bc a23c 2fbd
000000f0: 66f1 54bd b067 1f3d 98d1 77bd f477 63bd
00000100: bf0a bfbc 223c 473d 2a07 14bd f3af 9c3c
00000110: 6e29 09bd 5806 5b3c 5034 323d 847b 543d
00000120: 9775 f23c 9f62 233c 5a9a 19bd 24da 463c
00000130: ac0c bf3c 8ad0 443d 6ac4 4ebd e4ad 9bbc
00000140: d735 fdbb 08bb e2bc 0635 523d f257 0b3d
00000150: 18ae e0bc ec32 aa3c caa5 373d 4e75 53bd
00000160: c675 683d 1e23 073d f384 d53c 5c8d 16bc
00000170: 20c8 b63c b237 743d 10a2 f53c 9881 b4bc
00000180: 7287 20bc 9465 7bbd d26d 2b3d 4fe8 743c
00000190: cc7e d83c 6261 6b3d 4186 543c d277 573d
000001a0: 6c24 f6bc ec1a 3c3d 72df 53bd ca94 393d
000001b0: 07bd c5bc c8da e43a 4360 bbbb 7fb7 d1ba
000001c0: c8fc 063d 2702 63bc fca1 e93c 80c7 ee3c
000001d0: 108f edbc 0cbb d53c 084d 3cbd b2ff 69bd
000001e0: 9052 36bd 8299 44bd 0c7c 193d fac6 753d
000001f0: eafc 2b3d 3246 233d a040 35bb e484 d0bc
00000200: d857 f33c 98f8 a23c 9669 58bd 33c2 08b9
00000210: ec84 a1bc 3cdc f2bb 108b de3c 9896 e8bc
00000220: 40cb c23c 587c fbbc 2249 783d 0c46 e7bc
00000230: e2bc f43a 807e 50bd 7082 c63c 7a1c 683d
00000240: c6fa 49bd 27ca 7c3c c026 703d 8eb8 3bbd
00000250: 7498 f43b f492 8ebc 0eee 163d 8693 19bd
00000260: 32e6 723d 6b94 2fbc 54a5 a23c 4ca8 a93c
00000270: a455 4abd 5ff5 583c 2084 5e3c 9a55 5b3d
00000280: 0fdb ecbb fefd 5cbd f253 63bd ec81 e6bc
00000290: 50f9 57bc 49e7 353d 1cc4 55bd de8d 053d
000002a0: feec 66bc de7e 6e3b de97 25bd 9b78 5fbb
000002b0: c043 6cbc 0846 5ebc ae98 233d f08d 263c
000002c0: 60b0 53bc 40d4 613d 2a83 e83c 344e a4bc
000002d0: c0ef 74bc 5f29 ecbb beed 1fbb 5230 4fbd
000002e0: c0a6 403d 5764 dfbc d668 7b3d 5a2b 0dbd
000002f0: 2a7b 0bbd e9a3 453d 1440 aebc a403 11bc
00000300: 70c5 a7bb 21fd 3c3b 4eea 73bd 785c 56bd
00000310: 10f3 8abc 08e8 f8bc 78b9 633d 7846 f4bc
00000320: 6059 f6bc e233 df3c 28fe 3d3c 2cc0 eabc
00000330: b026 493d 620b 173d 9a53 40bc b42e 85bc
00000340: 5ce6 debb 1435 76bd 502c a53c 78d1 113d
00000350: d4b7 0fbd 62f0 083d a797 973c 8867 80bb
00000360: 2812 8e3c 3835 38bd 28d4 da3c 24b5 79bd
00000370: 42f9 6cbd 1f7d ff3b e492 47bd 82b7 283d
00000380: 5c5e e5bc d423 30bd 28dc 90bc cc32 51bd
00000390: e8be e03c 3cac 4fbd ccfb 263d f600 2f3c
000003a0: a3ad 9e3b e6ae a2bb a4ef be3c de5f 733d
000003b0: 00c7 6cbd ade0 f63b 9295 703d dc96 41bd
000003c0: 8c4c b43c 90a0 443d befd 663d fa59 6abd
000003d0: b303 7e3c 488f 2e3d 7eb4 0a3d a78c 42bc
000003e0: c8f2 543c a01b 5d3d d27b 293d b6e9 78bd
000003f0: 316d 2b3c 34c0 743d 9208 f3bc e63b 623d
