Predict/storage/MLP_256_200_SGD_11/trained_46.pt (torch, 339061 bytes, 13 tensors)

weight f4 [256, 58]
00000000: 2654 82bd 20dc a23d 8b86 ab3d e0e9 b33d
00000010: 2284 57bd c24f dc3d dcbc 523d 1ae5 87bd
00000020: f0c5 a03d 47a1 f1bc fd4f f3bc a6bd dc3d
00000030: 6d4c d3bc 933f f03d 9a0d 593d 5df9 02bd
00000040: e002 debd 2513 e5bd a939 abbb f8ab a2bd
00000050: 390c d0bd fe59 efbd b4b4 373d c8d9 b8bd
00000060: 6534 d53d 4421 3abc 64ed 603d 8e7b 61bd
00000070: 321b fb3d a62a 383d 0348 de3c 4896 23bd
00000080: dc27 043e 8cce 54bd cb29 dcbd 7828 05be
00000090: 6fb2 e9bd f143 b4bd 01a0 c23d 4472 d8bd
000000a0: f108 94bc fdc8 013e 874f 1cbd 2d66 773c
000000b0: 5883 9d3d 7d13 5ebd acae 35bd aa65 053d
000000c0: 580b 98bd b945 ac3d ac49 ccbd a021 8abd
000000d0: 66c5 cdbd ad47 853d b120 70bb aaf9 f3bd
000000e0: 6be8 b33d 8089 b33d ac26 abbd 8c6c f53b
000000f0: 34d6 8fbc 057a 5d3a 3296 9e3c eee7 fcbd
00000100: 2926 8c3d 944c f6bd f9d9 97bd 0c77 8c3d
00000110: 14c6 e93d 8260 a63d 9280 eb3d faea 56bd
00000120: e08e 1cbd 25e3 d53c 4299 ecbd 0bb9 ecbd
00000130: fcd1 c23d 844c dfbd 7743 02be 8d58 53bd
00000140: 31fd 51bd 6f7e 80bd 686f d13d e29b df3d
00000150: 3978 0fbd 40a1 2e3d 13b4 febc 05f4 ba3c
00000160: 0b32 aebd c55b dd3c d237 9dbb fbbe 8cbd
00000170: c776 b43c dc50 913c d37f bcbd d08e d7bd
00000180: f661 e43d 5dd8 8cbc f483 843d ffd3 723b
00000190: 2a92 48bd 0920 013d c3dd dd3c 6eb5 1cbe
000001a0: f387 823c 4816 c93d f24d 283d b88d 053e
000001b0: 2cf3 b63d ca81 dcbd 7901 51ba e68f d93d
000001c0: 5eba 94bd eaf3 833d d6de 8f3c 5a41 963d
000001d0: 944c 03ba 67b4 b2bd ea1a 2b3c 01b4 64bd
000001e0: 76f6 b33d 473a 143c f0f3 63bd 7060 523d
000001f0: 5f0e fbbd b092 cdbd 36e5 193d d548 82bd
00000200: 258f 76bd 30cf 033d 1b53 2d3c 7733 adbd
00000210: ac3b bebd 2094 eb3d 41a6 fe3c eb11 ecbd
00000220: 29b6 ab3d 95b7 7bbd 2d8b 7a3d 29bf b13d
00000230: 6620 a1bd cb4e 023c 5a53 51bc a498 b7bd
00000240: 9119 4e3d b040 a9bb 4bab a9bb a3a0 b7bd
00000250: 7255 be3c 8945 ba3d 1bda 7c3c c313 5ebd
00000260: 887f 3cbd 226e 4f3d 62ba cebd d909 6e3d
00000270: 3e43 d0bc f666 cf3d a279 32bd 149a 05be
00000280: b602 643d 252f ce3d 58d0 0f3e fb79 aabd
00000290: 970c c6bd f0f6 bcbd 8ac0 463d 270d fcbd
000002a0: 291c 01be 63ef 11be 1d6e 51bd dcec c5bd
000002b0: 06ff 55bd 36a2 05be 5976 fbbd 2588 20bd
000002c0: bb2b 073d d408 9c3d 74ee bf3d b38f 6fbd
000002d0: a8a9 703d aec5 783c 40cb 5e3c 8879 643d
000002e0: f9fb 95bd b1eb 5cbd 620f cebc 719b 04be
000002f0: 060c 583d 53bb 4f3d 9906 783c 1b50 e9bd
00000300: 9639 b4bd ee47 883d 20cd 37bd da09 debd
00000310: eda4 55bd 4a35 97bd b831 753d b2d6 0abd
00000320: 10b1 cebd b85f 30bd 6ee2 16bd b8e2 a43c
00000330: 5f5e ae3d ff58 a7bd df37 c1bd 46e1 3f3d
00000340: cc7c 41bd 1f8f ba3d cbc6 cd3d 7dfc b43d
00000350: 4759 56bd c51f e23d 683f e63d f710 97bd
00000360: b458 ff3d 7a30 f83d d607 31bb 707b c0bd
00000370: d9ea 013d 0953 e9bc 509f ecbc 9e53 f7bd
00000380: 0e48 4d3d bc28 ebbc d996 bc3d e16e 0e3e
00000390: b9af 663d 092e 2d3d d976 95bd dee2 07bd
000003a0: cff6 90bd a577 c6bd 5463 e33d e4de 83bd
000003b0: 9511 033e ed87 8cbc 4463 1d3d 8ff7 943d
000003c0: d896 b1bd 51eb 85bd 5a7d 87bd 51d6 81bd
000003d0: 4584 e03d 3b53 833d a680 9c3d 8553 c43c
000003e0: 9eb6 a3bd b46b f63d 930e 053d 89d2 9d3c
000003f0: 7e92 e1bd 3248 883d cd04 9fbd da2b ae3c
-0.06363706 0.07952142 0.083752714 0.087848425 -0.052616246 0.107574 0.05144964 -0.066354945
0.078502536 -0.029495848 -0.029701227 0.1077836 -0.025793279 0.11730876 0.052991487 -0.031976093
-0.10840392 -0.11185292 -0.0052253795 -0.07942957 -0.10158581 -0.116870865 0.044850066 -0.090259135
0.10410384 -0.01136047 0.054913893 -0.05504947 0.122610465 0.044962548 0.027133947 -0.03993824
0.1290583 -0.05195479 -0.10750159 -0.13003719 -0.11410987 -0.08802021 0.095031746 -0.105686694
-0.01807067 0.12674327 -0.03816178 0.015100044 0.076910675 -0.054217804 -0.044356033 0.032567658
-0.07424039 0.08411736 -0.09974989 -0.06744695 -0.100474164 0.06507812 -0.003664058 -0.11912854
0.087845646 0.087664604 -0.083569854 0.0074897464 -0.017558195 0.0008448663 0.019358728 -0.123489246
0.06843216 -0.12026325 -0.07414622 0.06858644 0.114147335 0.08123876 0.11499132 -0.052470185
-0.038222194 0.026109288 -0.11552669 -0.11558732 0.095127076 -0.10903266 -0.12721048 -0.05159812
-0.051266853 -0.06274115 0.10226327 0.10918404 -0.035026763 0.04263425 -0.031091725 0.022821436
-0.08505639 0.027021298 -0.004797914 -0.06872364 0.022029294 0.017738752 -0.09204068 -0.10525286
0.11151497 -0.017193014 0.064704806 0.003705263 -0.048967518 0.03152469 0.027083283 -0.15303585
0.015933966 0.09818703 0.04108996 0.13042343 0.089331 -0.10766943 -0.0007972937 0.106231496
-0.07262109 0.06443007 0.017562311 0.073366836 -0.00050086644 -0.08725815 0.0104434285 -0.055835728
0.08787243 0.0090470975 -0.05565256 0.0513615 -0.122586004 -0.10037744 0.03757211 -0.06361548
-0.060195107 0.03218001 0.010578896 -0.08457082 -0.09288725 0.11502862 0.031085135 -0.11526855
0.08384354 -0.061454374 0.061167885 0.08679039 -0.07867508 0.007953356 -0.01277622 -0.08964661
0.05031735 -0.005165182 -0.0051778904 -0.08966186 0.023234103 0.09095294 0.01543286 -0.054218065
-0.04602006 0.05064214 -0.100941435 0.05811486 -0.025422689 0.1012706 -0.04357303 -0.13047057
0.055666648 0.10067586 0.1404432 -0.08324047 -0.0967037 -0.09226787 0.048523463 -0.12307196
-0.12608398 -0.14251475 -0.051130403 -0.09664318 -0.052245162 -0.1305016 -0.122784324 -0.039192338
0.03300069 0.07618871 0.09371653 -0.05848665 0.058755547 0.015183849 0.013598263 0.055779964
-0.073234506 -0.05393571 -0.02515382 -0.12949921 0.05274584 0.050715756 0.015138292 -0.11392232
-0.08800046 0.066543445 -0.044873357 -0.10841723 -0.05215924 -0.07383211 0.05986187 -0.033896156
-0.10092366 -0.043060035 -0.036837034 0.02012764 0.085140936 -0.081712715 -0.09434485 0.046845697
-0.047238156 0.091093294 0.100476824 0.08837221 -0.052331235 0.11041216 0.112425625 -0.07376283
0.12468091 0.12118621 -0.0027012727 -0.09398544 0.03171811 -0.028481977 -0.02888456 -0.120764956
0.050117545 -0.028705947 0.092084594 0.13909484 0.056319926 0.04228023 -0.07298059 -0.03317534
-0.07078325 -0.09690789 0.1110293 -0.064389974 0.12799676 -0.017154658 0.038424745 0.072737806
-0.08671349 -0.06539024 -0.06615706 -0.06339706 0.109627284 0.06412359 0.07641725 0.023965606
-0.07993816 0.120322615 0.032484602 0.01926543 -0.11014269 0.06654395 -0.077645876 0.021261144

bias f4 [256]
00000000: 0403 993d 5198 573d 1df6 493d 3b03 283d
00000010: 6c73 a4bd e8eb f53d 84fb e93b 8b7c 39bd
00000020: a177 c8bd 8b24 f43d 66ab c1bd 0b00 d0bc
00000030: 7739 a13d 7dfb 71bd bd12 d7bc 80b7 b5bd
00000040: 948d b2bd a47d d83d 643f f3bd ebbc 5dbc
00000050: 59a1 1a3c 6f91 f13d fa74 c3bc eec4 c73d
00000060: 5a42 2abd 8a51 a9bd f2db ebbd edd6 9abd
00000070: c685 9f3d 578e a3bb 921c babd f585 f43d
00000080: 1e0e 2e3c 76fc 18bd c0df cfbc 0bc3 993a
00000090: b346 36bc 1b24 573c a278 053e 44bc 50bd
000000a0: 06dc ae3d 55e1 053e e827 22bd a54d fcbd
000000b0: 484d eb3d c273 793a f1a4 9fbd 7aa1 00be
000000c0: 7c57 8dbd efaf f5bd 3a98 653d 85e1 4c3d
000000d0: 7c6e 2c3d 3f8f 98bd 6fc2 8c3d c6eb f1bd
000000e0: 87a1 f23c 06bd e8ba 5869 713c b1c2 93bd
000000f0: 5e68 a0bd 874d 34bd 955c 163d 0c20 483d
00000100: 9924 8cbd 8ab0 443d 5be9 dcbd 04e5 13bd
00000110: a718 e63d 7d6d 00be fbc0 17bd dd3c de3d
00000120: a352 62bc fa61 bc3d 11ee d3bd cd06 993d
00000130: 06d6 ca3a 5ab2 423d c279 dfbc 5f69 ca3d
00000140: 260e 043e 1ff4 bf3b 179d dcbd f714 19bd
00000150: 77b7 4f3d 4f15 c13d c4fc dbbd 12ef f5bb
00000160: 04fd e83d 4f4c a9bd 5fbb 9fbd 34af f53d
00000170: 91a5 d93d 38d2 623d 4468 513d 4170 cabc
00000180: 674e b8bd 2c9d 01be 67a2 ef3d 2256 d03d
00000190: 4e00 793d e1e0 7e3d 36d0 22bc 79f4 95bd
000001a0: dfc1 c5bd c12f f0bd e82a eebd cb0b c33d
000001b0: 810f afbd 0f4f 8db9 3663 163d 0161 6a3d
000001c0: e017 b43d 9257 f0ba fde7 cc3b 8400 53bc
000001d0: 2899 233d d494 e4bb 5f5c 61bd a2a5 7b3d
000001e0: 95eb 563d b9b7 78bd e573 c93d 1858 5e3d
000001f0: 028c 9a3c fbe6 503d c84d babd 16b9 9c3d
00000200: b720 f6bd 0e66 a7bd 2a50 82bd 1ce6 d0bd
00000210: 6c63 853d d339 1c3d ccc7 01bd b488 583d
00000220: 6f81 d8bd d057 1bbd 5981 283d 4f88 c13d
00000230: 5749 933d 034e e6bd 3579 b2bd e59c b5bd
00000240: 204e d63d 06bb 963c efb6 adbd 518a af3d
00000250: c8fb 8cbd 730f b6bd 62b1 903c 490b 823d
00000260: 8888 86bc 0af0 b2bd 84f9 b83d c852 f4bd
00000270: 7ed0 5bbc 33a5 b13c 2e10 8cbd 971b 3b3d
00000280: 9187 eebc b4ef 4bbd e099 af3c bdc1 b23d
00000290: 63b4 edbd 646d 373c 8e9e 383d 16a2 043e
000002a0: f856 95bd a9af 1a3d 135f af3d b62f 00be
000002b0: 0535 c6bd dc66 9d3d d25e afbc a7db e93d
000002c0: 56a4 ab3d afa1 b3bd 2242 f23d 240b 45bd
000002d0: 1b24 85bd 2a6d 26bd 7ba8 1d3d 31ce f03d
000002e0: 9d30 e73d 36af b1bd 2bf9 803c 4a97 f9bd
000002f0: d4e5 b8bd 80b6 e43d 7212 8f3d 1af5 dabd
00000300: 344c d9bd 59f3 8abd ec72 d83b 589e adbc
00000310: 4914 8a3d 2f80 f8bd b56d 7c3c b0bb ac3a
00000320: 8852 c4bd abff ca3d 3831 bd3d bdc6 5c3d
00000330: 17ab fe3d a057 b43d 322c f83c d0dc edbd
00000340: ad61 4cbd 4d07 5b3d 3d7c 1d3c e337 603c
00000350: 066d a13b 671c 343d b3c2 e83c 4c03 94bd
00000360: aac5 3b3d 2dce cd3d b1e9 0a3d 29a4 3a3c
00000370: 1f2f 9ebd ade1 c3bd 4e86 6dbd 1643 a93d
00000380: 4ed8 91bd 7848 d5bc 93e0 483d 0070 1f3d
00000390: 65d3 aa3d 92fc 023e 9495 3f3c 96b6 f6bd
000003a0: 9529 c43d d835 523b ace3 afbd ba1b ec3d
000003b0: 047c c1bd b9aa 84bd a3a9 e33d 7ab8 653b
000003c0: 89ef e63c b08b 01bd 5183 b63c 6969 b7bc
000003d0: e261 e53c 5256 1abd ad88 2e3d fe50 d2bc
000003e0: 5344 c1bd 875b b0bd 4e05 7bbc 382f ce3b
000003f0: 777f c33d 895b 80bd ecda 08bd 54ee 18bd
0.07471278 0.052635495 0.049306978 0.041018706 -0.080298275 0.12007886 0.0071405787 -0.04528479
-0.097884424 0.119210325 -0.0945652 -0.025390645 0.07872289 -0.05907773 -0.026254052 -0.088728905
-0.0871841 0.10570839 -0.11877325 -0.013533811 0.009437882 0.117953174 -0.02385949 0.09754358
-0.041567184 -0.082675055 -0.115165606 -0.07560525 0.07789187 -0.0049913335 -0.090874806 0.11939613
0.010623483 -0.03735014 -0.025375247 0.0011731101 -0.011125254 0.013131167 0.13034299 -0.050960794
0.0853806 0.13074239 -0.03958884 -0.12319497 0.114893496 0.00095158454 -0.07795132 -0.12561598
-0.06901452 -0.11996447 0.056053378 0.05001976 0.042097554 -0.07449197 0.06873023 -0.11812548
0.029618038 -0.0017756529 0.014734589 -0.07214869 -0.078324065 -0.04401925 0.036709387 0.048858687
-0.06842918 0.048019923 -0.107866965 -0.03610708 0.11235171 -0.12541766 -0.037049275 0.108514525
-0.013813647 0.09198375 -0.10348142 0.07472 0.0015475161 0.04753337 -0.027279738 0.09883379
0.12896022 0.005857959 -0.1077215 -0.03737351 0.050712075 0.094278924 -0.107415706 -0.007505306
0.11376384 -0.08266508 -0.0779941 0.11996308 0.106272824 0.05537626 0.051124826 -0.02471173
-0.08999329 -0.12657613 0.11700898 0.101726785 0.060791306 0.06222618 -0.009937337 -0.0732202
-0.096561186 -0.11727858 -0.116292775 0.09523734 -0.08547879 -0.0002695252 0.03671571 0.057221416
0.08793616 -0.0018336645 0.006253241 -0.012878541 0.039940983 -0.0069757495 -0.055019733 0.061437257
0.052470762 -0.060722087 0.09836558 0.05428323 0.018865589 0.05100153 -0.09096867 0.0765249
-0.120179586 -0.08173762 -0.06362946 -0.1020014 0.06513104 0.038141083 -0.03168468 0.052864745
-0.105715625 -0.03792554 0.04113898 0.09449827 0.07191723 -0.11245348 -0.08714525 -0.08867816
0.1046412 0.018399727 -0.084821574 0.08571304 -0.06883961 -0.088896655 0.017662708 0.06349809
-0.016422525 -0.0873719 0.09031966 -0.11929852 -0.013416408 0.021685218 -0.068390235 0.04568061
-0.029117377 -0.049789146 0.021435678 0.08728359 -0.11606672 0.011195514 0.045073085 0.12952456
-0.072919786 0.03776518 0.08563056 -0.125182 -0.096780814 0.076856345 -0.021407519 0.114188485
0.08380954 -0.08771073 0.1182902 -0.048106328 -0.06501027 -0.04063145 0.038490754 0.11758078
0.11288569 -0.08675997 0.015743813 -0.12187059 -0.09028211 0.111676216 0.0698594 -0.10691281
-0.10610238 -0.06784696 0.0066054966 -0.021193668 0.0674215 -0.12133824 0.015407016 0.0013178494
-0.09586054 0.09912046 0.09237903 0.05390047 0.124349765 0.08805776 0.030294511 -0.11614382
-0.04989784 0.05347376 0.00961214 0.013685199 0.0049263267 0.0439724 0.028413152 -0.07227191
0.045842804 0.100490905 0.03391427 0.011391678 -0.077238314 -0.095645286 -0.05798941 0.08264749
-0.07121335 -0.026035532 0.049042296 0.03892517 0.083411016 0.1279166 0.011693377 -0.12046544
0.09578244 0.003207555 -0.08588347 0.11528726 -0.09447482 -0.06477875 0.1111634 0.0035052584
0.028190391 -0.031627357 0.022279413 -0.02238913 0.028000776 -0.037679978 0.042610813 -0.025673386
-0.0943686 -0.086112075 -0.015321089 0.00629225 0.09545796 -0.06267459 -0.033411905 -0.037336662

weight f4 [256]
00000000: 23db 7d3f dee5 803f ba28 803f a4d4 7e3f
00000010: 03ac 7f3f 8b67 803f dc79 823f bedf 803f
00000020: 977d 7e3f 35ad 7f3f d113 7d3f e921 803f
00000030: 53a5 7c3f 6d2d 803f 498a 813f 3715 813f
00000040: 0c56 803f 0634 803f 2736 803f eb27 803f
00000050: 3da4 803f 2b5f 803f f53d 7d3f 116c 7d3f
00000060: 4928 7c3f f692 803f ae47 803f 5db5 7d3f
00000070: e211 803f a637 7c3f 4f77 823f 4179 803f
00000080: b0ce 7c3f 2971 7e3f f4be 7f3f 3fae 7c3f
00000090: 715a 803f 006e 803f c9f2 7c3f 9729 7d3f
000000a0: 2d5b 7f3f b254 803f 61cc 803f 4f9b 803f
000000b0: 3f00 7c3f 2f14 813f a930 7c3f 0611 803f
000000c0: fab2 803f c1ce 7c3f cf15 7c3f 1a48 803f
000000d0: 3f16 813f ad91 7f3f baa0 7d3f 2a39 803f
000000e0: 6a5b 803f 5739 813f 0f9a 7b3f be33 803f
000000f0: f5c5 7e3f 4e66 803f 5473 813f 42a6 803f
00000100: 2757 7c3f ec07 803f 5b6a 803f 863a 803f
00000110: 6dd8 7f3f acde 7c3f 3315 7d3f 67fe 7e3f
00000120: 03c2 803f 973a 803f eb11 813f 50ea 803f
00000130: 8b8a 7d3f 8fcf 823f 79d9 803f eaed 803f
00000140: 76fd 7f3f f22d 7c3f c87e 803f 2584 803f
00000150: e052 7e3f 019a 803f aac0 803f ca8e 803f
00000160: e25b 803f e141 803f 3aec 7c3f 7b74 803f
00000170: 18c2 7f3f cb06 803f a09b 803f 2cac 803f
00000180: f729 803f 7e4b 803f 6219 803f d69f 7d3f
00000190: 3e67 803f b9d0 803f 6477 7d3f fc8f 7d3f
000001a0: 92c4 803f 5207 7d3f 6802 803f 06dd 843f
000001b0: 82bd 7b3f b472 7d3f 687c 803f 7947 803f
000001c0: 8aeb 7f3f ab93 803f a23d 803f f7e5 7f3f
000001d0: 6e6a 803f f851 803f dad2 7b3f 628a 7e3f
000001e0: 0510 813f 48e2 7b3f 7255 7f3f 8a92 803f
000001f0: 9c31 803f 2b21 803f dd49 803f bbfa 803f
00000200: 2377 803f da30 813f eff7 7e3f be8d 7d3f
00000210: fb33 803f 8233 7d3f 52b6 803f 07e7 7c3f
00000220: a91c 803f 16d6 7c3f c495 803f 4c68 803f
00000230: d63c 803f 3868 803f 0b4f 7f3f 68ef 7f3f
00000240: b63a 7d3f 8217 803f 5ff5 7f3f 3544 803f
00000250: 2990 803f 9a74 7d3f 247d 803f f488 803f
00000260: 33cb 803f bce0 7e3f 4f4b 803f 53f2 803f
00000270: 246f 803f a6fa 7e3f de2b 813f 38ee 813f
00000280: 5bdf 833f 9805 7c3f fe33 7d3f 1c1d 7c3f
00000290: 1b69 7e3f fd42 7f3f 927f 813f c5c1 7b3f
000002a0: 526f 7f3f f31c 7e3f 389d 803f 8b69 803f
000002b0: 47bf 803f 017b 7d3f 5659 7e3f 689e 803f
000002c0: be0c 813f 22a7 803f ba4c 813f 6dec 803f
000002d0: e83e 803f 4334 7e3f ed6e 803f 8a1e 803f
000002e0: f719 803f 78ea 803f ca36 7f3f 3f03 7f3f
000002f0: 8b58 813f 7e6d 803f ac18 7f3f 2b96 813f
00000300: 80f6 7c3f 2002 813f c9c5 7b3f 00ac 7c3f
00000310: 91ed 803f 4f3b 803f 341c 803f 8e5a 7d3f
00000320: cc15 803f e41b 823f ac69 7d3f cac2 803f
00000330: 8019 813f e497 803f ab4f 7b3f 8144 7d3f
00000340: 864c 823f 0f2a 823f 9617 813f 4d5e 803f
00000350: 7255 803f 3b8b 803f b8a2 803f 4f50 813f
00000360: ef93 7f3f 0df5 7f3f 6106 803f ec88 7e3f
00000370: bec6 803f d39e 7e3f 744c 7f3f 3643 7d3f
00000380: 8346 7d3f 6b4a 7f3f 1ac9 7a3f b185 7d3f
00000390: 6d59 7e3f 8e18 823f dc28 803f c427 7e3f
000003a0: df6a 813f d9fa 7f3f 7594 7e3f 417c 7e3f
000003b0: 449c 803f 5341 803f ad9c 803f f9e7 803f
000003c0: cb94 7e3f cd60 7e3f 88f0 7e3f 0fcf 7b3f
000003d0: c885 803f aa44 803f fe7e 803f 844c 823f
000003e0: 9195 813f 06c4 7d3f 08b5 803f 4bd7 803f
000003f0: 29e4 7f3f ea1a 7e3f bc36 7c3f 0449 813f
0.991625 1.007015 1.0012429 0.99543214 0.99871844 1.0031599 1.0193439 1.0068281
0.99410385 0.9987367 0.9885836 1.0010349 0.98689765 1.0013863 1.0120326 1.0084599
1.002626 1.0015876 1.0016526 1.0012182 1.0050122 1.0029043 0.98922664 0.9899302
0.9849897 1.0044849 1.0021875 0.99104863 1.0005457 0.9852241 1.019266 1.0037004
0.9875288 0.9939142 0.99900746 0.9870338 1.00276 1.0033569 0.9880796 0.98891586
0.997485 1.0025847 1.0062371 1.0047396 0.98437876 1.0084285 0.9851175 1.0005195
1.0054619 0.9875298 0.9847078 1.0022004 1.0084914 0.9983166 0.99073374 1.0017445
1.0027897 1.0095624 0.9828195 1.001579 0.9952081 1.0031221 1.011332 1.0050738
0.98570484 1.0002418 1.0032457 1.001786 0.99939615 0.9877727 0.9886047 0.9960694
1.0059208 1.001788 1.0083593 1.0071507 0.99039525 1.0219592 1.0066367 1.0072606
0.99996126 0.98507607 1.003869 1.0040327 0.9934521 1.0046998 1.0058796 1.0043576
1.002804 1.0020105 0.98797953 1.0035547 0.9990554 1.0002073 1.0047493 1.0052543
1.0012807 1.0023038 1.0007746 0.99072015 1.0031507 1.0063697 0.990103 0.9904783
1.0059988 0.98839295 1.0000734 1.0379951 0.9833604 0.9900315 1.0037966 1.0021812
0.9996878 1.0045065 1.0018809 0.99960274 1.003248 1.0025015 0.9836861 0.99429905
1.0083014 0.9839215 0.99739754 1.004472 1.001514 1.0010122 1.0022541 1.0076517
1.0036358 1.0093033 0.99597067 0.99044406 1.0015863 0.9890672 1.005564 0.9879002
1.0008746 0.9876417 1.0045705 1.0031829 1.0018566 1.0031805 0.99729985 0.9997468
0.9891771 1.0007174 0.9998378 1.0020815 1.0043994 0.99006045 1.003819 1.0041795
1.0062011 0.9956167 1.0022982 1.0073951 1.0033917 0.9960121 1.0091512 1.0150824
1.0302538 0.98446035 0.9890746 0.9848192 0.9937913 0.9971159 1.0117056 0.98342544
0.99779236 0.99262923 1.0047979 1.0032209 1.0058373 0.99015814 0.99355066 1.0048342
1.0082014 1.0051005 1.010154 1.0072151 1.0019197 0.99298495 1.0033852 1.000932
1.0007924 1.0071554 0.99692976 0.9961433 1.0105146 1.0033414 0.9964702 1.0123953
0.9881363 1.0078773 0.9834867 0.9869995 1.00725 1.00181 1.0008607 0.989663
1.0006652 1.0164762 0.9898937 1.0059445 1.0085907 1.0046353 0.9816844 0.98932654
1.0179603 1.0169085 1.0085323 1.0028778 1.0026076 1.004249 1.0049658 1.0102633
0.99835104 0.9998329 1.0001947 0.99427676 1.0060651 0.99461097 0.99726033 0.9893068
0.9893572 0.9972293 0.97963107 0.9903212 0.993552 1.0163743 1.0012469 0.9927943
1.011074 0.9999214 0.9944528 0.99408346 1.0047688 1.0019935 1.0047814 1.0070792
0.9944579 0.99366456 0.9958577 0.9836282 1.0040827 1.0020955 1.0038755 1.0179601
1.0123769 0.99127233 1.0055246 1.0065702 0.9995752 0.9925982 0.9852102 1.0100408

bias f4 [256]
00000000: 4fa2 95ba 7879 bd3b ceb2 5039 f0c8 043c
00000010: bffa e93b 0e05 c53b 61fc 983b ae11 7b3b
00000020: b309 073b 1cc8 db3b daa9 23bb f4fc af3b
00000030: 0be0 7dbb 3213 eaba ee2f fbba 522d 3a3c
00000040: 1833 9bbb e106 ee3a edde fbbb 0513 23bb
00000050: 2b81 80bb 8995 76ba 357f 3dbb c967 a7bb
00000060: dd62 92ba ad4a 753b 6b94 173c 33d3 3fbb
00000070: c2a1 51bb f7ee 6a3b 287c b03b f663 edba
00000080: 036f 59ba 0192 c3b9 4ef0 90ba 4360 babb
00000090: 88c4 f5ba d558 73ba a211 dfbb 2b27 27bb
000000a0: 19cb bcbb ff87 0e3b 9d7e e73b 440a 7e3a
000000b0: 75e5 d6ba 1ada e73b 8065 14bc 7bed 43bb
000000c0: 2bb7 173c 8ce4 013b fbda e73b 6fd5 da39
000000d0: e7c5 513c aaaa 013c a6ed 35bc a6c0 50ba
000000e0: c677 f33b 7c73 b03b 88a4 b5bb 9405 703b
000000f0: bda3 abb9 c10b 263c 7a6c 2a3c 6c33 003c
00000100: d0f0 90bb 59f6 8d3b e8e2 c43a 4613 f33b
00000110: 5669 45bb 06c6 ed39 1141 373b 0b51 b1ba
00000120: 9ae3 2ab9 91b7 23bc 601c b53b 3c9c 1a3c
00000130: 942e 3cbb e5cc 023c fee9 7c3c b404 cf3b
00000140: 2e12 8bbb 3e60 e8bb 6094 123c 6bf9 f03b
00000150: 64b0 2dbc 2263 943b b0ec 553b d0ae 023b
00000160: 3a16 0e3b 5a75 ff3b fc2f 84ba 06dc c539
00000170: 91bf 6dbb 399a 0ebb c9be 3d3b 130c 163c
00000180: b3ea a43a 4f1e 233c df03 813a ed91 7f3a
00000190: 687c 753b bc53 ddb9 77ac 13bc 6dd8 38bc
000001a0: adaa 283c 707a 7c3b 97af e239 8e49 4e3b
000001b0: ef91 d53b e120 64bb f071 dd3b 765c 1fbb
000001c0: 1f75 0a3b 1144 bc3b 2a4e 90bb 937d 12ba
000001d0: 6913 12bb ca5b 393a d2ee 9cbb c266 ceba
000001e0: 7208 303b 62c7 9ebb d96d cebb d1be bb3a
000001f0: 815e b43b a320 a43a 9242 aeba c31b a93b
00000200: e605 f2ba ae9f 2a3b b034 e13a a656 93ba
00000210: 4406 1d3b 6e87 5cb9 6d45 843b e436 8dbb
00000220: fe8a 19bb 7cd6 a6b9 b0b9 003c 072d 1d3c
00000230: 411d 7b3a a25a e73b 2ac9 1b3a f58f 95bb
00000240: f985 eabb 1b3f 593a d77f f937 bb97 57bb
00000250: 57f4 063c 6c5b ab39 74c9 bd3b c16f ce3a
00000260: 5f52 973b 3e2d d639 d64d de3b 07da fbb9
00000270: 8d13 af3b 103a 753b 2e07 863b ed5f 123c
00000280: 98bd fe3a 0485 aaba a6f8 b8ba f1c7 05bc
00000290: c71e ac3b 3f3c 97bb 0187 163c 6a47 71bb
000002a0: 404c d43b 412d 893b 549c bf3b a852 223b
000002b0: 01e2 703b a88e c237 4e22 053b 6a9a 063b
000002c0: e5b2 d73b 09fc 3b3b 2cd5 2f3c 11ef 5f3c
000002d0: 4ebe f33b 2d73 3bbc c09c 10bb c959 0a3b
000002e0: 9858 e83b 7d11 d43b dd6b 9a3b a390 bf3b
000002f0: 5854 8d3c ed86 ba3b fc43 383b 49e6 343b
00000300: ead8 693b 7393 623c 7297 12bb de5b 943b
00000310: e26f c23b f70c a23a 3a9c 29bc b283 93bb
00000320: 8c89 2bbb f730 743b db36 42bb 347f c53a
00000330: 2571 833b eb85 e139 20ad 5db9 94ae 463b
00000340: b38e 5a3a 982a a73b c653 063c 7002 b13b
00000350: 0771 edbb 92a7 a63b a14c 133c b901 343c
00000360: 8b3e 7d3a 2532 c13b abda e43a a82f 12bb
00000370: 0a95 c93b 9ff2 3cbb 2b00 6bbb 5dd0 d7ba
00000380: 622a 4ebb 1d05 dfba 7fab 8c3b 9a3b 293b
00000390: 345f f43a a307 233c f476 c03b 1f6b 34bb
000003a0: 65bc e13b ac84 5dbb 60e5 60bb 37c2 c2ba
000003b0: 74d2 e03b d6c9 35bb 9e4f 943b d551 7d3b
000003c0: 7c5d aebb 7113 f73a 479c 0a3b 5085 c9bb
000003d0: 37c7 213c 399c 57bb 7fef 1a3b 692a aa3a
000003e0: 2a94 b03b 505a df3a 8bca 8f3b a69d 913b
000003f0: 268e 8fbb aecd 863b f21f 2abc 8f54 373c
-0.001141617 0.0057823025 0.00019903036 0.008104548 0.007140487 0.0060125655 0.004668758 0.0038310098
0.0020605146 0.0067072045 -0.0024973066 0.0053707305 -0.0038738276 -0.0017858504 -0.0019164064 0.011363344
-0.0047363155 0.0018160009 -0.007686487 -0.0024883163 -0.003921648 -0.0009406438 -0.0028914933 -0.0051088077
-0.001116838 0.0037428543 0.009251694 -0.0029270172 -0.0031987284 0.0035848 0.0053858943 -0.0018111456
-0.0008294435 -0.0003730208 -0.0011057945 -0.005687745 -0.0018750587 -0.00092829514 -0.006807522 -0.0025505524
-0.005761516 0.002174854 0.007064654 0.0009690861 -0.0016395288 0.0070755603 -0.009057403 -0.0029896188
0.009259979 0.0019820062 0.007075665 0.0004173922 0.012803531 0.007914225 -0.011104023 -0.0007963277
0.0074300496 0.0053848606 -0.0055432953 0.0036624419 -0.00032737656 0.010134638 0.010401839 0.00782476
-0.0044232383 0.0043323454 0.0015021237 0.007418069 -0.00301226 0.00045351702 0.0027962367 -0.0013528181
-0.00016297252 -0.009992496 0.005527064 0.009436663 -0.0028714286 0.007983421 0.015436647 0.0063176993
-0.0042441105 -0.007091551 0.008946508 0.0073539517 -0.010601137 0.004528419 0.0032642297 0.0019940622
0.0021680729 0.007795972 -0.0010085101 0.00037738698 -0.0036277513 -0.0021759404 0.0028952828 0.009158152
0.0012582153 0.009955957 0.0009843073 0.00097492227 0.0037458185 -0.00042214792 -0.009013287 -0.011282069
0.0102945985 0.0038525127 0.00043236904 0.0031476947 0.006517641 -0.0034809636 0.006757967 -0.0024316586
0.0021126939 0.005745419 -0.004403849 -0.000558817 -0.0022289401 0.00070708676 -0.004789212 -0.0015747177
0.0026860503 -0.0048455456 -0.006299716 0.0014323835 0.00550443 0.0012521934 -0.0013294986 0.00516078
-0.0018464893 0.0026035118 0.001718184 -0.0011241033 0.0023960033 -0.00021031286 0.0040365965 -0.004309522
-0.0023428793 -0.0003182179 0.007856771 0.009593255 0.00095792493 0.007060365 0.00059427565 -0.00456428
-0.007157084 0.00082872965 2.9742643e-05 -0.0032896835 0.008236966 0.00032683776 0.0057918373 0.0015749858
0.0046179737 0.0004085097 0.006784181 -0.00048036894 0.005342907 0.003741864 0.0040902114 0.008934003
0.0019435165 -0.0013009612 -0.0014112189 -0.0081653455 0.0052526924 -0.004615336 0.009187461 -0.0036816248
0.0064788163 0.004186303 0.005847493 0.0024768505 0.0036755803 2.3193032e-05 0.0020314637 0.0020538815
0.006582605 0.002868416 0.0107319765 0.013667838 0.0074384576 -0.011441034 -0.0022066087 0.0021110645
0.0070906393 0.0064718113 0.0047125653 0.0058460995 0.017252132 0.005692354 0.0028116694 0.002760308
0.003568227 0.0138291 -0.00223681 0.004527553 0.0059337476 0.0012363483 -0.010352189 -0.0045017833
-0.0026174514 0.003726063 -0.0029634747 0.0015067817 0.0040112906 0.0004301512 -0.00021140696 0.003031646
0.0008337304 0.005101513 0.008198684 0.005401902 -0.00724614 0.005085894 0.008990438 0.010986739
0.0009660504 0.0058958703 0.0017460188 -0.0022306237 0.0061518 -0.0028831137 -0.0035858254 -0.0016465295
-0.0031458368 -0.0017015074 0.004292905 0.0025822879 0.0018644095 0.009950551 0.0058735553 -0.002752967
0.0068889135 -0.0033801002 -0.0034316406 -0.0014858906 0.0068610255 -0.0027738712 0.0045260927 0.0038653512
-0.005321203 0.0018850398 0.0021150277 -0.0061499253 0.009874157 -0.0032899512 0.0023641286 0.001298261
0.0053887563 0.0017040465 0.0043881587 0.004443842 -0.004380959 0.0041138744 -0.010383593 0.011189594

running_mean f4 [256]
00000000: 8a71 32c2 351d a3c3 fc72 8e43 87b6 55c3
00000010: 39b6 9443 f04a 2fc3 c14b 3d44 ecb2 6743
00000020: a608 b143 3259 ce43 0d6a 18c3 a03a 93c2
00000030: dd8d 40c3 fd17 e8c2 cc32 2344 ae2c 5ac3
00000040: a9ad dc42 8acc cd43 53d8 91c3 3ff6 a643
00000050: 50c6 9642 3585 e9c1 c897 6943 a32d 75c3
00000060: 8fd3 73c3 86d4 9ac3 58bc 7a43 bca3 ad43
00000070: 27b9 07c3 7fcf 1742 6578 e6c3 e779 3fc3
00000080: 3985 d2c1 a255 9cc3 7d69 c6c3 17be 8ac2
00000090: e1c1 a0c1 5e4d 37c3 083c 20c1 1cb9 9a43
000000a0: 199c cdc3 f3f3 6a42 872c 8dc3 abf0 a543
000000b0: bbe2 6fc3 efc1 4e42 1220 dbc2 97b4 8a42
000000c0: f21c b443 9575 83c3 f278 7fc3 8a57 1342
000000d0: dfbf 55c3 d923 df41 5463 6343 8ec0 7dc3
000000e0: 597c 3a42 c4d9 8f42 ccbc de42 a06f c043
000000f0: c429 1b42 53f5 8f42 3e9e c0c2 b202 6943
00000100: 9569 71c3 4d6e bec1 0c1c c941 1c19 a5c1
00000110: ec67 8e43 505a 40c2 0f81 46c3 e5c2 1243
00000120: 189f 9a42 8eef 97c0 1a74 5bc3 ed61 8d43
00000130: 79ac 5e43 454e e943 2821 2841 907e 00c3
00000140: 8a88 44c2 0184 4641 ce8f 8d43 78b0 2043
00000150: 5b97 07c2 27e0 9cc2 3003 1143 6ed9 fe42
00000160: ede8 c242 ffb1 4643 23e2 68c3 5018 d043
00000170: 42ce b543 df0d dd41 b912 93c1 bf34 5443
00000180: e7ee e6c1 4e7e f042 fbcb eac2 ab60 1a43
00000190: 5e11 c941 8020 88c3 4c8f 13c3 c1dc cd43
000001a0: 2444 03c3 2ae6 1b43 abd9 c4c3 fc72 3744
000001b0: 563e 73c3 25c2 be42 3634 4ac3 b77f e941
000001c0: bcf3 abc3 b698 a342 6dca f143 5dd7 36c2
000001d0: 3319 3143 3481 e643 cae0 8640 9bc8 15c2
000001e0: ae02 98c3 477b 41c3 c024 3143 6c41 3343
000001f0: 899c 4743 d164 3543 463c 9cc3 1e67 ba43
00000200: c1b2 9bc3 a02b a6c3 dfea b643 8d26 00c3
00000210: 487d 5643 f1c6 bfc3 5aa2 5ec3 2cd1 cec2
00000220: 63aa 8a43 e3ee 9343 77fc 3842 f2b9 7b43
00000230: 26c6 05c3 5082 f242 c339 6643 1ffe 7dc3
00000240: e8d6 b643 e8c8 8343 6014 a6c3 ba9f 18c3
00000250: 5161 3343 261b 3443 af94 aa42 652e 7c43
00000260: af5a 7ac3 f525 5b43 43db 3143 0f01 aac3
00000270: e661 bd42 9c01 ebc2 7c71 99c3 b956 9bc3
00000280: 544c 0044 7941 8142 9947 45c3 18a3 93c3
00000290: b70f 80c3 542b 5dc3 4ae4 cdc3 363a 8dc3
000002a0: bef7 a640 f2fd d542 7fc0 4b43 3bfa 95c3
000002b0: 4dc5 0a43 7f1a 8243 56ff 98c2 8ee8 43c3
000002c0: 1f56 8343 258b 3143 089a 95c2 b401 5ac3
000002d0: 9599 9741 f5b0 a9c2 906e b0c3 d8a8 f0c2
000002e0: b41c e0c2 15c0 c3c3 52a5 8243 93da 4fc3
000002f0: 855a dcc2 ade5 06c3 2098 1743 67b2 de43
00000300: 7930 d6bf b469 a4c3 2337 b5c2 bc27 1e42
00000310: 81b9 60c3 ef3e e5c2 1ce2 c343 5756 5043
00000320: 4198 8143 9db6 c443 0d03 1843 f58e 86c3
00000330: 5e71 b2c3 b0ca 82c3 8a28 f5c2 dd44 0543
00000340: 333b 0f44 7457 2644 a078 7942 ae25 0b42
00000350: 7183 d4c2 8ec6 b7c3 32c1 1643 8413 3d42
00000360: 0fe6 0543 2944 27c3 9d9d e043 421e 9843
00000370: a115 c5c3 9229 4ac3 44fb f042 03ae 1843
00000380: 1340 ed42 7edc a8c2 e8a7 65c3 146d 36c3
00000390: cdc3 0542 cca0 6ec3 69ba 8243 aeec 2e43
000003a0: 913b 2a43 b482 2843 5bc4 c5c2 742f ddc0
000003b0: 245b e842 22f9 82c3 f327 82c3 2f5c be42
000003c0: 7d08 69c3 16e8 8dc3 1223 b443 8c2d 0b42
000003d0: 66b4 9bc2 36a1 f641 aa6d 3343 f0fa 10c2
000003e0: 1dcd 75c3 6ef0 8e43 37ba 2ac3 1a72 ecc2
000003f0: e620 ba43 9d6e 8dc2 81df c1c2 c25d e243
-44.610878 -326.22818 284.89832 -213.713 297.4236 -175.29272 757.18365 231.69891
354.06757 412.69684 -152.41426 -73.6145 -192.55415 -116.04685 652.7937 -218.17453
110.33918 411.59796 -291.69003 333.9238 75.38733 -29.190042 233.5929 -245.17827
-243.8264 -309.66034 250.73572 347.27917 -135.72325 37.952633 -460.94058 -191.47618
-26.31505 -312.669 -396.82413 -69.37127 -20.094667 -183.30222 -10.014656 309.44617
-411.2195 58.73823 -282.34787 331.88022 -239.88567 51.68939 -109.56264 69.352715
360.22614 -262.9186 -255.47244 36.835487 -213.7495 27.892504 227.388 -253.75217
46.621433 71.92532 111.368744 384.87207 38.790787 71.97915 -96.30907 233.01053
-241.41243 -23.803858 25.138695 -20.63726 284.8119 -48.088196 -198.50414 146.7613
77.31073 -4.7479925 -219.45352 282.76505 222.67372 466.61148 10.508095 -128.49438
-49.13334 12.4072275 283.12347 160.68933 -33.897808 -78.4378 145.01245 127.42467
97.45493 198.6953 -232.88335 416.18994 363.6114 27.631773 -18.384142 212.20604
-28.866652 120.24669 -117.3984 154.37761 25.13348 -272.2539 -147.55975 411.72464
-131.26617 155.89908 -393.70053 733.79663 -243.2435 95.37919 -202.20395 29.18736
-343.90417 81.79826 483.58145 -45.710316 177.09843 461.0094 4.21494 -37.445904
-304.02094 -193.48155 177.14355 179.25555 199.61147 181.39381 -312.4709 372.8056
-311.3965 -332.34082 365.83493 -128.15059 214.48938 -383.55423 -222.63419 -103.40854
277.33115 295.8663 46.246548 251.72635 -133.77402 121.25452 230.22563 -253.99266
365.67896 263.56958 -332.15918 -152.62393 179.38014 180.10605 85.2904 252.18123
-250.35423 219.14827 177.85649 -340.00827 94.69121 -117.50314 -306.8866 -310.67752
513.1926 64.62788 -197.27968 -295.27417 -256.12277 -221.16925 -411.7835 -282.45477
5.217742 106.99599 203.75194 -299.95493 138.7707 260.207 -76.4987 -195.90842
262.67282 177.54353 -74.80084 -218.00665 18.949991 -84.84562 -352.86377 -120.32977
-112.05606 -391.50064 261.29156 -207.8538 -110.176796 -134.89717 151.59424 445.39377
-1.6733543 -328.8258 -90.60769 39.538803 -224.72462 -114.62292 391.76648 208.33727
259.18948 393.42667 152.01192 -269.11685 -356.88568 -261.5835 -122.57918 133.269
572.925 665.36646 62.367798 34.786797 -106.25672 -367.5512 150.75467 47.26906
133.89867 -167.26625 449.23135 304.2364 -394.16898 -202.16238 120.49075 152.67973
118.625145 -84.43065 -229.65588 -182.42609 33.44121 -238.62811 261.45633 174.92453
170.23268 168.51056 -98.88351 -6.9120426 116.17801 -261.94635 -260.3121 95.180046
-233.03316 -283.81317 360.274 34.79448 -77.85234 30.828716 179.42838 -36.245056
-245.80122 285.87836 -170.7274 -118.222855 372.25702 -70.71604 -96.93653 452.73248

running_var f4 [256]
00000000: be12 2f42 3a8a 2441 606f 0641 dc0f 2541
00000010: d4da 8f42 5fbb a441 d4d4 e741 18fd 7842
00000020: ee51 d841 7f6a 8941 13d9 6b41 83d2 b140
00000030: 34ba 6342 6fc0 0742 6d1c 2943 cd7c 6c42
00000040: 4e35 3241 cef6 6543 5ab1 3743 1416 6b41
00000050: ac8e 1a42 919c a942 ae94 8d42 4a50 d642
00000060: 93ce 8a41 61e8 4d43 a683 5f42 7cda 2343
00000070: efc5 a842 fc30 1341 bde7 0242 fca3 5c43
00000080: 5d22 4241 723d 7841 e113 4841 0254 a442
00000090: 0cf3 3442 1ae2 8342 f78b ca41 f7af 0e43
000000a0: 6a42 e043 48eb b041 7a87 1141 1cd4 4b41
000000b0: 6747 0c42 2c79 d340 e7bb a742 5949 9a42
000000c0: ff98 8342 773e 1f42 f6d2 4342 110e 7342
000000d0: 7e7d dd42 b1af 0643 cf5f dc41 4509 7642
000000e0: b1fe 7a42 6fc8 8f41 6b75 4f42 989c 1942
000000f0: d4fd 1c41 f672 b242 5eb6 d040 377d 2542
00000100: 7455 8142 df2d d141 21d2 b841 db44 e141
00000110: cec6 2143 c537 5742 0fdc ec42 591c 7f41
00000120: c4ca 6642 68d4 f040 e04b 1b41 a308 5142
00000130: 2c05 9c41 0cd2 b241 4dc9 9941 dc90 2742
00000140: 5235 5a42 c82a 7841 f83d 0143 2dbd f541
00000150: 0b10 8741 c4f6 3942 12fb 9d41 12b7 2b41
00000160: e5cd b841 9b63 0042 9918 a242 974d db41
00000170: 7a37 2642 29d0 b240 2c14 5341 f941 b842
00000180: 20cf 6142 7784 9f42 5ffb b241 746a 9342
00000190: 7dc7 4042 9585 9842 bba4 0142 afb1 1244
000001a0: b505 c342 851b ed41 ab91 8241 2633 0542
000001b0: cd61 a242 20ee e641 3f60 2642 6a48 ad42
000001c0: 7ec0 c440 8d9f 9d42 6c5d 8442 4618 8442
000001d0: 76b4 ad41 7b53 4041 40f0 8642 21a0 a341
000001e0: ec22 a841 2539 8b42 9d26 6942 7ab3 7842
000001f0: 9a41 1742 95ec 6442 9b2a e141 317e fc42
00000200: 6c95 1341 b506 1741 8bd9 a641 c212 9b40
00000210: 1674 8f42 993c f141 8d73 8441 b9a7 3642
00000220: 6661 1b42 5d43 8742 c25e 9642 dc32 1142
00000230: 2a44 4a41 67f9 0641 a80f b942 0008 4f43
00000240: 7fcc 0241 6d1e c940 eeef 3f41 87da 0242
00000250: eff8 4f42 91f4 6042 4b89 b741 eef2 0342
00000260: 5379 5a41 1abc 0744 ca35 f641 2ab7 9a41
00000270: a561 e141 2f80 5a42 e1dc 3d41 efa8 1241
00000280: 6e4c f341 fa28 de40 132e 9042 bc5d 7041
00000290: e444 eb41 d516 9c41 feb8 b641 5ee5 7342
000002a0: 70a6 eb41 12f4 3e42 c979 d641 b458 3c42
000002b0: 64ad 3142 2682 ab42 e5e5 9d42 2dbe ae40
000002c0: 396a 2642 c3ee 4143 9fce 2041 7ba1 7241
000002d0: d521 7342 6596 e841 3dc6 2641 0a5c 5242
000002e0: 6db3 2142 0ed7 0542 422b 0741 2e5a 9241
000002f0: 0ab8 4441 1a8c 9242 7b06 de41 b49c 6c41
00000300: 7b4f 6e42 97c2 8a42 5128 b543 f8ab 8842
00000310: 35d2 8342 f325 6441 6505 9243 8251 4241
00000320: 5b54 ca42 0944 d143 a173 8142 9405 9641
00000330: 23f2 5241 e3a9 8c42 8ee3 5a42 3c0f 0141
00000340: 03b9 6343 078e e841 b134 9d43 fec3 9c41
00000350: a04d 0542 0c28 9e42 fb0c 3f42 d58c 0241
00000360: 8367 ab43 c7ce 3741 5fd8 ec41 6740 8541
00000370: c1b2 0c42 b91e 3441 9083 a441 c5e2 a342
00000380: 7066 6e42 b038 cb42 0cac 9042 b0d2 3941
00000390: 7e1c 2241 b155 f840 f927 9f41 5eba 8342
000003a0: 43c6 da41 661e 1d42 9090 d140 c29d 4d42
000003b0: 0352 ba42 b699 df42 2fc1 8141 676e 9741
000003c0: d659 bf40 5902 2b41 0417 3e42 8554 2642
000003d0: 1839 8842 daaa 0342 7f3b 3a42 b377 d341
000003e0: 192b 3841 9e82 6b41 c121 5c41 6518 5742
000003f0: f377 6542 4985 ed40 571b 1642 6267 2142
43.768303 10.283747 8.402191 10.316372 71.9274 20.59149 28.97892 62.24716
27.040005 17.177 14.740497 5.556947 56.93184 33.937923 169.11104 59.121876
11.138014 229.96408 183.69278 14.69289 38.639328 84.80579 70.79039 107.156815
17.350866 205.90773 55.878563 163.85345 84.38659 9.199459 32.726307 220.64056
12.133389 15.515001 12.504853 82.16408 45.23735 65.941605 25.318342 142.68736
448.51886 22.114883 9.095575 12.7392845 35.06973 6.6085415 83.867 77.14326
65.79882 39.811 48.956017 60.763737 110.7451 134.6863 27.546782 61.509052
62.748722 17.972868 51.864666 38.402924 9.81197 89.22453 6.5222616 41.37228
64.6669 26.147398 23.102602 28.15862 161.77658 53.804462 118.4298 15.944421
57.698013 7.5259285 9.706024 52.258434 19.502525 22.352562 19.223291 41.891464
54.55207 15.510445 129.24207 30.717371 16.882833 46.490982 19.747593 10.732195
23.100534 32.09727 81.04804 27.412886 41.554176 5.58791 13.192425 92.12885
56.45227 79.75872 22.37274 73.70792 48.194813 76.2609 32.41087 586.7763
97.51115 29.638437 16.321127 33.29995 81.19102 28.866272 41.59399 86.64143
6.1484976 78.81162 66.182465 66.04741 21.713116 12.020381 67.46924 20.453188
21.017052 69.61161 58.28771 62.17527 37.814064 57.231037 28.145803 126.24647
9.22398 9.439137 20.856222 4.84604 71.72673 30.154589 16.556421 45.66379
38.845116 67.63157 75.185074 36.299667 12.641642 8.435889 92.53058 207.03125
8.174926 6.284964 11.996077 32.713406 51.9931 56.238834 22.942038 32.987236
13.65462 542.9391 30.776264 19.339436 28.172678 54.62518 11.8664255 9.166244
30.41232 6.942502 72.08999 15.022884 29.408638 19.511148 22.840328 60.97399
29.456268 47.73835 26.809465 47.086624 44.419327 85.754196 78.94901 5.460715
41.603733 193.93266 10.050445 15.164424 60.78304 29.073435 10.423398 52.58988
40.42522 33.460014 8.448061 18.294033 12.294931 73.273636 27.753164 14.788258
59.577618 69.38006 362.31497 68.33588 65.91056 14.259265 292.04214 12.144899
101.16476 418.53152 64.72584 18.752724 13.184115 70.33181 54.72222 8.066219
227.7227 29.06935 314.41165 19.5957 33.325806 79.07822 47.762676 8.159383
342.8087 11.487983 29.60565 16.656446 35.174564 11.257501 20.56424 81.94291
59.600037 101.61072 72.33603 11.613937 10.131956 7.7604604 19.894518 65.864
27.346807 39.279686 6.548897 51.40406 93.16018 111.80022 16.219328 18.928907
5.9797163 10.688073 47.522476 41.58254 68.11151 32.916847 46.5581 26.433447
11.510522 14.719389 13.758241 53.773823 57.367138 7.42252 37.5267 40.35096

weight f4 [256, 256]
00000000: 7be4 adbc e51f 5bbd faa3 743d 7048 9cbc
00000010: b338 81bc ed22 693d 56cc 0c3d 17eb 54bd
00000020: 8ec1 76bc b0ab 533a 34bb 9cbc e749 6d39
00000030: 0eb3 253d 5cb9 4a3d 8d48 75bc c0fa dcbb
00000040: 03c8 4abd bc01 8abc a199 26bd 405d 233d
00000050: 0413 333d f018 183d bb3d 903c 9d60 793d
00000060: 3dbe 2ebd 105d cb3c be42 7839 4a1a 06bd
00000070: 6b11 64bd 9f3c 2b3c 0986 b7bc 56f1 6cbd
00000080: cb64 553d e087 5cbc 626f 2a3d 4c3c 4fbd
00000090: 33d5 bbbc 68e9 5bbd e96d 403d fc5b 32bd
000000a0: 36c7 193d 00c6 463d 068f 29bc d4ca 303c
000000b0: af0e 68bd 34b4 3cbd 39dc 2d3d a9ab d4bc
000000c0: fbc7 ddbc 8b2c 6ebd bafb 923c c3bf 3abd
000000d0: 73d1 403d 9439 c1bc 90bc 6dbc 83d6 f0bc
000000e0: 0710 b73c 3741 e138 c6ac 43bd 858f 593d
000000f0: 3dc4 0f3d c03a 403d 4200 213d abaf 483b
00000100: 26e7 2bbd 5d6f 08bd 3c10 d2bc 72f4 143d
00000110: 4d7b 0939 7f0e 3bbd 83a5 a63c 5f40 6c3b
00000120: a3bc efbc 914a 58bc 0aaf 0abc 0db4 4e3d
00000130: 9cfb 9cbb 2fff aabc 43a3 6f3c f6dd 593d
00000140: 6b06 30bd c471 72bd 1829 543d 6c59 21bd
00000150: cd45 08bd a819 47bc 6921 c93c 0e35 e23b
00000160: e801 84bd d1a0 89bc 56a0 993c 7559 83bd
00000170: f14c 5bbd 88e6 643b 349b 60bd 7dbd d6bc
00000180: 059e e7bc 56c7 b23c 12c3 193d 35ca 84bd
00000190: 59c1 cb3c f56b 12bd b8ed ea3b 6d00 f83c
000001a0: d637 d2bc 0517 31bd 4126 443d c69c 05bd
000001b0: c5d5 d33c a053 babc 2fd8 443d 4dcc 50bd
000001c0: 0fd2 813c 84da 5fbd d718 88bc 4a80 273d
000001d0: 5c28 363d c1b4 563d f512 513d a7b2 843d
000001e0: 938a 753d 3b8e a73b d2ea 283c ea4d 34bc
000001f0: fc7c 0f3d 5941 293d 73ad 19bd 929a 75bd
00000200: 1124 0abd 88ec a43a 22c6 4e3d 7506 84bc
00000210: 5770 ec3c 69a7 ad3b 28b5 683d 66ab 2ebd
00000220: 6a7f 503d ff16 923c a128 73bc 92f8 353d
00000230: 9f8e 6bbd 55d7 57bc b430 073d de51 723c
00000240: 5ade 003c 2ea4 adbc 173a 40bd 296c 03bd
00000250: 0166 de3c 42e1 18bc f7d0 3fbd 0344 fdbc
00000260: 3a99 2bbd 29f8 80bd 697b 133c 3a32 203d
00000270: 8ec5 e5bc b5d4 e5bc 04a1 69bd 0643 533c
00000280: ec20 ca3c d8d5 2cbd a37f 723c f699 233d
00000290: 9c16 a73b c2a1 33bd 8f66 dabc 2155 4e3d
000002a0: ab14 823c 25f0 8c3c d33f 47bc ce7e 4ebd
000002b0: 79d9 abbc 7de4 bd3c 5574 7b3d ec29 27bd
000002c0: 357a f93c 1847 2dbd 82db a0bc fce5 603d
000002d0: 09d9 3cbd 691b 59bd 0953 69bd 1728 313d
000002e0: 1943 4e3d fd8a f4bc bb87 33bd aa84 c43b
000002f0: 858e f8bc 7640 28bc b4b1 9bbc 90ee 263d
00000300: 50a3 45bd f449 68bd 7de1 c53c 31ba 7c3c
00000310: ed2c 1fbd 60a1 fc3b 0815 443d f948 1dbd
00000320: b5b3 373d c61a 27bc 41fc ea3c 93fe 80bd
00000330: 7503 4f3d 5192 213d 5265 0fbc 96a7 023d
00000340: 1b71 f5bc 1a26 773d 7a19 a33c 7078 083c
00000350: 30df 34bd f3d1 8e3c 6b84 cc3b 9826 bebc
00000360: 2314 083d ae50 403d 72c1 19bd 206d 683d
00000370: 9ebc 97bb 72c5 9fbc ac50 61bd 3672 35bd
00000380: de91 69bd 21c4 0e3d 157c 0dbd 05d2 143d
00000390: 6291 2dbd 8c3a 2ebd 9972 87bc ab8b 57bc
000003a0: 4778 82bd 2941 0b3d 1c29 123d ad12 353d
000003b0: 03af 72bd 5905 82bd 948a 3abc 6246 153d
000003c0: 8486 d5bc bba4 f0bc af04 65bd 09d9 c33c
000003d0: 546b 973c 9dc5 0bbd 84f3 61bc 0cca 553d
000003e0: 21e0 4c3d da5b e43c fb1a a9bb 12a8 64bd
000003f0: 4d17 16bd 8916 6bbd a300 463c a161 69bd
-0.021227112 -0.053497214 0.059726693 -0.01907751 -0.015774107 0.056918073 0.034374557 -0.05198201
-0.0150607955 0.00080745947 -0.019132234 0.00022629612 0.040453963 0.04949318 -0.014970911 -0.006743759
-0.049507152 -0.01684653 -0.040673856 0.039883852 0.043719307 0.037133157 0.01760756 0.060883153
-0.042661894 0.02482465 0.00023675986 -0.032739915 -0.055680674 0.010451465 -0.02240278 -0.057847343
0.052098077 -0.0134601295 0.04161013 -0.050594613 -0.02292881 -0.05368939 0.04697982 -0.043544754
0.037543498 0.04852867 -0.010349041 0.0107905455 -0.05665463 -0.046070293 0.04244635 -0.02596076
-0.027072897 -0.05814795 0.017942298 -0.045593034 0.047074746 -0.023587026 -0.014510289 -0.029399162
0.02234651 0.00010740983 -0.04777219 0.053115387 0.035099257 0.04693103 0.039306886 0.0030622284
-0.041968487 -0.03330933 -0.025642507 0.036365934 0.00013111271 -0.04566812 0.020342594 0.003604911
-0.029264754 -0.013201372 -0.008464584 0.05046468 -0.0047907364 -0.020873634 0.014626327 0.053190194
-0.04297487 -0.059190527 0.051797003 -0.03939192 -0.033269692 -0.012152113 0.024552064 0.0069032973
-0.06445676 -0.016800316 0.018753212 -0.06413547 -0.053540174 0.0034927446 -0.054835513 -0.026213402
-0.028273592 0.021823566 0.03753955 -0.064838804 0.024872469 -0.035747487 0.0071694516 0.03027364
-0.02566139 -0.043234844 0.047888044 -0.032620214 0.02585877 -0.022744954 0.04805773 -0.050976086
0.015847234 -0.054651752 -0.016613407 0.04089383 0.044472083 0.052418474 0.05104347 0.06479388
0.059946608 0.0051133907 0.010309892 -0.011004904 0.035031304 0.041322086 -0.03751893 -0.059961863
-0.0337258 0.0012582699 0.050481923 -0.01611636 0.028862162 0.005299498 0.05681339 -0.042643927
0.05090276 0.017833231 -0.01484123 0.04442651 -0.05750906 -0.013173898 0.03300543 0.0147900265
0.007865513 -0.021196451 -0.0469304 -0.03208557 0.027148249 -0.009331049 -0.046830144 -0.03091622
-0.041894175 -0.06297333 0.009001591 0.0391104 -0.028048303 -0.028055528 -0.057038322 0.012894398
0.024673901 -0.042196125 0.014800939 0.03994175 0.005099131 -0.043855436 -0.026660232 0.050374154
0.015878996 0.017204354 -0.012161213 -0.0504139 -0.020977722 0.02318024 0.06139024 -0.040811464
0.03045378 -0.04230413 -0.01963592 0.05490683 -0.04610542 -0.053004656 -0.056963954 0.043251123
0.050356958 -0.029851431 -0.043830615 0.00599726 -0.030341396 -0.010269275 -0.019005634 0.040754855
-0.04825145 -0.056711152 0.024155373 0.015425251 -0.038861204 0.007709667 0.04787162 -0.03839967
0.044849116 -0.010199254 0.028684737 -0.06298556 0.050540406 0.03944618 -0.008752184 0.031898104
-0.02996116 0.06033907 0.01990961 0.008329496 -0.04415816 0.017434096 0.0062413714 -0.023211762
0.03322233 0.046951942 -0.037538 0.056744695 -0.004630639 -0.019503329 -0.055008575 -0.044298373
-0.057023875 0.03485501 -0.034542162 0.036333103 -0.042374976 -0.042536303 -0.016534137 -0.013155858
-0.06370597 0.03399769 0.035683736 0.044207264 -0.059248935 -0.06348676 -0.011385579 0.036444075
-0.026065119 -0.029375425 -0.05591267 0.023907201 0.018483795 -0.034124006 -0.013790969 0.05219464
0.050018433 0.02787583 -0.005160687 -0.055824347 -0.036643315 -0.057394538 0.012085113 -0.05697787

bias f4 [256]
00000000: 5882 143d f43e 40bd 6d49 ff3b 4a9b 42bd
00000010: 1903 59bb 3c6c 0d3d 8053 c0bc d459 bcbc
00000020: 6cf5 dd3c 668a 08bd 66d8 4c3d c8ff da3c
00000030: 57b2 523b 0e23 2a3d 3cb0 19bd 183e 913c
00000040: e066 a03c d098 e53c 1408 213d 9eab 1b3d
00000050: c41f 873c d4d6 edbc e847 0b3d 7adf 31bd
00000060: d0af 413c 9c26 243a b032 c43c ceba 26bd
00000070: c02f d43b f414 963c 5046 6fbd 9428 efbc
00000080: 5ca4 ab3b d2da 143d a55d f1ba e43f 1c3d
00000090: 489a d5bc 58e4 0cbc 10ec 32bc 0ce5 1bbd
000000a0: c497 4dbd b946 c2ba a86a 763d 2294 313d
000000b0: bc44 b5bc 3166 6abb 0b9e ca3b b8f4 e93c
000000c0: 0aa2 14bd d42c 05bd 4e0e 4e3d 130e b2bb
000000d0: d8ed bc3c 1c6b c5bc d69b 0fbd 18f3 1a3d
000000e0: 145d 2e3d 9238 3e3d a0da 24bc a23c 2fbd
000000f0: 66f1 54bd b067 1f3d 98d1 77bd f477 63bd
00000100: bf0a bfbc 223c 473d 2a07 14bd f3af 9c3c
00000110: 6e29 09bd 5806 5b3c 5034 323d 847b 543d
00000120: 9875 f23c 9f62 233c 5a9a 19bd 35da 463c
00000130: ac0c bf3c 8ad0 443d 6ac4 4ebd e4ad 9bbc
00000140: d035 fdbb 08bb e2bc 0635 523d f257 0b3d
00000150: 18ae e0bc ec32 aa3c caa5 373d 4e75 53bd
00000160: c675 683d 1e23 073d f484 d53c 6c8d 16bc
00000170: 28c8 b63c b237 743d 10a2 f53c 9881 b4bc
00000180: 7087 20bc 9465 7bbd d26d 2b3d 4fe8 743c
00000190: cc7e d83c 6261 6b3d 4786 543c d277 573d
000001a0: 6c24 f6bc ec1a 3c3d 72df 53bd ca94 393d
000001b0: 08bd c5bc 80db e43a 4060 bbbb 87b7 d1ba
000001c0: c8fc 063d 2802 63bc fca1 e93c 80c7 ee3c
000001d0: 108f edbc 0cbb d53c 084d 3cbd b2ff 69bd
000001e0: 9052 36bd 8299 44bd 0c7c 193d fac6 753d
000001f0: eafc 2b3d 3246 233d 9940 35bb e484 d0bc
00000200: d857 f33c 98f8 a23c 9669 58bd bcc2 08b9
00000210: ec84 a1bc 68dc f2bb 108b de3c 9896 e8bc
00000220: 40cb c23c 587c fbbc 2249 783d 0c46 e7bc
00000230: bcbd f43a 807e 50bd 7082 c63c 7a1c 683d
00000240: c6fa 49bd 32ca 7c3c c026 703d 8eb8 3bbd
00000250: 7098 f43b f492 8ebc 0eee 163d 8693 19bd
00000260: 32e6 723d 6894 2fbc 54a5 a23c 4ca8 a93c
00000270: a455 4abd 5ff5 583c 2884 5e3c 9a55 5b3d
00000280: 0fdb ecbb fefd 5cbd f253 63bd ec81 e6bc
00000290: 50f9 57bc 4ae7 353d 1cc4 55bd de8d 053d
000002a0: 00ed 66bc de7e 6e3b de97 25bd a078 5fbb
000002b0: c043 6cbc 0846 5ebc ae98 233d f08d 263c
000002c0: 60b0 53bc 40d4 613d 2883 e83c 344e a4bc
000002d0: c0ef 74bc 6029 ecbb a0ed 1fbb 5230 4fbd
000002e0: c0a6 403d 5764 dfbc d668 7b3d 5a2b 0dbd
000002f0: 2a7b 0bbd eaa3 453d 1440 aebc 9903 11bc
00000300: 70c5 a7bb 3bfd 3c3b 4eea 73bd 785c 56bd
00000310: 10f3 8abc 08e8 f8bc 78b9 633d 7846 f4bc
00000320: 6059 f6bc e433 df3c 28fe 3d3c 2cc0 eabc
00000330: b026 493d 620b 173d 9153 40bc b42e 85bc
00000340: 53e6 debb 1435 76bd 502c a53c 78d1 113d
00000350: d4b7 0fbd 62f0 083d a897 973c 7367 80bb
00000360: 2812 8e3c 3835 38bd 28d4 da3c 24b5 79bd
00000370: 42f9 6cbd 207d ff3b e492 47bd 82b7 283d
00000380: 5c5e e5bc d423 30bd 28dc 90bc cc32 51bd
00000390: e8be e03c 3cac 4fbd ccfb 263d f800 2f3c
000003a0: a0ad 9e3b e0ae a2bb a4ef be3c de5f 733d
000003b0: 00c7 6cbd b0e0 f63b 9295 703d dc96 41bd
000003c0: 8c4c b43c 90a0 443d befd 663d fa59 6abd
000003d0: b003 7e3c 488f 2e3d 7eb4 0a3d a88c 42bc
000003e0: ccf2 543c a01b 5d3d d27b 293d b6e9 78bd
000003f0: 306d 2b3c 34c0 743d 9408 f3bc e63b 623d
0.036257118 -0.046935037 0.0077907355 -0.047511376 -0.0033113419 0.03452705 -0.023477316 -0.022992052
0.027094565 -0.033335112 0.05001106 0.026733294 0.0032149756 0.041537337 -0.037521586 0.017729804
0.019580305 0.028026968 0.039314345 0.038005464 0.01649464 -0.029033102 0.034004122 -0.043426014
0.011821702 0.0006261857 0.023949951 -0.040705495 0.006475419 0.018320538 -0.058416665 -0.029194154
0.005238099 0.036341496 -0.0018414749 0.03814687 -0.026074544 -0.008599363 -0.0109205395 -0.038060233
-0.050193563 -0.0014822102 0.06016031 0.04335416 -0.022127502 -0.0035766477 0.006183391 0.028559074
-0.036287345 -0.032513455 0.05030661 -0.0054338067 0.023062631 -0.024098925 -0.035060726 0.03782949
0.042569235 0.04644067 -0.01006189 -0.042782433 -0.051988028 0.038917243 -0.06050262 -0.055534318
-0.023320554 0.04864133 -0.036139645 0.019126868 -0.033486776 0.013368212 0.04350692 0.051875606
0.029597089 0.009972244 -0.037500717 0.012136986 0.023321472 0.04805044 -0.050480284 -0.019003816
-0.007727362 -0.027677074 0.0513201 0.034019418 -0.027426764 0.020776235 0.044835843 -0.051625542
0.056752943 0.032992475 0.026064374 -0.009188991 0.022312239 0.059623428 0.029984504 -0.022034451
-0.009797916 -0.06137617 0.04185278 0.014947965 0.026427649 0.05746592 0.012971467 0.052604504
-0.030046664 0.045924112 -0.051726766 0.045307912 -0.024137989 0.0017460436 -0.005718261 -0.001600013
0.032955915 -0.013855495 0.028519623 0.029147863 -0.028998882 0.026090167 -0.0459719 -0.057128616
-0.04451233 -0.04799796 0.037471816 0.060004212 0.041989245 0.039861865 -0.0027656911 -0.025453992
0.029704973 0.01989393 -0.05283507 -0.00013042515 -0.019716702 -0.0074115284 0.02716592 -0.028392121
0.023778558 -0.03069894 0.06061662 -0.028231643 0.0018672268 -0.05090189 0.02423212 0.056667782
-0.04931142 0.0154290665 0.058630705 -0.045830302 0.007464461 -0.017404057 0.03684812 -0.037494205
0.059301563 -0.010716535 0.019854225 0.020710133 -0.04939808 0.013242095 0.013581313 0.053548433
-0.0072282623 -0.053953163 -0.05549998 -0.028138123 -0.013181999 0.044410028 -0.052188978 0.032606
-0.014094591 0.0036391537 -0.040428035 -0.0034098998 -0.01442045 -0.013566501 0.03994053 0.0101656765
-0.012920469 0.055134058 0.028382853 -0.020056821 -0.014949739 -0.0072070807 -0.002440311 -0.05058319
0.047034025 -0.027269525 0.061379276 -0.03446517 -0.034053005 0.048252024 -0.02127079 -0.008850955
-0.005119972 0.002883746 -0.059549622 -0.05233428 -0.016961604 -0.030384079 0.0555968 -0.029818758
-0.030071914 0.027246423 0.01159624 -0.028656088 0.04910916 0.03687609 -0.011738674 -0.016257621
-0.006802359 -0.060109213 0.020162731 0.035600156 -0.03508742 0.033432372 0.018504933 -0.003918582
0.017342642 -0.04497263 0.026712492 -0.060963765 -0.0578549 0.0077968985 -0.04872407 0.04119063
-0.027999096 -0.04300292 -0.017683104 -0.051073834 0.027434781 -0.050701365 0.040767476 0.010681383
0.004842475 -0.0049646944 0.023307629 0.059417598 -0.05780697 0.007534109 0.05873639 -0.04726301
0.022009157 0.048004687 0.05639433 -0.057214715 0.015503809 0.042617112 0.033863537 -0.011874355
0.01299734 0.053981423 0.04137785 -0.06076976 0.010463044 0.05975361 -0.029667176 0.055232905
