Predict/storage/MLP_256_200_SGD_11/trained_127.pt (torch, 339061 bytes, 13 tensors)

weight f4 [256, 58]
0	0xbd7cc183	-0.061707985
1	0x3da4a8cd	0.08040009
2	0xbd61a6a6	-0.05509057
3	0x3daa2b43	0.08309033
4	0xbd56229b	-0.052279096
5	0x3dddb158	0.10824841
6	0x3d503b8f	0.05083805
7	0xbd876462	-0.066109434
8	0x3da16261	0.078800924
9	0xbcfda93b	-0.030964484
10	0xbce7f05e	-0.028312858
11	0x3ddd24bc	0.10798022
12	0xbcca23fc	-0.024675362
13	0x3df5c57c	0.12000558
14	0x3d57a320	0.052645802
15	0xbd06a7e8	-0.03287497
16	0xbddb71ed	-0.10715089
17	0xbde31d24	-0.110895425
18	0xbb8e63aa	-0.004345377
19	0xbda109f2	-0.07863225
20	0xbdd14e46	-0.102200076
21	0xbdee023c	-0.1162152
22	0x3d3755f3	0.044759702
23	0xbdb5049a	-0.08838768
24	0x3dd5d2b9	0.10440583
25	0xbc459221	-0.012058766
26	0x3d607739	0.0548012
27	0xbd526e3d	-0.051374663
28	0x3dff0ea1	0.12453962
29	0x3d3370f3	0.04380889
30	0x3cbf50df	0.023353992
31	0xbd2732af	-0.04081982
32	0x3e03e4e7	0.12880288
33	0xbd745152	-0.059647866
34	0xbde1d992	-0.11027826
35	0xbe07b705	-0.1325341
36	0xbdea8659	-0.11451406
37	0xbda81080	-0.08206272
38	0x3dc03a29	0.09386093
39	0xbdd689d6	-0.10475509
40	0xbc956537	-0.01823674
41	0x3e01dd02	0.12681964
42	0xbd1d08b1	-0.038338367
43	0x3c76d89a	0.01506629
44	0x3d8e631c	0.06952497
45	0xbdd301ac	-0.10303053
46	0xbd28e017	-0.041229334
47	0x3ccf9522	0.025339667
48	0xbd979843	-0.074020885
49	0x3da87dec	0.08227143
50	0xbdcfc0f0	-0.10144222
51	0xbd87ff22	-0.066404596
52	0xbdd302b5	-0.10303251
53	0x3d8ba372	0.06818284
54	0xbb5f673b	-0.003408863
55	0xbdf326e4	-0.11872652
56	0x3db57026	0.08859281
57	0x3db86485	0.090035476
58	0xbda4b137	-0.080416135
59	0x3bd34261	0.006447122
60	0xbdb9e971	-0.090777285
61	0x3c1e1c38	0.009650283
62	0x3ca18bea	0.019720037
63	0xbdfeaa26	-0.12434797
64	0x3d8dd15e	0.06924699
65	0xbdf64755	-0.12025324
66	0xbd98ddbf	-0.0746417
67	0x3d8e2644	0.06940892
68	0x3de6a25a	0.11261435
69	0x3da799e6	0.08183651
70	0x3deeec80	0.116662025
71	0xbd56c8e5	-0.05243768
72	0xbd1dd471	-0.038532678
73	0x3cecdc3f	0.028913615
74	0xbdf1acfa	-0.11800571
75	0xbdee3f9f	-0.116332285
76	0x3dc121cb	0.094302736
77	0xbde0a121	-0.10968233
78	0xbe0264bb	-0.12733738
79	0xbd5627ee	-0.052284174
80	0xbd5137e4	-0.051078692
81	0xbd8162f9	-0.06317706
82	0x3dcd724c	0.10031566
83	0x3ddfa598	0.109202564
84	0xbd10f35e	-0.035388343
85	0x3d0834e9	0.033253584
86	0xbd0bb6ab	-0.034109753
87	0x3cbaeeb1	0.022818895
88	0xbdb49919	-0.088182636
89	0x3ce4c705	0.027926931
90	0xbb9e40d6	-0.0048295064
91	0xbd2dbc41	-0.04241586
92	0x3cd8c993	0.026463306
93	0x3cb42ad0	0.02199307
94	0xbdbb3c9f	-0.09142422
95	0xbdef8018	-0.11694354
96	0x3de34703	0.11097529
97	0xbc88c1dc	-0.016694002
98	0x3d7cc4d7	0.06171116
99	0x3b5fddb7	0.0034159252
100	0xbd453dad	-0.04815452
101	0x3d013952	0.031548806
102	0x3c0b305c	0.0084954165
103	0xbe76cc36	-0.24101338
104	0x3d22eff9	0.039779637
105	0x3dc3f248	0.09567696
106	0x3d2811e0	0.041032672
107	0x3e051982	0.12998012
108	0x3dc05c7c	0.0939264
109	0xbddc012a	-0.107424095
110	0xbaf5097d	-0.0018694844
111	0x3dc1ca64	0.09462431
112	0xbd967027	-0.0734561
113	0x3d81824b	0.063236795
114	0x3c671fa0	0.014106661
115	0x3d84e00a	0.064880446
116	0x3b531d00	0.003221333
117	0xbdb375e3	-0.087627195
118	0xbce200eb	-0.027588328
119	0xbd89e9cc	-0.06734046
120	0x3dafcbec	0.08583817
121	0x3bf728ec	0.00754272
122	0xbd5c37e9	-0.053764258
123	0x3d48f470	0.04906124
124	0xbdfed7e0	-0.12443519
125	0xbdcdf6e3	-0.100568555
126	0x3d02b5fe	0.031911843
127	0xbd6ca4ad	-0.057774235
128	0xbd991ec8	-0.07476574
129	0x3cf5bbbd	0.029996747
130	0x3bc6d3a1	0.0060677086
131	0xbd9c720b	-0.076389395
132	0xbdc5b39f	-0.09653401
133	0x3decdbe3	0.115653776
134	0x3d014ec6	0.031569265
135	0xbdff36cc	-0.124616235
136	0x3da3b4be	0.07993458
137	0xbd8a3970	-0.067492366
138	0x3d6c3455	0.057667095
139	0x3da917b8	0.08256477
140	0xbdafae9f	-0.08578228
141	0x3b506075	0.0031795774
142	0xbc640ba2	-0.013918789
143	0xbddaf5ba	-0.106914
144	0x3d32f001	0.043685917
145	0xbc2d1787	-0.010564691
146	0xbc2d0703	-0.010560754
147	0xbdbab5b3	-0.091166876
148	0x3cd689d7	0.026188774
149	0x3dc63a26	0.0967906
150	0x3ca2ffe8	0.019897416
151	0xbd493e43	-0.049131643
152	0xbd38bb2a	-0.04510037
153	0x3ce75c3b	0.028242221
154	0xbdd4a898	-0.10383719
155	0x3d82bd4e	0.06383763
156	0xbcfce404	-0.030870445
157	0x3dccd8e2	0.100023046
158	0xbd2ddc74	-0.04244657
159	0xbe0589b7	-0.13040815
160	0x3d77d4f8	0.060505837
161	0x3cb70606	0.02234174
162	0x3e2fd0a9	0.17169441
163	0xbdb02978	-0.086016595
164	0xbdcaabf4	-0.09896079
165	0xbdd78f7c	-0.10525414
166	0x3d613f0b	0.054991763
167	0xbdfb6568	-0.12275201
168	0xbe1c8b82	-0.15287593
169	0xbe245c04	-0.16050726
170	0xbd58d432	-0.05293674
171	0xbdca36ac	-0.09873709
172	0xbd75e81d	-0.060035814
173	0xbe180b64	-0.14848095
174	0xbe03ea70	-0.128824
175	0xbd11adc3	-0.035566103
176	0xbd117abe	-0.035517447
177	0x3d94e521	0.07270265
178	0x3dc03315	0.09384743
179	0xbd652fc3	-0.055953752
180	0x3d691397	0.056903448
181	0x3c97cef3	0.018531298
182	0x3ca67684	0.020320185
183	0x3d657764	0.056022063
184	0xbd8b1a5a	-0.067921355
185	0xbd73817f	-0.05944967
186	0x3d6aedfd	0.05735587
187	0xbe03b613	-0.12862425
188	0x3d7245c3	0.05914856
189	0x3d1d9358	0.038470596
190	0x3cabb8ba	0.020962108
191	0xbde82ac8	-0.11336285
192	0xbdb2ffee	-0.08740221
193	0x3d95447a	0.072884515
194	0xbd448c0f	-0.047985133
195	0xbdd70283	-0.10498526
196	0xbd6416a7	-0.055685665
197	0xbda1a494	-0.07892719
198	0x3d82d297	0.06387823
199	0xbd064cc4	-0.032788053
200	0xbdcf0758	-0.101088226
201	0xbc810f6d	-0.015754426
202	0xbcffa185	-0.031204948
203	0x3cb09ece	0.021560099
204	0x3dd2e6dc	0.10297939
205	0xbda90fa4	-0.08254936
206	0xbdc591f4	-0.09646979
207	0x3d219b54	0.039454773
208	0xbd67bbea	-0.056575693
209	0x3da60a6b	0.08107456
210	0x3dc6ef63	0.09713628
211	0x3defe96e	0.11714445
212	0xbd48643c	-0.048923716
213	0x3dd77615	0.10520569
214	0x3df58c67	0.1198967
215	0xbd94ddd6	-0.07268874
216	0x3dfa06f3	0.12208357
217	0x3df81b24	0.12114552
218	0xbc64e6b5	-0.0139710205
219	0xbd8bdd81	-0.06829358
220	0x3d697420	0.05699551
221	0x3c813fef	0.015777556
222	0xbcc4fe1f	-0.024046956
223	0xbded1678	-0.11576551
224	0x3d12b51a	0.035817243
225	0xbd0abad1	-0.03386957
226	0x3e17efb3	0.14837532
227	0x3e33a66f	0.17543958
228	0x3d743919	0.059624765
229	0x3d350e84	0.044203296
230	0xbd7639eb	-0.06011383
231	0xbc2ad030	-0.010425612
232	0xbd91feac	-0.07128653
233	0xbdc4d2cd	-0.096105196
234	0xbd515f64	-0.051116362
235	0xbd8bed0f	-0.06832325
236	0x3e033957	0.12814842
237	0xbc8caa16	-0.017170947
238	0x3d1d7424	0.03844084
239	0x3d977b54	0.0739657
240	0xbdb25140	-0.087069035
241	0xbd839652	-0.06425156
242	0xbd863e83	-0.06554892
243	0xbd8558e4	-0.06511095
244	0x3e2629ef	0.16226934
245	0x3d8a7d97	0.067622356
246	0x3d9ec672	0.07752694
247	0x3cbf51ae	0.023354378
248	0xbda4bfe7	-0.08044415
249	0x3df67fdc	0.12036106
250	0x3d0559ee	0.032556467
251	0x3ca9fe4f	0.020751147
252	0xbddd8412	-0.10816206
253	0x3d8c884e	0.068619356
254	0xbd9ba12e	-0.07599102
255	0x3cbc301d	0.022972161

bias f4 [256]
0	0x3d990304	0.07471278
1	0x3d579851	0.052635495
2	0x3d49f61a	0.049306966
3	0x3d280337	0.04101869
4	0xbda4736b	-0.08029827
5	0x3df5ebe8	0.12007886
6	0x3be9fb5a	0.007140559
7	0xbd397c8b	-0.04528479
8	0xbdc877a1	-0.097884424
9	0x3df4248b	0.119210325
10	0xbdc1ab66	-0.0945652
11	0xbcd0000b	-0.025390645
12	0x3da13977	0.07872289
13	0xbd71fb7d	-0.05907773
14	0xbcd7125e	-0.026253875
15	0xbdb5b780	-0.088728905
16	0xbdb28d94	-0.0871841
17	0x3dd87da4	0.10570839
18	0xbdf33f64	-0.11877325
19	0xbc5dbce5	-0.0135338055
20	0x3c1aa159	0.009437882
21	0x3df1916f	0.117953174
22	0xbcc374ee	-0.023859467
23	0x3dc7c4ee	0.09754358
24	0xbd2a425a	-0.041567184
25	0xbda9518a	-0.082675055
26	0xbdebdbf2	-0.115165606
27	0xbd9ad6ed	-0.07560525
28	0x3d9f85c6	0.07789187
29	0xbba38e4d	-0.004991329
30	0xbdba1c8d	-0.09087477
31	0x3df485f5	0.11939613
32	0x3c2e0e1e	0.010623483
33	0xbd18fc76	-0.03735014
34	0xbccfdfa7	-0.0253752
35	0x3a99c2f7	0.0011731078
36	0xbc3646b3	-0.011125254
37	0x3c57241b	0.013131167
38	0x3e0578a2	0.13034299
39	0xbd50bc44	-0.050960794
40	0x3daedc06	0.0853806
41	0x3e05e155	0.13074239
42	0xbd2227e8	-0.03958884
43	0xbdfc4da5	-0.12319497
44	0x3deb4d48	0.114893496
45	0x3a797282	0.0009515659
46	0xbd9fa4f1	-0.07795132
47	0xbe00a17a	-0.12561598
48	0xbd8d577c	-0.06901452
49	0xbdf5afef	-0.11996447
50	0x3d65983a	0.056053378
51	0x3d4ce185	0.05001976
52	0x3d2c6e7c	0.042097554
53	0xbd988f3f	-0.07449197
54	0x3d8cc26f	0.06873023
55	0xbdf1ebc6	-0.11812548
56	0x3cf2a187	0.029618038
57	0xbae8bca5	-0.0017756416
58	0x3c716956	0.014734587
59	0xbd93c2b1	-0.07214869
60	0xbda0685e	-0.078324065
61	0xbd344d87	-0.04401925
62	0x3d165c95	0.036709387
63	0x3d48200c	0.048858687
64	0xbd8c2499	-0.06842918
65	0x3d44b08a	0.048019923
66	0xbddce95b	-0.107866965
67	0xbd13e504	-0.03610708
68	0x3de618a7	0.11235171
69	0xbe006d7d	-0.12541766
70	0xbd17c0fb	-0.037049275
71	0x3dde3cdd	0.108514525
72	0xbc6252a3	-0.013813647
73	0x3dbc61fa	0.09198375
74	0xbdd3ee11	-0.10348142
75	0x3d9906cd	0.07472
76	0x3acad537	0.001547492
77	0x3d42b25a	0.04753337
78	0xbcdf79c2	-0.027279738
79	0x3dca695f	0.09883379
80	0x3e040e26	0.12896022
81	0x3bbff41f	0.005857959
82	0xbddc9d17	-0.1077215
83	0xbd1914f7	-0.03737351
84	0x3d4fb777	0.050712075
85	0x3dc1154f	0.094278924
86	0xbddbfcc4	-0.107415706
87	0xbbf5ef0e	-0.007505304
88	0x3de8fd04	0.11376384
89	0xbda94c4f	-0.08266508
90	0xbd9fbb5f	-0.0779941
91	0x3df5af34	0.11996308
92	0x3dd9a591	0.106272824
93	0x3d62d238	0.05537626
94	0x3d516844	0.051124826
95	0xbcca7041	-0.02471173
96	0xbdb84e67	-0.08999329
97	0xbe019d2c	-0.12657613
98	0x3defa267	0.11700898
99	0x3dd05622	0.101726785
100	0x3d79004e	0.060791306
101	0x3d7ee0e1	0.06222618
102	0xbc22d00a	-0.009937296
103	0xbd95f479	-0.0732202
104	0xbdc5c1df	-0.096561186
105	0xbdf02fc1	-0.11727858
106	0xbdee2ae8	-0.116292775
107	0x3dc30bca	0.09523733
108	0xbdaf0f81	-0.08547879
109	0xb98d4ef2	-0.00026952435
110	0x3d166336	0.03671571
111	0x3d6a6101	0.057221416
112	0x3db417e2	0.08793618
113	0xbaf05792	-0.0018336645
114	0x3bcce777	0.0062531787
115	0xbc530084	-0.012878541
116	0x3d239929	0.039940987
117	0xbbe49417	-0.0069756615
118	0xbd615c5f	-0.055019733
119	0x3d7ba5a2	0.061437257
120	0x3d56eb95	0.052470762
121	0xbd78b7b9	-0.060722087
122	0x3dc973e5	0.09836558
123	0x3d5e5818	0.05428323
124	0x3c9a8c02	0.018865589
125	0x3d50e6fb	0.05100153
126	0xbdba4dc8	-0.09096867
127	0x3d9cb916	0.0765249
128	0xbdf620b7	-0.120179586
129	0xbda7660e	-0.08173762
130	0xbd82502a	-0.06362946
131	0xbdd0e61c	-0.1020014
132	0x3d85636c	0.06513104
133	0x3d1c39d2	0.03814108
134	0xbd01c7cc	-0.03168468
135	0x3d5888b4	0.052864745
136	0xbdd8816f	-0.105715625
137	0xbd1b57d0	-0.03792554
138	0x3d288159	0.04113898
139	0x3dc1884f	0.09449827
140	0x3d934957	0.07191723
141	0xbde64e03	-0.11245348
142	0xbdb27935	-0.08714525
143	0xbdb59ce5	-0.08867816
144	0x3dd64e20	0.1046412
145	0x3c96bb06	0.018399727
146	0xbdadb6ef	-0.084821574
147	0x3daf8a51	0.08571304
148	0xbd8cfbc8	-0.06883961
149	0xbdb60f73	-0.088896655
150	0x3c90b162	0.017662708
151	0x3d820b49	0.06349809
152	0xbc868888	-0.016422525
153	0xbdb2f00a	-0.0873719
154	0x3db8f984	0.09031966
155	0xbdf452c8	-0.11929852
156	0xbc5bd07e	-0.013416408
157	0x3cb1a533	0.021685218
158	0xbd8c102e	-0.068390235
159	0x3d3b1b97	0.04568061
160	0xbcee8792	-0.02911738
161	0xbd4befb3	-0.049789142
162	0x3caf99e2	0.021435682
163	0x3db2c1bd	0.08728359
164	0xbdedb463	-0.11606672
165	0x3c376d61	0.011195512
166	0x3d389e8e	0.045073085
167	0x3e04a216	0.12952456
168	0xbd9556f8	-0.072919786
169	0x3d1aafa8	0.037765175
170	0x3daf5f13	0.08563056
171	0xbe002fb6	-0.125182
172	0xbdc63505	-0.096780814
173	0x3d9d66dc	0.076856345
174	0xbcaf5ed0	-0.021407515
175	0x3de9dba7	0.114188485
176	0x3daba456	0.08380954
177	0xbdb3a1af	-0.08771073
178	0x3df24222	0.1182902
179	0xbd450b24	-0.048106328
180	0xbd85241b	-0.06501027
181	0xbd266d26	-0.040631436
182	0x3d1da87b	0.038490754
183	0x3df0ce31	0.11758078
184	0x3de7309d	0.11288569
185	0xbdb1af36	-0.08675997
186	0x3c80f928	0.015743807
187	0xbdf9974a	-0.12187059
188	0xbdb8e5d4	-0.09028211
189	0x3de4b680	0.111676216
190	0x3d8f1272	0.0698594
191	0xbddaf519	-0.1069128
192	0xbdd94c34	-0.10610238
193	0xbd8af359	-0.06784696
194	0x3bd872ec	0.0066054966
195	0xbcad9e58	-0.021193668
196	0x3d8a1449	0.0674215
197	0xbdf8802f	-0.12133824
198	0x3c7c6db5	0.015407016
199	0x3aacbb78	0.0013178429
200	0xbdc45288	-0.09586054
201	0x3dcaffaa	0.09912045
202	0x3dbd3138	0.09237903
203	0x3d5cc6bd	0.05390047
204	0x3dfeab17	0.124349765
205	0x3db457a0	0.08805776
206	0x3cf82c32	0.030294511
207	0xbdeddcd0	-0.11614382
208	0xbd4c61a8	-0.04989782
209	0x3d5b0754	0.053473786
210	0x3c1d7c3d	0.00961214
211	0x3c6037e3	0.013685199
212	0x3ba16d06	0.0049263267
213	0x3d341c67	0.0439724
214	0x3ce8c2b3	0.028413152
215	0xbd94034c	-0.07227191
216	0x3d3bc5aa	0.045842804
217	0x3dcdce2d	0.100490905
218	0x3d0ae9b1	0.03391427
219	0x3c3aa419	0.011391663
220	0xbd9e2f1f	-0.077238314
221	0xbdc3e1ad	-0.095645286
222	0xbd6d864e	-0.05798941
223	0x3da94316	0.08264749
224	0xbd91d84e	-0.07121335
225	0xbcd54878	-0.026035532
226	0x3d48e093	0.049042296
227	0x3d1f7000	0.03892517
228	0x3daad365	0.083411016
229	0x3e02fc92	0.1279166
230	0x3c3f9580	0.011693358
231	0xbdf6b696	-0.12046544
232	0x3dc42995	0.09578244
233	0x3b52355c	0.0032075262
234	0xbdafe3ac	-0.08588347
235	0x3dec1bba	0.11528726
236	0xbdc17c04	-0.09447482
237	0xbd84aab9	-0.06477875
238	0x3de3a9a3	0.1111634
239	0x3b65b873	0.0035052567
240	0x3ce6ef88	0.02819039
241	0xbd018bae	-0.03162735
242	0x3cb68351	0.022279413
243	0xbcb76969	-0.02238913
244	0x3ce561e2	0.028000776
245	0xbd1a5652	-0.037679978
246	0x3d2e88ad	0.042610813
247	0xbcd250fe	-0.025673386
248	0xbdc14453	-0.0943686
249	0xbdb05b88	-0.08611208
250	0xbc7b054b	-0.015321086
251	0x3bce2f38	0.00629225
252	0x3dc37f77	0.09545796
253	0xbd805b89	-0.06267459
254	0xbd08daec	-0.033411905
255	0xbd18ee54	-0.037336662

weight f4 [256]
0	0x3f7b53cf	0.98174757
1	0x3f80e084	1.0068517
2	0x3f816477	1.0108784
3	0x3f7a69ab	0.97817487
4	0x3f7f67a4	0.9976752
5	0x3f81772e	1.0114496
6	0x3f7c5b1c	0.9857652
7	0x3f81bfee	1.0136697
8	0x3f7670a3	0.9626562
9	0x3f78b2fb	0.971481
10	0x3f7d7e76	0.9902109
11	0x3f819237	1.0122746
12	0x3f79595b	0.9740197
13	0x3f80f9b0	1.0076199
14	0x3f9084c1	1.1290513
15	0x3f82572e	1.0182855
16	0x3f816849	1.010995
17	0x3f80da91	1.0066701
18	0x3f80ce4c	1.0062957
19	0x3f7dfa99	0.99210507
20	0x3f82a101	1.0205384
21	0x3f81f023	1.0151409
22	0x3f78890a	0.97084105
23	0x3f764405	0.9619754
24	0x3f7d781c	0.990114
25	0x3f80f9ad	1.0076195
26	0x3f7d6559	0.9898277
27	0x3f740e1e	0.9533404
28	0x3f80a71d	1.0050999
29	0x3f7d100d	0.98852617
30	0x3f82ad10	1.0209064
31	0x3f812e4e	1.0092256
32	0x3f7bfd96	0.98433816
33	0x3f80dcd8	1.0067396
34	0x3f808e39	1.0043403
35	0x3f7675ec	0.96273685
36	0x3f81cd56	1.0140789
37	0x3f81f555	1.0152994
38	0x3f7960c0	0.97413254
39	0x3f76ab88	0.96355486
40	0x3f801163	1.0005306
41	0x3f81015d	1.0078541
42	0x3f826b4c	1.0188994
43	0x3f828f20	1.0199928
44	0x3f7bd548	0.98372316
45	0x3f827f93	1.0195183
46	0x3f72f388	0.9490285
47	0x3f80e5c1	1.0070115
48	0x3f82137b	1.0162195
49	0x3f7ae7f2	0.9801017
50	0x3f796e83	0.9743425
51	0x3f81bbac	1.0135398
52	0x3f834a2e	1.0257013
53	0x3f7c6955	0.98598224
54	0x3f7ce3b5	0.98784953
55	0x3f8154b4	1.0103974
56	0x3f81facc	1.0154662
57	0x3f82fafc	1.0232844
58	0x3f74ef01	0.9567719
59	0x3f80cad1	1.0061895
60	0x3f8177d4	1.0114694
61	0x3f816317	1.0108365
62	0x3f847b0a	1.0350049
63	0x3f81ae04	1.013123
64	0x3f79b6a3	0.97544307
65	0x3f80fb0c	1.0076613
66	0x3f811167	1.0083436
67	0x3f81d382	1.0142672
68	0x3f7d0139	0.9882999
69	0x3f74ffe1	0.9570294
70	0x3f77d37a	0.9680706
71	0x3f7e95f7	0.9944758
72	0x3f827e1e	1.0194738
73	0x3f810921	1.0080911
74	0x3f82ba50	1.0213108
75	0x3f8256c7	1.0182732
76	0x3f7caac1	0.9869805
77	0x3f82bb32	1.0213377
78	0x3f826053	1.0185646
79	0x3f828366	1.019635
80	0x3f80b13e	1.005409
81	0x3f7bfbcf	0.98431104
82	0x3f813962	1.0095637
83	0x3f81252d	1.008947
84	0x3f7ef546	0.9959301
85	0x3f8180dd	1.0117451
86	0x3f81ca8f	1.0139941
87	0x3f8206fb	1.015838
88	0x3f7a1de0	0.97701836
89	0x3f7ecec9	0.9953428
90	0x3f7758b9	0.96619755
91	0x3f7e35a1	0.9930058
92	0x3f7c469b	0.98545235
93	0x3f81a68d	1.0128952
94	0x3f81bb94	1.0135369
95	0x3f81daae	1.0144861
96	0x3f819350	1.0123081
97	0x3f8103ab	1.0079244
98	0x3f80f201	1.0073854
99	0x3f7489da	0.95522845
100	0x3f812fd1	1.0092717
101	0x3f8177c6	1.0114677
102	0x3f7dbb80	0.9911423
103	0x3f762547	0.9615063
104	0x3f81da54	1.0144753
105	0x3f77dd7f	0.9682235
106	0x3f8244d1	1.0177251
107	0x3f80a610	1.0050678
108	0x3f7073a4	0.93926454
109	0x3f7ea241	0.9946633
110	0x3f817e7c	1.0116725
111	0x3f815835	1.0105044
112	0x3f7f5a25	0.99746925
113	0x3f813e15	1.0097071
114	0x3f7dd8ab	0.99158734
115	0x3f805bbc	1.0027995
116	0x3f7dfc30	0.9921293
117	0x3f810a25	1.0081221
118	0x3f737500	0.951004
119	0x3f8014b8	1.0006323
120	0x3f832500	1.0245667
121	0x3f78bdb8	0.9716449
122	0x3f7fb367	0.9988312
123	0x3f81cc95	1.0140558
124	0x3f78281a	0.9693619
125	0x3f814941	1.010048
126	0x3f81749e	1.0113714
127	0x3f81ec2e	1.0150201
128	0x3f826da7	1.0189713
129	0x3f835164	1.0259213
130	0x3f7e0b6f	0.99236196
131	0x3f801cc3	1.0008777
132	0x3f80b440	1.0055008
133	0x3f7e4303	0.99321
134	0x3f81773b	1.0114511
135	0x3f7cb455	0.98712665
136	0x3f80d9f2	1.0066512
137	0x3f71362f	0.942233
138	0x3f817523	1.0113872
139	0x3f816d52	1.0111487
140	0x3f81accc	1.0130858
141	0x3f7bf333	0.9841797
142	0x3f75cb08	0.96012926
143	0x3f80a89f	1.0051459
144	0x3f7d00d6	0.988294
145	0x3f80f4d7	1.0074719
146	0x3f7f3065	0.9968322
147	0x3f80d0f6	1.006377
148	0x3f81fefe	1.0155942
149	0x3f7473c3	0.9548914
150	0x3f8199b6	1.0125034
151	0x3f81a170	1.0127392
152	0x3f82cc06	1.0218513
153	0x3f7356cb	0.9505431
154	0x3f7d1a9a	0.98868716
155	0x3f83171a	1.0241425
156	0x3f819ec4	1.0126576
157	0x3f7d1e51	0.98874384
158	0x3f850894	1.0393243
159	0x3f85dcef	1.0458049
160	0x3f7dd4b9	0.99152714
161	0x3f7476e5	0.9549392
162	0x3f782975	0.9693826
163	0x3f76248c	0.96149516
164	0x3f7e4fed	0.9934071
165	0x3f806a96	1.0032527
166	0x3f83f50d	1.0309159
167	0x3f760435	0.9610017
168	0x3f7c112d	0.9846371
169	0x3f7b1a08	0.98086596
170	0x3f80e1cc	1.0068908
171	0x3f819d27	1.0126084
172	0x3f81b541	1.0133439
173	0x3f758e2d	0.9592007
174	0x3f777735	0.9666627
175	0x3f828e86	1.0199745
176	0x3f816ad1	1.0110723
177	0x3f81d3e9	1.0142795
178	0x3f832a2b	1.0247244
179	0x3f82ebce	1.0228212
180	0x3f819efb	1.0126642
181	0x3f7af37e	0.9802779
182	0x3f820175	1.0156695
183	0x3f79c1f7	0.9756159
184	0x3f8187be	1.011955
185	0x3f81cb02	1.0140078
186	0x3f7d464e	0.989354
187	0x3f7f2bc5	0.9967616
188	0x3f831b65	1.0242735
189	0x3f811588	1.0084696
190	0x3f7ffba4	0.9999335
191	0x3f7eb18e	0.99489677
192	0x3f760044	0.96094155
193	0x3f82b731	1.0212156
194	0x3f730fe0	0.949461
195	0x3f756114	0.95851254
196	0x3f827184	1.0190892
197	0x3f80cab0	1.0061855
198	0x3f806545	1.0030905
199	0x3f7e0b93	0.9923641
200	0x3f80e191	1.0068837
201	0x3f8307f8	1.0236807
202	0x3f79a900	0.975235
203	0x3f821393	1.0162224
204	0x3f834e39	1.0258247
205	0x3f8144fb	1.0099176
206	0x3f7a4f72	0.97777474
207	0x3f7e36be	0.9930228
208	0x3f859e39	1.0438911
209	0x3f86efec	1.0541968
210	0x3f81cd7c	1.0140834
211	0x3f8129bf	1.0090865
212	0x3f8105db	1.0079912
213	0x3f818586	1.0118873
214	0x3f81bb2a	1.0135243
215	0x3f8301e5	1.0234953
216	0x3f780819	0.96887356
217	0x3f7f5946	0.99745595
218	0x3f79b944	0.9754832
219	0x3f7efa52	0.9960071
220	0x3f827ce2	1.0194361
221	0x3f8034f4	1.001616
222	0x3f802f7f	1.0014495
223	0x3f746284	0.9546282
224	0x3f7b7a20	0.9823322
225	0x3f801e8d	1.0009323
226	0x3f7768d4	0.9664433
227	0x3f7e07a9	0.9923044
228	0x3f80f8ce	1.0075929
229	0x3f84ac5d	1.0365101
230	0x3f79d7d2	0.9759494
231	0x3f8040fe	1.0019834
232	0x3f832aac	1.0247397
233	0x3f7ed95c	0.99550414
234	0x3f7f6667	0.9976563
235	0x3f79aeb8	0.97532225
236	0x3f81c190	1.0137196
237	0x3f8102dc	1.0078998
238	0x3f821d95	1.0165278
239	0x3f832f24	1.0248761
240	0x3f81c2b4	1.0137544
241	0x3f7e6c75	0.9938424
242	0x3f75d6bd	0.9603079
243	0x3f72e2f2	0.9487754
244	0x3f819b1b	1.012546
245	0x3f81a01f	1.012699
246	0x3f8131a4	1.0093274
247	0x3f83cce4	1.0296903
248	0x3f8494c7	1.0357903
249	0x3f804efc	1.0024104
250	0x3f820949	1.0159084
251	0x3f824ef0	1.018034
252	0x3f7a2132	0.977069
253	0x3f7d9df4	0.9906914
254	0x3f7198ec	0.94373965
255	0x3f7d129c	0.9885652

bias f4 [256]
0	0xba44e295	-0.000751057
1	0x3bcb3a75	0.006202037
2	0xbb2df98c	-0.0026546447
3	0x3c7ff8f2	0.015623318
4	0x3c2ed930	0.010671899
5	0x3c10b33f	0.008831798
6	0xbb57e85e	-0.0032944898
7	0x3b7f704d	0.0038976849
8	0xbb399f2c	-0.0028323634
9	0x3b0ba814	0.00213099
10	0xbbc83e9a	-0.0061109783
11	0x3bfa5fbf	0.0076408084
12	0xbc3aae90	-0.011394158
13	0xbaa77995	-0.0012777323
14	0x3b5acef1	0.0033387507
15	0x3cb8573b	0.022502532
16	0xbb85b883	-0.0040808334
17	0x3b123960	0.002231203
18	0xbc7b1df0	-0.015326962
19	0xbb9c29d7	-0.00476573
20	0x3b85ef56	0.004087369
21	0x3b4f09de	0.0031591575
22	0xbbbc04d6	-0.005737881
23	0xbcf4542f	-0.029825298
24	0xbbdee68e	-0.0068023866
25	0x3ad5f8a3	0.001632471
26	0x3c508490	0.012726918
27	0xbc377b1b	-0.011198784
28	0xb98c28d5	-0.00026733303
29	0xbb956c42	-0.0045600245
30	0x3c8b23f2	0.016984913
31	0xbbb146d8	-0.0054100566
32	0xba77860f	-0.00094422785
33	0x39a60757	0.00031667456
34	0xbafe4456	-0.0019399028
35	0xbc85d17d	-0.016335243
36	0xba0fc153	-0.00054838246
37	0x3c6b4f8a	0.014362225
38	0xbc3d7811	-0.011564271
39	0xbc687d69	-0.014190056
40	0xbc304bc2	-0.01076025
41	0x3c045c0c	0.008078586
42	0x3c8748e1	0.016514244
43	0x3bbbd195	0.0057317712
44	0x3a8b06bd	0.0010606867
45	0x3cd00021	0.025390686
46	0xbce07852	-0.027401123
47	0xbaf2f3d6	-0.0018535804
48	0x3cd951dc	0.026528291
49	0x3bc27510	0.005934365
50	0x3c120294	0.0089117475
51	0x3c010e24	0.007876907
52	0x3cea2850	0.028583676
53	0x3ac9193a	0.0015342601
54	0xbc1730c3	-0.009227934
55	0x3b4ecbb0	0.0031554513
56	0x3cd0e05b	0.025497606
57	0x3be1102d	0.0068683834
58	0xbc844463	-0.01614589
59	0x3c4df389	0.01257027
60	0xbb373ef7	-0.0027961114
61	0x3c9af058	0.018913433
62	0x3c879436	0.016550165
63	0x3c64a4fa	0.013955349
64	0xbc04fa9f	-0.008116393
65	0x3c9908a9	0.018680887
66	0xb871d155	-5.7653833e-05
67	0x3c9028bb	0.017597547
68	0xbab8dd20	-0.0014103986
69	0x394cc007	0.00019526492
70	0xbb344f31	-0.0027513022
71	0xba6399f2	-0.00086823024
72	0x3c6df749	0.014524289
73	0xbcc33176	-0.023827296
74	0x3bcc52dc	0.0062354635
75	0x3c747515	0.014920493
76	0xbb0f281e	-0.002184398
77	0x3bc57bb6	0.0060267104
78	0x3d226db1	0.03965539
79	0x3c275db8	0.010215215
80	0x3b509c5f	0.0031831486
81	0xbb8fe693	-0.0043915003
82	0x3bb8a42e	0.005634806
83	0x3c84a138	0.016190156
84	0xbca499d2	-0.020092878
85	0x3c5d3264	0.013500784
86	0x398926ce	0.00026159588
87	0x3bd7764d	0.006575382
88	0x3b4e7251	0.0031501243
89	0x3c02da8a	0.007986674
90	0xbbc8401d	-0.0061111585
91	0x39d8bec4	0.00041340862
92	0xbacdd951	-0.0015705024
93	0x3aa5f000	0.0012660027
94	0x3c3439d8	0.011000119
95	0x3cd01cc1	0.025404336
96	0x3bc460e7	0.005992997
97	0x3cb65273	0.022256112
98	0x3b3c89e8	0.0028768722
99	0xbb2b3968	-0.0026126746
100	0x3bae4865	0.0053186887
101	0x3b16b2a6	0.0022994666
102	0xbc434624	-0.011918578
103	0xbcffc3aa	-0.03122123
104	0x3cd023ae	0.025407638
105	0x3ba28ec3	0.004960866
106	0x3c045207	0.0080761975
107	0xbb361681	-0.002778441
108	0x3be2eef0	0.006925456
109	0x395c2af2	0.00020996833
110	0x3c2b8442	0.010468544
111	0x3a8563c6	0.001017683
112	0xba214208	-0.0006151502
113	0x3ca41383	0.020028835
114	0xbc3ffbaa	-0.011717716
115	0xbad6af0e	-0.0016379075
116	0xbb587aca	-0.0033032172
117	0x3c633df1	0.013869748
118	0xbc83ec76	-0.016103964
119	0x3baeac98	0.0053306334
120	0x3c6a44e5	0.014298652
121	0xbc08287e	-0.008310435
122	0xbc131777	-0.008977762
123	0x3be430bb	0.006963817
124	0x39f5296b	0.000467609
125	0x3bfb6ff3	0.0076732575
126	0x3bc7610f	0.0060845683
127	0x3c0020cf	0.007820322
128	0x3afb84d0	0.0019189361
129	0x3ba695c3	0.005083771
130	0x3b4cd228	0.0031253193
131	0x3bcdf25e	0.006284996
132	0x3a2217b3	0.0006183341
133	0x3b4a83d1	0.0030901323
134	0x3c0ce50d	0.008599532
135	0xbc1fdf66	-0.009757852
136	0xbbc4eea7	-0.006009895
137	0xbc81d84c	-0.015850209
138	0x3c919352	0.017770443
139	0x3c95ceaf	0.018287031
140	0x3b4f828a	0.00316635
141	0x3bc0c1af	0.005882464
142	0xbc38ace0	-0.011271685
143	0xbbe1e514	-0.0068937633
144	0xbc719f4f	-0.014747455
145	0x3af4c143	0.0018673319
146	0x3b285587	0.0025685744
147	0xbb9a4d79	-0.0047089425
148	0x3cd87767	0.026424123
149	0xbc225139	-0.00990706
150	0x3c66e3ad	0.014092368
151	0x3c40697e	0.011743901
152	0x3c78bb97	0.015181444
153	0xbc0ac935	-0.008470823
154	0x3c480abe	0.012209592
155	0x3c28b57d	0.010297176
156	0x3b197b3e	0.0023419405
157	0xbaa99066	-0.0012936711
158	0x3c10ec64	0.008845422
159	0x3c966d29	0.018362598
160	0xbc32f173	-0.010921824
161	0xbc3071b3	-0.0107692955
162	0xbb812629	-0.0039413166
163	0xbcb3f07a	-0.021965254
164	0x3aafa713	0.0013401232
165	0xbb08b3c2	-0.0020859097
166	0x3c994303	0.018708711
167	0xbc2541f7	-0.010086528
168	0x3c149e8d	0.009071005
169	0xbb4fa831	-0.0031685943
170	0x3b81993e	0.0039550355
171	0x3c27376f	0.0102060875
172	0x3c204d83	0.009784105
173	0xbc1a6dde	-0.009425608
174	0xba6711ff	-0.00088146323
175	0x3b3d4759	0.0028881638
176	0x3c6298ec	0.013830405
177	0x3a86548d	0.0010248587
178	0x3c6f05b4	0.014588762
179	0x3ceb8335	0.028749088
180	0x3cb34f5d	0.02188843
181	0xbc7c3cd1	-0.015395359
182	0x3b586280	0.0033017695
183	0xbc2c8b11	-0.010531203
184	0x3c598997	0.013277433
185	0x3badb631	0.00530126
186	0x3bd64e63	0.006540106
187	0x3ba19e85	0.004932227
188	0x3d06a323	0.032870423
189	0x3c0d80e4	0.008636687
190	0x3bbad31c	0.0057014357
191	0x3bb25e6d	0.0054433853
192	0x3bcf7465	0.006331014
193	0x3d170302	0.036868103
194	0xbc6a5ca0	-0.01430431
195	0xbbb779cb	-0.0055992357
196	0x3c91e1d1	0.017807873
197	0x3bdc1735	0.0067166337
198	0xbcacb3df	-0.021081863
199	0x3aae91bc	0.0013318579
200	0x3a7a5824	0.0009549877
201	0xbc3ab6c8	-0.0113961175
202	0xbbd4c4f2	-0.0064932043
203	0x3c3bfc75	0.011473765
204	0x3c8768bc	0.016529433
205	0x3a88c407	0.0010434397
206	0x3aaffb88	0.0013426403
207	0x3c3692d2	0.011143403
208	0xbc662329	-0.014046469
209	0x3bc9bfc6	0.0061568944
210	0x3bb4a526	0.0055128513
211	0x3bd15020	0.0063877255
212	0xbc10f89e	-0.008848337
213	0x3c62558a	0.013814339
214	0x3cddb824	0.027065344
215	0x3ce3d0fa	0.027809609
216	0xbc4cb71b	-0.012494828
217	0x3c5d5d9a	0.013511086
218	0xbae2ecbb	-0.0017312983
219	0x39affa50	0.00033565098
220	0x3c8f6caa	0.01750787
221	0x3c355ec2	0.011069955
222	0xbb0318a2	-0.0020003696
223	0xbca95005	-0.02066804
224	0xbb60a066	-0.0034275292
225	0x3bd61c3c	0.0065341275
226	0xbb5a3dbe	-0.0033300961
227	0x3a02b1a9	0.000498558
228	0x3c6c92d7	0.014439306
229	0x3cb5ed90	0.022208005
230	0xbba0b452	-0.0049043084
231	0xbc08fa66	-0.008360481
232	0x3c46f58a	0.012143502
233	0xbc4b5c46	-0.012412136
234	0xbc1eac18	-0.009684585
235	0xbbfa4df9	-0.0076386896
236	0x3c8b8f48	0.017036095
237	0x3b4ef7dd	0.0031580843
238	0x3c99e228	0.018784598
239	0x3c462bef	0.0120954355
240	0x3c018c66	0.007907009
241	0x3be7ec85	0.007077756
242	0x3b1900f8	0.0023346525
243	0xbc8a8bca	-0.01691236
244	0x3cddef12	0.027091537
245	0x3b8b3cb1	0.0042491783
246	0x3be019fe	0.006839036
247	0xbbc744bf	-0.006081193
248	0x3cafff30	0.021483988
249	0x3cd6f01b	0.026237538
250	0x3c3c9e0e	0.011512293
251	0x3c7406b1	0.0148941735
252	0xbc3d352a	-0.01154832
253	0xbabeb78c	-0.0014550551
254	0xbce492e4	-0.027902074
255	0x3b91e5d7	0.004452448

running_mean f4 [256]
0	0xc3322a58	-178.1654
1	0xc40a055c	-552.08374
2	0x42d34336	105.63127
3	0xc32af7ed	-170.96846
4	0x440f1a9c	572.4158
5	0xc319dbcb	-153.85857
6	0x446f0bd3	956.18475
7	0x43552216	213.13315
8	0x4418233d	608.5506
9	0x442d39f7	692.9057
10	0xc388a0e0	-273.25684
11	0xc2cddb78	-102.92865
12	0xc3a0a250	-321.26807
13	0xc2c76f5c	-99.7175
14	0x44d13e56	1673.948
15	0xc361087b	-225.03313
16	0x42d2cf71	105.40516
17	0x43cbb044	407.37708
18	0xc398b61d	-305.42276
19	0x43d1641d	418.78214
20	0x4330172f	176.09056
21	0xc1854fd5	-16.66398
22	0x43970628	302.0481
23	0xc3d22bea	-420.34308
24	0xc3b4cf5a	-361.61993
25	0xc3a151b9	-322.63846
26	0x43a204df	324.03806
27	0x43bf1043	382.12704
28	0xc2f535e6	-122.60527
29	0x43166a7c	150.41595
30	0xc44707b0	-796.1201
31	0xc346426c	-198.25946
32	0xc1520c11	-13.127946
33	0xc3be4fd5	-380.6237
34	0xc418ca63	-611.1623
35	0xc2eef3e8	-119.47638
36	0x4202b77c	32.679184
37	0xc32a4c1c	-170.2973
38	0x422a97ff	42.648434
39	0x43d54740	426.55664
40	0xc3dacf42	-437.6192
41	0x42b90396	92.507
42	0xc34b7140	-203.44238
43	0x439ea8b9	317.31815
44	0xc39d6719	-314.80545
45	0x4367ea95	231.91634
46	0xc35365b4	-211.39728
47	0x429a7a18	77.238464
48	0x43a2df21	325.7432
49	0xc3d4b714	-425.4303
50	0xc39bdd2e	-311.72797
51	0x414ebdbd	12.921323
52	0xc32da8ad	-173.65889
53	0x40cfa634	6.4890385
54	0x437c264c	252.1496
55	0xc394bc60	-297.47168
56	0xc29aad38	-77.33832
57	0x437ef185	254.94344
58	0x4302ac75	130.67366
59	0x43ac86bb	345.05258
60	0xc29051d9	-72.15986
61	0x42a8f748	84.48297
62	0xc2c75021	-99.6565
63	0x4389164c	274.1742
64	0xc3ed3e33	-474.48593
65	0xc22c709b	-43.109966
66	0x43375b2b	183.35612
67	0xc2803f7a	-64.12398
68	0x43a13693	322.42636
69	0xc2f3c165	-121.87772
70	0xc3922b7f	-292.3398
71	0x4333e01f	179.87547
72	0x42842635	66.07462
73	0xc0e87a4c	-7.264929
74	0xc38707d9	-270.0613
75	0x4393e033	295.75156
76	0x4333b670	179.71265
77	0x43bb379c	374.43445
78	0xc283d51d	-65.91624
79	0xc2fc4186	-126.127975
80	0xc25de828	-55.476715
81	0xc29ad615	-77.41813
82	0x43931eef	294.24167
83	0x4337d1ea	183.81998
84	0xc3d46473	-424.78476
85	0xc30d09ce	-141.0383
86	0x429f5eb0	79.68494
87	0x42d7f443	107.97707
88	0x426a85e2	58.630745
89	0x43a07227	320.8918
90	0xc3b49df5	-361.23404
91	0x43cf20eb	414.25717
92	0x43c3333a	390.4002
93	0xc2b1801c	-88.75021
94	0xc3077834	-135.46954
95	0x4338d64e	184.83713
96	0xc1b9214c	-23.141258
97	0x427a50e6	62.579002
98	0xc282d1b8	-65.40961
99	0x43321aa0	178.104
100	0xc1299ef4	-10.601307
101	0xc38a26ca	-276.30304
102	0xc3d486f3	-425.0543
103	0x43cf42cf	414.52194
104	0xc321f143	-161.94243
105	0x40a8af84	5.2714252
106	0xc3d80a5a	-432.08087
107	0x44663690	920.85254
108	0xc3a520c5	-330.256
109	0x42896e05	68.71488
110	0xc3742eb0	-244.18237
111	0xc1b774e8	-22.932083
112	0xc3e8fcc6	-465.9748
113	0x42653d11	57.309635
114	0x4462c0d6	907.01306
115	0xc0cca3ec	-6.39501
116	0x4345f5c9	197.9601
117	0x442bbf80	686.9922
118	0xc23250a1	-44.57874
119	0xc2bf4ce6	-95.65019
120	0xc3922882	-292.31647
121	0xc357ff86	-215.99814
122	0x43677433	231.4539
123	0x432c3c6d	172.23604
124	0x42d33b68	105.61603
125	0x432f383c	175.21967
126	0xc3cb68db	-406.81918
127	0x43bd5c03	378.71884
128	0xc39e711a	-316.8836
129	0xc3cfa98d	-415.32462
130	0x440d3210	564.7822
131	0xc2f0d818	-120.42206
132	0x434fd763	207.84135
133	0xc3e20197	-452.01242
134	0xc197f50b	-18.99465
135	0xc253a6a4	-52.912735
136	0x4377c9ac	247.78778
137	0x43917585	290.91812
138	0x413833f0	11.51268
139	0x43bdb395	379.40298
140	0xc332f92a	-178.9733
141	0x436627de	230.15573
142	0x438b1606	278.17206
143	0xc3677ec5	-231.4952
144	0x43a14f48	322.6194
145	0x439742c3	302.52158
146	0xc3eced2c	-473.8529
147	0xc32540b3	-165.25273
148	0x433f6e9d	191.43208
149	0x43ac1c7d	344.22256
150	0x4231aba3	44.417614
151	0x435e0664	222.02496
152	0xc38aa510	-277.28955
153	0x43695069	233.3141
154	0x42284e13	42.076244
155	0xc39001e7	-288.01486
156	0x428c295f	70.0808
157	0xc02d9482	-2.7121892
158	0xc38b482d	-278.56387
159	0xc3a2d03e	-325.6269
160	0x4414744c	593.81714
161	0x432d251e	173.14499
162	0xc3a2c898	-325.56714
163	0xc3e2345a	-452.409
164	0xc3954dce	-298.60785
165	0xc3a12322	-322.27448
166	0xc3e37973	-454.94882
167	0xc3c83490	-400.41064
168	0xc333fdde	-179.99167
169	0x4242a730	48.66327
170	0x43994e6b	306.61264
171	0xc3931d08	-294.2268
172	0x434aa1e6	202.63242
173	0x439f1c40	318.2207
174	0xc3568552	-214.52078
175	0xc37e5217	-254.32066
176	0x4383c37b	263.5272
177	0x432028b1	160.15895
178	0xc33a7d58	-186.48962
179	0xc38f8228	-287.01685
180	0xc1345846	-11.271551
181	0xc313c4c3	-147.7686
182	0xc3d13c98	-418.4734
183	0xc36b2c1e	-235.17233
184	0xc2f9caef	-124.896355
185	0xc3c7b4f4	-399.4137
186	0x43c69dfb	397.23422
187	0xc382736a	-260.90167
188	0xc2c1cc36	-96.89885
189	0xc327cfeb	-167.81218
190	0x4313fa4b	147.9777
191	0x440636c3	536.85565
192	0x40e94b78	7.2904625
193	0xc3a665d8	-332.79565
194	0xc31ea8e9	-158.6598
195	0x428be444	69.94583
196	0xc379b880	-249.7207
197	0xc356689c	-214.40863
198	0x43c05a29	384.70438
199	0x4378cd86	248.80283
200	0x436ffc5d	239.9858
201	0x442b1182	684.27356
202	0x42e6a139	115.31489
203	0xc389e657	-275.79953
204	0xc3b5c7e0	-363.56152
205	0xc393c001	-295.50003
206	0xc34bf33a	-203.9501
207	0x43146a1e	148.41452
208	0x443e8e7e	762.22644
209	0x44893ec5	1097.9615
210	0x428a0569	69.01057
211	0x41a0a375	20.079813
212	0xc2f5d49e	-122.91527
213	0xc3b6f839	-365.93924
214	0x431c0b4a	156.0441
215	0xc24e98ef	-51.64935
216	0x4331976e	177.59152
217	0xc38e6bcd	-284.8422
218	0x43fac6aa	501.55206
219	0x43b6cd5b	365.60434
220	0xc3dde011	-443.75052
221	0xc3968191	-301.01224
222	0x4325294f	165.16136
223	0x42ed029d	118.505104
224	0x4323b5b6	163.70981
225	0xc2de2c08	-111.086
226	0xc35c37e0	-220.21826
227	0xc345cef5	-197.80843
228	0xc2ab536f	-85.66296
229	0xc39667c2	-300.8106
230	0x43a14178	322.51147
231	0x43b14832	354.56403
232	0x4303b153	131.69267
233	0x435e7704	222.4649
234	0xc394f711	-297.9302
235	0xc2d448ee	-106.14244
236	0x42b43623	90.105736
237	0xc37b58ca	-251.34683
238	0xc37f5d15	-255.3636
239	0x425650c3	53.57887
240	0xc3924229	-292.51688
241	0xc3938470	-295.03467
242	0x436ec1e2	238.75735
243	0x41c6a429	24.830156
244	0xc2cd689e	-102.70433
245	0xc1c39fc2	-24.453007
246	0x431973d2	153.45242
247	0x43a65bea	332.71808
248	0xc38f4329	-286.5247
249	0x4410e1f7	579.5307
250	0xc3137f63	-147.4976
251	0xc2e0d977	-112.424736
252	0x43fea11f	509.25876
253	0xc2e90404	-116.50784
254	0xc2b21f27	-89.060844
255	0x43886f2d	272.86856

running_var f4 [256]
0	0x41bf4200	23.907227
1	0x427613e7	61.519436
2	0x41384634	11.517139
3	0x40ffadb9	7.9899564
4	0x422919e0	42.27527
5	0x4132ec2d	11.18266
6	0x43f1ffd8	483.99878
7	0x428aab52	69.33461
8	0x425ef02b	55.73454
9	0x433eb12f	190.69212
10	0x418b5c40	17.420044
11	0x41314f24	11.081821
12	0x4184c4c0	16.59607
13	0x422ea03b	43.656475
14	0x43d80a0d	432.07852
15	0x426d730c	59.36235
16	0x4119990d	9.599866
17	0x437b27bc	251.15521
18	0x4337bceb	183.73796
19	0x43ca01cb	404.014
20	0x418fdaa5	17.98176
21	0x42a099b4	80.3002
22	0x4206c571	33.692814
23	0x42b7d868	91.92267
24	0x4207159f	33.771114
25	0x434ab9fb	202.72649
26	0x41821cbd	16.264032
27	0x43107949	144.47377
28	0x42d4565e	106.168686
29	0x41d01a88	26.012955
30	0x431ae4d1	154.89381
31	0x4358c65d	216.77486
32	0x413d8b34	11.846485
33	0x4109058d	8.563855
34	0x4284684b	66.2037
35	0x4136fe67	11.43711
36	0x41c75523	24.91657
37	0x424c37e7	51.054592
38	0x40d041f3	6.5080504
39	0x4119a4a5	9.602696
40	0x43e72ea1	462.3643
41	0x41827e66	16.311718
42	0x40c61c97	6.19099
43	0x41831fc7	16.390516
44	0x419afa38	19.372177
45	0x417e5fbe	15.898375
46	0x42123a80	36.55713
47	0x4289ee9c	68.966034
48	0x42d1d397	104.91326
49	0x41fb8b1f	31.44293
50	0x4110306f	9.011825
51	0x4283838a	65.75691
52	0x42f57352	122.725235
53	0x42848826	66.265915
54	0x42656de0	57.3573
55	0x4125a085	10.351689
56	0x41673235	14.449758
57	0x43722347	242.1378
58	0x4133329f	11.199859
59	0x428539c2	66.61281
60	0x415642b9	13.39129
61	0x42bd08c1	94.5171
62	0x40e409d3	7.1261992
63	0x41e14606	28.159191
64	0x41c550b0	24.664398
65	0x4218efd4	38.234207
66	0x4126a142	10.41437
67	0x412d7619	10.841332
68	0x426bb331	58.92499
69	0x419c1631	19.510836
70	0x416184a0	14.094879
71	0x418dbded	17.717737
72	0x42404480	48.066895
73	0x41003629	8.013223
74	0x41289e3d	10.538632
75	0x41b7235f	22.892271
76	0x4192b81f	18.339903
77	0x42942493	74.071434
78	0x41ab41c0	21.407104
79	0x41c64e65	24.788279
80	0x4196e94d	18.863916
81	0x42034376	32.81588
82	0x43108b47	144.54405
83	0x41aefb31	21.872652
84	0x4289d13c	68.90866
85	0x41b1016d	22.125696
86	0x41548906	13.283453
87	0x41266421	10.399446
88	0x42dae46c	109.44614
89	0x422d853a	43.380104
90	0x41a5d14e	20.7272
91	0x4203319f	32.79846
92	0x417eda41	15.928285
93	0x4195b48a	18.713154
94	0x40a8f8ac	5.2803555
95	0x42aafeb3	85.49746
96	0x4207a675	33.912556
97	0x42cae3ab	101.444664
98	0x42057d15	33.37215
99	0x417e5bee	15.897444
100	0x416d7cbb	14.842952
101	0x42483694	50.0533
102	0x4147fb7f	12.4989
103	0x44171e4b	604.4733
104	0x42d489de	106.26927
105	0x4192555c	18.29168
106	0x414e2972	12.8851185
107	0x445cc11a	883.0172
108	0x422a1243	42.517834
109	0x41b62863	22.76972
110	0x40b61177	5.689632
111	0x4296e166	75.44023
112	0x4364a86c	228.6579
113	0x42c136ad	96.60679
114	0x4362c466	226.76718
115	0x422ea56d	43.66155
116	0x42a306a4	81.51297
117	0x4194bc12	18.591831
118	0x429801a5	76.00321
119	0x41b3b332	22.462498
120	0x414bfcf8	12.74926
121	0x41030282	8.188112
122	0x41bd7fca	23.687397
123	0x42ca87aa	101.26497
124	0x42bf14ce	95.540634
125	0x42812181	64.56544
126	0x4109aba4	8.604404
127	0x4305e97b	133.91203
128	0x41d08d19	26.068895
129	0x41753f4d	15.327954
130	0x418c4f48	17.538712
131	0x40998043	4.796907
132	0x42bf19ff	95.55077
133	0x4185264d	16.643702
134	0x41a11ce7	20.139112
135	0x42031f56	32.7806
136	0x418a2dff	17.272459
137	0x428a02cf	69.005486
138	0x427ccff8	63.203094
139	0x4227c0b1	41.938175
140	0x415f85c0	13.970154
141	0x4230b877	44.18014
142	0x41bef9ba	23.871937
143	0x4358b03c	216.68842
144	0x41c3f31e	24.49371
145	0x4140c65f	12.04843
146	0x4228cf9f	42.202755
147	0x4235e074	45.469193
148	0x427a59d6	62.58773
149	0x439c22fa	312.27325
150	0x41b35616	22.417034
151	0x427371d2	60.861153
152	0x40dc84a0	6.8911896
153	0x440efdc6	571.9652
154	0x41a1d24f	20.22769
155	0x415324cb	13.196483
156	0x418e9375	17.822
157	0x428188ce	64.7672
158	0x415e26fb	13.884517
159	0x416dbfab	14.859294
160	0x442c7319	689.7984
161	0x43dbfa22	439.95416
162	0x41aac72f	21.347258
163	0x43803104	256.38293
164	0x417c6bb7	15.776298
165	0x41a45f2d	20.546473
166	0x41625abc	14.147152
167	0x41d29024	26.320381
168	0x431254f0	146.33179
169	0x40d53e01	6.663819
170	0x41f13f7c	30.155998
171	0x423cfdb9	47.247776
172	0x415db2ca	13.85615
173	0x423bec67	46.98086
174	0x415f879e	13.97061
175	0x410cca45	8.799382
176	0x42891be4	68.554474
177	0x435b0155	219.0052
178	0x41bcc6c6	23.597057
179	0x4121fa4f	10.1236105
180	0x4272dcf9	60.715794
181	0x4170fbe2	15.061495
182	0x41903d24	18.029854
183	0x415a63dc	13.64938
184	0x424709c7	49.75955
185	0x4387fbf5	271.9684
186	0x417bb3d0	15.7314
187	0x41f02c39	30.021593
188	0x418c1ea0	17.514954
189	0x426f4037	59.81271
190	0x4196d6f6	18.854961
191	0x42b9a56c	92.82309
192	0x42394acd	46.323048
193	0x42309c03	44.152355
194	0x43b1a78b	355.30893
195	0x41eb6557	29.424482
196	0x41f35450	30.416168
197	0x420834d0	34.051575
198	0x43a5420f	330.51608
199	0x42f6ea2d	123.457375
200	0x42f9f18a	124.971756
201	0x424031c7	48.04861
202	0x422a67e2	42.601448
203	0x414892d6	12.535849
204	0x4182b86d	16.340052
205	0x42845a3f	66.17626
206	0x4290d46f	72.41491
207	0x41eded7c	29.74096
208	0x433ca751	188.65358
209	0x43ae24fe	348.289
210	0x43a938d6	338.44403
211	0x4111db08	9.115974
212	0x41b0711d	22.055231
213	0x4297b078	75.844666
214	0x41c87fa7	25.06233
215	0x40f703a9	7.719197
216	0x4391f85e	291.94037
217	0x42371a2e	45.775566
218	0x43adb4e2	347.41315
219	0x4103c5a2	8.23575
220	0x4147bd63	12.483737
221	0x410d120b	8.816905
222	0x420b7b5b	34.870464
223	0x427f9ae3	63.901257
224	0x4283db49	65.92829
225	0x429c8f75	78.28019
226	0x41357fd1	11.343705
227	0x41b664f9	22.799303
228	0x41688b35	14.533986
229	0x4168e43d	14.555722
230	0x440621ff	536.5312
231	0x426d34d9	59.30161
232	0x421306af	36.756527
233	0x421c55fd	39.083973
234	0x411dfb9e	9.87393
235	0x4087e123	4.2462325
236	0x42a9ea7d	84.957985
237	0x4303b71f	131.71532
238	0x4136d63d	11.427304
239	0x4191e87c	18.238518
240	0x41485118	12.519798
241	0x422c516d	43.079517
242	0x41b206ed	22.253382
243	0x41afaee2	21.960392
244	0x424774b0	49.863953
245	0x41a38d7a	20.44408
246	0x4282620a	65.19148
247	0x43af205b	350.25278
248	0x4165c7ef	14.361312
249	0x425f4bc9	55.82401
250	0x4205a703	33.413097
251	0x427fe3f2	63.972603
252	0x43b3ca94	359.58264
253	0x40c86397	6.262157
254	0x420474b1	33.113956
255	0x42c0b991	96.362434

weight f4 [256, 256]
0	0xbcb38fd4	-0.021919169
1	0xbd5c0be3	-0.053722274
2	0x3d5b975a	0.053611137
3	0xbcc69b19	-0.024243878
4	0xbc13f5d1	-0.009030775
5	0x3d6d6588	0.057958156
6	0x3cf59911	0.029980214
7	0xbd5e121f	-0.0542165
8	0xbcc0d8d9	-0.023540901
9	0xbbcc8e92	-0.0062425816
10	0xbc9e97f4	-0.019359566
11	0xbb9a47a2	-0.0047082463
12	0x3d2b2c0c	0.041790053
13	0x3d33974f	0.04384547
14	0xbc766410	-0.015038505
15	0xbc38a644	-0.01127011
16	0xbd60e92e	-0.054909877
17	0xbcb014f1	-0.02149436
18	0xbd31b028	-0.043380886
19	0x3d0fe542	0.035130747
20	0x3d6478f8	0.055779427
21	0x3d05f398	0.032703012
22	0x3c821419	0.015878724
23	0x3d662b0a	0.05619339
24	0xbd3b671a	-0.045752622
25	0x3cb78ea7	0.02240689
26	0xbc27b295	-0.010235448
27	0xbd13ed4a	-0.03611497
28	0xbd6dc430	-0.058048427
29	0x3c51ef77	0.0128134405
30	0xbcbf9c5b	-0.023389986
31	0xbd7817c3	-0.060569536
32	0x3d4749da	0.048654415
33	0xbc057355	-0.008145173
34	0x3d220949	0.039559636
35	0xbd51ca65	-0.05121841
36	0xbcd396b7	-0.025828702
37	0xbd6caf24	-0.057784215
38	0x3d414c3e	0.04719185
39	0xbd5032bd	-0.050829638
40	0x3d1176ac	0.035513565
41	0x3d346207	0.0440388
42	0xbc3e3fb8	-0.011611871
43	0x3c0d49fb	0.008623595
44	0xbd6dbad1	-0.05803949
45	0xbd39d738	-0.045371264
46	0x3d0e0845	0.034675855
47	0xbcf1d38c	-0.029519819
48	0xbd02049c	-0.031742677
49	0xbd6e25f1	-0.058141652
50	0x3c7c86b5	0.015412976
51	0xbd4a902e	-0.049453907
52	0x3d2ea4f5	0.042637784
53	0xbd01d61c	-0.03169833
54	0xbc933c29	-0.017973023
55	0xbce7144d	-0.028207922
56	0x3c9c0a89	0.019047992
57	0x3b6fbb88	0.0036580283
58	0xbd48486a	-0.048897184
59	0x3d48244c	0.04886274
60	0x3cdfceef	0.027320353
61	0x3d2e728c	0.04258971
62	0x3d36591c	0.044518575
63	0xba8f945b	-0.0010954248
64	0xbd20b8da	-0.03923879
65	0xbd0f8c99	-0.035046194
66	0xbd03a437	-0.03213903
67	0x3d219038	0.03944418
68	0xba4ab556	-0.00077327096
69	0xbd45e6bb	-0.048315745
70	0x3c79963c	0.015233573
71	0x3b77b6cb	0.0037798162
72	0xbd08f6db	-0.033438545
73	0xbc9a23a8	-0.01881583
74	0xbc390c60	-0.011294454
75	0x3d4a16d6	0.049338184
76	0xbc16dba8	-0.009207644
77	0xbcaefb99	-0.021360205
78	0x3c2bdb38	0.010489278
79	0x3d4839e1	0.048883323
80	0xbd447e06	-0.047971748
81	0xbd7fbb19	-0.06243429
82	0x3d4229b8	0.047403067
83	0xbd390451	-0.045170132
84	0xbd1377a0	-0.036002755
85	0xbc89eb58	-0.016835853
86	0x3c95e269	0.018296437
87	0x3b10d57e	0.0022099908
88	0xbd981a48	-0.07426888
89	0xbc2b7bc5	-0.010466521
90	0x3c90b3f0	0.017663926
91	0xbd85da3c	-0.065357655
92	0xbd5bf94c	-0.053704545
93	0x39fbb9a0	0.00048012752
94	0xbd695970	-0.05697006
95	0xbd008f97	-0.031386938
96	0xbd027402	-0.031848915
97	0x3c8d6115	0.017258206
98	0x3d0878a2	0.03331817
99	0xbd9920c0	-0.0747695
100	0x3ca22194	0.019791402
101	0xbd15c03f	-0.036560293
102	0x3bf8dd94	0.0075947735
103	0x3ccacbbe	0.024755355
104	0xbce36fb6	-0.027763229
105	0xbd34f50c	-0.044179007
106	0x3d39ba96	0.045343958
107	0xbd196d3f	-0.0374577
108	0x3c79fcf0	0.015258059
109	0xbcb9b586	-0.022669565
110	0x3d3f5062	0.04670752
111	0xbd5f9b03	-0.05459119
112	0x3c6781ab	0.014130036
113	0xbd6dc761	-0.05805147
114	0xbcb6fd97	-0.022337718
115	0x3d1f113a	0.038834788
116	0x3d0d1049	0.03443936
117	0x3d5d45f6	0.054021798
118	0x3d3b2502	0.04568959
119	0x3d6fc11b	0.05853377
120	0x3d6b9efc	0.057524666
121	0x3bdb51eb	0.006693115
122	0x3ba42c45	0.00501016
123	0xbc7bc925	-0.015367781
124	0x3cf70396	0.030153077
125	0x3d1311c9	0.035905633
126	0xbd281d06	-0.041043304
127	0xbd84d441	-0.06485797
128	0xbd16c446	-0.036808275
129	0x3a2d8403	0.00066190975
130	0x3d817391	0.06320871
131	0xbc8cee38	-0.017203435
132	0x3ccf71b0	0.025322765
133	0x3b81bf11	0.0039595445
134	0x3d53579e	0.05159723
135	0xbd2c43d8	-0.04205689
136	0x3d4149a8	0.047189385
137	0x3c4935e1	0.012280912
138	0xbc9c4fa8	-0.019080952
139	0x3d4b4cfe	0.049633972
140	0xbd7a265c	-0.06107174
141	0xbc8356b4	-0.016032554
142	0x3cd90a17	0.026494069
143	0x3c454466	0.012040233
144	0x3b573c61	0.0032842385
145	0xbcaf17d6	-0.02137367
146	0xbd4e89f3	-0.050424527
147	0xbd00d20b	-0.031450313
148	0x3cc149a0	0.023594677
149	0xbc552d87	-0.013011343
150	0xbd4d2c44	-0.050091043
151	0xbd108687	-0.035284545
152	0xbd2a2c7f	-0.04154634
153	0xbd87bd7e	-0.0662794
154	0x3b1acba3	0.0023619912
155	0x3d13110e	0.035904936
156	0xbd01cf9d	-0.031692136
157	0xbd0ed161	-0.034867648
158	0xbd8035ec	-0.06260285
159	0x3c13e0fd	0.009025809
160	0x3cab5086	0.02091242
161	0xbd424484	-0.047428623
162	0x3c3801a9	0.011230865
163	0x3d0222af	0.031771358
164	0x3b51b823	0.0032000623
165	0xbd3f46e7	-0.046698477
166	0xbcedeedc	-0.029044561
167	0x3d4e0344	0.050296083
168	0x3c66debe	0.014091192
169	0x3c6fbf79	0.014633053
170	0xbc11b709	-0.008893737
171	0xbd4d96fd	-0.05019282
172	0xbcb28b4e	-0.021794941
173	0x3c829c8d	0.01594379
174	0x3d79760f	0.060903605
175	0xbd336ff2	-0.04380793
176	0x3cd506b3	0.026004171
177	0xbd3b2a74	-0.045694783
178	0xbcc97c05	-0.02459527
179	0x3d4b0f2f	0.049575027
180	0xbd4e7a5a	-0.050409652
181	0xbd6521fd	-0.055940617
182	0xbd764ed6	-0.060133778
183	0x3d1af415	0.03783043
184	0x3d3b3a77	0.045710053
185	0xbcfb31b7	-0.030663354
186	0xbd0c9da6	-0.034330033
187	0x3ba84c83	0.005136074
188	0xbd04032e	-0.032229595
189	0xbc2db56a	-0.0106023345
190	0xbcbc70e2	-0.023003045
191	0x3d14a452	0.03628952
192	0xbd7150b3	-0.05891485
193	0xbd6f883b	-0.05847953
194	0x3c98c6e7	0.018649532
195	0x3c302116	0.010750076
196	0xbd22a3f1	-0.039707128
197	0x3ba93b6d	0.005164555
198	0x3d31dd3d	0.04342388
199	0xbd23999b	-0.03994141
200	0x3d24eefc	0.040266976
201	0xbc8574e7	-0.016291095
202	0x3cdc695b	0.026905706
203	0xbd7b8ce8	-0.061413676
204	0x3d3c6555	0.045995075
205	0x3d12f205	0.03587534
206	0xbc3f3878	-0.011671178
207	0x3cf19899	0.02949171
208	0xbccc28cb	-0.024921795
209	0x3d7f33b8	0.062305182
210	0x3c811821	0.015758576
211	0x3b1ce705	0.002394141
212	0xbd3fc891	-0.046822134
213	0x3c80a0c3	0.015701657
214	0x3a8ee821	0.001090292
215	0xbcee8200	-0.029114723
216	0x3cfec3cd	0.031099224
217	0x3d42b9d8	0.047540516
218	0xbd2946ec	-0.041327402
219	0x3d5fef3a	0.054671504
220	0xbbec6982	-0.007214726
221	0xbca25fee	-0.019821133
222	0xbd706dfa	-0.05869863
223	0xbd4661c8	-0.048433095
224	0xbd69e52d	-0.057103325
225	0x3d02bddc	0.031919345
226	0xbceeca68	-0.02914925
227	0x3d195d37	0.037442412
228	0xbd45bd51	-0.04827625
229	0xbd41d9bf	-0.0473268
230	0xbc967217	-0.01836495
231	0xbc37a3d1	-0.0112084905
232	0xbd8a3999	-0.06749267
233	0x3cf04dd0	0.029333979
234	0x3d09f087	0.03367665
235	0x3d3e3686	0.046438716
236	0xbd820d1d	-0.063501574
237	0xbd866c67	-0.06563645
238	0xbc708858	-0.014680944
239	0x3cf85e54	0.030318417
240	0xbceed1be	-0.029152747
241	0xbd06d26b	-0.032915514
242	0xbd6ebf2f	-0.058287796
243	0x3cab90f5	0.020943144
244	0x3c605eef	0.013694509
245	0xbd12c767	-0.035834696
246	0xbc9a16d8	-0.01880972
247	0x3d480154	0.04882939
248	0x3d375040	0.044754267
249	0x3cda851f	0.026674805
250	0xbbfa0f8f	-0.0076312493
251	0xbd6cf1ef	-0.057847913
252	0xbd496f64	-0.049178496
253	0xbd7509cb	-0.059823792
254	0x3bcca794	0.006245563
255	0xbd72a651	-0.059240643
