Predict/storage/MLP_256_200_SGD_11/trained_47.pt (torch, 339061 bytes, 13 tensors)

weight f4 [256, 58]
00000000: 1e65 82bd 50dd a23d 2961 aa3d 7ad0 b33d
00000010: 1884 57bd 4052 dc3d 96b8 523d 20e0 87bd
00000020: ecc1 a03d c886 f1bc ea32 f3bc 3faf dc3d
00000030: 4750 d4bc ea41 f03d aa03 593d d2fe 02bd
00000040: 2afb ddbd 6b12 e5bd b729 abbb 5b9f a2bd
00000050: e305 d0bd e850 efbd cac1 373d 92d6 b8bd
00000060: 0e40 d53d 28e8 39bc 3cf4 603d 444d 61bd
00000070: 6a24 fb3d 3e36 383d 4708 de3c 67a0 23bd
00000080: 1124 043e 4b6e 54bd fc2b dcbd a62c 05be
00000090: d0b3 e9bd c82b b4bd b9a4 c23d 2278 d8bd
000000a0: a710 94bc 65c9 013e a357 1cbd fa66 773c
000000b0: df9c 9e3d af54 5fbd 04b6 34bd 2d92 053d
000000c0: e20a 98bd 5e2a ac3d f154 ccbd 0321 8abd
000000d0: c3d9 cdbd 8969 853d 3dbc 6fbb e8f5 f3bd
000000e0: 34f1 b33d 00a5 b33d 6c10 abbd 62e2 f43b
000000f0: d571 80bc e0a6 813a 66a8 9e3c 83e6 fcbd
00000100: d527 8c3d 6c48 f6bd 67cf 97bd af7c 8c3d
00000110: 50c4 e93d 2d5b a63d f7fc ec3d fbcf 56bd
00000120: c887 1cbd ecf0 d53c 42a0 ecbd 0dbc ecbd
00000130: 07cf c23d 624b dfbd 0941 02be df4e 53bd
00000140: dffe 51bd b881 80bd ba69 d13d c8a7 df3d
00000150: 9d5b 0fbd 376a 2e3d 55e0 febc e4fd ba3c
00000160: cd28 aebd 6e52 dd3c fb62 9dbb 252f 8cbd
00000170: ffe4 b43c feae 913c 2886 bcbd b3b0 d7bd
00000180: 3754 e43d 6ae8 8cbc 4583 843d 76c6 723b
00000190: 4290 48bd e81f 013d b0ad d93c 5187 1cbe
000001a0: dac8 843c a832 c93d f94a 283d b5a6 053e
000001b0: 470f b73d 3681 dcbd eba1 1eba 7b59 d93d
000001c0: 64bc 94bd 6df3 833d adbb 8f3c c433 963d
000001d0: 084e e9b9 f4b9 b2bd b123 b13c ca5d 65bd
000001e0: 9cf2 b33d 3caa 133c 7aca 63bd 5725 523d
000001f0: 8614 fbbd 97a7 cdbd 88ad 193d 6017 82bd
00000200: 6053 78bd b08e 033d bbfb 2b3c 35f5 acbd
00000210: f54e bebd 1e96 eb3d 51a7 fe3c be4f ecbd
00000220: a899 ab3d d61a 7cbd 9451 7a3d 4ea5 b13d
00000230: 714a a1bd 243e 013c e273 51bc 9701 b8bd
00000240: 1de2 4d3d 6137 acbb a8c4 abbb fbab b7bd
00000250: 9ca5 be3c 245e b93d 7940 7d3c 25eb 5dbd
00000260: 1c6c 3cbd c27a 4e3d 0bcb cebd 0b1b 6e3d
00000270: 604d d0bc cd63 cf3d 2d66 32bd ee99 05be
00000280: 3760 623d b093 cf3d 1913 0e3e 5f69 aabd
00000290: 2014 c6bd 4516 bdbd 80f0 463d d30c fcbd
000002a0: fc39 01be ba17 12be 6b86 51bd 28f8 c5bd
000002b0: be4e 56bd 11db 05be 73aa fbbd 8580 20bd
000002c0: d141 f03c e10e 9c3d 98f7 bf3d f27d 6fbd
000002d0: 7490 703d 410e 793c 7e6d 5f3c cf73 643d
000002e0: b5e1 95bd da1b 5dbd e750 cfbc fe91 04be
000002f0: a94c 583d 0553 4f3d c0a4 783c d854 e9bd
00000300: 783d b4bd 1a74 883d bdcf 37bd 57f1 ddbd
00000310: 5998 55bd 5d30 97bd 6861 753d 08cd 0abd
00000320: 79b2 cebd 14a0 2fbd caa8 16bd 5b08 a53c
00000330: 696b ae3d 185c a7bd 384a c1bd d84f 403d
00000340: cda1 41bd b47f ba3d 9ab1 cd3d c94f b53d
00000350: 3e49 56bd f018 e23d 2d4a e63d a70f 97bd
00000360: be55 ff3d 9e30 f83d 0040 d2ba cf9d c1bd
00000370: d235 043d 7033 e6bc 3f65 ecbc 0085 f7bd
00000380: 8a06 4d3d b951 ebbc c7c9 bc3d f6a2 0e3e
00000390: 8dcb 663d f534 2d3d 0757 95bd 256c 07bd
000003a0: 83f1 90bd d976 c6bd 7fa9 e33d b3f8 83bd
000003b0: e310 033e 018e 8cbc e564 1d3d 17f8 943d
000003c0: a798 b1bd 31ea 85bd 617e 87bd 39d6 81bd
000003d0: 39ae e03d de56 833d 7c7c 9c3d 2d62 c43c
000003e0: 2ab6 a3bd 856d f63d a711 053d d6c2 9d3c
000003f0: 3b93 e1bd ad46 883d 5605 9fbd b731 ae3c
-0.06366943 0.07952368 0.08319313 0.08779998 -0.05261621 0.107578754 0.051445566 -0.06634545
0.07849488 -0.029483214 -0.029687364 0.10775613 -0.025917185 0.11731322 0.05298201 -0.031981297
-0.10838921 -0.111851536 -0.0052234787 -0.07940551 -0.10157373 -0.116853535 0.044862546 -0.09025301
0.10412608 -0.011346854 0.05492042 -0.055005327 0.12262805 0.044973604 0.027103556 -0.039947893
0.12904383 -0.051862996 -0.10750577 -0.13005313 -0.1141125 -0.08797413 0.095040746 -0.105697885
-0.018074347 0.12674482 -0.038169514 0.015100235 0.077447645 -0.05452412 -0.044118896 0.032610107
-0.07423951 0.084065184 -0.09977139 -0.06744578 -0.100513004 0.0651427 -0.0036580705 -0.11912137
0.0878624 0.087717056 -0.083527416 0.007473276 -0.01567928 0.0009891652 0.019367408 -0.12348654
0.06843535 -0.12025532 -0.07412606 0.06859719 0.11414397 0.08122859 0.11571687 -0.05244444
-0.03821543 0.026115857 -0.11554004 -0.11559305 0.095121436 -0.1090305 -0.12720121 -0.05158889
-0.051268455 -0.06274742 0.10225244 0.109206736 -0.03499948 0.042581763 -0.03111283 0.022826143
-0.08503876 0.027016845 -0.004803059 -0.068449296 0.02208185 0.017783638 -0.09205276 -0.105317496
0.11148875 -0.017200667 0.0647035 0.0037044561 -0.0489657 0.03152457 0.026572078 -0.15285994
0.016209055 0.09824115 0.041087124 0.13051875 0.08938461 -0.107668325 -0.00060513493 0.1061277
-0.07262495 0.06442914 0.017545545 0.07334092 -0.0004449936 -0.08726874 0.021623464 -0.055997647
0.087865084 0.009012755 -0.05561302 0.05130514 -0.12259774 -0.10041731 0.037519008 -0.06352115
-0.060626388 0.0321185 0.010497029 -0.08445207 -0.092924036 0.11503242 0.031085642 -0.11538647
0.08378917 -0.06154903 0.061112955 0.086741075 -0.07875527 0.007888351 -0.012783976 -0.08984678
0.050264467 -0.005255625 -0.005241949 -0.089683495 0.023272328 0.09051159 0.015457266 -0.05417933
-0.04600154 0.05041004 -0.10097321 0.05813126 -0.02542752 0.10126457 -0.043554474 -0.13047001
0.05526754 0.10135591 0.13874473 -0.08320879 -0.09671807 -0.09232763 0.048569202 -0.123071335
-0.12619776 -0.14266863 -0.05115358 -0.09666473 -0.05232119 -0.13071848 -0.1228837 -0.039185066
0.029328259 0.076200254 0.09373397 -0.05846972 0.05873151 0.015201152 0.013636945 0.055774506
-0.07318441 -0.05398164 -0.025307132 -0.12946317 0.052807484 0.050616283 0.015175998 -0.11393136
-0.08800787 0.066627696 -0.04487585 -0.108370475 -0.052147243 -0.073822714 0.059907347 -0.03388694
-0.10092635 -0.04287727 -0.036782064 0.020145586 0.085165806 -0.08171862 -0.09437984 0.046951145
-0.047273446 0.09106389 0.100436404 0.088531084 -0.052315943 0.11039913 0.11244617 -0.07376032
0.12467526 0.12118648 -0.0016040802 -0.09453928 0.03227789 -0.0281007 -0.028856872 -0.120859146
0.050055064 -0.028725492 0.092181735 0.13929352 0.056346465 0.042286832 -0.0729199 -0.03306212
-0.07077315 -0.09690637 0.11116313 -0.0644392 0.1279941 -0.017157556 0.0384263 0.07273882
-0.08671694 -0.06538809 -0.06615902 -0.06339688 0.1097073 0.06413053 0.07640931 0.023972595
-0.079937294 0.12032608 0.032487538 0.019257944 -0.1101441 0.06654105 -0.077646896 0.02126394

bias f4 [256]
00000000: 0403 993d 5198 573d 1df6 493d 3b03 283d
00000010: 6c73 a4bd e8eb f53d 82fb e93b 8b7c 39bd
00000020: a177 c8bd 8b24 f43d 66ab c1bd 0b00 d0bc
00000030: 7739 a13d 7dfb 71bd bd12 d7bc 80b7 b5bd
00000040: 948d b2bd a47d d83d 643f f3bd ebbc 5dbc
00000050: 59a1 1a3c 6f91 f13d fa74 c3bc eec4 c73d
00000060: 5a42 2abd 8a51 a9bd f2db ebbd edd6 9abd
00000070: c685 9f3d 578e a3bb 921c babd f585 f43d
00000080: 1e0e 2e3c 76fc 18bd c0df cfbc 0bc3 993a
00000090: b346 36bc 1b24 573c a278 053e 44bc 50bd
000000a0: 06dc ae3d 55e1 053e e827 22bd a54d fcbd
000000b0: 484d eb3d c273 793a f1a4 9fbd 7aa1 00be
000000c0: 7c57 8dbd efaf f5bd 3a98 653d 85e1 4c3d
000000d0: 7c6e 2c3d 3f8f 98bd 6fc2 8c3d c6eb f1bd
000000e0: 87a1 f23c 06bd e8ba 5869 713c b1c2 93bd
000000f0: 5e68 a0bd 874d 34bd 955c 163d 0c20 483d
00000100: 9924 8cbd 8ab0 443d 5be9 dcbd 04e5 13bd
00000110: a718 e63d 7d6d 00be fbc0 17bd dd3c de3d
00000120: a352 62bc fa61 bc3d 11ee d3bd cd06 993d
00000130: 06d6 ca3a 5ab2 423d c279 dfbc 5f69 ca3d
00000140: 260e 043e 1ff4 bf3b 179d dcbd f714 19bd
00000150: 77b7 4f3d 4f15 c13d c4fc dbbd 12ef f5bb
00000160: 04fd e83d 4f4c a9bd 5fbb 9fbd 34af f53d
00000170: 91a5 d93d 38d2 623d 4468 513d 4170 cabc
00000180: 674e b8bd 2c9d 01be 67a2 ef3d 2256 d03d
00000190: 4e00 793d e1e0 7e3d 36d0 22bc 79f4 95bd
000001a0: dfc1 c5bd c12f f0bd e82a eebd cb0b c33d
000001b0: 810f afbd 0f4f 8db9 3663 163d 0161 6a3d
000001c0: e017 b43d 9257 f0ba fde7 cc3b 8400 53bc
000001d0: 2899 233d d594 e4bb 5f5c 61bd a2a5 7b3d
000001e0: 95eb 563d b9b7 78bd e573 c93d 1858 5e3d
000001f0: 028c 9a3c fbe6 503d c84d babd 16b9 9c3d
00000200: b720 f6bd 0e66 a7bd 2a50 82bd 1ce6 d0bd
00000210: 6c63 853d d339 1c3d ccc7 01bd b488 583d
00000220: 6f81 d8bd d057 1bbd 5981 283d 4f88 c13d
00000230: 5749 933d 034e e6bd 3579 b2bd e59c b5bd
00000240: 204e d63d 06bb 963c efb6 adbd 518a af3d
00000250: c8fb 8cbd 730f b6bd 62b1 903c 490b 823d
00000260: 8888 86bc 0af0 b2bd 84f9 b83d c852 f4bd
00000270: 7ed0 5bbc 33a5 b13c 2e10 8cbd 971b 3b3d
00000280: 9187 eebc b4ef 4bbd e099 af3c bdc1 b23d
00000290: 63b4 edbd 646d 373c 8e9e 383d 16a2 043e
000002a0: f856 95bd a9af 1a3d 135f af3d b62f 00be
000002b0: 0535 c6bd dc66 9d3d d25e afbc a7db e93d
000002c0: 56a4 ab3d afa1 b3bd 2242 f23d 240b 45bd
000002d0: 1b24 85bd 2a6d 26bd 7ba8 1d3d 31ce f03d
000002e0: 9d30 e73d 36af b1bd 2bf9 803c 4a97 f9bd
000002f0: d4e5 b8bd 80b6 e43d 7212 8f3d 1af5 dabd
00000300: 344c d9bd 59f3 8abd ec72 d83b 589e adbc
00000310: 4914 8a3d 2f80 f8bd b56d 7c3c b0bb ac3a
00000320: 8852 c4bd abff ca3d 3831 bd3d bdc6 5c3d
00000330: 17ab fe3d a057 b43d 322c f83c d0dc edbd
00000340: ad61 4cbd 4d07 5b3d 3d7c 1d3c e337 603c
00000350: 066d a13b 671c 343d b3c2 e83c 4c03 94bd
00000360: aac5 3b3d 2dce cd3d b1e9 0a3d 29a4 3a3c
00000370: 1f2f 9ebd ade1 c3bd 4e86 6dbd 1643 a93d
00000380: 4ed8 91bd 7848 d5bc 93e0 483d 0070 1f3d
00000390: 65d3 aa3d 92fc 023e 9495 3f3c 96b6 f6bd
000003a0: 9529 c43d d835 523b ace3 afbd ba1b ec3d
000003b0: 047c c1bd b9aa 84bd a3a9 e33d 7ab8 653b
000003c0: 89ef e63c b08b 01bd 5183 b63c 6969 b7bc
000003d0: e261 e53c 5256 1abd ad88 2e3d fe50 d2bc
000003e0: 5344 c1bd 875b b0bd 4e05 7bbc 382f ce3b
000003f0: 777f c33d 895b 80bd ecda 08bd 54ee 18bd
0.07471278 0.052635495 0.049306978 0.041018706 -0.080298275 0.12007886 0.007140578 -0.04528479
-0.097884424 0.119210325 -0.0945652 -0.025390645 0.07872289 -0.05907773 -0.026254052 -0.088728905
-0.0871841 0.10570839 -0.11877325 -0.013533811 0.009437882 0.117953174 -0.02385949 0.09754358
-0.041567184 -0.082675055 -0.115165606 -0.07560525 0.07789187 -0.0049913335 -0.090874806 0.11939613
0.010623483 -0.03735014 -0.025375247 0.0011731101 -0.011125254 0.013131167 0.13034299 -0.050960794
0.0853806 0.13074239 -0.03958884 -0.12319497 0.114893496 0.00095158454 -0.07795132 -0.12561598
-0.06901452 -0.11996447 0.056053378 0.05001976 0.042097554 -0.07449197 0.06873023 -0.11812548
0.029618038 -0.0017756529 0.014734589 -0.07214869 -0.078324065 -0.04401925 0.036709387 0.048858687
-0.06842918 0.048019923 -0.107866965 -0.03610708 0.11235171 -0.12541766 -0.037049275 0.108514525
-0.013813647 0.09198375 -0.10348142 0.07472 0.0015475161 0.04753337 -0.027279738 0.09883379
0.12896022 0.005857959 -0.1077215 -0.03737351 0.050712075 0.094278924 -0.107415706 -0.007505306
0.11376384 -0.08266508 -0.0779941 0.11996308 0.106272824 0.05537626 0.051124826 -0.02471173
-0.08999329 -0.12657613 0.11700898 0.101726785 0.060791306 0.06222618 -0.009937337 -0.0732202
-0.096561186 -0.11727858 -0.116292775 0.09523734 -0.08547879 -0.0002695252 0.03671571 0.057221416
0.08793616 -0.0018336645 0.006253241 -0.012878541 0.039940983 -0.00697575 -0.055019733 0.061437257
0.052470762 -0.060722087 0.09836558 0.05428323 0.018865589 0.05100153 -0.09096867 0.0765249
-0.120179586 -0.08173762 -0.06362946 -0.1020014 0.06513104 0.038141083 -0.03168468 0.052864745
-0.105715625 -0.03792554 0.04113898 0.09449827 0.07191723 -0.11245348 -0.08714525 -0.08867816
0.1046412 0.018399727 -0.084821574 0.08571304 -0.06883961 -0.088896655 0.017662708 0.06349809
-0.016422525 -0.0873719 0.09031966 -0.11929852 -0.013416408 0.021685218 -0.068390235 0.04568061
-0.029117377 -0.049789146 0.021435678 0.08728359 -0.11606672 0.011195514 0.045073085 0.12952456
-0.072919786 0.03776518 0.08563056 -0.125182 -0.096780814 0.076856345 -0.021407519 0.114188485
0.08380954 -0.08771073 0.1182902 -0.048106328 -0.06501027 -0.04063145 0.038490754 0.11758078
0.11288569 -0.08675997 0.015743813 -0.12187059 -0.09028211 0.111676216 0.0698594 -0.10691281
-0.10610238 -0.06784696 0.0066054966 -0.021193668 0.0674215 -0.12133824 0.015407016 0.0013178494
-0.09586054 0.09912046 0.09237903 0.05390047 0.124349765 0.08805776 0.030294511 -0.11614382
-0.04989784 0.05347376 0.00961214 0.013685199 0.0049263267 0.0439724 0.028413152 -0.07227191
0.045842804 0.100490905 0.03391427 0.011391678 -0.077238314 -0.095645286 -0.05798941 0.08264749
-0.07121335 -0.026035532 0.049042296 0.03892517 0.083411016 0.1279166 0.011693377 -0.12046544
0.09578244 0.003207555 -0.08588347 0.11528726 -0.09447482 -0.06477875 0.1111634 0.0035052584
0.028190391 -0.031627357 0.022279413 -0.02238913 0.028000776 -0.037679978 0.042610813 -0.025673386
-0.0943686 -0.086112075 -0.015321089 0.00629225 0.09545796 -0.06267459 -0.033411905 -0.037336662

weight f4 [256]
00000000: daee 7d3f efe8 803f 3e30 803f 87cb 7e3f
00000010: 6ca9 7f3f 0d67 803f b883 823f cde0 803f
00000020: 3085 7e3f 2eae 7f3f 390f 7d3f f028 803f
00000030: 7890 7c3f 192f 803f a793 813f 7417 813f
00000040: 8b53 803f e733 803f bd35 803f c22a 803f
00000050: 04a2 803f f362 803f 170e 7d3f 5149 7d3f
00000060: 453b 7c3f 7c97 803f 214c 803f 9a87 7d3f
00000070: 5012 803f 5d5a 7c3f 2c78 823f c27b 803f
00000080: caf5 7c3f 0873 7e3f 8fb4 7f3f 66a5 7c3f
00000090: a659 803f 496f 803f 1417 7d3f 5f2e 7d3f
000000a0: c058 7f3f 2857 803f bfd1 803f 0f9f 803f
000000b0: aee2 7b3f e119 813f 0c12 7c3f 140d 803f
000000c0: e1b2 803f 40e4 7c3f 253a 7c3f 3c4a 803f
000000d0: 251a 813f ef69 7f3f d283 7d3f 0e39 803f
000000e0: a75f 803f 773c 813f 9996 7b3f fd30 803f
000000f0: 9dc6 7e3f 3164 803f c67a 813f 6ca5 803f
00000100: 9d66 7c3f 7d05 803f f16c 803f d23c 803f
00000110: e6d2 7f3f 46c6 7c3f 6926 7d3f 3cf9 7e3f
00000120: 5ec4 803f 793a 803f ae14 813f 39ed 803f
00000130: 2492 7d3f 19a0 823f 54d7 803f 81ed 803f
00000140: 0dfa 7f3f 823c 7c3f c87f 803f 5785 803f
00000150: 2b4e 7e3f 9898 803f a3a2 803f 2b8e 803f
00000160: 2764 803f 0941 803f 87cc 7c3f 3c5f 803f
00000170: a3c4 7f3f 8c07 803f a59e 803f 53ae 803f
00000180: 552b 803f 1b4a 803f 2718 803f e0a4 7d3f
00000190: 7168 803f bfd2 803f 4f6a 7d3f 6b84 7d3f
000001a0: f0c5 803f e120 7d3f d703 803f 6af7 843f
000001b0: 44a7 7b3f 7f77 7d3f a77e 803f 2c49 803f
000001c0: 0cf6 7f3f 2796 803f 6141 803f 2fe8 7f3f
000001d0: 126a 803f d765 803f 4bb2 7b3f 2683 7e3f
000001e0: eb13 813f 57bc 7b3f 7552 7f3f 7892 803f
000001f0: 901f 803f cc23 803f 6a4b 803f c8f9 803f
00000200: 4483 803f 5632 813f 71fb 7e3f e893 7d3f
00000210: 4834 803f a52f 7d3f 2fbc 803f dbd3 7c3f
00000220: b01b 803f 42a9 7c3f 4e96 803f d66e 803f
00000230: e13d 803f 0467 803f 6f33 7f3f d4ee 7f3f
00000240: 3453 7d3f 9319 803f 0e00 803f 1145 803f
00000250: 0991 803f 4c43 7d3f 407c 803f 5b87 803f
00000260: 5bcd 803f 00c6 7e3f a44e 803f 73f2 803f
00000270: 0f71 803f 63f9 7e3f b631 813f edf0 813f
00000280: adeb 833f d9e1 7b3f 0223 7d3f 072c 7c3f
00000290: 7c4e 7e3f a53e 7f3f be82 813f a7a1 7b3f
000002a0: 3c56 7f3f 79fd 7d3f 899e 803f df68 803f
000002b0: 03c2 803f 9886 7d3f b435 7e3f b0a1 803f
000002c0: 270c 813f 3da6 803f b34d 813f ece7 803f
000002d0: e33e 803f fb31 7e3f bc6a 803f 7e21 803f
000002e0: 6b19 803f 3eee 803f c63c 7f3f 2615 7f3f
000002f0: 7c54 813f 206d 803f 2307 7f3f cea3 813f
00000300: 2b11 7d3f ba04 813f 51d2 7b3f 9d94 7c3f
00000310: 4ff0 803f b137 803f bd1b 803f f050 7d3f
00000320: ef15 803f cf22 823f 3b4a 7d3f 49c6 803f
00000330: ae17 813f 2394 803f e14b 7b3f 705a 7d3f
00000340: ef50 823f a631 823f ce1c 813f 1e5a 803f
00000350: 8a56 803f c78c 803f ada3 803f 5a50 813f
00000360: c89b 7f3f 6304 803f 8f0d 803f 9382 7e3f
00000370: 3ec9 803f f79b 7e3f d14b 7f3f ea40 7d3f
00000380: 3a52 7d3f 3f47 7f3f 83de 7a3f df89 7d3f
00000390: 685b 7e3f c515 823f 952a 803f 7f09 7e3f
000003a0: db6e 813f c9f6 7f3f c391 7e3f 8666 7e3f
000003b0: ef9f 803f 9042 803f ac9b 803f 45e9 803f
000003c0: fa97 7e3f ae80 7e3f 2fe6 7e3f 46ec 7b3f
000003d0: 2f85 803f 0f44 803f e97d 803f 6066 823f
000003e0: 7597 813f d0cc 7d3f 40b8 803f 4ed6 803f
000003f0: cfec 7f3f 271b 7e3f 472c 7c3f 9c57 813f
0.99192584 1.0071086 1.0014722 0.9952931 0.9986789 1.0031449 1.0196447 1.0068604
0.9942198 0.9987515 0.9885135 1.0012493 0.9865794 1.0014373 1.0123185 1.0085282
1.0025495 1.0015839 1.00164 1.0013049 1.0049443 1.0030197 0.98849624 0.98939997
0.9852794 1.0046229 1.0023233 0.99035037 1.0005589 0.98575383 1.0192924 1.0037768
0.98812544 0.99394274 0.99884886 0.9868988 1.0027359 1.0033962 0.9886334 0.9889888
0.99744797 1.0026598 1.006401 1.0048541 0.9839276 1.0086023 0.9846504 1.0003991
1.005459 0.9878578 0.9852622 1.0022655 1.0086104 0.99771017 0.99029267 1.0017412
1.0029191 1.0096577 0.9827667 1.001495 0.9952181 1.0030576 1.0115592 1.0050483
0.98594075 1.0001675 1.0033246 1.0018561 0.9993118 0.9874004 0.98886734 0.9959905
1.0059927 1.0017844 1.0084436 1.0072395 0.9905112 1.0205108 1.0065713 1.007248
0.9999092 0.9852983 1.0038996 1.0040692 0.99338025 1.0046568 1.0049633 1.0043386
1.0030564 1.0019847 0.98749584 1.0029063 0.9990942 1.0002303 1.0048414 1.00532
1.0013224 1.0022615 1.0007371 0.99079704 1.0031873 1.0064315 0.9899034 0.9903018
1.0060406 0.98878294 1.0001172 1.0388005 0.983021 0.9901046 1.0038651 1.002233
0.9998481 1.0045823 1.0019952 0.9996366 1.003237 1.0031079 0.9831893 0.99418867
1.0084203 0.9833426 0.99735194 1.0044699 1.0009632 1.0010924 1.0023015 1.0076227
1.0040059 1.0093486 0.9960242 0.9905381 1.0015955 0.98900825 1.0057429 0.98760766
1.000845 0.98695767 1.0045869 1.0033824 1.0018884 1.0031438 0.99687856 0.999738
0.9895508 1.0007805 1.0000017 1.0021077 1.0044261 0.9893081 1.0037918 1.0041307
1.006267 0.99520874 1.0023999 1.007399 1.0034503 0.99599284 1.0093296 1.015165
1.0306298 0.9839149 0.9888154 0.9850468 0.9933851 0.9970496 1.0118024 0.98293537
0.9974096 0.99214894 1.0048381 1.0032004 1.0059208 0.990335 0.99300694 1.0049343
1.0081834 1.0050732 1.0101837 1.0070777 1.0019192 0.99295014 1.0032573 1.0010221
1.0007757 1.0072706 0.9970211 0.99641645 1.0103908 1.0033302 0.99620265 1.0128114
0.9885432 1.0079567 0.9836779 0.98664266 1.0073336 1.0016996 1.0008465 0.98951626
1.0006694 1.0166873 0.9894139 1.0060512 1.0085351 1.0045208 0.9816266 0.9896612
1.0180949 1.0171402 1.0086915 1.0027502 1.002641 1.0042962 1.004995 1.0102646
0.9984708 1.0001339 1.0004138 0.9941799 1.0061414 0.99456733 0.9972506 0.98927176
0.9895359 0.9971809 0.97995776 0.990385 0.99358225 1.0162894 1.0012995 0.9923324
1.0111955 0.9998594 0.99441165 0.9937519 1.0048808 1.0020313 1.0047507 1.0071188
0.9945065 0.994151 0.9956998 0.984074 1.0040644 1.002077 1.0038425 1.0187492
1.0124346 0.99140644 1.0056229 1.0065401 0.99970716 0.9926018 0.9850506 1.0104861

bias f4 [256]
00000000: ea7b 9eba d9c3 ba3b b977 0539 6770 063c
00000010: 469f ec3b e3f3 bf3b ace9 9c3b 77e7 733b
00000020: 0b92 0d3b 26b7 db3b 8c32 25bb 8f2c b73b
00000030: d2b7 84bb 9d8e ebba 72d7 eeba ce4e 3a3c
00000040: e620 a3bb 6544 dc3a 0190 00bc b414 24bb
00000050: 6a93 88bb b760 63ba 2bf3 47bb 2a23 b1bb
00000060: 3a3d 85ba bd90 7e3b 32b5 1d3c dc57 4abb
00000070: 9573 4fbb 0d57 743b 0a3d ae3b 1894 ddba
00000080: 2e76 16ba fa67 c0b9 83ea c7ba 04f7 bdbb
00000090: e7c3 f5ba ea5c 88ba 44f7 dcbb eddb 2cbb
000000a0: 7c2b c6bb c00b 103b 7ea4 eb3b e0d5 8d3a
000000b0: 6d37 ebba 540c ee3b a74a 15bc 5497 4ebb
000000c0: d2cb 173c b38e 083b 0a73 f03b fa43 223a
000000d0: 42b6 523c cffa fb3b cd8b 3bbc 7acc 45ba
000000e0: e206 f93b c979 ac3b fc77 b5bb af90 6c3b
000000f0: f480 ecb9 8e4e 253c 5160 2c3c 1f98 fe3b
00000100: a142 8fbb ebdb 8c3b 6f28 c93a 9dba f53b
00000110: b34e 42bb 2b3c da39 4300 373b decb c5ba
00000120: e278 4ab8 928a 27bc b214 b43b a473 1b3c
00000130: 910e 39bb 5d42 f53b 1eda 7f3c e245 ca3b
00000140: fb14 8fbb 5657 ebbb f103 133c 1676 f63b
00000150: 6f47 2ebc 3b42 943b c47a 493b 3f73 043b
00000160: bd80 1e3b b77c 013c 863c 92ba daeb da39
00000170: f879 70bb 0726 15bb 9bf7 493b ceca 163c
00000180: 9de5 ac3a 9ae6 223c 5b9f 5e3a 2703 8b3a
00000190: 0a6c 783b 7481 cab9 227f 16bc 39d8 3cbc
000001a0: cf79 2b3c 4d5b 853b e387 2d3a 301d 473b
000001b0: 4c3e d63b 9607 62bb 45b4 df3b b9a1 18bb
000001c0: ea1d 163b e99f c03b 0933 94bb a628 2aba
000001d0: 6d36 0ebb eb9e 823a 0e34 a1bb e1b1 d4ba
000001e0: 2854 3b3b 65b4 a0bb bf12 d1bb c1b0 b53a
000001f0: 9a48 b33b 8712 bc3a 9c76 a8ba 1743 a43b
00000200: d4fe f9ba 7ab3 203b 160a ee3a 06f4 7bba
00000210: 1ba4 203b 29fb bab9 84c2 853b cde8 8ebb
00000220: 5e76 23bb 16c0 11ba c29f 013c 4869 213c
00000230: a583 643a 5654 e83b 6966 143a d6da 98bb
00000240: 4b4b e5bb 830e 423a b49f 1439 4b1a 65bb
00000250: bc40 093c a184 3438 94de bb3b 6dbb d13a
00000260: e303 9a3b 4a46 3e39 f934 e13b b075 00ba
00000270: d9f3 b13b 82e0 743b 7862 873b 7928 133c
00000280: 8080 d13a 92d1 c8ba 76f5 caba 2e91 05bc
00000290: fbc8 a83b f423 99bb 8f51 183c 2491 76bb
000002a0: dc11 d13b 25a1 853b b099 c13b 5ed3 1b3b
000002b0: 4d84 723b 20c7 f137 6da5 f93a 2dcc 0e3b
000002c0: 0902 dd3b 475a 233b 3cad 2a3c 73b7 613c
000002d0: 6659 f43b d029 3ebc b52d 20bb bfff 163b
000002e0: 0e1c e93b d967 d23b 4a97 9e3b 3f19 c33b
000002f0: 0792 8c3c 9dff b43b 930d 383b f691 413b
00000300: faea 703b 7e25 663c 9c5f 0dbb 318f 903b
00000310: d832 c63b 4964 893a e1d1 2cbc 23ba 94bb
00000320: df31 2cbb bfd4 733b f63d 4abb 7021 d73a
00000330: c054 803b d56d 9f39 4b37 87b9 2934 4f3b
00000340: 829b 573a d238 9f3b d3df 063c d6dd aa3b
00000350: 70b3 eebb 6b45 a43b 5a1c 143c 9c1a 353c
00000360: 1484 873a 5b93 ca3b f0d9 fc3a 6500 1fbb
00000370: 11cd cb3b 1c98 39bb cf9f 69bb e6f1 d0ba
00000380: 8efe 47bb bc2b daba b287 903b e369 293b
00000390: e488 f93a 94fb 1f3c 2452 c03b d8e2 3dbb
000003a0: 2d10 e23b 6960 69bb 0934 6abb cfdb d1ba
000003b0: 0427 e63b e669 33bb 4000 913b 4f93 7a3b
000003c0: cda3 acbb c83e fd3a b242 153b 3727 c7bb
000003d0: 4cf2 243c d98d 4abb 0403 0b3b 58d2 613a
000003e0: ec9a ac3b 2026 033b c7c8 8f3b 8668 8d3b
000003f0: a12e 8ebb d88e 8c3b c937 2bbc 18b6 3d3c
-0.0012091373 0.0056996164 0.00012728469 0.00820551 0.0072211353 0.005857931 0.004788598 0.0037216821
0.002160194 0.0067051826 -0.002520713 0.0055900286 -0.0040502334 -0.0017971579 -0.0018222167 0.011371328
-0.004978287 0.0016805051 -0.007846833 -0.0025036754 -0.0041679638 -0.00086737744 -0.003050993 -0.005405803
-0.0010165342 0.0038843595 0.00962572 -0.0030875122 -0.0031654586 0.0037283332 0.005317335 -0.0016905097
-0.0005739656 -0.00036698562 -0.0015252385 -0.005797269 -0.00187504 -0.0010403667 -0.0067433435 -0.0026376203
-0.006047664 0.002197966 0.00719124 0.0010821186 -0.0017945595 0.007264653 -0.009112037 -0.0031523304
0.009264903 0.0020837008 0.0073379325 0.0006189939 0.012860836 0.007689811 -0.011446905 -0.0007545423
0.0075996974 0.0052635414 -0.005537985 0.003609698 -0.00045109505 0.01008953 0.0105210105 0.007769599
-0.0043719565 0.004298677 0.0015347133 0.0074990527 -0.002964896 0.0004162503 0.002792374 -0.0015090664
-4.8273134e-05 -0.010225909 0.005495631 0.00948802 -0.0028237442 0.0074847178 0.015615968 0.0061728815
-0.0043665147 -0.007182042 0.008973108 0.007521401 -0.010637148 0.004524497 0.003074334 0.0020210294
0.002418562 0.0079032695 -0.0011156953 0.00041755923 -0.0036693793 -0.0022758262 0.003081775 0.009203626
0.0013190989 0.009942675 0.0008492374 0.0010605798 0.0037906193 -0.00038624892 -0.009185584 -0.011526161
0.010466053 0.004069722 0.0006619675 0.0030382387 0.006538188 -0.0034489385 0.0068269097 -0.0023289754
0.0022906014 0.005878438 -0.0045226854 -0.00064910424 -0.002169992 0.0009965574 -0.0049195355 -0.0016227328
0.0028584097 -0.004904317 -0.0063804085 0.0013861881 0.0054713013 0.0014348783 -0.0012852731 0.0050128805
-0.0019073137 0.002452104 0.0018160965 -0.00096112525 0.0024511877 -0.00035663813 0.004082026 -0.004361248
-0.0024942379 -0.0005559934 0.007911624 0.009851761 0.00087171263 0.0070901318 0.0005661012 -0.004664759
-0.006997501 0.0007402675 0.00014173874 -0.0034958299 0.00837725 4.3038865e-05 0.0057333205 0.0016001292
0.0047001704 0.00018145997 0.00687277 -0.00049003493 0.0054306802 0.0037365262 0.0041316114 0.008981817
0.001598373 -0.0015321246 -0.001548453 -0.008152289 0.005150912 -0.0046734754 0.009296789 -0.0037623132
0.006380303 0.004078048 0.0059082136 0.0023777108 0.0037005127 2.8822164e-05 0.0019046493 0.0021789179
0.0067446274 0.0024925636 0.010417279 0.013776648 0.007456946 -0.011606649 -0.0024441306 0.002304062
0.00711394 0.006421071 0.0048398124 0.0059539373 0.017159475 0.0055236355 0.0028084263 0.0029536462
0.003676115 0.014047025 -0.002157188 0.004411601 0.0060485415 0.0010482158 -0.010548086 -0.004538791
-0.0026274843 0.0037205664 -0.0030859686 0.0016413163 0.003916353 0.00030408675 -0.00025790403 0.0031616783
0.00082247716 0.0048590684 0.008232075 0.005214433 -0.007284574 0.005013158 0.009039963 0.011053707
0.0010339045 0.006182117 0.0019291025 -0.002426171 0.006219514 -0.0028319424 -0.0035648232 -0.0015941232
-0.0030516717 -0.0016645114 0.0044107074 0.0025850467 0.0019037989 0.009764571 0.005869167 -0.002897432
0.006898901 -0.0035610443 -0.0035736582 -0.0016010943 0.007023694 -0.0027376353 0.0044250786 0.0038234775
-0.00526855 0.0019321078 0.002277535 -0.006077673 0.010067534 -0.0030907302 0.0021211514 0.00086144125
0.0052674916 0.0020011738 0.004387948 0.0043154387 -0.0043390547 0.0042894892 -0.010450312 0.011579059

running_mean f4 [256]
00000000: cd8b 31c2 7e0e a3c3 eca9 8f43 a225 56c3
00000010: 50c1 9443 8b2a 30c3 ff02 3d44 9ca4 6743
00000020: eaa9 b243 98ef cd43 f638 1cc3 8ecb a2c2
00000030: 5bf7 40c3 5486 e9c2 737a 2344 37bc 5ac3
00000040: a215 db42 2869 cd43 66d6 91c3 dfe0 a743
00000050: 9d61 9542 eccc eac1 049e 6b43 acd0 73c3
00000060: 7eff 73c3 e83f 9bc3 acd4 7b43 e65d ae43
00000070: 3baf 08c3 c04c 1b42 8703 ecc3 d201 41c3
00000080: 4e15 b9c1 9bba 9bc3 1cc0 c6c3 963a 89c2
00000090: c7ad a2c1 9ddd 37c3 5baa 12c1 0d7e 9b43
000000a0: 3a21 cfc3 63f4 6642 a9f0 8cc3 7cfe a543
000000b0: 6fd1 6fc3 0e6e 5642 dc1d dac2 a8f4 8842
000000c0: d389 b343 3ce3 82c3 14d2 7fc3 5761 1342
000000d0: 1030 57c3 9d53 e841 2121 6443 387f 7ec3
000000e0: 8e0d 3442 be84 9542 753a df42 fd9b bf43
000000f0: 55a7 1842 5796 8e42 6d25 c2c2 1844 6943
00000100: ea0a 71c3 798e adc1 45bd bf41 2d78 a8c1
00000110: 1071 8f43 7e5c 2fc2 e4b9 45c3 101d 1143
00000120: 8902 9842 09ae 14c1 bb4f 5bc3 aaa9 8c43
00000130: edb5 6143 9336 e543 b63b ad40 db52 00c3
00000140: ceb6 45c2 b8ca 4541 e29e 8d43 a076 1e43
00000150: b2d6 eec1 e28d 9cc2 b145 1243 b454 fb42
00000160: f333 c842 c3bb 4543 8381 67c3 3d79 d043
00000170: 2b41 b543 710e b941 e88f b3c1 2b9d 5243
00000180: 7e9f e9c1 e56b ef42 8679 ecc2 dbcf 1943
00000190: 47d9 b841 4aac 88c3 4393 14c3 3314 cf43
000001a0: 1d3a 04c3 0d89 1b43 cb08 c5c3 d43d 3744
000001b0: a451 73c3 9460 bf42 f414 4bc3 fc62 e141
000001c0: a3ef abc3 b3da 9f42 e253 f243 cbda 3ac2
000001d0: f051 2f43 f454 e943 fce9 5540 e53c 16c2
000001e0: 1148 98c3 a5f0 3fc3 9f55 3043 3eee 3143
000001f0: 62a8 4843 3399 3543 c835 9cc3 539d b943
00000200: 97c1 9ec3 8456 a6c3 22d8 b743 49b1 01c3
00000210: 0d32 5643 8ffc c0c3 2801 5ac3 f131 cec2
00000220: d273 8a43 0da4 9343 ae3a 3542 030d 7d43
00000230: 421b 05c3 6b5c ed42 7255 6743 003f 7fc3
00000240: d41a b643 8632 8243 5126 a6c3 c2ce 1ac3
00000250: 32f3 3143 e8f3 3443 28b3 a042 ebb4 7a43
00000260: 06df 7ac3 800b 5d43 c47a 3343 19c2 a9c3
00000270: 2e5f bb42 5fff e9c2 1b8f 99c3 7e6a 9bc3
00000280: e28a fe43 a6a3 7d42 931c 44c3 2c08 94c3
00000290: c57c 7ec3 0bf0 5ec3 d61c cec3 7f7c 8dc3
000002a0: 7128 9a40 37b5 d642 cb33 5043 7f5c 96c3
000002b0: 783c 0c43 e436 8243 4c5d 9ac2 0855 45c3
000002c0: 95c8 8143 8ad1 2f43 4be1 90c2 3e98 59c3
000002d0: 8d12 9a41 f2fd a7c2 9c5a b1c3 e361 f2c2
000002e0: 361c e3c2 d352 c4c3 fb08 8443 809e 4fc3
000002f0: dc8a dbc2 a66d 08c3 42e4 1743 6f87 de43
00000300: 24ac 5ebd cddd a4c3 c877 b2c2 3d01 2342
00000310: a82b 61c3 9d5a dfc2 800d c343 2de2 5043
00000320: 9d45 8143 dadc c543 5e3f 1743 f433 86c3
00000330: 3bf2 b1c3 ad0f 83c3 2dfe f2c2 ee11 0743
00000340: 4c8a 0f44 6772 2644 4186 7242 5c63 0b42
00000350: 8534 d3c2 8155 b8c3 9859 1543 585f 2742
00000360: 4532 0643 ebd0 24c3 d9bd e043 880f 9643
00000370: 6cf3 c4c3 fee1 47c3 ca1b ed42 c40d 1943
00000380: 9689 ed42 7b71 acc2 e3da 63c3 ec52 35c3
00000390: cf57 0842 f29c 6dc3 0f46 8343 11da 3043
000003a0: 0c65 2a43 69de 2a43 48b8 c5c2 dbe7 d5c0
000003b0: b48c e442 aa02 83c3 7d72 82c3 253e bc42
000003c0: 8d47 6ac3 31ef 8ec3 843b b443 ddd0 1042
000003d0: a503 9ec2 0d04 ed41 fc74 3243 4645 09c2
000003e0: d71f 75c3 bd9b 8d43 b90f 2bc3 88aa eec2
000003f0: 8881 ba43 3a8f 8dc2 2a0e c1c2 256a e243
-44.386524 -326.11322 287.3275 -214.147 297.51025 -176.16618 756.0468 231.643
357.32745 411.87183 -156.2225 -81.39757 -192.96623 -116.76236 653.91327 -218.73521
109.54225 410.82153 -291.675 335.7568 74.69065 -29.35006 235.61725 -243.81512
-243.99802 -310.49927 251.83075 348.73358 -136.6845 38.82495 -472.02756 -193.00711
-23.135403 -311.45786 -397.50085 -68.614426 -20.334852 -183.86568 -9.166591 310.98477
-414.25958 57.73866 -281.88016 331.98816 -239.8181 53.607475 -109.05832 68.477844
359.07675 -261.77527 -255.82062 36.84506 -215.18774 29.040827 228.12941 -254.49695
45.013237 74.75926 111.614174 383.21866 38.16341 71.29363 -97.0731 233.26599
-241.04263 -21.694567 23.967417 -21.05868 286.8833 -43.840324 -197.72614 145.11353
76.00495 -9.292489 -219.31145 281.3255 225.71065 458.42636 5.413539 -128.32365
-49.42852 12.361992 283.24127 158.46338 -29.854832 -78.277115 146.27223 125.665436
100.10146 197.73344 -231.5059 416.94717 362.50912 23.132051 -22.445267 210.61394
-29.202877 119.71073 -118.23735 153.81194 23.106092 -273.346 -148.57524 414.1578
-132.227 155.53535 -394.0687 732.96606 -243.31891 95.68863 -203.08185 28.173332
-343.87216 79.92715 484.65533 -46.713665 175.32007 466.6637 3.3424063 -37.559467
-304.56302 -191.94002 176.33446 177.93063 200.65775 181.59843 -312.42017 371.2291
-317.51242 -332.6759 367.68854 -129.69252 214.19551 -385.9731 -218.00452 -103.09754
276.90485 295.28165 45.307304 253.05083 -133.10648 118.680504 231.33377 -255.2461
364.2096 260.3947 -332.29935 -154.80765 177.94998 180.95276 80.349915 250.70671
-250.87119 221.04492 179.47955 -339.5164 93.6859 -116.99877 -307.118 -310.83197
509.08502 63.409813 -196.11162 -296.06384 -254.48738 -222.93767 -412.22528 -282.97263
4.8174367 107.353935 208.20232 -300.72263 140.2362 260.42883 -77.18222 -197.33215
259.56705 175.81851 -72.440025 -217.5947 19.259058 -83.99599 -354.7079 -121.191185
-113.5551 -392.64706 264.07016 -207.61914 -109.77121 -136.42831 151.89163 445.05807
-0.054363385 -329.73282 -89.23395 40.75121 -225.17053 -111.67698 390.10547 208.8835
258.54385 395.7254 151.24753 -268.40588 -355.89243 -262.12247 -121.49644 135.07004
574.1609 665.78754 60.631107 34.84703 -105.60258 -368.668 149.34998 41.84311
134.19637 -164.81609 449.4832 300.12134 -393.90173 -199.88278 118.554276 153.05377
118.76872 -86.22164 -227.85503 -181.32391 34.08575 -237.61307 262.54733 176.85182
170.39471 170.86879 -98.859924 -6.6845527 114.27481 -262.0208 -260.89444 94.121376
-234.2795 -285.86868 360.46497 36.203968 -79.00712 29.626978 178.45697 -34.31765
-245.12437 283.2167 -171.06142 -119.33307 373.01196 -70.77974 -96.527664 452.82925

running_var f4 [256]
00000000: 8fec 3942 f945 3641 bc07 3341 9415 1341
00000010: 1ee9 a242 1157 9f41 25df ff41 5ee9 7742
00000020: c063 ea41 02f4 aa41 84e9 8441 78cd b240
00000030: 7bfc 7d42 095c 1542 0941 3b43 c563 8942
00000040: 5815 3f41 312a 7f43 d102 4e43 d538 7541
00000050: 686c 1242 6753 b642 e1bb 9a42 961f ee42
00000060: c1dc 8441 e14d 5b43 15ca 5d42 ad96 3743
00000070: a24d b742 388b 2541 b073 d741 5c2f 6c43
00000080: 778d 3241 43e5 7b41 c283 5841 a61f ad42
00000090: 5acf 4842 dae6 8f42 717a bb41 6454 1a43
000000a0: 9248 f543 f211 c241 a02c 3341 44d1 5d41
000000b0: 7bcd 1d42 3336 d740 006d b142 bfa0 a942
000000c0: f2ae 9142 23d3 2f42 d63c 4542 fba8 7d42
000000d0: 1b15 f542 a89d 0c43 765c e741 d0b3 8842
000000e0: eff2 8642 cb36 8341 a804 6542 6cfd 2242
000000f0: a574 2c41 81d3 c342 e5fd f740 b7ea 3242
00000100: f3cd 8b42 479f dd41 5530 bb41 1182 e841
00000110: 4c38 3243 c061 7342 70c7 fb42 b16b 7e41
00000120: 428d 7442 ef94 0141 1714 3b41 431b 5f42
00000130: 9a47 a141 b90c e841 ef91 a041 6ef2 3b42
00000140: 2e6f 7642 079c 8d41 20e9 0b43 2ffc 0942
00000150: f171 6a41 587f 5c42 7f9c a341 a5f7 3b41
00000160: 788d 8f41 172e f441 0c4a b342 3a4e f841
00000170: 9771 2d42 ab9f c940 180d 5f41 083e c342
00000180: ac7b 7342 b033 ae42 dbcb cb41 c3d7 aa42
00000190: a614 5c42 a2b1 a742 e260 1142 17e1 2044
000001a0: f930 ce42 c882 0342 f0bf 9041 524e 0942
000001b0: ad09 af42 0624 d741 af3f 3642 827d b742
000001c0: 2bc1 c940 0e8c a342 e40e 9c42 d283 8d42
000001d0: 40b2 c341 f7de 2e41 ab0f 9742 f017 b741
000001e0: 0334 bd41 f26e 9c42 f0a9 8142 a38e 8242
000001f0: bd3a 2a42 fa2f 7a42 29dd e741 98fd 0943
00000200: 8926 1241 d567 2941 483f a741 b1c3 ab40
00000210: c768 9942 f85a fa41 fc7d 7241 7287 4c42
00000220: 03dd 1f42 0bb4 9a42 4cfb a842 e57a 0c42
00000230: 39c6 5b41 1585 e440 a69d d542 b838 6043
00000240: 7919 e240 5f86 ff41 a620 5f41 04cb 0e42
00000250: 7248 5b42 ac76 6d42 2986 b841 a4a7 0f42
00000260: 091a 8441 9d54 1644 1937 0642 21e6 af41
00000270: 9415 e341 5d6f 7242 37e2 4e41 e350 2c41
00000280: 52bc 0042 dc06 e340 c207 9542 0a85 6a41
00000290: ebac d541 6d27 ac41 26ea bc41 d4bf 8542
000002a0: ac80 0242 a3b1 4242 c07e c241 7b98 5542
000002b0: 5a63 4c42 20bb ba42 db4a b142 c77d ad40
000002c0: 42d7 3e42 fdd8 4843 7baa 1e41 359c 9341
000002d0: 9edc 7d42 a807 0142 cf49 2a41 d209 7042
000002e0: 3368 3642 3700 0d42 2592 e840 533b 8e41
000002f0: 9444 4f41 779e 9942 2ea5 cb41 ebb3 6441
00000300: 6d15 7e42 1d1c 9642 1acb c743 389e 9d42
00000310: 846b 9042 42a3 6241 9a74 9f43 deff 3241
00000320: d61b dc42 993b ed43 1e4d 8b42 233a a441
00000330: 036f 5d41 4c94 a042 26e4 6b42 3b26 0541
00000340: df67 8243 5db9 0442 cab3 af43 5d9b ae41
00000350: ccef 0a42 f9a0 ad42 0348 5342 5e57 0f41
00000360: 89e3 bb43 db4d f940 1e68 0442 1fdc a841
00000370: 4f6a 1a42 1282 5541 d259 bb41 06ce b442
00000380: f092 8742 56bd dd42 8bf3 a442 d77d 2b41
00000390: cb95 2f41 4f36 0541 4481 9841 2020 8e42
000003a0: 2391 ed41 53d2 1e42 0e8a a540 4331 5d42
000003b0: e7a3 c742 2ff4 f542 938f 9341 eed7 ac41
000003c0: aca9 d940 845e 3941 9c7c 5542 c28e 3642
000003d0: 0403 9b42 08f5 1342 ff48 5342 ddf4 cf41
000003e0: 5eac 4f41 8d92 8441 cb28 7e41 ae31 6642
000003f0: 2636 8642 fa66 f840 cc6c 2442 5316 3542
46.481014 11.392083 11.189388 9.192768 81.45531 19.917513 31.983957 61.977898
29.298706 21.369144 16.614021 5.5875816 63.496563 37.339878 187.25404 68.69486
11.942711 255.16481 206.011 15.326375 36.605865 91.162895 77.36695 119.06169
16.60779 219.30421 55.447346 183.58858 91.65163 10.346489 26.931488 236.185
11.159537 15.743472 13.532167 86.56181 50.20249 71.95088 23.434786 154.32965
490.56696 24.258762 11.198395 13.86359 39.450665 6.725366 88.71289 84.81396
72.84169 43.95619 49.30941 63.41502 122.54122 140.61584 28.920147 68.3512
67.47448 16.401754 57.254547 40.747482 10.778478 97.91309 7.749743 44.729214
69.902245 27.702772 23.3986 29.063509 178.21991 60.84546 125.88953 15.901292
61.137947 8.098861 11.692405 55.776623 20.159962 29.006212 20.071257 46.986748
61.608574 17.701185 139.91064 34.496273 14.652818 55.12436 20.451414 11.74796
17.944077 30.522505 89.64462 31.038197 43.360928 6.3007407 13.940697 97.621155
60.870773 87.10095 25.474539 85.42141 55.020164 83.84694 36.344612 643.517
103.09565 32.877716 18.09372 34.326485 87.5189 26.89259 45.56219 91.74513
6.30483 81.773544 78.02908 70.75746 24.462036 10.929435 75.5306 22.886688
23.650396 78.21669 64.83191 65.27859 42.55736 62.546852 28.982988 137.9906
9.134408 10.58785 20.9059 5.367638 76.70464 31.294418 15.155758 51.13227
39.96583 77.35165 84.490814 35.120014 13.735894 7.1412454 106.80791 224.22156
7.0656095 31.94061 13.945471 35.698257 54.820747 59.36589 23.065508 35.91371
16.512712 601.3221 33.553806 21.987368 28.385536 60.608753 12.930228 10.769748
32.183907 7.0945873 74.51515 14.65748 26.709433 21.51925 23.61433 66.874664
32.625656 48.673473 24.31189 53.398907 51.097023 93.36548 88.6462 5.4216037
47.710213 200.84761 9.916621 18.451273 63.465446 32.257477 10.64302 60.00959
45.601757 35.25021 7.26784 17.778967 12.954243 76.8095 25.455654 14.293925
63.520924 75.05491 399.58673 78.80902 72.20999 14.164858 318.91095 11.187468
110.05437 474.4656 69.65062 20.528387 13.839602 80.28964 58.9728 8.321834
260.8115 33.18102 351.4046 21.825861 34.734177 86.8144 52.820324 8.95883
375.77762 7.790754 33.101677 21.107481 38.603817 13.344255 23.418858 90.40239
67.78699 110.8698 82.47567 10.718223 10.974071 8.325759 19.063118 71.062744
29.695868 39.705395 5.1731024 55.298107 99.82012 122.97692 18.445105 21.605434
6.801962 11.585575 53.37169 45.639412 77.50589 36.98929 52.821285 25.994562
12.979582 16.571558 15.884959 57.548515 67.10576 7.7625704 41.106247 45.2718

weight f4 [256, 256]
00000000: c0db adbc b825 5bbd 78b5 743d 121e 9cbc
00000010: d059 81bc f30a 693d 5d55 0c3d 39fc 54bd
00000020: 12fa 76bc 3da2 533a d89b 9cbc 45ef 8539
00000030: d2b0 253d 56e2 4a3d 0282 75bc f2c6 dbbb
00000040: 78cd 4abd 69fa 89bc 9194 26bd e547 233d
00000050: cdf0 323d 030f 183d 972b 903c a958 793d
00000060: 50ab 2ebd 7352 cb3c cd1b 6339 c32a 06bd
00000070: a80f 64bd 6ee1 2a3c cfb8 b7bc d0f6 6cbd
00000080: 1b85 553d d078 5cbc bc85 2a3d 223a 4fbd
00000090: a0a7 bbbc 56c7 5bbd df82 403d 3268 32bd
000000a0: 11cc 193d 7bc9 463d 1144 29bc 1b89 303c
000000b0: 5d0b 68bd c0d0 3cbd 66df 2d3d 80b5 d4bc
000000c0: bdce ddbc 0c2d 6ebd 50fc 923c 81c7 3abd
000000d0: e9f1 403d 7636 c1bc 47bf 6dbc 22a5 f0bc
000000e0: 5c09 b73c a3f5 bd38 4db9 43bd ff7f 593d
000000f0: a9d2 0f3d 8041 403d f517 213d f670 483b
00000100: 78e5 2bbd e284 08bd 4bfb d1bc eedf 143d
00000110: ae4a f338 d72e 3bbd 859c a63c 6b6a 693b
00000120: d3c7 efbc 0a5a 58bc 913c 0abc a6aa 4e3d
00000130: 0da8 9cbb bdbe abbc d16c 6f3c 7701 5a3d
00000140: 50e9 2fbd c07f 72bd fa2b 543d 3751 21bd
00000150: d650 08bd af85 46bc c43a c93c 3ee9 e13b
00000160: 2c18 84bd 1aa1 89bc 7dac 993c 6953 83bd
00000170: 5259 5bbd b2e0 643b 84a3 60bd 17c4 d6bc
00000180: 649a e7bc 31be b23c a4e6 193d d4d5 84bd
00000190: a1cf cb3c f551 12bd 16cd e93b bce0 f73c
000001a0: 6d4b d2bc 0c33 31bd 2f3f 443d 550a 06bd
000001b0: 7eea d33c 3b85 babc e5f3 443d 2bcc 50bd
000001c0: 48c0 813c 7cde 5fbd cf39 88bc 5295 273d
000001d0: 5320 363d c86e 563d 5704 513d 4dc8 843d
000001e0: efa9 753d 9101 a73b 02fd 283c 3368 34bc
000001f0: 967c 0f3d 2144 293d 7b95 19bd 299c 75bd
00000200: ec00 0abd 6d6f a63a cc9c 4e3d c6ed 83bc
00000210: 1768 ec3c 638b ad3b edb8 683d aab7 2ebd
00000220: 5e73 503d 8d1a 923c f21d 73bc aed8 353d
00000230: 8164 6bbd 8baa 58bc ec1b 073d 564d 723c
00000240: d6b9 003c 7116 aebc b81a 40bd 2c5c 03bd
00000250: b751 de3c fbd6 18bc 8be0 3fbd 1b59 fdbc
00000260: e080 2bbd 5906 81bd ef94 133c 8a51 203d
00000270: 53d2 e5bc 4af8 e5bc 0383 69bd f2b9 533c
00000280: 5c49 c93c aa11 2dbd cf9d 723c c4ab 233d
00000290: eb5a a73b df81 33bd 7a24 dabc f75b 4e3d
000002a0: 831c 823c 48f4 8c3c bbcf 47bc d566 4ebd
000002b0: 1ad2 abbc 53e0 bd3c 8a74 7b3d 5f0a 27bd
000002c0: 1279 f93c 684d 2dbd 0277 a0bc 270d 613d
000002d0: 81df 3cbd 611c 59bd 3535 69bd d02d 313d
000002e0: 8264 4e3d 0d68 f4bc 31b7 33bd 9c42 c53b
000002f0: 2064 f8bc 7a5e 28bc 028b 9bbc 8c8a 263d
00000300: 65aa 45bd 992d 68bd a3e1 c53c 006c 7c3c
00000310: b015 1fbd 14c3 fd3b be13 443d 9f9e 1dbd
00000320: 96b5 373d 718b 27bc aef1 ea3c cff6 80bd
00000330: 7027 4f3d 34b2 213d d430 0fbc 2a98 023d
00000340: f19d f5bc b6d2 763d 6e41 a33c 2214 093c
00000350: 59e3 34bd d70b 8f3c 58ad cc3b 222d bebc
00000360: ca07 083d 7a22 403d a7d8 19bd 7262 683d
00000370: fcbf 96bb 1adb 9fbc 8e52 61bd a46f 35bd
00000380: eda7 69bd dbc7 0e3d bc7b 0dbd 1aa2 143d
00000390: db99 2dbd 0b17 2ebd 21c3 87bc b6cd 57bc
000003a0: 8c79 82bd bf34 0b3d e513 123d 030b 353d
000003b0: 0db0 72bd 26fd 81bd 3c02 3abc 5f6a 153d
000003c0: 474d d5bc ee84 f0bc 9014 65bd 06dc c33c
000003d0: 1db5 973c 40b8 0bbd 4fea 61bc d1a5 553d
000003e0: 1b08 4d3d 75e7 e33c 2e53 a8bb 87a0 64bd
000003f0: 4811 16bd 44f4 6abd bef7 453c ea74 69bd
-0.021222949 -0.05350277 0.059743375 -0.019057307 -0.015789896 0.056895208 0.034261096 -0.05199835
-0.01507427 0.00080731866 -0.01911728 0.00025546007 0.040451832 0.049532257 -0.01498461 -0.0067070657
-0.049512357 -0.016843038 -0.040669028 0.039863486 0.043686677 0.03712369 0.01759891 0.06087557
-0.042643845 0.024819588 0.00021658764 -0.032755625 -0.055678993 0.010429723 -0.02242699 -0.057852566
0.052128892 -0.013456538 0.041631445 -0.05059255 -0.022907078 -0.0536569 0.04699981 -0.0435564
0.03754813 0.04853199 -0.01033117 0.010774876 -0.056651462 -0.046097517 0.042449377 -0.025965452
-0.02707612 -0.05814843 0.017942578 -0.045600418 0.047105704 -0.02358554 -0.014510936 -0.029375616
0.02234333 9.057976e-05 -0.04778414 0.053100582 0.03511301 0.046937466 0.039329488 0.0030584908
-0.041966885 -0.033329852 -0.025632521 0.03634637 0.00011601053 -0.045698967 0.020338306 0.0035616409
-0.029270088 -0.013205061 -0.008437292 0.05045571 -0.0047807754 -0.020964975 0.014613346 0.053224053
-0.042947114 -0.059203863 0.05179975 -0.039384093 -0.033280216 -0.012116834 0.024564154 0.0068942597
-0.06449923 -0.016800452 0.018759007 -0.064123936 -0.05355198 0.0034923968 -0.05484344 -0.02621655
-0.028271861 0.021819206 0.03757347 -0.06486097 0.024879279 -0.03572269 0.007135044 0.030258529
-0.025670731 -0.043261573 0.04791182 -0.032724697 0.02586865 -0.022768607 0.04808416 -0.05097596
0.015838757 -0.054655537 -0.016629128 0.040913887 0.04446442 0.052351743 0.05102953 0.06483517
0.059976514 0.0050966223 0.010314228 -0.011011171 0.035030924 0.04132474 -0.03749607 -0.05996338
-0.033692285 0.0012698002 0.050442502 -0.01610459 0.028858228 0.005296157 0.056816984 -0.042655624
0.050891273 0.017834926 -0.0148386825 0.044396095 -0.057468895 -0.013224254 0.032985613 0.014788946
0.007856807 -0.021250935 -0.04690048 -0.032070324 0.027138574 -0.009328599 -0.046845 -0.030926278
-0.04187095 -0.06300039 0.0090076765 0.03914026 -0.028054392 -0.028072495 -0.057009708 0.012922751
0.024571113 -0.042253174 0.014808132 0.03995873 0.005107274 -0.043825027 -0.026628722 0.050380673
0.015882736 0.017206326 -0.012195523 -0.050391037 -0.020974208 0.023178255 0.061390437 -0.040781375
0.030453239 -0.04231015 -0.019587997 0.054944184 -0.046111587 -0.05300558 -0.056935508 0.04325658
0.05038882 -0.029834772 -0.043875877 0.0060199033 -0.03032118 -0.010276431 -0.018987183 0.040659472
-0.048258204 -0.05668411 0.024155444 0.015406609 -0.038839042 0.0077442024 0.04787039 -0.03848135
0.04485091 -0.0102261165 0.028679695 -0.06297075 0.05057472 0.03947659 -0.008739669 0.031883396
-0.029982539 0.060259543 0.01992866 0.008366616 -0.044162128 0.0174617 0.00624625 -0.02321488
0.033210553 0.04690788 -0.03756013 0.05673451 -0.004600523 -0.019513655 -0.05501037 -0.044295922
-0.057044912 0.034858566 -0.03454183 0.036287405 -0.042383056 -0.042502444 -0.016572537 -0.013171604
-0.063708395 0.03398585 0.035663504 0.044199955 -0.059249926 -0.06347112 -0.011353072 0.036478397
-0.026037825 -0.02936026 -0.055927813 0.023908626 0.018518979 -0.03411126 -0.013788774 0.052160088
0.050056558 0.027820328 -0.005136869 -0.055817153 -0.036637574 -0.057361856 0.012082992 -0.056996264

bias f4 [256]
00000000: 5882 143d f43e 40bd 6d49 ff3b 4a9b 42bd
00000010: 1903 59bb 3c6c 0d3d 8053 c0bc d459 bcbc
00000020: 6cf5 dd3c 668a 08bd 66d8 4c3d c8ff da3c
00000030: 57b2 523b 0e23 2a3d 3cb0 19bd 183e 913c
00000040: e066 a03c d098 e53c 1408 213d 9eab 1b3d
00000050: c41f 873c d4d6 edbc e847 0b3d 7adf 31bd
00000060: d0af 413c 9b26 243a b032 c43c ceba 26bd
00000070: c02f d43b f414 963c 5046 6fbd 9428 efbc
00000080: 5ca4 ab3b d2da 143d a55d f1ba e43f 1c3d
00000090: 489a d5bc 58e4 0cbc 10ec 32bc 0ce5 1bbd
000000a0: c497 4dbd b946 c2ba a86a 763d 2294 313d
000000b0: bc44 b5bc 3166 6abb 0b9e ca3b b8f4 e93c
000000c0: 0aa2 14bd d42c 05bd 4e0e 4e3d 130e b2bb
000000d0: d8ed bc3c 1c6b c5bc d69b 0fbd 18f3 1a3d
000000e0: 145d 2e3d 9238 3e3d a0da 24bc a23c 2fbd
000000f0: 66f1 54bd b067 1f3d 98d1 77bd f477 63bd
00000100: bf0a bfbc 223c 473d 2a07 14bd f3af 9c3c
00000110: 6e29 09bd 5806 5b3c 5034 323d 847b 543d
00000120: 9875 f23c 9f62 233c 5a9a 19bd 35da 463c
00000130: ac0c bf3c 8ad0 443d 6ac4 4ebd e4ad 9bbc
00000140: d035 fdbb 08bb e2bc 0635 523d f257 0b3d
00000150: 18ae e0bc ec32 aa3c caa5 373d 4e75 53bd
00000160: c675 683d 1e23 073d f484 d53c 6c8d 16bc
00000170: 28c8 b63c b237 743d 10a2 f53c 9881 b4bc
00000180: 7087 20bc 9465 7bbd d26d 2b3d 4fe8 743c
00000190: cc7e d83c 6261 6b3d 4786 543c d277 573d
000001a0: 6c24 f6bc ec1a 3c3d 72df 53bd ca94 393d
000001b0: 08bd c5bc 80db e43a 4060 bbbb 87b7 d1ba
000001c0: c8fc 063d 2802 63bc fca1 e93c 80c7 ee3c
000001d0: 108f edbc 0cbb d53c 084d 3cbd b2ff 69bd
000001e0: 9052 36bd 8299 44bd 0c7c 193d fac6 753d
000001f0: eafc 2b3d 3246 233d 9940 35bb e484 d0bc
00000200: d857 f33c 98f8 a23c 9669 58bd bfc2 08b9
00000210: ec84 a1bc 68dc f2bb 108b de3c 9896 e8bc
00000220: 40cb c23c 587c fbbc 2249 783d 0c46 e7bc
00000230: bcbd f43a 807e 50bd 7082 c63c 7a1c 683d
00000240: c6fa 49bd 32ca 7c3c c026 703d 8eb8 3bbd
00000250: 7098 f43b f492 8ebc 0eee 163d 8693 19bd
00000260: 32e6 723d 6894 2fbc 54a5 a23c 4ca8 a93c
00000270: a455 4abd 5ff5 583c 2884 5e3c 9a55 5b3d
00000280: 0fdb ecbb fefd 5cbd f253 63bd ec81 e6bc
00000290: 50f9 57bc 4ae7 353d 1cc4 55bd de8d 053d
000002a0: 00ed 66bc de7e 6e3b de97 25bd a078 5fbb
000002b0: c043 6cbc 0846 5ebc ae98 233d f08d 263c
000002c0: 60b0 53bc 40d4 613d 2883 e83c 344e a4bc
000002d0: c0ef 74bc 6029 ecbb a0ed 1fbb 5230 4fbd
000002e0: c0a6 403d 5764 dfbc d668 7b3d 5a2b 0dbd
000002f0: 2a7b 0bbd eaa3 453d 1440 aebc 9903 11bc
00000300: 70c5 a7bb 3bfd 3c3b 4eea 73bd 785c 56bd
00000310: 10f3 8abc 08e8 f8bc 78b9 633d 7846 f4bc
00000320: 6059 f6bc e433 df3c 28fe 3d3c 2cc0 eabc
00000330: b026 493d 620b 173d 9153 40bc b42e 85bc
00000340: 53e6 debb 1435 76bd 502c a53c 78d1 113d
00000350: d4b7 0fbd 62f0 083d a897 973c 7367 80bb
00000360: 2812 8e3c 3835 38bd 28d4 da3c 24b5 79bd
00000370: 42f9 6cbd 207d ff3b e492 47bd 82b7 283d
00000380: 5c5e e5bc d423 30bd 28dc 90bc cc32 51bd
00000390: e8be e03c 3cac 4fbd ccfb 263d f800 2f3c
000003a0: a0ad 9e3b e0ae a2bb a4ef be3c de5f 733d
000003b0: 00c7 6cbd b0e0 f63b 9295 703d dc96 41bd
000003c0: 8c4c b43c 90a0 443d befd 663d fa59 6abd
000003d0: b003 7e3c 488f 2e3d 7eb4 0a3d a88c 42bc
000003e0: ccf2 543c a01b 5d3d d27b 293d b6e9 78bd
000003f0: 306d 2b3c 34c0 743d 9408 f3bc e63b 623d
0.036257118 -0.046935037 0.0077907355 -0.047511376 -0.0033113419 0.03452705 -0.023477316 -0.022992052
0.027094565 -0.033335112 0.05001106 0.026733294 0.0032149756 0.041537337 -0.037521586 0.017729804
0.019580305 0.028026968 0.039314345 0.038005464 0.01649464 -0.029033102 0.034004122 -0.043426014
0.011821702 0.0006261856 0.023949951 -0.040705495 0.006475419 0.018320538 -0.058416665 -0.029194154
0.005238099 0.036341496 -0.0018414749 0.03814687 -0.026074544 -0.008599363 -0.0109205395 -0.038060233
-0.050193563 -0.0014822102 0.06016031 0.04335416 -0.022127502 -0.0035766477 0.006183391 0.028559074
-0.036287345 -0.032513455 0.05030661 -0.0054338067 0.023062631 -0.024098925 -0.035060726 0.03782949
0.042569235 0.04644067 -0.01006189 -0.042782433 -0.051988028 0.038917243 -0.06050262 -0.055534318
-0.023320554 0.04864133 -0.036139645 0.019126868 -0.033486776 0.013368212 0.04350692 0.051875606
0.029597089 0.009972244 -0.037500717 0.012136986 0.023321472 0.04805044 -0.050480284 -0.019003816
-0.007727362 -0.027677074 0.0513201 0.034019418 -0.027426764 0.020776235 0.044835843 -0.051625542
0.056752943 0.032992475 0.026064374 -0.009188991 0.022312239 0.059623428 0.029984504 -0.022034451
-0.009797916 -0.06137617 0.04185278 0.014947965 0.026427649 0.05746592 0.012971467 0.052604504
-0.030046664 0.045924112 -0.051726766 0.045307912 -0.024137989 0.0017460436 -0.005718261 -0.001600013
0.032955915 -0.013855495 0.028519623 0.029147863 -0.028998882 0.026090167 -0.0459719 -0.057128616
-0.04451233 -0.04799796 0.037471816 0.060004212 0.041989245 0.039861865 -0.0027656911 -0.025453992
0.029704973 0.01989393 -0.05283507 -0.0001304252 -0.019716702 -0.0074115284 0.02716592 -0.028392121
0.023778558 -0.03069894 0.06061662 -0.028231643 0.0018672268 -0.05090189 0.02423212 0.056667782
-0.04931142 0.0154290665 0.058630705 -0.045830302 0.007464461 -0.017404057 0.03684812 -0.037494205
0.059301563 -0.010716535 0.019854225 0.020710133 -0.04939808 0.013242095 0.013581313 0.053548433
-0.0072282623 -0.053953163 -0.05549998 -0.028138123 -0.013181999 0.044410028 -0.052188978 0.032606
-0.014094591 0.0036391537 -0.040428035 -0.0034098998 -0.01442045 -0.013566501 0.03994053 0.0101656765
-0.012920469 0.055134058 0.028382853 -0.020056821 -0.014949739 -0.0072070807 -0.002440311 -0.05058319
0.047034025 -0.027269525 0.061379276 -0.03446517 -0.034053005 0.048252024 -0.02127079 -0.008850955
-0.005119972 0.002883746 -0.059549622 -0.05233428 -0.016961604 -0.030384079 0.0555968 -0.029818758
-0.030071914 0.027246423 0.01159624 -0.028656088 0.04910916 0.03687609 -0.011738674 -0.016257621
-0.006802359 -0.060109213 0.020162731 0.035600156 -0.03508742 0.033432372 0.018504933 -0.003918582
0.017342642 -0.04497263 0.026712492 -0.060963765 -0.0578549 0.0077968985 -0.04872407 0.04119063
-0.027999096 -0.04300292 -0.017683104 -0.051073834 0.027434781 -0.050701365 0.040767476 0.010681383
0.004842475 -0.0049646944 0.023307629 0.059417598 -0.05780697 0.007534109 0.05873639 -0.04726301
0.022009157 0.048004687 0.05639433 -0.057214715 0.015503809 0.042617112 0.033863537 -0.011874355
0.01299734 0.053981423 0.04137785 -0.06076976 0.010463044 0.05975361 -0.029667176 0.055232905
