Predict/storage/MLP_256_200_SGD_11/trained_194.pt (torch, 339061 bytes, 13 tensors)

weight f4 [256, 58]
-0.05978254 0.08053593 -0.06104099 0.08218989 -0.051797327 0.10847788 0.050442833 -0.06576136
0.07905572 -0.03235241 -0.02809355 0.10920775 -0.04041877 0.120705776 0.052361008 -0.032789387
-0.10694437 -0.11047928 -0.0039516226 -0.07850396 -0.10319451 -0.11628734 0.04359735 -0.08740311
0.10339025 -0.013191382 0.05423741 -0.05087059 0.12476522 0.04263482 0.023600727 -0.040620893
0.12888066 -0.06435641 -0.110884584 -0.13283175 -0.11472097 -0.08037061 0.09393434 -0.104052074
-0.01799193 0.12686792 -0.03834216 0.01504201 0.07179089 -0.090013035 -0.053633187 0.02376715
-0.07369562 0.08156438 -0.10123446 -0.06508581 -0.10598239 0.066096514 -0.0036343297 -0.11875
0.08777189 0.08919384 -0.08084458 0.006380142 -0.05160587 0.009990435 0.019430378 -0.12446193
0.069561906 -0.12064233 -0.075212516 0.07057242 0.11217511 0.08099154 0.13262743 -0.052249357
-0.03762782 0.028474238 -0.11845936 -0.11676553 0.0938542 -0.10936643 -0.12685032 -0.05223748
-0.05015365 -0.06345064 0.10076149 0.10991362 -0.035433114 0.03188111 -0.03448246 0.023862833
-0.08806793 0.027924862 -0.005108666 -0.043895125 0.02749758 0.022144314 -0.09074023 -0.119111374
0.111124136 -0.017385311 0.06208521 0.0033452178 -0.048199967 0.031555485 0.00040412735 -0.24236293
0.030034024 0.09836137 0.04082816 0.1307009 0.094496794 -0.10819183 0.00037066106 0.095226996
-0.07335537 0.06319525 0.014451589 0.064982824 0.00874121 -0.08792425 -0.036258224 -0.07410589
0.08473883 0.0068969578 -0.052726954 0.047694128 -0.12483516 -0.10023558 0.027560232 -0.05371265
-0.08790338 0.028978225 0.0037418238 -0.071931496 -0.09864682 0.11602136 0.031852562 -0.12999338
0.07652969 -0.07143724 0.05527298 0.07942134 -0.09070612 -0.00011119018 -0.014588456 -0.11595483
0.040504593 -0.013513417 -0.015322709 -0.09239378 0.0279396 0.106601045 0.022048486 -0.046850212
-0.044824634 0.015552827 -0.106800206 0.06635546 -0.034147248 0.09924372 -0.041601952 -0.13036785
0.0394967 0.048940517 0.20571998 -0.088925414 -0.100510225 -0.11391284 0.057911184 -0.12322989
-0.16858746 -0.16881122 -0.053754076 -0.10008211 -0.06411632 -0.15881059 -0.13542616 -0.029015511
-0.093664974 0.05945505 0.09358029 -0.05414444 0.055630084 0.020544587 0.024008531 0.057686
-0.0646951 -0.064285375 0.122472495 -0.12858889 0.0631436 0.03042367 0.02499831 -0.11287164
-0.08668751 0.07621452 -0.047196914 -0.102823645 -0.05741041 -0.08178896 0.068644926 -0.031106427
-0.099646 0.0031814885 -0.02819128 0.022322759 0.102320135 -0.08738655 -0.09950061 0.02913364
-0.06332079 0.07401061 0.09631107 0.14028838 -0.04535994 0.105461925 0.12689017 -0.07168747
0.12019824 0.12105053 -0.00609942 -0.06459204 0.04189663 0.04148416 -0.021082712 -0.108744316
0.025244048 -0.037182376 0.18819985 0.2020376 0.061584253 0.04589035 -0.05093771 0.0077324733
-0.06357102 -0.095050134 -0.006438547 -0.06548687 0.12831007 -0.018174248 0.039516672 0.07420971
-0.08838815 -0.064079136 -0.06705572 -0.06375967 0.14569996 0.0695763 0.07777088 0.023876011
-0.081215575 0.12003262 0.032107938 0.019797536 -0.10746693 0.06925296 -0.07472361 0.024975432
00000000: 89de 74bd 06f0 a43d 1e06 7abd 2c53 a83d
00000010: 6f29 54bd a729 de3d 259d 4e3d e4ad 86bd
00000020: f7e7 a13d f683 04bd 7224 e6bc 50a8 df3d
00000030: 278e 25bd 9734 f73d 7f78 563d 2a4e 06bd
00000040: a605 dbbd f642 e2bd 9d7c 81bb afc6 a0bd
00000050: a557 d3bd 0f28 eebd 2393 323d 6700 b3bd
00000060: 44be d33d ab20 58bc 0c28 5e3d ae5d 50bd
00000070: e884 ff3d d9a1 2e3d 5056 c13c 1862 26bd
00000080: 4bf9 033e 4bcd 83bd 7517 e3bd 0c05 08be
00000090: d4f2 eabd 5999 a4bd a660 c03d 4119 d5bd
000000a0: d063 93bc aae9 013e ab0c 1dbd c372 763c
000000b0: 1a07 933d c158 b8bd 79ae 5bbd 53b3 c23c
000000c0: bbed 96bd 3a0b a73d 0354 cfbd b64b 85bd
000000d0: 4c0d d9bd 9c5d 873d ef2d 6ebb 3333 f3bd
000000e0: c0c1 b33d 43ab b63d d891 a5bd 8310 d13b
000000f0: ad60 53bd ecae 233c 752c 9f3c e5e5 febd
00000100: 7976 8e3d 5313 f7bd 0509 9abd 4688 903d
00000110: 10bc e53d e4de a53d 7ccf 073e 6c03 56bd
00000120: a11f 1abd ce42 e93c d29a f2bd c422 efbd
00000130: a136 c03d 82fb dfbd 0de5 01be f8f6 55bd
00000140: ea6d 4dbd 69f2 81bd 0a5c ce3d 641a e13d
00000150: 5022 11bd c495 023d 7b3d 0dbd fd7b c33c
00000160: f55c b4bd aec2 e43c 9966 a7bb 60cb 33bd
00000170: 9b42 e13c fe67 b53c 04d6 b9bd aaf0 f3bd
00000180: 0d95 e33d a46b 8ebc 104d 7e3d 713b 5b3b
00000190: 546d 45bd 5340 013d 0ee1 d339 fd2d 78be
000001a0: ea09 f63c b071 c93d 6e3b 273d 75d6 053e
000001b0: 8987 c13d ae93 ddbd 4955 c239 5f06 c33d
000001c0: 573b 96bd 836c 813d 5cc6 6c3c b715 853d
000001d0: 4b37 0f3c a111 b4bd 8183 14bd d4c4 97bd
000001e0: 8d8b ad3d e0ff e13b 38f8 57bd eb5a 433d
000001f0: 94a9 ffbd 5048 cdbd ffc5 e13c cc01 5cbd
00000200: b006 b4bd be63 ed3c 6339 753b d250 93bd
00000210: 5807 cabd 9b9c ed3d d577 023d fc1c 05be
00000220: 99bb 9c3d b04d 92bd ec65 623d a8a7 a23d
00000230: 21c4 b9bd c62e e9b8 6b04 6fbc ba79 edbd
00000240: 25e8 253d 6167 5dbc 1a0c 7bbc f338 bdbd
00000250: 97e1 e43c a651 da3d 079f b43c 02e6 3fbd
00000260: 099a 37bd 49d1 7e3c 11ba dabd 5fe5 873d
00000270: fcdd 0bbd 4b40 cb3d cf66 2abd 267f 05be
00000280: 4bc7 213d da75 483d 42a8 523e 871e b6bd
00000290: 4ed8 cdbd 234b e9bd 4734 6d3d f45f fcbd
000002a0: 31a2 2cbe d9dc 2cbe 3c2d 5cbd d9f7 ccbd
000002b0: 6b4f 83bd 3e9f 22be 28ad 0abe f0b1 edbc
000002c0: 6cd3 bfbd 2387 733d 06a7 bf3d 8fc6 5dbd
000002d0: 5fdc 633d 1f4d a83c 8aad c43c 2848 6c3d
000002e0: dd7e 84bd 0da8 83bd dcd2 fa3d ceac 03be
000002f0: 6f51 813d 0f3b f93c 41c9 cc3c 3f29 e7bd
00000300: 3989 b1bd 5c16 9c3d 8d51 41bd 3495 d2bd
00000310: 2e27 6bbd f880 a7bd b695 8c3d e8d2 febc
00000320: 3413 ccbd 8580 503b 66f1 e6bc 38de b63c
00000330: 388d d13d b8f7 b2bd fac6 cbbd aca9 ee3c
00000340: 55ae 81bd e092 973d bd3e c53d c2a7 0f3e
00000350: 58cb 39bd 6cfc d73d 7fef 013e e1d0 92bd
00000360: 7f2a f63d 57e9 f73d a5dd c7bb d548 84bd
00000370: cd9b 2b3d 4beb 293d a7b5 acbc 57b5 debd
00000380: 9bcc ce3c 8c4c 18bd 76b7 403e f2e2 4e3e
00000390: c53f 7c3d 85f7 3b3d 0fa4 50bd b060 fd3b
000003a0: 8631 82bd a5a9 c2bd 72fa d2bb fb1d 86bd
000003b0: b763 033e 29e2 94bc 3cdc 213d 43fb 973d
000003c0: d904 b5bd ec3b 83bd 8254 89bd 6e94 82bd
000003d0: 5f32 153e 057e 8e3d 5746 9f3d a097 c33c
000003e0: 5a54 a6bd aad3 f53d 9d83 033d 712e a23c
000003f0: 9f17 dcbd 7fd4 8d3d b108 99bd 4799 cc3c

bias f4 [256]
0.07471278 0.052635495 0.049306963 0.041018687 -0.08029827 0.12007886 0.007140467 -0.04528479
-0.09788442 0.119210325 -0.09456519 -0.025390645 0.07872289 -0.05907773 -0.026253812 -0.088728905
-0.0871841 0.10570839 -0.11877325 -0.0135338055 0.009437877 0.117953174 -0.023859467 0.09754358
-0.041567184 -0.082675055 -0.115165606 -0.07560525 0.07789187 -0.0049913293 -0.09087476 0.11939613
0.010623483 -0.03735014 -0.0253752 0.0011730972 -0.011125254 0.013131167 0.13034299 -0.05096079
0.0853806 0.13074239 -0.03958884 -0.12319497 0.114893496 0.00095155684 -0.07795132 -0.12561598
-0.06901452 -0.11996447 0.056053378 0.05001976 0.042097554 -0.07449197 0.06873023 -0.11812548
0.029618038 -0.0017756416 0.014734587 -0.07214869 -0.078324065 -0.04401925 0.036709387 0.04885868
-0.06842918 0.048019923 -0.107866965 -0.03610708 0.11235171 -0.12541766 -0.037049275 0.108514525
-0.013813647 0.09198375 -0.10348142 0.07472 0.0015474898 0.04753337 -0.027279738 0.09883379
0.12896022 0.005857959 -0.1077215 -0.03737351 0.050712083 0.094278924 -0.107415706 -0.0075053023
0.11376384 -0.08266508 -0.0779941 0.11996307 0.106272824 0.05537626 0.051124826 -0.02471173
-0.08999329 -0.12657613 0.11700898 0.101726785 0.060791306 0.06222618 -0.009937293 -0.0732202
-0.096561186 -0.11727858 -0.116292775 0.09523733 -0.08547879 -0.0002695225 0.036715716 0.057221416
0.08793618 -0.0018336645 0.006253048 -0.012878541 0.039940987 -0.0069756103 -0.055019733 0.061437257
0.052470762 -0.060722087 0.09836558 0.05428323 0.018865589 0.05100153 -0.09096867 0.0765249
-0.120179586 -0.0817376 -0.06362946 -0.1020014 0.06513104 0.038141076 -0.03168468 0.052864745
-0.105715625 -0.03792554 0.04113898 0.09449827 0.07191723 -0.11245348 -0.08714525 -0.08867816
0.1046412 0.018399695 -0.084821574 0.08571304 -0.06883961 -0.088896655 0.017662708 0.06349809
-0.016422523 -0.0873719 0.09031966 -0.11929852 -0.013416408 0.021685218 -0.068390235 0.04568061
-0.02911738 -0.049789142 0.021435682 0.08728359 -0.11606672 0.01119551 0.045073085 0.12952456
-0.072919786 0.037765175 0.08563056 -0.125182 -0.096780814 0.076856345 -0.021407515 0.114188485
0.08380954 -0.08771073 0.1182902 -0.048106328 -0.06501027 -0.040631436 0.038490754 0.11758078
0.11288569 -0.08675997 0.0157438 -0.12187059 -0.09028211 0.111676216 0.0698594 -0.1069128
-0.10610238 -0.06784696 0.0066054966 -0.021193668 0.0674215 -0.12133824 0.015407016 0.0013178429
-0.09586054 0.09912045 0.09237903 0.05390047 0.124349765 0.08805776 0.030294511 -0.11614382
-0.04989782 0.053473786 0.00961214 0.013685199 0.004926326 0.0439724 0.028413152 -0.07227191
0.045842804 0.100490905 0.03391427 0.011391657 -0.077238314 -0.095645286 -0.05798941 0.08264749
-0.07121335 -0.026035532 0.049042296 0.03892517 0.083411016 0.1279166 0.011693358 -0.12046544
0.09578244 0.0032075082 -0.08588347 0.11528726 -0.09447482 -0.06477875 0.1111634 0.0035052567
0.02819039 -0.03162735 0.022279372 -0.02238913 0.028000776 -0.037679978 0.042610813 -0.025673356
-0.0943686 -0.08611209 -0.015321086 0.00629225 0.09545796 -0.06267459 -0.033411905 -0.03733666
00000000: 0403 993d 5198 573d 19f6 493d 3603 283d
00000010: 6b73 a4bd e8eb f53d 94fa e93b 8b7c 39bd
00000020: a077 c8bd 8b24 f43d 65ab c1bd 0b00 d0bc
00000030: 7739 a13d 7dfb 71bd 3c12 d7bc 80b7 b5bd
00000040: 948d b2bd a47d d83d 643f f3bd e5bc 5dbc
00000050: 53a1 1a3c 6f91 f13d ee74 c3bc eec4 c73d
00000060: 5a42 2abd 8a51 a9bd f2db ebbd edd6 9abd
00000070: c685 9f3d 4e8e a3bb 8c1c babd f585 f43d
00000080: 1e0e 2e3c 76fc 18bd a7df cfbc 9cc2 993a
00000090: b346 36bc 1b24 573c a278 053e 43bc 50bd
000000a0: 06dc ae3d 55e1 053e e827 22bd a54d fcbd
000000b0: 484d eb3d e671 793a f1a4 9fbd 7aa1 00be
000000c0: 7c57 8dbd efaf f5bd 3a98 653d 85e1 4c3d
000000d0: 7c6e 2c3d 3f8f 98bd 6fc2 8c3d c6eb f1bd
000000e0: 87a1 f23c a5bc e8ba 5669 713c b1c2 93bd
000000f0: 5e68 a0bd 874d 34bd 955c 163d 0a20 483d
00000100: 9924 8cbd 8ab0 443d 5be9 dcbd 04e5 13bd
00000110: a718 e63d 7d6d 00be fbc0 17bd dd3c de3d
00000120: a352 62bc fa61 bc3d 11ee d3bd cd06 993d
00000130: 24d5 ca3a 5ab2 423d c279 dfbc 5f69 ca3d
00000140: 260e 043e 1ff4 bf3b 179d dcbd f714 19bd
00000150: 79b7 4f3d 4f15 c13d c4fc dbbd 0aef f5bb
00000160: 04fd e83d 4f4c a9bd 5fbb 9fbd 33af f53d
00000170: 91a5 d93d 38d2 623d 4468 513d 4170 cabc
00000180: 674e b8bd 2c9d 01be 67a2 ef3d 2256 d03d
00000190: 4e00 793d e1e0 7e3d 07d0 22bc 79f4 95bd
000001a0: dfc1 c5bd c12f f0bd e82a eebd ca0b c33d
000001b0: 810f afbd b34e 8db9 3863 163d 0161 6a3d
000001c0: e217 b43d 9257 f0ba 5ee6 cc3b 8400 53bc
000001d0: 2999 233d a993 e4bb 5f5c 61bd a2a5 7b3d
000001e0: 95eb 563d b9b7 78bd e573 c93d 1858 5e3d
000001f0: 028c 9a3c fbe6 503d c84d babd 16b9 9c3d
00000200: b720 f6bd 0b66 a7bd 2a50 82bd 1ce6 d0bd
00000210: 6c63 853d d139 1c3d ccc7 01bd b488 583d
00000220: 6f81 d8bd d057 1bbd 5981 283d 4f88 c13d
00000230: 5749 933d 034e e6bd 3579 b2bd e59c b5bd
00000240: 204e d63d f5ba 963c efb6 adbd 518a af3d
00000250: c8fb 8cbd 730f b6bd 62b1 903c 490b 823d
00000260: 8788 86bc 0af0 b2bd 84f9 b83d c852 f4bd
00000270: 7ed0 5bbc 33a5 b13c 2e10 8cbd 971b 3b3d
00000280: 9287 eebc b3ef 4bbd e299 af3c bdc1 b23d
00000290: 63b4 edbd 5f6d 373c 8e9e 383d 16a2 043e
000002a0: f856 95bd a8af 1a3d 135f af3d b62f 00be
000002b0: 0535 c6bd dc66 9d3d d05e afbc a7db e93d
000002c0: 56a4 ab3d afa1 b3bd 2242 f23d 240b 45bd
000002d0: 1b24 85bd 266d 26bd 7ba8 1d3d 31ce f03d
000002e0: 9d30 e73d 36af b1bd 24f9 803c 4a97 f9bd
000002f0: d4e5 b8bd 80b6 e43d 7212 8f3d 19f5 dabd
00000300: 344c d9bd 59f3 8abd ec72 d83b 589e adbc
00000310: 4914 8a3d 2f80 f8bd b56d 7c3c 78bb ac3a
00000320: 8852 c4bd aaff ca3d 3831 bd3d bdc6 5c3d
00000330: 17ab fe3d a057 b43d 322c f83c d0dc edbd
00000340: a861 4cbd 5407 5b3d 3d7c 1d3c e337 603c
00000350: 056d a13b 671c 343d b3c2 e83c 4c03 94bd
00000360: aac5 3b3d 2dce cd3d b1e9 0a3d 13a4 3a3c
00000370: 1f2f 9ebd ade1 c3bd 4e86 6dbd 1643 a93d
00000380: 4ed8 91bd 7848 d5bc 93e0 483d 0070 1f3d
00000390: 65d3 aa3d 92fc 023e 8095 3f3c 96b6 f6bd
000003a0: 9529 c43d 0f35 523b ace3 afbd ba1b ec3d
000003b0: 047c c1bd b9aa 84bd a3a9 e33d 73b8 653b
000003c0: 88ef e63c ae8b 01bd 3b83 b63c 6969 b7bc
000003d0: e261 e53c 5256 1abd ad88 2e3d ee50 d2bc
000003e0: 5344 c1bd 895b b0bd 4b05 7bbc 382f ce3b
000003f0: 777f c33d 895b 80bd ecda 08bd 53ee 18bd

weight f4 [256]
0.9837588 1.0092933 1.0168569 0.97096545 1.0077286 1.0157523 1.0087861 1.0192738
0.96596754 0.9646536 0.99291 1.024235 0.9749719 1.0143901 1.1475178 1.0220724
1.0171808 1.0093063 1.0093694 0.9499606 1.0196245 1.0222452 0.9729068 0.96243227
0.99796844 1.0117632 0.95715624 0.91557175 1.0064871 0.9979601 1.0225271 1.0140256
0.9839759 0.9662211 1.0107101 0.960103 0.9943027 1.0238582 0.97334397 0.9253795
1.0025414 1.0118262 1.0265394 1.0304376 0.9900833 1.029746 0.9408293 1.0128545
1.0220227 0.98119074 0.9828739 1.0226372 1.0372856 0.97690046 0.9899319 1.0132018
1.0270473 1.025072 0.9564199 1.009215 1.0266697 1.0145332 1.0484122 1.0174438
0.982538 1.0131291 1.0115031 1.0239207 0.9909 0.94307166 0.9687544 0.95999783
1.0278766 1.0137807 1.032865 0.9773174 0.9924977 1.0245854 1.0269164 1.0286717
1.0111156 0.9891718 1.0119424 1.0142645 0.9985147 1.019743 1.0228391 1.0216255
0.9352345 1.002968 0.967373 0.9964081 0.98373014 1.0235466 1.0182431 1.0182354
1.019273 1.0128672 1.014215 0.94738036 1.0181873 1.0165657 0.98879373 0.9214722
1.019712 0.96880263 1.0299121 0.97346056 0.9271263 0.99223155 1.0129505 1.0154254
0.9983528 1.0129646 1.0252929 1.0054181 0.9825192 1.0184592 0.91797775 1.0072808
1.0378809 0.9310534 1.003896 1.0226406 0.9377876 1.017187 1.0098412 1.0189176
1.0281794 1.0269355 0.96055394 1.0093716 1.0078547 1.0011448 0.9703096 0.99183595
0.9690206 0.9095091 1.0166432 1.0335867 1.0237608 0.957528 0.9538172 1.0092928
0.9905698 0.9897668 0.9976788 1.0112982 1.0228693 0.92782336 1.017357 1.0183918
1.0293761 0.916516 0.9885553 1.0401001 1.0196519 0.96135 1.061354 1.0670738
0.9575954 0.91396 0.9773003 0.93175113 1.0027165 1.0093968 1.044359 0.9599222
0.9887944 0.9878306 1.0041249 1.0182673 1.0181712 0.9537507 0.9683712 1.0313073
1.0148102 1.0195132 1.0387496 1.0368477 1.0200387 0.98298746 1.0328873 0.9773152
1.0205609 1.0131167 0.9740141 1.0004442 1.0351009 1.0119479 1.0075978 0.9446349
0.937121 1.0317278 0.9089444 0.95584315 1.0292599 1.0053974 1.005236 0.9936774
1.010548 1.009341 0.9782821 1.0233049 1.0410767 1.014255 0.98095334 0.99886304
1.0440834 1.0519743 1.0180131 1.0168815 1.0102955 1.0182928 1.020029 1.0357225
0.928727 0.9987504 0.9252711 0.99744993 1.0343741 1.0112073 1.0048724 0.9194185
0.98522735 1.0063397 0.9662096 0.99654484 0.9894408 1.0447803 0.9325688 1.0077676
1.0353662 0.9892357 1.0007364 0.97415876 1.0210016 1.0124167 1.0286267 1.038366
1.0314627 0.9969621 0.94013226 0.94479233 1.0167592 1.015572 1.0104342 1.1204
1.0562015 0.9882863 1.0222478 1.0247742 0.94050145 0.9912314 0.9264817 0.97274756
00000000: 9ed7 7b3f 8630 813f 5e28 823f 3191 783f
00000010: 40fd 803f 2c04 823f e71f 813f 9077 823f
00000020: a649 773f 8af3 763f 5a2f 7e3f 221a 833f
00000030: c297 793f 89d7 813f dde1 923f 45d3 823f
00000040: fb32 823f f330 813f 0433 813f 9e30 733f
00000050: 0e83 823f eed8 823f 6c10 793f f661 763f
00000060: dc7a 7f3f 7581 813f 3108 753f e962 6a3f
00000070: 92d4 803f 507a 7f3f 2be2 823f 97cb 813f
00000080: d8e5 7b3f 445a 773f f35e 813f 4fc9 753f
00000090: 9f8a 7e3f c90d 833f 122d 793f ace5 6c3f
000000a0: 4753 803f 8583 813f a565 833f 61e5 833f
000000b0: 1976 7d3f b8ce 833f 30da 703f 37a5 813f
000000c0: a4d1 823f 512f 7b3f a09d 7b3f c7e5 823f
000000d0: c6c5 843f 2616 7a3f 2d6c 7d3f 99b0 813f
000000e0: 4976 833f 8f35 833f efd7 743f f52d 813f
000000f0: ea69 833f 39dc 813f 5f32 863f 993b 823f
00000100: 9c87 7b3f 37ae 813f ef78 813f d50f 833f
00000110: 9fab 7d3f 256d 713f 4a00 783f 6bc2 753f
00000120: 7691 833f 91c3 813f ec34 843f 7931 7a3f
00000130: 5414 7e3f 9d25 833f ff71 833f 84ab 833f
00000140: 3c6c 813f 5d3a 7d3f 5487 813f 6bd3 813f
00000150: a99e 7f3f f086 823f 64ec 823f a0c4 823f
00000160: 876b 6f3f 4161 803f c2a5 773f 9a14 7f3f
00000170: bdd5 7b3f 9303 833f ca55 823f 8a55 823f
00000180: 8a77 823f a2a5 813f ccd1 813f 8587 723f
00000190: f653 823f d31e 823f 9621 7d3f 9ae5 6b3f
000001a0: ec85 823f 7303 783f 29d4 833f b634 793f
000001b0: 2658 6d3f e302 7e3f 5da8 813f 76f9 813f
000001c0: 0d94 7f3f d3a8 813f cc3c 833f 8ab1 803f
000001d0: 6186 7b3f df5c 823f 9700 6b3f 94ee 803f
000001e0: 48d9 843f 8459 6e3f aa7f 803f e3e5 823f
000001f0: d912 703f 2f33 823f 7a42 813f e46b 823f
00000200: 629b 833f 9f72 833f dde6 753f 1733 813f
00000210: 6201 813f 8325 803f 3666 783f f6e8 7d3f
00000220: bc11 783f 97d5 683f 5d21 823f 924c 843f
00000230: 980a 833f 8e20 753f 5d2d 743f 8230 813f
00000240: fb95 7d3f 5b61 7d3f e167 7f3f 3872 813f
00000250: 62ed 823f d585 6d3f c138 823f aa5a 823f
00000260: 99c2 833f cba0 6a3f f611 7d3f 0022 853f
00000270: f483 823f 091b 763f 73da 873f e095 883f
00000280: f924 753f 48f9 693f 5a30 7a3f 3e87 6e3f
00000290: 0459 803f ea33 813f 8ead 853f 76bd 753f
000002a0: a121 7d3f 77e2 7c3f 2a87 803f 9556 823f
000002b0: 6f53 823f 0229 743f 2de7 773f e101 843f
000002c0: 4de5 813f 697f 823f bff5 843f 6db7 843f
000002d0: a190 823f 11a5 7b3f a735 843f 5431 7a3f
000002e0: bda1 823f cfad 813f fd58 793f 8e0e 803f
000002f0: 307e 843f 8287 813f f7f8 803f 98d3 713f
00000300: 29e7 6f3f a80f 843f 95b0 683f 23b2 743f
00000310: cabe 833f ddb0 803f 93ab 803f a461 7e3f
00000320: a359 813f 1632 813f b270 7a3f a8fb 823f
00000330: 0042 853f 1cd3 813f c21f 7b3f 7db5 7f3f
00000340: 86a4 853f 18a7 863f 414e 823f 2c29 823f
00000350: 5d51 813f 6b57 823f 4f90 823f 8e92 843f
00000360: 0dc1 6d3f 1bae 7f3f 91de 6c3f e158 7f3f
00000370: 5f66 843f 3e6f 813f a99f 803f 035f 6b3f
00000380: dc37 7c3f bdcf 803f 8359 773f 901d 7f3f
00000390: fe4b 7d3f 5cbb 853f d4bc 6e3f 87fe 803f
000003a0: e186 843f 8d3e 7d3f 2118 803f 7862 793f
000003b0: 2eb0 823f df96 813f 0aaa 833f 2de9 843f
000003c0: f806 843f e838 7f3f 82ac 703f e9dd 713f
000003d0: 2a25 823f 43fe 813f e855 813f 4469 8f3f
000003e0: 9c31 873f 5500 7d3f 04d9 823f cd2b 833f
000003f0: b4c4 703f 57c1 7d3f e82d 6d3f fc05 793f

bias f4 [256]
0.003049512 0.0047312053 -0.0035730274 0.014154297 0.018591356 0.005529013 -0.005159429 -0.00016995573
-0.00082463975 -0.0006110182 -0.0068039745 0.0029007865 -0.017479409 0.0037522542 -0.010901131 0.02878185
-0.010272188 0.0031458586 -0.016854081 -0.016263038 0.000931097 0.007705694 -8.777719e-05 -0.026462968
-0.012321527 0.0018134066 0.001264423 -0.021345524 0.001010995 -0.010493334 0.034030408 -0.0032624481
0.0033349397 0.0033823622 0.008049588 -0.013901254 -0.0019371682 0.022869855 -0.0135317445 -0.024554746
-0.01247239 0.01645533 0.017876837 0.00527503 0.0052172807 0.025985468 -0.028173095 0.0008965812
0.037188947 0.013588635 0.006594684 0.01065217 0.038575646 -0.0028108044 -0.0002509881 0.0067072185
0.03536204 0.004505016 -0.015635088 0.016932854 0.0015533624 0.021532439 0.019697214 0.016150331
0.003073707 0.026752727 -0.009354686 0.024700608 0.0051298137 0.003298411 0.0024836191 -0.011967095
0.026622627 -0.028967308 -0.0028719718 0.010327022 -0.0029610144 0.009027957 0.055380184 0.0116737
0.006584996 0.003280139 0.0069261207 0.026286893 -0.030772857 0.022633908 -0.0071848994 0.007880972
-0.009489588 0.008295349 -0.007077847 -0.0020045266 -0.0013566461 -0.0042558424 0.013484323 0.036132522
0.007208514 0.024073653 0.003701837 -0.010193357 0.006998576 0.0095344605 -0.01272719 -0.0497661
0.03076957 0.010810582 0.0088301515 -0.012455169 0.00082401617 -0.0007491832 0.015785614 0.0016990784
-0.00018764459 0.028101517 -0.026121547 -0.0014113192 -0.008267325 0.017049514 -0.030578656 0.009682349
0.014674785 -0.014225375 -0.004231798 0.01335717 -0.013066658 0.016272327 0.004728805 0.006892505
0.01424838 -0.0050265314 0.0058220886 0.01038587 0.0023708162 0.0064219143 0.00796894 -0.01417963
-0.020994747 -0.030150069 0.028389307 0.019282116 0.005113795 0.0036897531 -0.005987883 -0.003974429
-0.019657074 -0.0070378017 0.0033778325 -0.0059099146 0.033781637 -0.021260146 0.014435788 0.015778195
0.016207369 -0.020723129 0.020237308 0.019253373 0.003376292 -0.009668639 0.0066796048 0.02313328
-0.023563175 -0.020305729 0.0024401627 -0.036498025 -0.0033146776 -0.01208657 0.017976005 -0.0071122185
0.021379245 -0.007542326 -0.0054331264 0.010925662 0.015117699 -0.015421475 -0.0028490424 0.0030592945
0.014814957 0.0068582175 0.0139851635 0.03788743 0.03303212 -0.012650956 0.015739257 -0.0021306563
0.01544525 -0.0009886122 0.005445883 0.0047182 0.040112097 0.012463206 0.009795934 -0.0032023897
-0.00010884501 0.052994348 -0.027042672 -0.007015782 0.026647579 0.009406152 -0.026557751 0.0012442078
-0.0002637954 -0.015701702 0.0025758026 0.013137165 0.023324048 0.002497551 0.009079171 0.018935014
-0.0140275145 0.008561516 0.0051064948 0.0028719278 -0.008388271 0.019169267 0.039354183 0.040481653
-0.023742976 0.018208405 -0.009089837 -0.0015478426 0.022422839 0.021650407 0.0017485396 -0.037365075
-0.0017922058 0.014516951 -0.009123114 0.000847115 0.017170133 0.0300181 -0.021314163 -0.0055585583
0.021064403 -0.023160618 -0.015784083 -0.0072934097 0.025990734 0.009659479 0.028626496 0.016825866
0.01729978 0.01563924 0.00020744985 -0.014047839 0.037448976 0.009256157 0.006147769 -0.020394128
0.035331797 0.035990205 0.017541302 0.02132177 -0.02040256 -0.0051754797 -0.035217557 -0.0127698695
00000000: 52da 473b 3a08 9b3b 7429 6abb 6de7 673c
00000010: e64c 983c b92c b53b 6d10 a9bb 2536 32b9
00000020: a32c 58ba bd2c 20ba e0f3 debb 1f1b 3e3b
00000030: fa30 8fbc 61e8 753b a89a 32bc eac7 eb3c
00000040: ae4c 28bc c02a 4e3b 9211 8abc 103a 85bc
00000050: dd14 743a 0c80 fc3b 0515 b8b8 dec8 d8bc
00000060: 3be0 49bc d4af ed3a ffba a53a cfdc aebc
00000070: 5d83 843a 3cec 2bbc 7863 0b3d ccce 55bb
00000080: 018f 5a3b 9faa 5d3b 6be2 033c 16c2 63bc
00000090: 94e8 fdba 9059 bb3c 40b4 5dbc 0927 c9bc
000000a0: ff58 4cbc 54cd 863c 7272 923c 29da ac3b
000000b0: b9f5 aa3b 7adf d43c 43cb e6bc 8c08 6b3a
000000c0: 7053 183d dea2 5e3c 3818 d83b 7086 2e3c
000000d0: 7f01 1e3d 7935 38bb 0d97 83b9 3ac8 db3b
000000e0: c9d7 103d d09e 933b 2815 80bc c5b6 8a3c
000000f0: 319a cb3a cc64 b03c 0d5c a13c b34d 843c
00000100: 3f70 493b 8928 db3c 6644 19bc ee58 ca3c
00000110: ff17 a83b 272a 583b 37c4 223b a211 44bc
00000120: b217 da3c d94c edbc b137 3cbb ab32 293c
00000130: 940d 42bb ffe9 133c 55d6 623d 0c43 3f3c
00000140: f3c6 d73b 9af7 563b 83f4 e23b 9c57 d73c
00000150: 5c17 fcbc bf6a b93c 4e6f ebbb 311f 013c
00000160: 387a 1bbc 37e9 073c 49ed e7bb 605e 03bb
00000170: 7dd1 b1ba 9874 8bbb 5aed 5c3c b2ff 133d
00000180: 6635 ec3b 1c36 c53c 859a 723b 0a02 27bc
00000190: 5054 e53b 6d36 1c3c b485 50bc 8ad7 4bbd
000001a0: 7710 fc3c de1e 313c 57ac 103c c410 4cbc
000001b0: ca02 583a d564 44ba d550 813c 9cb3 de3a
000001c0: 76c2 44b9 2735 e63c dbfc d5bc 04fc b8ba
000001d0: ad73 07bc 6cab 8b3c 1780 fabc b7a2 1e3c
000001e0: 826e 703c 8c11 69bc e5aa 8abb 08d8 5a3c
000001f0: 8915 56bc 8b4d 853c 17f4 9a3b 86da e13b
00000200: 0a72 693c 9ab5 a4bb 38c7 be3b 7f29 2a3c
00000210: b25f 1b3b ec6e d23b 2890 023c ae51 68bc
00000220: 2dfd abbc 47fd f6bc b190 e83c 87f5 9d3c
00000230: 9f91 a73b c9cf 713b 0136 c4bb ed3b 82bb
00000240: df07 a1bc 5c9d e6bb a05e 5d3b f5a7 c1bb
00000250: 9d5e 0a3d c229 aebc 1584 6c3c 4641 813c
00000260: 51c5 843c 8dc3 a9bc b6c8 a53c 40b9 9d3c
00000270: c844 5d3b 3669 1ebc 96e0 da3b 0182 bd3c
00000280: 8f07 c1bc 3358 a6bc 23eb 1f3b f47e 15bd
00000290: 103b 59bb c006 46bc 6a42 933c 9d0d e9bb
000002a0: 8723 af3c 9e25 f7bb 5e08 b2bb 8c01 333c
000002b0: 3ab0 773c 5baa 7cbc 00b7 3abb 727e 483b
000002c0: 6fba 723c e6ba e03b 0722 653c da2f 1b3d
000002d0: b04c 073d f545 4fbc 9def 803c 7ba2 0bbb
000002e0: 130e 7d3c 5294 81ba 6173 b23b 219b 9a3b
000002f0: 954c 243d 7a32 4c3c 207f 203c 2fdf 51bb
00000300: b843 e4b8 9a10 593d 9888 ddbc a5e4 e5bb
00000310: 064c da3c 431c 1a3c a48f d9bc b014 a33a
00000320: 054e 8ab9 dba0 80bc ccce 283b 443d 573c
00000330: 1312 bf3c f4ad 233b cec0 143c 9a1d 9b3c
00000340: a9d3 65bc 9a45 0c3c 6254 a73b f436 3c3b
00000350: f56e 09bc de08 9d3c da31 213d 17d0 253d
00000360: a180 c2bc cb29 953c 8aed 14bc fbe0 caba
00000370: 1ab0 b73c 325c b13c 412f e53a 1f0c 19bd
00000380: 73e8 eaba 81d8 6d3c 1d79 15bc ed10 5e3a
00000390: 61a8 8c3c 85e8 f53c 0a9b aebc 9124 b6bb
000003a0: 418f ac3c 56bb bdbc 9f4d 81bc 8efd eebb
000003b0: 85ea d43c cb42 1e3c 1d82 ea3c 66d6 893c
000003c0: 45b8 8d3c dd1d 803c e586 5939 e828 66bc
000003d0: 1964 193d 23a7 173c 3973 c93b 9611 a7bc
000003e0: 13b8 103d 776a 133d c7b2 8f3c feaa ae3c
000003f0: 4523 a7bc 1297 a9bb 4940 10bd b738 51bc

running_mean f4 [256]
-147.56651 -558.82666 146.47556 -161.27742 640.4886 -232.57011 1399.8073 222.5586
681.61847 703.2557 -551.4217 -137.02444 -349.35013 -106.98085 1825.7512 -215.06168
120.32996 411.55463 -299.36987 447.9384 333.73624 -54.051643 326.4589 -512.8805
-400.4026 -330.89334 460.99127 414.11493 -133.87485 88.63163 -868.10223 -242.2933
-3.9313557 -453.7016 -633.3995 -239.54958 97.436356 -157.02985 16.822363 523.2204
-436.5763 79.124344 -240.19186 379.32245 -325.06195 344.92648 -294.56012 40.190365
322.54758 -411.81516 -367.20453 28.264355 -140.7025 8.255471 231.62361 -280.11047
-82.61206 301.8483 85.09992 334.21042 -115.62309 80.658775 -100.46989 341.53006
-471.30795 -23.340523 251.27072 -49.724453 309.1573 -229.60666 -302.97858 244.30229
61.698547 1.4626459 -319.6506 280.24957 179.14151 363.9198 -75.19309 -142.60922
-47.139454 -104.32506 300.8342 224.3825 -615.6807 -118.028046 -6.549426 93.15649
39.885258 401.21512 -390.0634 468.869 526.7787 -114.21954 -147.22258 142.47043
-38.303207 92.52666 -74.93724 236.90118 -113.40086 -266.56165 -551.425 449.1521
-204.23428 -43.29111 -507.59998 1061.7142 -575.85876 65.63999 -421.40997 -61.650864
-484.88654 33.507904 1242.0452 0.19443421 141.12416 810.06573 -195.81932 -94.48853
-318.73917 -336.43262 242.90201 172.57858 63.638332 175.49234 -525.3107 399.2617
-299.41095 -663.92255 678.21875 -133.6114 195.20198 -512.63806 -80.44398 -125.82432
143.23306 324.1089 -43.859856 486.3285 -239.28021 271.20184 287.7916 -215.6355
316.75574 411.38586 -460.69434 -174.14287 205.73701 396.91223 -12.016348 207.21321
-441.3184 209.66559 -36.338448 -276.81998 56.592785 -86.75867 -264.65878 -368.9937
642.1902 181.71277 -350.45108 -592.0511 -347.80798 -362.48438 -520.5472 -489.71136
-147.57639 42.739967 375.86707 -305.74036 194.5482 361.0224 -218.10144 -333.5871
267.3384 134.27641 -161.47003 -366.93176 -34.24613 -211.83638 -439.58307 -267.47882
-102.85218 -405.751 691.94507 -314.10388 -107.44277 -189.3843 148.21086 737.64355
34.84102 -329.7143 -212.35593 -124.51337 -261.8005 -268.13834 367.49017 284.7915
234.57027 1042.2255 105.50873 -320.04315 -369.02594 -316.17416 -193.00694 127.52534
757.53894 1049.3695 60.686714 -4.1972027 -176.13771 -376.73386 162.46126 -109.69394
153.65337 -481.88504 533.8031 366.32605 -530.26544 -357.7882 176.40147 1.6924988
171.2452 -142.91043 -218.76682 -170.30296 49.097973 -322.93997 333.5491 343.78198
90.21733 127.01254 -316.6645 -70.35412 60.914356 -278.82584 -256.32446 41.05609
-340.8037 -306.6171 -88.46722 -34.968452 -90.99729 -31.756403 180.39546 832.55994
-320.83243 646.03827 -102.989815 -88.49317 579.3634 -75.58048 -137.12679 17.739195
00000000: 0791 13c3 e8b4 0bc4 be79 1243 0547 21c3
00000010: 451f 2044 f391 68c3 d5f9 ae44 008f 5e43
00000020: 9567 2a44 5dd0 2f44 fdda 09c4 4206 09c3
00000030: d1ac aec3 32f6 d5c2 0a38 e444 ca0f 57c3
00000040: f1a8 f042 fec6 cd43 58af 95c3 1df8 df43
00000050: 3dde a643 e234 58c2 bd3a a343 5a38 00c4
00000060: 8833 c8c3 5972 a5c3 e27e e643 b60e cf43
00000070: f6df 05c3 6543 b142 8b06 59c4 164b 72c3
00000080: 559b 7bc0 ced9 e2c3 9159 1ec4 b18c 6fc3
00000090: 6adf c242 a407 1dc3 3394 8641 1bce 0244
000000a0: c449 dac3 aa3f 9e42 1e31 70c3 46a9 bd43
000000b0: ee87 a2c3 9776 ac43 b247 93c3 efc2 2042
000000c0: 1746 a143 57e8 cdc3 2e9a b7c3 661d e241
000000d0: d7b3 0cc3 6916 0441 a59f 6743 240e 8cc3
000000e0: 6039 a5c2 95ec 9643 2933 aa42 ef1a a743
000000f0: 063f e7c2 4b51 a142 95f0 c8c2 d9c3 aa43
00000100: 6ba7 ebc3 64b9 bac1 4e45 7b43 d7e5 46c2
00000110: 2294 9a43 4e9b 65c3 427d 97c3 634d 7443
00000120: 50cb 7642 fb37 bb3f 47d3 9fc3 f21f 8c43
00000130: 3a24 3343 bcf5 b543 dd62 96c2 f69b 0ec3
00000140: cd8e 3cc2 6ea6 d0c2 c76a 9643 ec61 6043
00000150: 91eb 19c4 5c0e ecc2 e694 d1c0 1f50 ba42
00000160: 818a 1f42 899b c843 1d08 c3c3 3b6f ea43
00000170: d6b1 0344 6870 e4c2 fb38 13c3 6e78 0e43
00000180: 7c36 19c2 a60d b942 dedf 95c2 b4e6 6c43
00000190: 3ecd e2c2 e447 85c3 33db 09c4 7893 e043
000001a0: fa3b 4cc3 192a 2dc2 cccc fdc3 dbb6 8444
000001b0: f6f6 0fc4 ad47 8342 7ab4 d2c3 7c9a 76c2
000001c0: 7a71 f2c3 1808 0642 7241 9b44 c319 473e
000001d0: c91f 0d43 3584 4a44 bfd1 43c3 21fa bcc2
000001e0: 9d5e 9fc3 6037 a8c3 eae6 7243 1e94 2c43
000001f0: a78d 7e42 0a7e 2f43 e353 03c4 7fa1 c743
00000200: 9ab4 95c3 0bfb 25c4 008e 2944 859c 05c3
00000210: b533 4343 d628 00c4 51e3 a0c2 0da6 fbc2
00000220: aa3b 0f43 f00d a243 7e70 2fc2 0c2a f343
00000230: bc47 6fc3 d699 8743 53e5 8f43 b0a2 57c3
00000240: bc60 9e43 64b1 cd43 e058 e6c3 9324 2ec3
00000250: adbc 4d43 c474 c643 f642 40c1 9536 4f43
00000260: c1a8 dcc3 64aa 5143 925a 11c2 f568 8ac3
00000270: 035f 6242 7084 adc2 5354 84c3 327f b8c3
00000280: 2c8c 2044 78b6 3543 bd39 afc3 4503 14c4
00000290: 6ce7 adc3 003e b5c3 0523 02c4 0edb f4c3
000002a0: 8e93 13c3 baf5 2a42 fcee bb43 c4de 98c3
000002b0: 578c 4243 de82 b443 f819 5ac3 26cb a6c3
000002c0: 51ab 8543 c346 0643 5478 21c3 4477 b7c3
000002d0: 0afc 08c2 1dd6 53c3 a2ca dbc3 4abd 85c3
000002e0: 51b4 cdc2 21e0 cac3 7cfc 2c44 4c0d 9dc3
000002f0: b3e2 d6c2 6162 3dc3 fb35 1443 3069 3844
00000300: 345d 0b42 6edb a4c3 1e5b 54c3 d806 f9c2
00000310: 77e6 82c3 b511 86c3 bebe b743 5065 8e43
00000320: fd91 6a43 3747 8244 7804 d342 8605 a0c3
00000330: 5283 b8c3 4b16 9ec3 c701 41c3 f90c ff42
00000340: 7e62 3d44 d32b 8344 32bf 7242 7c4f 86c0
00000350: 4123 30c3 ef5d bcc3 1576 2243 4c63 dbc2
00000360: 43a7 1943 49f1 f0c3 6673 0544 bc29 b743
00000370: fd90 04c4 e4e4 b2c3 c766 3043 cda3 d83f
00000380: c53e 2b43 12e9 0ec3 4ec4 5ac3 8f4d 2ac3
00000390: 5364 4442 5178 a1c3 49c6 a643 18e4 ab43
000003a0: 466f b442 6c06 fe42 0e55 9ec3 4fb5 8cc2
000003b0: 4da8 7342 b569 8bc3 8829 80c3 7039 2442
000003c0: e066 aac3 fd4e 99c3 37ef b0c2 b2df 0bc2
000003d0: 9dfe b5c2 1d0d fec1 3d65 3443 d623 5044
000003e0: 8d6a a0c3 7382 2144 c9fa cdc2 81fc b0c2
000003f0: 42d7 1044 3529 97c2 7520 09c3 dfe9 8d41

running_var f4 [256]
46.0476 42.340664 23.226421 99.795006 23.582123 406.49164 87.85753 109.924904
155.28271 260.78134 97.001945 16.328115 35.07174 66.65197 864.6958 95.82946
18.561743 416.8302 322.36914 602.28516 67.32804 124.802734 33.27337 61.034554
30.565094 352.3526 272.7577 169.11978 217.09235 12.613864 94.435356 359.18695
7.664032 194.10565 30.964384 24.919676 71.216705 78.79132 9.929129 672.2019
849.18256 18.962978 15.241921 28.23878 24.317764 24.534428 97.098495 95.66012
184.07954 61.728817 13.972852 77.104904 216.40016 100.83653 145.59598 8.747085
26.557888 259.29425 5.19948 122.31076 74.572296 176.57666 18.788126 454.52213
24.592863 53.75253 14.430558 14.079399 75.09775 94.924194 28.561567 54.750996
77.45093 12.126889 66.69759 23.778692 14.314896 83.30744 28.104576 12.47418
14.495772 55.66624 240.49922 15.122743 703.51355 30.570456 17.61532 15.822397
101.55659 30.76851 26.79199 26.67306 10.540098 9.164376 16.623047 139.29726
46.638645 195.60493 44.849304 105.96715 13.823592 60.1051 207.65979 1012.7835
173.9152 53.641453 29.209045 618.9696 26.584373 218.50787 40.071445 107.31881
392.04803 152.71191 421.34302 58.352875 39.86175 361.7867 35.367382 50.03333
19.270258 42.901825 20.699274 169.31021 145.24757 109.3605 272.93088 184.3359
62.870556 285.52734 153.81972 9.10635 184.89174 12.646787 218.83907 60.720146
93.697685 54.91619 73.00683 34.475838 20.6693 321.0472 73.50601 372.85474
21.434843 20.50124 79.8893 78.13387 79.20393 20.90686 34.622902 108.60799
13.3179035 1021.46094 370.86258 19.72969 29.79612 39.852055 21.806065 31.727547
686.6051 650.1172 19.024765 225.4029 19.169508 24.47956 19.500362 69.000824
256.44888 8.044971 146.71402 42.01519 28.280756 110.84585 16.271923 11.967039
115.84628 406.1627 26.43066 23.009235 69.51268 4681.764 29.480652 38.988884
84.554924 488.1516 133.91396 24.891525 32.658913 96.886795 24.870928 1826.6019
19.15832 52.71843 583.21497 56.362366 36.366783 235.7002 596.1233 143.62044
213.61858 866.8792 73.55291 23.539904 20.03538 86.3692 154.43721 41.320087
252.90692 832.59753 588.5263 16.385317 27.359919 83.027725 34.539864 9.470387
306.71466 167.9406 513.7115 595.9385 18.866817 22.939034 55.286263 167.71547
90.01372 99.18114 14.033458 25.866821 23.80321 281.5785 911.9605 79.68758
46.98032 62.16782 81.88386 4.9746337 141.44032 223.96674 20.724876 28.816135
24.71459 78.440155 10.066372 32.48032 68.83673 22.859518 94.05995 1807.211
25.33344 113.19548 43.671017 98.21205 363.80188 8.455392 32.145412 28.065903
00000000: be30 3842 d75c 2942 b6cf b941 0b97 c742
00000010: 30a8 bc41 ee3e cb43 0eb7 af42 8dd9 db42
00000020: 6048 1b43 0364 8243 ff00 c242 fb9f 8241
00000030: 7649 0c42 cf4d 8542 882c 5844 afa8 bf42
00000040: 737e 9441 446a d043 402f a143 4092 1644
00000050: f5a7 8642 009b f942 ee17 0542 6223 7442
00000060: 5085 f441 222d b043 fc60 8843 aa1e 2943
00000070: a417 5943 63d2 4941 e7de bc42 ee97 b343
00000080: c03f f540 0c1b 4243 0fb7 f741 7f5b c741
00000090: f46e 8e42 2895 9d42 b6dd 1e41 ec0c 2844
000000a0: af4b 5444 2eb4 9741 e9de 7341 05e9 e141
000000b0: c88a c241 8246 c441 6e32 c242 fb51 bf42
000000c0: 5d14 3843 4fea 7642 cd90 5f41 b635 9a42
000000d0: 7166 5843 4eac c942 9298 1143 0ff4 0b41
000000e0: 8e76 d441 aaa5 8143 2462 a640 1c9f f442
000000f0: 0425 9542 a093 3043 154e 9641 d542 e343
00000100: 2fbe c441 9702 5742 91e3 6641 3845 6141
00000110: 0c32 9642 30d9 bd42 177e e441 0501 5b42
00000120: e0e6 9a42 bd07 4241 2b65 8542 c33a be41
00000130: d009 6541 699d a642 2cd6 e041 3e96 4741
00000140: afee 6741 3baa 5e42 cd7f 7043 c1f6 7141
00000150: dee0 2f44 4b90 f441 2dec 8c41 8a28 7d41
00000160: f91c cb42 e925 f641 ff55 d641 6d62 d541
00000170: 3ea4 2841 49a1 1241 00fc 8441 194c 0b43
00000180: f98d 3a42 dd9a 4343 b065 3342 2eef d342
00000190: 6f2d 5d41 9f6b 7042 e8a8 4f43 2532 7d44
000001a0: 4bea 2d43 d990 5642 20ac e941 0ebe 1a44
000001b0: ccac d441 0482 5a43 2949 2042 3ba3 d642
000001c0: 2606 c443 40b6 1843 e8ab d243 5869 6942
000001d0: 6f72 1f42 b3e4 b443 3378 0d42 2122 4842
000001e0: 7d29 9a41 789b 2b42 1d98 a541 6a4f 2943
000001f0: 613f 1143 93b8 da42 2777 8843 fe55 3843
00000200: 737b 7b42 80c3 8e43 d9d1 1943 9cb3 1141
00000210: 49e4 3843 3d59 4a41 cdd6 5a43 6ee1 7242
00000220: 3765 bb42 2eaa 5b42 7f03 9242 42e7 0942
00000230: ba5a a541 0b86 a043 1403 9342 686d ba43
00000240: 8f7a ab41 8a02 a441 52c7 9f42 8b44 9c42
00000250: 6a68 9e42 4041 a741 da7d 0a42 4a37 d942
00000260: 2216 5541 805d 7f44 696e b943 68d6 9d41
00000270: 745e ee41 8168 1f42 d272 ae41 04d2 fd41
00000280: baa6 2b44 8087 2244 b832 9841 2467 6143
00000290: 275b 9941 24d6 c341 be00 9c41 6c00 8a42
000002a0: 7539 8043 34b8 0041 cab6 1243 8e0f 2842
000002b0: fd3e e241 13b1 dd42 e62c 8241 fe78 3f41
000002c0: 4cb1 e742 d314 cb43 fe71 d341 ea12 b841
000002d0: 7e06 8b42 1d4e 9245 60d8 eb41 9ef4 1b42
000002e0: 1f1c a942 6813 f443 f9e9 0543 d821 c741
000002f0: baa2 0242 0ac6 c142 a9f7 c641 4353 e444
00000300: 3d44 9941 acdf 5242 c2cd 1144 1073 6142
00000310: 9677 1142 40b3 6b43 e407 1544 d59e 0f43
00000320: 5b9e 5543 45b8 5844 171b 9342 b951 bc41
00000330: 7548 a041 08bd ac42 ed6f 1a43 c547 2542
00000340: 2ce8 7c43 3e26 5044 af21 1344 2115 8341
00000350: 1de1 da41 320e a642 d228 0a42 b586 1741
00000360: 7a5b 9943 cbf0 2743 896d 0044 10fc 1444
00000370: 3eef 9641 2483 b741 2225 5d42 29b7 2743
00000380: 0607 b442 be5c c642 0b89 6041 40ef ce41
00000390: f96c be41 0cca 8c43 79fd 6344 0a60 9f42
000003a0: d9eb 3b42 d9ab 7842 89c4 a342 3330 9f40
000003b0: b970 0d43 7cf7 5f43 8ccc a541 7287 e641
000003c0: 7bb7 c541 5ce1 9c42 dc0f 2141 d9eb 0142
000003d0: 68ac 8942 4be0 b641 b21e bc42 c1e6 e144
000003e0: e3aa ca41 1664 e242 1faf 2e42 926c c442
000003f0: a4e6 b543 4949 0741 e794 0042 f886 e041

weight f4 [256, 256]
-0.022703826 -0.052690197 0.05943267 -0.025524817 0.0027756426 0.05686244 0.026507495 -0.05270434
-0.01395174 -0.0011992856 -0.015904937 -0.0038690716 0.043594748 0.043690413 0.0031484624 -0.010951775
-0.059146374 -0.020938544 -0.041596536 0.02473316 0.060468484 0.032885704 0.015465192 0.06534705
-0.043001413 0.023783652 -0.021958264 -0.03796996 -0.056047883 0.022192286 -0.02301802 -0.059256103
0.051719535 -0.020265607 0.04130698 -0.04414652 -0.02438771 -0.057421714 0.045696672 -0.060079757
0.038174443 0.041429296 -0.008982511 0.00822029 -0.057803135 -0.04099169 0.03858345 -0.027847419
-0.03204526 -0.056412138 0.021616222 -0.049088594 0.043191057 -0.024384549 -0.01711866 -0.018718604
0.017197493 0.0036164671 -0.04888703 0.049359012 0.027610354 0.04356098 0.051838405 0.000712686
-0.037499104 -0.03260641 -0.029141663 0.0460003 0.0016370825 -0.04423894 0.01513986 -0.009046558
-0.03403108 -0.02024165 -0.009091313 0.0369474 -0.009013367 -0.018867768 0.00929384 0.04975163
-0.0467009 -0.06340062 0.048091866 -0.04626607 -0.03897533 -0.014553132 0.018221673 0.00093602366
-0.08483532 -0.0048109256 0.019045172 -0.06556179 -0.04301613 0.001374595 -0.056128297 -0.03289957
-0.031839807 0.017626667 0.03181488 -0.06812014 0.019647965 -0.0330682 0.008364779 0.017309934
-0.026019238 -0.0423783 0.045757256 -0.044955328 0.012314435 -0.01702079 0.052879363 -0.054232247
0.016427133 -0.057099715 -0.014400862 0.039945643 0.037503704 0.055326488 0.04105295 0.05830779
0.061895426 -0.005558168 0.0043680673 -0.015638027 0.028393643 0.03527771 -0.03723838 -0.06468705
-0.036596708 0.0028472915 0.058649056 -0.017221011 0.027095973 0.009215412 0.049930274 -0.039495055
0.03455455 0.0026056275 -0.01781358 0.06355109 -0.057483394 -0.0075218873 0.033778246 0.013663672
0.002661022 -0.013330974 -0.05114219 -0.027362486 0.023075964 -0.018066388 -0.049878336 -0.035632048
-0.035875544 -0.069553286 0.006419573 0.038610972 -0.032930292 -0.03561867 -0.06353201 0.011039755
0.018312208 -0.05572067 0.01429711 0.02281735 0.006910063 -0.04667317 -0.028313536 0.0527467
0.016896423 0.018544866 -0.0069578467 -0.049147982 -0.021101553 0.019421708 0.06303876 -0.042860996
0.026236327 -0.04450688 -0.018729923 0.048316453 -0.04984477 -0.054067075 -0.058684975 0.03731843
0.04573348 -0.027678039 -0.03227448 0.007278147 -0.030781742 -0.0074541266 -0.023955522 0.025746759
-0.07715736 -0.05699701 0.014243665 0.011191345 -0.03688282 0.0061910823 0.044115484 -0.038970646
0.040581807 -0.02040326 0.026287643 -0.05643292 0.044976056 0.036207277 -0.011392808 0.030097343
-0.01959507 0.06503092 0.01685273 0.0037109356 -0.048692152 0.01741513 0.0010938778 -0.031597808
0.031570368 0.053278383 -0.047820177 0.054926608 -0.0053277556 -0.018702917 -0.05899574 -0.048511572
-0.055523455 0.033779956 -0.026337735 0.04077427 -0.057143476 -0.04374153 -0.022814272 -0.007813242
-0.06732141 0.028699042 0.032423172 0.05134634 -0.06311718 -0.063234255 -0.01459559 0.030327635
-0.027728477 -0.032906942 -0.057894602 0.02329922 0.014695281 -0.03651012 -0.020463197 0.063728616
0.04720394 0.0375271 -0.006644813 -0.055173222 -0.06308295 -0.05840272 0.0063772 -0.06634479
00000000: 60fd b9bc add1 57bd ac6f 733d 6c19 d1bc
00000010: 8ee7 353b 97e8 683d 3f26 d93c 82e0 57bd
00000020: d795 64bc 5931 9dba 124b 82bc 4090 7dbb
00000030: 6890 323d b8f4 323d 6f56 4e3b 136f 33bc
00000040: 7843 72bd 4f87 abbc 2161 2abd 329d ca3c
00000050: cdad 773d 29b3 063d b761 7d3c add4 853d
00000060: 4022 30bd efd5 c23c d1e1 b3bc 6486 1bbd
00000070: 7792 65bd 99cc b53c 4990 bcbc 87b6 72bd
00000080: ddd7 533d 0f04 a6bc 8231 293d fbd2 34bd
00000090: bcc8 c7bc 0833 6bbd 6f2c 3b3d 3116 76bd
000000a0: ce5c 1c3d c4b1 293d 622b 13bc 65ae 063c
000000b0: fbc2 6cbd e7e6 27bd ae09 1e3d 4520 e4bc
000000c0: e441 03bd 6a10 67bd 8114 b13c 1f11 49bd
000000d0: 1be9 303d 1bc2 c7bc 6f3c 8cbc c257 99bc
000000e0: c2e1 8c3c 4002 6d3b c43d 48bd ad2c 4a3d
000000f0: 1c2f e23c 006d 323d 8254 543d 8cd3 3a3a
00000100: a998 19bd 4d8e 05bd 7fba eebc d06a 3c3d
00000110: 6093 d63a e433 35bd 2d0d 783c 0438 14bc
00000120: 2c64 0bbd d1d1 a5bc bbf3 14bc 2856 173d
00000130: cdac 13bc 9490 9abc 3145 183c 5dc8 4b3d
00000140: 7149 3fbd 2fd8 81bd fafb 443d 7e81 3dbd
00000150: 98a4 1fbd 4270 6ebc 9e45 953c 7c5f 753a
00000160: 24be adbd f8a4 9dbb 9f04 9c3c 4245 86bd
00000170: ae31 30bd c12b b43a c9e6 65bd b3c1 06bd
00000180: 756a 02bd cd65 903c 5250 023d 9282 8bbd
00000190: c5f4 a03c 8572 07bd 6d0c 093c 90cd 8d3c
000001a0: 4c26 d5bc de94 2dbd f66b 3b3d 1423 38bd
000001b0: 7cc2 493c 2f6f 8bbc 0898 583d a222 5ebd
000001c0: 3292 863c 64e1 69bd 98f1 6bbc 0b9e 233d
000001d0: 7c9d 193d 079e 623d 2327 283d 26d4 6e3d
000001e0: 0f86 7d3d 4b21 b6bb 0122 8f3b 521b 80bc
000001f0: c999 e83c 5c7f 103d 4687 18bd a57a 84bd
00000200: 6ee6 15bd a099 3a3b fe39 703d 1413 8dbc
00000210: 60f8 dd3c 3dfc 163c b083 4c3d 91c5 21bd
00000220: 1289 0d3d 2dc3 2a3b c9ed 91bc 1327 823d
00000230: b573 6bbd 2a7a f6bb 0f5b 0a3d 98dd 5f3c
00000240: 8a64 2e3b 286a 5abc 797a 51bd 4b27 e0bc
00000250: ce09 bd3c f6ff 93bc 3a4d 4cbd e9f2 11bd
00000260: 3cf2 12bd f471 8ebd 485b d23b 8a26 1e3d
00000270: eae1 06bd e2e4 11bd 121d 82bd 17e0 343c
00000280: 7c03 963c 5b3b 64bd 6d3e 6a3c 74eb ba3c
00000290: cf6d e23b 5e2c 3fbd caf1 e7bc ec0c 583d
000002a0: 5e6a 8a3c 67eb 973c a6fe e3bb 654f 49bd
000002b0: 2add acbc 461a 9f3c 771a 813d 038f 2fbd
000002c0: 91ed d63c d94c 36bd 7f6f 99bc 79e7 453d
000002d0: 082a 4cbd 7075 5dbd a85f 70bd 36db 183d
000002e0: 0853 3b3d 0ebd e2bc 3f32 04bd 867d ee3b
000002f0: fe29 fcbc bf41 f4bb 5f3e c4bc deea d23c
00000300: ae04 9ebd b275 69bd 435e 693c e75b 373c
00000310: 7112 17bd 90de ca3b 70b2 343d af9f 1fbd
00000320: 1c39 263d bd24 a7bc 2f59 d73c 3526 67bd
00000330: d038 383d 154e 143d e6a8 3abc b48e f63c
00000340: d785 a0bc ee2e 853d bd0e 8a3c 2b33 733b
00000350: 6c71 47bd 2daa 8e3c 7360 8f3a b46c 01bd
00000360: ee4f 013d 6f3a 5a3d 17df 43bd b9fa 603d
00000370: 7494 aebb dc36 99bc 84a5 71bd 12b4 46bd
00000380: 906c 63bd da5c 0a3d 3cc2 d7bc ec02 273d
00000390: 470f 6abd 522a 33bd ffe4 babc 1d03 00bc
000003a0: cfdf 89bd 411a eb3c 29ce 043d 8a50 523d
000003b0: 9443 81bd f680 81bd 5722 6fbc a971 f83c
000003c0: d526 e3bc 6ec9 06bd e422 6dbd 01de be3c
000003d0: 7ac4 703c a38b 15bd 6fa2 a7bc 2684 823d
000003e0: eb58 413d 04b6 193d bbbc d9bb 51fd 61bd
000003f0: a231 81bd b137 6fbd d5f7 d03b c7df 87bd

bias f4 [256]
0.036257118 -0.046935037 0.007790733 -0.047511376 -0.0033113419 0.03452705 -0.023477316 -0.022992052
0.027094565 -0.033335112 0.05001106 0.026733294 0.0032149756 0.041537337 -0.037521586 0.017729804
0.019580305 0.028026968 0.039314345 0.038005464 0.01649464 -0.029033102 0.034004122 -0.043426014
0.011821702 0.0006261904 0.023949951 -0.040705495 0.006475419 0.018320538 -0.058416665 -0.029194152
0.0052380934 0.036341496 -0.0018414747 0.03814687 -0.026074544 -0.008599363 -0.010920538 -0.038060233
-0.050193563 -0.0014822029 0.06016031 0.043354157 -0.022127502 -0.0035766393 0.006183369 0.028559078
-0.036287345 -0.032513455 0.05030661 -0.00543381 0.023062631 -0.024098925 -0.035060726 0.03782949
0.042569235 0.04644067 -0.01006189 -0.042782433 -0.051988028 0.038917243 -0.06050262 -0.055534318
-0.023320554 0.04864133 -0.036139645 0.019126868 -0.033486776 0.013368212 0.04350692 0.051875606
0.029597087 0.009972244 -0.037500717 0.012136973 0.023321472 0.04805044 -0.050480284 -0.019003816
-0.0077273664 -0.027677074 0.0513201 0.034019418 -0.027426764 0.020776235 0.044835843 -0.051625542
0.056752943 0.032992475 0.026064372 -0.009188979 0.022312224 0.059623428 0.029984504 -0.022034451
-0.009797918 -0.06137617 0.04185278 0.014947965 0.026427649 0.05746592 0.012971462 0.052604504
-0.030046664 0.045924112 -0.051726766 0.045307912 -0.024137987 0.0017460266 -0.0057182624 -0.0016000121
0.032955915 -0.013855493 0.028519623 0.029147863 -0.028998882 0.026090167 -0.0459719 -0.057128616
-0.04451233 -0.04799796 0.037471816 0.060004212 0.041989245 0.039861865 -0.002765692 -0.025453992
0.029704973 0.01989393 -0.05283507 -0.00013042364 -0.019716702 -0.007411514 0.02716592 -0.028392121
0.023778558 -0.03069894 0.06061662 -0.028231643 0.0018672086 -0.05090189 0.02423212 0.056667782
-0.04931142 0.015429057 0.058630705 -0.045830302 0.0074644643 -0.017404057 0.03684812 -0.037494205
0.059301563 -0.010716537 0.019854225 0.020710133 -0.04939808 0.013242095 0.013581307 0.053548433
-0.0072282623 -0.053953163 -0.05549998 -0.028138123 -0.013181999 0.044410024 -0.052188978 0.032606
-0.014094589 0.0036391537 -0.040428035 -0.0034098993 -0.01442045 -0.013566501 0.03994053 0.0101656765
-0.012920469 0.055134058 0.028382855 -0.020056821 -0.014949739 -0.0072070803 -0.0024403133 -0.05058319
0.047034025 -0.027269525 0.061379276 -0.03446517 -0.034053005 0.04825202 -0.02127079 -0.008850961
-0.005119972 0.0028837393 -0.059549622 -0.05233428 -0.016961604 -0.030384079 0.0555968 -0.029818758
-0.030071914 0.027246423 0.01159624 -0.028656088 0.04910916 0.03687609 -0.01173868 -0.016257621
-0.006802363 -0.060109213 0.020162731 0.035600156 -0.03508742 0.033432372 0.01850493 -0.00391859
0.017342642 -0.04497263 0.026712492 -0.060963765 -0.0578549 0.007796898 -0.04872407 0.04119063
-0.027999096 -0.04300292 -0.017683104 -0.051073834 0.027434781 -0.050701365 0.040767476 0.010681382
0.0048424765 -0.0049646967 0.023307629 0.059417598 -0.05780697 0.0075341077 0.05873639 -0.04726301
0.022009157 0.048004687 0.05639433 -0.057214715 0.015503812 0.042617112 0.033863537 -0.011874354
0.012997337 0.053981423 0.04137785 -0.06076976 0.010463044 0.05975361 -0.029667173 0.055232905
00000000: 5882 143d f43e 40bd 6849 ff3b 4a9b 42bd
00000010: 1903 59bb 3c6c 0d3d 8053 c0bc d459 bcbc
00000020: 6cf5 dd3c 668a 08bd 66d8 4c3d c8ff da3c
00000030: 57b2 523b 0e23 2a3d 3cb0 19bd 183e 913c
00000040: e066 a03c d098 e53c 1408 213d 9eab 1b3d
00000050: c41f 873c d4d6 edbc e847 0b3d 7adf 31bd
00000060: d0af 413c ed26 243a b032 c43c ceba 26bd
00000070: c02f d43b f414 963c 5046 6fbd 9328 efbc
00000080: 50a4 ab3b d2da 143d a35d f1ba e43f 1c3d
00000090: 489a d5bc 58e4 0cbc 0eec 32bc 0ce5 1bbd
000000a0: c497 4dbd 7a46 c2ba a86a 763d 2194 313d
000000b0: bc44 b5bc 0d66 6abb dc9d ca3b baf4 e93c
000000c0: 0aa2 14bd d42c 05bd 4e0e 4e3d 1a0e b2bb
000000d0: d8ed bc3c 1c6b c5bc d69b 0fbd 18f3 1a3d
000000e0: 145d 2e3d 9238 3e3d a0da 24bc a23c 2fbd
000000f0: 66f1 54bd b067 1f3d 98d1 77bd f477 63bd
00000100: bf0a bfbc 223c 473d 2a07 14bd f3af 9c3c
00000110: 6e29 09bd 5806 5b3c 5034 323d 847b 543d
00000120: 9775 f23c 9f62 233c 5a9a 19bd 28da 463c
00000130: ac0c bf3c 8ad0 443d 6ac4 4ebd e4ad 9bbc
00000140: d935 fdbb 08bb e2bc 0635 523d f257 0b3d
00000150: 18ae e0bc ec32 aa3c caa5 373d 4e75 53bd
00000160: c675 683d 1e23 073d f384 d53c 5f8d 16bc
00000170: 20c8 b63c b237 743d 10a2 f53c 9881 b4bc
00000180: 7287 20bc 9465 7bbd d26d 2b3d 4fe8 743c
00000190: cc7e d83c 6261 6b3d 4186 543c d277 573d
000001a0: 6c24 f6bc ec1a 3c3d 72df 53bd ca94 393d
000001b0: 07bd c5bc eeda e43a 4360 bbbb 7fb7 d1ba
000001c0: c8fc 063d 2602 63bc fca1 e93c 80c7 ee3c
000001d0: 108f edbc 0cbb d53c 084d 3cbd b2ff 69bd
000001e0: 9052 36bd 8299 44bd 0c7c 193d fac6 753d
000001f0: eafc 2b3d 3246 233d 9d40 35bb e484 d0bc
00000200: d857 f33c 98f8 a23c 9669 58bd 54c2 08b9
00000210: ec84 a1bc 49dc f2bb 108b de3c 9896 e8bc
00000220: 40cb c23c 587c fbbc 2249 783d 0c46 e7bc
00000230: 20bd f43a 807e 50bd 7082 c63c 7a1c 683d
00000240: c6fa 49bd 28ca 7c3c c026 703d 8eb8 3bbd
00000250: 7798 f43b f492 8ebc 0eee 163d 8693 19bd
00000260: 32e6 723d 6a94 2fbc 54a5 a23c 4ca8 a93c
00000270: a455 4abd 5ff5 583c 2184 5e3c 9a55 5b3d
00000280: 0fdb ecbb fefd 5cbd f253 63bd ec81 e6bc
00000290: 50f9 57bc 49e7 353d 1cc4 55bd de8d 053d
000002a0: feec 66bc de7e 6e3b de97 25bd 9e78 5fbb
000002b0: c043 6cbc 0846 5ebc ae98 233d f08d 263c
000002c0: 60b0 53bc 40d4 613d 2983 e83c 344e a4bc
000002d0: c0ef 74bc 5f29 ecbb aaed 1fbb 5230 4fbd
000002e0: c0a6 403d 5764 dfbc d668 7b3d 5a2b 0dbd
000002f0: 2a7b 0bbd e9a3 453d 1440 aebc 9f03 11bc
00000300: 70c5 a7bb 1efd 3c3b 4eea 73bd 785c 56bd
00000310: 10f3 8abc 08e8 f8bc 78b9 633d 7846 f4bc
00000320: 6059 f6bc e433 df3c 28fe 3d3c 2cc0 eabc
00000330: b026 493d 620b 173d 9853 40bc b42e 85bc
00000340: 5be6 debb 1435 76bd 502c a53c 78d1 113d
00000350: d4b7 0fbd 62f0 083d a797 973c 8467 80bb
00000360: 2812 8e3c 3835 38bd 28d4 da3c 24b5 79bd
00000370: 42f9 6cbd 1f7d ff3b e492 47bd 82b7 283d
00000380: 5c5e e5bc d423 30bd 28dc 90bc cc32 51bd
00000390: e8be e03c 3cac 4fbd ccfb 263d f700 2f3c
000003a0: a3ad 9e3b e5ae a2bb a4ef be3c de5f 733d
000003b0: 00c7 6cbd ade0 f63b 9295 703d dc96 41bd
000003c0: 8c4c b43c 90a0 443d befd 663d fa59 6abd
000003d0: b303 7e3c 488f 2e3d 7eb4 0a3d a78c 42bc
000003e0: c8f2 543c a01b 5d3d d27b 293d b6e9 78bd
000003f0: 306d 2b3c 34c0 743d 9208 f3bc e63b 623d
