Predict/storage/MLP_256_200_SGD_11/trained_5.pt (torch, 339061 bytes, 13 tensors)

weight f4 [256, 58]
-0.063010104 0.07891361 0.10090594 0.087059766 -0.05270051 0.1074249 0.051627934 -0.06691846
0.07802269 -0.02991249 -0.030211113 0.10872228 -0.035741016 0.11688764 0.052664153 -0.030926706
-0.10913041 -0.111854084 -0.0052280594 -0.08062351 -0.10228022 -0.11773213 0.044428434 -0.09082696
0.103035815 -0.012116759 0.054663796 -0.05789505 0.12172995 0.044060826 0.028489938 -0.039246622
0.12941237 -0.050217576 -0.10686506 -0.12889346 -0.114060074 -0.091392234 0.09455582 -0.10566687
-0.019079782 0.1266053 -0.037863288 0.015100467 0.072393574 -0.022766724 -0.035308197 0.030319512
-0.074421786 0.08305245 -0.098481946 -0.06702023 -0.10784823 0.06094828 -0.004047671 -0.11950303
0.08633641 0.08449137 -0.08714198 0.008058631 -0.03136695 -0.0058348184 0.018980365 -0.12307861
0.06814278 -0.12085202 -0.073467284 0.06785272 0.11547794 0.080683224 0.108974546 -0.052948758
-0.038049415 0.024844047 -0.11444193 -0.11529463 0.09548293 -0.10793292 -0.12736022 -0.051819116
-0.051032748 -0.06282774 0.10327398 0.10903797 -0.034561113 0.04778859 -0.02967356 0.022642685
-0.08264988 0.026424965 -0.0048191827 -0.077533275 0.019172918 0.01528736 -0.09218213 -0.09909269
0.11186991 -0.016426122 0.06624339 0.003802354 -0.049424373 0.03152666 0.040451773 -0.123904906
0.0036372216 0.09985623 0.040885165 0.1306356 0.08649676 -0.10851308 0.0032223014 0.113534436
-0.072208166 0.064765416 0.019384688 0.07705563 -0.004724852 -0.08694146 -0.032570936 -0.044238836
0.08896086 0.009471552 -0.056184277 0.053339776 -0.121054284 -0.099333465 0.0410958 -0.0682055
-0.03359393 0.034191027 0.013935354 -0.090094395 -0.09073181 0.114429094 0.030543832 -0.108692445
0.086927205 -0.057220764 0.06347895 0.08912082 -0.0736687 0.011761115 -0.0120161595 -0.078803726
0.05408224 -0.000936996 -0.00064387964 -0.08951702 0.021683348 0.095836304 0.0132463 -0.057190668
-0.04562349 0.06477968 -0.09882025 0.055053268 -0.022091847 0.1019168 -0.044622887 -0.13047507
0.077200755 0.090959236 0.12331955 -0.07575686 -0.095427915 -0.08318759 0.04356903 -0.123955496
-0.09836919 -0.12782595 -0.049565237 -0.0949855 -0.04604065 -0.11709153 -0.11760912 -0.038311034
0.044825632 0.072363645 0.09342952 -0.05908099 0.059316915 0.013547262 0.011401966 0.055492193
-0.07545626 -0.051410817 -0.04645332 -0.12938485 0.049998827 0.056188367 0.012422519 -0.113599464
-0.087668374 0.06382541 -0.04502991 -0.11065411 -0.052167322 -0.07350664 0.057308417 -0.03504657
-0.100949794 -0.05421944 -0.03958737 0.01792692 0.077923715 -0.0810385 -0.09316651 0.042818353
-0.045321327 0.094724864 0.10126634 0.0781577 -0.054265127 0.112843946 0.10913372 -0.07419819
0.12553005 0.12120532 -0.015624037 -0.10299582 0.040059503 -0.058311388 -0.030025901 -0.12192394
0.05560368 -0.026399143 0.067240566 0.12471237 0.055146787 0.041552857 -0.07812244 -0.042126242
-0.073907554 -0.09736352 -0.038746636 -0.06034339 0.12827435 -0.016663047 0.038070623 0.07273336
-0.08576778 -0.06499053 -0.06452943 -0.065435745 0.11404268 0.06360135 0.07714265 0.022562806
-0.07925728 0.12025838 0.0324556 0.020987973 -0.11005744 0.06711115 -0.07755476 0.020776125
00000000: 710b 81bd 759d a13d c6a7 ce3d 644c b23d
00000010: 7ddc 57bd 9601 dc3d d077 533d 8c0c 89bd
00000020: 5cca 9f3d 0a0b f5bc 4c7d f7bc c9a9 de3d
00000030: 2c65 12bd c962 ef3d 5eb6 573d 015a fdbc
00000040: c47f dfbd c113 e5bd 2450 abbb f01d a5bd
00000050: 4b78 d1bd 8b1d f1bd 97fa 353d 7c03 babd
00000060: 7104 d33d 5f85 46bc 25e7 5f3d 5c23 6dbd
00000070: 8d4d f93d 2079 343d bb63 e93c 11c1 20bd
00000080: ad84 043e f2b0 4dbd 12dc dabd a6fc 03be
00000090: 5498 e9bd da2b bbbd 7ba6 c13d df67 d8bd
000000a0: 344d 9cbc d2a4 013e 8916 1bbd f367 773c
000000b0: 1543 943d 4881 babc 549f 10bd a060 f83c
000000c0: 736a 98bd 6717 aa3d e7b0 c9bd e741 89bd
000000d0: 88df dcbd e7a4 793d 53a2 84bb 01be f4bd
000000e0: 25d1 b03d d009 ad3d 7f77 b2bd 5908 043c
000000f0: a27a 00bd 0132 bfbb b67c 9b3c a310 fcbd
00000100: 718e 8b3d 4481 f7bd 0476 96bd 5ef6 8a3d
00000110: b37f ec3d 3f3d a53d 0c2e df3d cce0 58bd
00000120: b4d9 1bbd be85 cb3c 8860 eabd 971f ecbd
00000130: 8e8c c33d ef0b ddbd b86a 02be 4840 54bd
00000140: b707 51bd d5ab 80bd 4f81 d33d 4d4f df3d
00000150: f48f 0dbd f8bd 433d f715 f3bc 277d b93c
00000160: 5744 a9bd 2b79 d83c 3cea 9dbb c4c9 9ebd
00000170: 8610 9d3c d677 7a3c fcc9 bcbd 1cf1 cabd
00000180: 0d1c e53d 1390 86bc 9daa 873d ea30 793b
00000190: 3671 4abd 1922 013d c2b0 253d dbc1 fdbd
000001a0: 745e 6e3b 6c81 cc3d 3477 273d 57c5 053e
000001b0: 3725 b13d 1b3c debd 3f2d 533b be84 e83d
000001c0: e0e1 93bd bba3 843d a3cc 9e3c 58cf 9d3d
000001d0: eed2 9abb 5d0e b2bd 1a69 05bd c833 35bd
000001e0: 1d31 b63d 922e 1b3c 7c21 66bd cf7a 5a3d
000001f0: 4feb f7bd 586f cbbd 1254 283d 53af 8bbd
00000200: ca99 09bd e40b 0c3d 1c51 643c 6983 b8bd
00000210: 99d1 b9bd cd59 ea3d 0f37 fa3c 259a debd
00000220: e406 b23d 5260 6abd 4001 823d fa84 b63d
00000230: 9edf 96bd b1b1 403c 6ddf 44bc d963 a1bd
00000240: 5785 5d3d bda0 75ba 08ca 28ba b354 b7bd
00000250: 47a1 b13c d345 c43d 0207 593c c340 6abd
00000260: b2df 3abd 35ab 843d 4562 cabd 897f 613d
00000270: f6f9 b4bc c1b9 d03d 7dc6 36bd 429b 05be
00000280: 6e1b 9e3d d648 ba3d f68e fc3d 6a26 9bbd
00000290: b66f c3bd 415e aabd 7075 323d 61dc fdbd
000002a0: c975 c9bd cee4 02be eb04 4bbd c287 c2bd
000002b0: 1f95 3cbd afcd efbd 0ddd f0bd 08ec 1cbd
000002c0: 159b 373d 6433 943d fa57 bf3d e8fe 71bd
000002d0: 4bf6 723d 56f5 5d3c 50cf 3a3c c84b 633d
000002e0: d088 9abd 2694 52bd d645 3ebd 767d 04be
000002f0: 92cb 4c3d c625 663d d287 4b3c d6a6 e8bd
00000300: 7a8b b3bd e6b6 823d 4871 38bd 9f9e e2bd
00000310: 67ad 55bd a68a 96bd 3bbc 6a3d fe8c 0fbd
00000320: c4be cebd 3415 5ebd 5e26 22bd 7adb 923c
00000330: 7896 9f3d 83f7 a5bd 15ce bebd 4c62 2f3d
00000340: dba2 39bd 1cff c13d ba64 cf3d 2511 a03d
00000350: 1c45 5ebd ba1a e73d 8081 df3d 38f5 97bd
00000360: f38a 003e 7f3a f83d f6fb 7fbc 79ef d2bd
00000370: 6f15 243d ecd7 6ebd e1f8 f5bc 42b3 f9bd
00000380: afc0 633d 0443 d8bc 6cb5 893d 3369 ff3d
00000390: 99e1 613d 5433 2a3d a8fe 9fbd 918c 2cbd
000003a0: d85c 97bd 8666 c7bd cbb4 1ebd a12a 77bd
000003b0: 5a5a 033e f180 88bc f1ef 1b3d 3af5 943d
000003c0: 05a7 afbd c119 85bd 0128 84bd 2d03 86bd
000003d0: 358f e93d 6d41 823d f7fc 9d3d a2d5 b83c
000003e0: a451 a2bd 074a f63d 2af0 043d f8ee ab3c
000003f0: cc65 e1bd 9271 893d 08d5 9ebd b132 aa3c

bias f4 [256]
0.07471278 0.052635495 0.049307004 0.041018706 -0.080298275 0.12007886 0.0071406667 -0.04528479
-0.097884424 0.119210325 -0.0945652 -0.025390645 0.07872289 -0.05907773 -0.026254093 -0.088728905
-0.0871841 0.10570839 -0.11877325 -0.0135338195 0.009437882 0.117953174 -0.02385949 0.09754358
-0.041567184 -0.08267506 -0.115165606 -0.07560525 0.07789187 -0.0049913335 -0.09087481 0.11939613
0.010623483 -0.03735014 -0.025375258 0.0011731101 -0.011125254 0.013131167 0.13034299 -0.0509608
0.0853806 0.13074239 -0.03958884 -0.12319497 0.114893496 0.0009515896 -0.07795132 -0.12561598
-0.06901452 -0.11996447 0.056053378 0.05001976 0.042097554 -0.07449197 0.06873023 -0.11812548
0.029618038 -0.0017756544 0.014734589 -0.07214869 -0.078324065 -0.04401925 0.036709387 0.048858687
-0.06842918 0.048019923 -0.107866965 -0.03610708 0.11235171 -0.12541766 -0.037049275 0.108514525
-0.013813647 0.09198375 -0.10348142 0.07472 0.0015475281 0.047533367 -0.027279738 0.09883379
0.12896022 0.005857959 -0.1077215 -0.03737351 0.050712075 0.094278924 -0.107415706 -0.007505306
0.11376384 -0.08266508 -0.0779941 0.11996308 0.106272824 0.05537626 0.051124826 -0.02471173
-0.08999329 -0.12657613 0.11700898 0.101726785 0.060791306 0.06222618 -0.009937337 -0.0732202
-0.096561186 -0.11727858 -0.116292775 0.09523734 -0.08547879 -0.00026952775 0.03671571 0.057221416
0.08793616 -0.0018336645 0.006253272 -0.012878541 0.039940983 -0.00697576 -0.055019733 0.061437257
0.052470762 -0.060722087 0.09836558 0.05428323 0.018865589 0.05100153 -0.09096867 0.0765249
-0.120179586 -0.08173762 -0.06362946 -0.1020014 0.06513104 0.038141083 -0.03168468 0.052864745
-0.105715625 -0.03792554 0.04113898 0.09449827 0.07191723 -0.11245348 -0.08714525 -0.08867816
0.10464121 0.018399727 -0.08482158 0.08571304 -0.06883961 -0.088896655 0.017662708 0.06349809
-0.016422525 -0.0873719 0.09031966 -0.11929853 -0.013416408 0.021685218 -0.068390235 0.04568061
-0.029117394 -0.049789146 0.021435678 0.08728359 -0.11606672 0.01119552 0.045073085 0.12952456
-0.072919786 0.03776518 0.08563056 -0.125182 -0.096780814 0.076856345 -0.021407519 0.114188485
0.08380954 -0.08771073 0.1182902 -0.048106328 -0.06501027 -0.04063145 0.038490754 0.11758078
0.11288569 -0.08675997 0.015743813 -0.12187059 -0.09028211 0.111676216 0.0698594 -0.10691281
-0.10610238 -0.06784696 0.0066054966 -0.021193668 0.0674215 -0.12133824 0.01540702 0.001317853
-0.09586054 0.09912046 0.09237903 0.05390047 0.124349765 0.08805776 0.030294511 -0.11614382
-0.049897857 0.053473756 0.009612143 0.013685199 0.0049263267 0.0439724 0.028413152 -0.07227191
0.045842804 0.100490905 0.03391427 0.011391683 -0.077238314 -0.095645286 -0.05798941 0.08264749
-0.07121335 -0.026035532 0.049042296 0.03892517 0.083411016 0.1279166 0.011693377 -0.12046544
0.09578244 0.0032075802 -0.08588347 0.11528726 -0.09447482 -0.06477875 0.1111634 0.0035052584
0.028190395 -0.03162736 0.022279423 -0.02238913 0.028000776 -0.037679978 0.042610813 -0.025673386
-0.0943686 -0.086112075 -0.015321089 0.00629225 0.09545796 -0.06267459 -0.033411905 -0.037336662
00000000: 0403 993d 5198 573d 24f6 493d 3b03 283d
00000010: 6c73 a4bd e8eb f53d 41fc e93b 8b7c 39bd
00000020: a177 c8bd 8b24 f43d 66ab c1bd 0b00 d0bc
00000030: 7739 a13d 7dfb 71bd d312 d7bc 80b7 b5bd
00000040: 948d b2bd a47d d83d 643f f3bd f4bc 5dbc
00000050: 59a1 1a3c 6f91 f13d fa74 c3bc eec4 c73d
00000060: 5a42 2abd 8b51 a9bd f2db ebbd edd6 9abd
00000070: c685 9f3d 578e a3bb 931c babd f585 f43d
00000080: 1e0e 2e3c 76fc 18bd c6df cfbc 0bc3 993a
00000090: b346 36bc 1b24 573c a278 053e 46bc 50bd
000000a0: 06dc ae3d 55e1 053e e827 22bd a54d fcbd
000000b0: 484d eb3d 1974 793a f1a4 9fbd 7aa1 00be
000000c0: 7c57 8dbd efaf f5bd 3a98 653d 85e1 4c3d
000000d0: 7c6e 2c3d 3f8f 98bd 6fc2 8c3d c6eb f1bd
000000e0: 87a1 f23c 13bd e8ba 5869 713c b1c2 93bd
000000f0: 5e68 a0bd 874d 34bd 955c 163d 0c20 483d
00000100: 9924 8cbd 8ab0 443d 5be9 dcbd 04e5 13bd
00000110: a718 e63d 7d6d 00be fbc0 17bd dd3c de3d
00000120: a352 62bc fa61 bc3d 11ee d3bd cd06 993d
00000130: 6dd6 ca3a 59b2 423d c279 dfbc 5f69 ca3d
00000140: 260e 043e 1ff4 bf3b 179d dcbd f714 19bd
00000150: 77b7 4f3d 4f15 c13d c4fc dbbd 12ef f5bb
00000160: 04fd e83d 4f4c a9bd 5fbb 9fbd 34af f53d
00000170: 91a5 d93d 38d2 623d 4468 513d 4170 cabc
00000180: 674e b8bd 2c9d 01be 67a2 ef3d 2256 d03d
00000190: 4e00 793d e1e0 7e3d 36d0 22bc 79f4 95bd
000001a0: dfc1 c5bd c12f f0bd e82a eebd cb0b c33d
000001b0: 810f afbd 674f 8db9 3663 163d 0161 6a3d
000001c0: e017 b43d 9257 f0ba 3fe8 cc3b 8400 53bc
000001d0: 2899 233d eb94 e4bb 5f5c 61bd a2a5 7b3d
000001e0: 95eb 563d b9b7 78bd e573 c93d 1858 5e3d
000001f0: 028c 9a3c fbe6 503d c84d babd 16b9 9c3d
00000200: b720 f6bd 0e66 a7bd 2a50 82bd 1ce6 d0bd
00000210: 6c63 853d d339 1c3d ccc7 01bd b488 583d
00000220: 6f81 d8bd d057 1bbd 5981 283d 4f88 c13d
00000230: 5749 933d 034e e6bd 3579 b2bd e59c b5bd
00000240: 214e d63d 06bb 963c f0b6 adbd 518a af3d
00000250: c8fb 8cbd 730f b6bd 62b1 903c 490b 823d
00000260: 8888 86bc 0af0 b2bd 84f9 b83d ca52 f4bd
00000270: 7ed0 5bbc 33a5 b13c 2e10 8cbd 971b 3b3d
00000280: 9a87 eebc b4ef 4bbd e099 af3c bdc1 b23d
00000290: 63b4 edbd 6a6d 373c 8e9e 383d 16a2 043e
000002a0: f856 95bd a9af 1a3d 135f af3d b62f 00be
000002b0: 0535 c6bd dc66 9d3d d25e afbc a7db e93d
000002c0: 56a4 ab3d afa1 b3bd 2242 f23d 240b 45bd
000002d0: 1b24 85bd 2a6d 26bd 7ba8 1d3d 31ce f03d
000002e0: 9d30 e73d 36af b1bd 2bf9 803c 4a97 f9bd
000002f0: d4e5 b8bd 80b6 e43d 7212 8f3d 1af5 dabd
00000300: 344c d9bd 59f3 8abd ec72 d83b 589e adbc
00000310: 4914 8a3d 2f80 f8bd ba6d 7c3c cfbb ac3a
00000320: 8852 c4bd abff ca3d 3831 bd3d bdc6 5c3d
00000330: 17ab fe3d a057 b43d 322c f83c d0dc edbd
00000340: b261 4cbd 4c07 5b3d 407c 1d3c e337 603c
00000350: 066d a13b 671c 343d b3c2 e83c 4c03 94bd
00000360: aac5 3b3d 2dce cd3d b1e9 0a3d 2ea4 3a3c
00000370: 1f2f 9ebd ade1 c3bd 4e86 6dbd 1643 a93d
00000380: 4ed8 91bd 7848 d5bc 93e0 483d 0070 1f3d
00000390: 65d3 aa3d 92fc 023e 9495 3f3c 96b6 f6bd
000003a0: 9529 c43d 4436 523b ace3 afbd ba1b ec3d
000003b0: 047c c1bd b9aa 84bd a3a9 e33d 7ab8 653b
000003c0: 8bef e63c b18b 01bd 5683 b63c 6969 b7bc
000003d0: e261 e53c 5256 1abd ad88 2e3d fe50 d2bc
000003e0: 5344 c1bd 875b b0bd 4e05 7bbc 382f ce3b
000003f0: 777f c33d 895b 80bd ecda 08bd 54ee 18bd

weight f4 [256]
1.0002042 1.0011051 1.0010736 0.9971205 1.0002265 0.99841136 0.9996173 1.0010333
0.9997079 1.0022665 0.99777806 0.99948174 0.99694 0.9997261 1.0025121 1.0013343
0.99954355 1.0013597 1.0000379 1.0016661 1.0021739 1.0000732 0.9960848 1.0000651
0.9965196 1.0007848 1.001607 0.9997042 1.000179 0.99964267 1.0013164 1.0000436
0.99787337 0.9974284 0.99918306 1.0010984 1.000666 1.001714 1.0008785 0.99746907
0.99860877 1.0002079 1.0011605 0.9979899 0.99729985 1.0006815 0.99971 1.0003872
1.0003474 0.9970361 0.9988007 0.9999638 1.0008801 0.9980399 0.9988911 1.0004143
1.0000817 1.0056759 0.9984435 0.9993599 0.9969629 1.0006047 1.0002275 1.0009615
0.9978424 0.9991206 1.0001035 0.9997814 1.0015805 0.9994839 0.99961656 1.000242
1.0003648 1.0006868 0.99934095 1.0006356 0.9976752 1.0022241 0.99950606 1.0005883
0.9999661 0.9982521 1.0009391 1.000629 0.99809533 1.0011874 1.0015037 0.99938357
1.0008087 1.0022429 0.9983885 0.9999942 0.99987286 0.99857444 1.0011572 1.0002946
0.9987174 0.9999758 1.0002906 1.0025969 0.9999007 1.0009849 0.99767965 0.9993121
1.0013474 0.9986178 0.99698246 1.005635 0.9998259 0.9976738 0.9998245 0.99965143
0.99963874 1.0008192 0.99894625 0.99936575 1.0007315 1.0001863 0.99773103 0.99880046
1.0002337 1.0011004 0.9994537 1.0010138 1.0005645 0.9992637 0.99954873 1.000902
0.99951345 0.9997548 0.99997246 0.99625707 0.99997604 0.99734133 1.0011916 0.99877137
0.99990255 0.9992351 1.0006936 0.9992793 1.000545 1.0008712 1.0003462 0.9993663
0.99949783 0.99876976 1.001223 1.0023994 1.0007125 0.99965507 1.0003582 1.0001054
1.0004698 0.998932 1.0012045 1.0023516 1.0001471 0.99776995 1.0001582 1.0011333
1.0013975 0.9968802 0.99985886 0.9977286 0.9974025 0.99745196 1.0016292 0.9976605
1.0020362 1.0009425 1.0009471 1.0005887 1.0006629 0.99749726 0.9974811 1.0002522
1.0060704 1.0012257 1.0020452 0.9995769 1.000137 0.9986638 1.0004938 1.0000006
0.9989254 1.0007969 1.0009269 1.000975 1.0005254 0.99995536 0.99924815 1.0033586
0.9988582 1.0001909 1.0007755 1.0018101 1.0004535 1.000353 1.0006353 0.99799204
1.0008181 1.0084094 1.0001484 1.0008948 0.9996702 1.0010117 0.99757993 0.99900264
1.0029526 1.0029471 1.0023865 1.0004662 1.0010879 1.0005924 1.0014726 1.0011853
1.0014898 1.0011235 0.9994329 1.0008972 1.0001098 0.9987035 0.9984277 0.99946237
0.99816895 0.9985204 0.995907 0.999949 0.9967283 1.0003788 0.99847966 0.9986675
1.0016938 1.0003608 1.0012668 0.99771833 1.0003722 0.9998395 1.0000758 1.0004497
0.9985741 0.9996085 0.99889815 0.99697983 0.99993247 0.9987738 1.0006478 1.0024732
1.0005268 0.9985979 1.0005957 0.99972403 1.0012143 1.000839 1.0016586 1.0002072
00000000: b106 803f 3624 803f 2e23 803f 4a43 7f3f
00000010: 6c07 803f e397 7f3f ebe6 7f3f dc21 803f
00000020: dbec 7f3f 454a 803f 626e 7f3f 09de 7f3f
00000030: 7637 7f3f 0dee 7f3f 5152 803f b92b 803f
00000040: 16e2 7f3f 8e2c 803f 3e01 803f 9836 803f
00000050: 3c47 803f 6602 803f 6aff 7e3f 2202 803f
00000060: e91b 7f3f b719 803f a834 803f 9dec 7f3f
00000070: de05 803f 95e8 7f3f 232b 803f 6e01 803f
00000080: a174 7f3f 7857 7f3f 76ca 7f3f fe23 803f
00000090: d315 803f 2a38 803f c91c 803f 225a 7f3f
000000a0: d3a4 7f3f d006 803f 0726 803f 447c 7f3f
000000b0: 0b4f 7f3f 5516 803f ffec 7f3f b00c 803f
000000c0: 620b 803f c23d 7f3f 67b1 7f3f a1fd 7f3f
000000d0: d71c 803f 8b7f 7f3f 54b7 7f3f 930d 803f
000000e0: ad02 803f fdb9 803f fe99 7f3f 0dd6 7f3f
000000f0: f638 7f3f d113 803f 7407 803f 821f 803f
00000100: 9972 7f3f 5ec6 7f3f 6403 803f adf1 7f3f
00000110: ca33 803f 2dde 7f3f dfe6 7f3f ee07 803f
00000120: f40b 803f 8116 803f cfd4 7f3f d414 803f
00000130: a467 7f3f e148 803f a1df 7f3f 4713 803f
00000140: c7fd 7f3f 738d 7f3f c61e 803f 9c14 803f
00000150: 2d83 7f3f e926 803f 4631 803f 9ad7 7f3f
00000160: 801a 803f 7f49 803f 6496 7f3f 9fff 7f3f
00000170: abf7 7f3f 93a2 7f3f eb25 803f a709 803f
00000180: f2ab 7f3f 6afe 7f3f 8609 803f 1855 803f
00000190: 7ef9 7f3f 4620 803f ef67 7f3f ebd2 7f3f
000001a0: 272c 803f 6ba5 7f3f 3e3a 7f3f a6b8 803f
000001b0: 97f4 7f3f 8d67 7f3f 80f4 7f3f 28e9 7f3f
000001c0: 53e8 7f3f d81a 803f f1ba 7f3f 6fd6 7f3f
000001d0: f817 803f 1b06 803f 4d6b 7f3f 63b1 7f3f
000001e0: a807 803f 0f24 803f 33dc 7f3f 3821 803f
000001f0: 7f12 803f bfcf 7f3f 6de2 7f3f 8f1d 803f
00000200: 1de0 7f3f eeef 7f3f 32fe 7f3f b40a 7f3f
00000210: 6efe 7f3f c351 7f3f 0c27 803f 7baf 7f3f
00000220: 9df9 7f3f dfcd 7f3f ba16 803f c5d0 7f3f
00000230: dc11 803f 8c1c 803f 580b 803f 78d6 7f3f
00000240: 17df 7f3f 60af 7f3f 1328 803f a04e 803f
00000250: 5917 803f 65e9 7f3f bd0b 803f 7403 803f
00000260: 650f 803f 02ba 7f3f 7827 803f 0f4d 803f
00000270: d204 803f da6d 7f3f 2f05 803f 2325 803f
00000280: cb2d 803f 8a33 7f3f c0f6 7f3f 246b 7f3f
00000290: c555 7f3f 0359 7f3f 6335 803f ae66 7f3f
000002a0: b942 803f e21e 803f 091f 803f 4a13 803f
000002b0: b915 803f fb5b 7f3f ec5a 7f3f 4408 803f
000002c0: eac6 803f 2a28 803f 0443 803f 46e4 7f3f
000002d0: 7d04 803f 6ea8 7f3f 2e10 803f 0500 803f
000002e0: 93b9 7f3f 1d1a 803f 5f1e 803f f31f 803f
000002f0: 3711 803f 13fd 7f3f bace 7f3f 0e6e 803f
00000300: 2cb5 7f3f 4106 803f 6919 803f 503b 803f
00000310: dc0e 803f 910b 803f d114 803f 687c 7f3f
00000320: cf1a 803f 8f13 813f dd04 803f 521d 803f
00000330: 63ea 7f3f 2721 803f 6661 7f3f a3be 7f3f
00000340: c060 803f 9260 803f 334e 803f 470f 803f
00000350: a623 803f 6913 803f 4130 803f d726 803f
00000360: d130 803f d124 803f d6da 7f3f 661d 803f
00000370: 9903 803f 08ab 7f3f f598 7f3f c4dc 7f3f
00000380: 0088 7f3f 089f 7f3f c3f3 7e3f a8fc 7f3f
00000390: 9629 7f3f 6a0c 803f 5d9c 7f3f aca8 7f3f
000003a0: 8137 803f d30b 803f 8329 803f 786a 7f3f
000003b0: 320c 803f 7bf5 7f3f 7c02 803f bc0e 803f
000003c0: 8da2 7f3f 58e6 7f3f cab7 7f3f 123a 7f3f
000003d0: 93fb 7f3f a4af 7f3f 3a15 803f 0b51 803f
000003e0: 4311 803f 1da4 7f3f 8513 803f eaed 7f3f
000003f0: ca27 803f 7e1b 803f 5936 803f ca06 803f

bias f4 [256]
-0.00035580486 0.0008921172 0.0007030934 0.0006380923 -0.000111090885 0.0012972276 8.734736e-05 0.000776809
0.0010527796 0.002683653 -0.0014305166 0.00092763 -0.0005334332 9.389734e-05 -8.996035e-05 0.0022098892
-0.00096635893 0.0016555237 -0.0003325084 -0.00042859488 0.0022766993 0.0013845694 -0.0010493667 0.00046611484
-0.0004550676 0.00022868761 0.0017754874 -0.0005240271 -3.2718748e-05 0.00065430434 0.0013408163 -0.0016049177
0.00018561553 -0.0003793814 -0.00010453627 0.00075826724 0.0002454634 0.0007425093 -0.00091461005 0.00044935377
0.0021014076 0.00059599953 0.0010904938 -0.00087931775 -0.0007000831 0.0020333496 -0.00042053012 0.00097293634
0.0005025887 0.00020785471 0.0017399605 0.000621648 0.0026257522 6.429187e-06 -0.0004202401 0.00036318257
0.000855631 0.002647456 3.1595485e-07 -0.001102289 -7.744865e-05 0.0019359603 0.0012973374 0.0011584391
-0.0027424854 0.0004403615 0.00010370518 0.0006934311 -8.206669e-05 3.2402353e-05 0.00086271437 0.00097385794
-0.00034124695 -0.0010726725 0.0010030433 0.0012805108 -0.00055567897 0.0015040454 0.0009767073 0.0001419169
-0.0012569042 -0.00034258305 0.00147457 0.0016774007 -0.0018366877 0.0006432359 0.0010523556 -2.109477e-05
0.0010327245 0.0018203387 0.0005897256 0.00039809028 -0.0010033753 -0.00075871596 -0.00063124526 0.0006926015
-0.0014932287 0.00026707188 0.00023796716 -8.729208e-05 0.0003207412 -0.0005536378 -0.0017950191 -0.0018280826
0.0021399306 0.001476997 -0.00012995479 0.00053148833 0.0013602325 0.00017289782 0.00010012132 -0.0011416139
0.0012483455 0.000674117 7.545208e-05 -0.0017080851 -0.0008482599 0.0003326388 -0.001447895 -0.00064824213
-0.00065747055 0.00037974393 -0.0012849468 0.0010143803 0.0011319119 0.00049625087 -0.00051235076 -0.00056199275
4.3211894e-06 0.00045751192 0.00024132323 -9.984221e-05 0.00044576224 -0.00030114353 0.0016125669 -0.0014068806
-0.00084123475 0.00018981063 0.0021769388 -0.00020938848 0.0014320273 0.0012248302 -0.0011320658 -0.0011267398
-0.00024673756 0.0012954861 0.00093225145 0.0015437561 0.0013415606 0.0010801741 0.0018102286 0.0001293057
-9.6155054e-05 0.0005706584 0.0006638365 0.00032918088 0.0010044588 0.00018984225 0.00015701358 0.0011712003
-1.9489844e-05 0.000624367 0.00011008343 -0.0029204215 0.00074267114 -0.0013020352 0.0024053773 -0.0009333787
0.0026767834 0.0016394211 0.0013781196 0.0009281138 0.0010311134 9.524715e-05 0.0010166644 -0.00021914647
0.0019179208 0.0002846829 0.0026158334 0.0027503625 0.0011743706 -0.0017555124 0.00014209299 0.00029980662
0.00042967746 0.00083242665 -0.0004001726 0.0010266993 0.0015081879 0.00043305475 0.0008759013 -0.00082075014
0.0009367848 0.0016446763 0.0018025739 0.0021262853 -0.0002643087 -0.0011447355 -0.0008626083 -0.0014744862
0.00041657087 0.0024339329 0.0019358121 0.0005494067 -0.0011512641 0.0008200241 -0.0005057694 0.00058542896
0.0010684695 0.00015079977 0.0014400447 0.0013738786 -0.001557243 0.00064736063 0.002162623 0.0005304258
0.0013475806 0.0008271888 -9.994334e-05 0.0010825301 -0.00010178774 -0.0009206407 -0.000741908 0.00092485925
-0.0003698577 2.5519946e-06 -8.264887e-05 0.001325306 -0.0017637841 9.433405e-05 0.0008223626 -0.00079123693
0.0010688355 -0.0005246995 0.00046284267 -0.0017927951 0.00048767828 -0.0009862256 -1.30926355e-05 0.0005022792
-0.0011517433 -0.0008883232 -0.00029264585 -0.0008015694 0.0009037348 0.000307196 0.0006500226 0.0004186361
-0.0007761719 -0.0002488772 0.0006222249 -0.00094613514 0.00045114945 0.0018028063 -0.00047610168 0.0013481767
00000000: 528b bab9 f9dc 693a cd4f 383a a645 273a
00000010: 77f9 e8b8 bc07 aa3a 422e b738 c5a2 4b3a
00000020: 6cfd 893a 3ae0 2f3b 2c80 bbba 322c 733a
00000030: 19d6 0bba c0ea c438 18a9 bcb8 cad3 103b
00000040: 4053 7dba 28fe d83a 8654 aeb9 08b5 e0b9
00000050: ad34 153b 717a b53a e78a 89ba e060 f439
00000060: 2496 eeb9 ddcb 6f39 79b7 e83a dd5e 09ba
00000070: 7d3b 09b8 9f85 2b3a 54be af3a 1a5c d2ba
00000080: caa1 4239 b6e7 c6b9 7c3a dbb8 74c6 463a
00000090: 8ab1 8039 f5a4 423a 71c2 6fba 3e97 eb39
000000a0: c5b7 093b da3c 1c3a e6ee 8e3a 0482 66ba
000000b0: c885 37ba f241 053b 997a dcb9 a70c 7f3a
000000c0: 28c0 033a 93f3 5939 630f e43a 17f6 223a
000000d0: d014 2c3b 4cba d736 ac53 dcb9 8a69 be39
000000e0: 6d4c 603a f180 2d3b 81a0 a934 ae7a 90ba
000000f0: ed6b a2b8 0cc0 fd3a 6b0b aa3a c4d6 973a
00000100: 45bb 33bb 52e0 e639 4b7c d938 60c7 353a
00000110: 381b acb8 c3e7 0738 c827 623a 804a 7f3a
00000120: 64e9 b2b9 eb98 8cba 8c78 833a d0d6 a73a
00000130: fcaa 11ba 6423 c53a dc04 803a 87cf 1439
00000140: b5be a4ba b89c b3b9 5c46 c13a 3adc db3a
00000150: 03bd f0ba d59e 283a 32ef 893a acf4 b0b7
00000160: 7c5c 873a 6e98 ee3a d197 1a3a c6b6 d039
00000170: b083 83ba 91e4 46ba 277a 25ba b38f 353a
00000180: 71b8 c3ba c805 8c39 d386 7939 9410 b7b8
00000190: 2829 a839 0122 11ba d946 ebba 469c efba
000001a0: 143e 0c3b cc97 c13a 7944 08b9 9453 0b3a
000001b0: d449 b23a e84b 3539 39f8 d138 35a2 95ba
000001c0: 869f a33a 3ab7 303a 073c 9e38 d3e1 dfba
000001d0: c25d 5eba 0666 ae39 4bc7 bdba cbee 29ba
000001e0: 1a5a 2cba 5e18 c739 a96b a8ba f4f4 843a
000001f0: a95c 943a d516 023a 474f 06ba b252 13ba
00000200: bcfe 9036 36de ef39 b60b 7d39 6162 d1b8
00000210: 32b5 e939 cde2 9db9 c45c d33a 1467 b8ba
00000220: 4f86 5cba e707 4739 f9aa 0e3b 4b8f 5bb9
00000230: ddb2 bb3a 7b8a a03a d361 94ba 1daf 93ba
00000240: 8e5c 81b9 4dcd a93a 5662 743a dc57 ca3a
00000250: 4ed7 af3a a194 8d3a 3145 ed3a 3c96 0739
00000260: daa6 c9b8 3d98 153a 5005 2e3a e995 ac39
00000270: 0ba8 833a 6410 4739 03a4 2439 f682 993a
00000280: 1f7e a3b7 8fac 233a 97dc e638 8b64 3fbb
00000290: d1af 423a 0da9 aaba 89a3 1d3b fcad 74ba
000002a0: f96c 2f3b d8e1 d63a 05a2 b43a aa4c 733a
000002b0: 6d26 873a 6dbf c738 9941 853a afca 65b9
000002c0: be62 fb3a 7e41 9539 676e 2b3b 6d3f 343b
000002d0: 57ed 993a 3919 e6ba ccfe 1439 5d2f 9d39
000002e0: 5546 e139 3537 5a3a 42ce d1b9 5092 863a
000002f0: 63ae c53a a00b e339 be9c 653a 9c27 57ba
00000300: 9092 753a 2e92 d73a 5844 ec3a 2659 0b3b
00000310: ea92 8ab9 f30a 96ba aa20 62ba 8c43 c1ba
00000320: 3267 da39 9e82 1f3b 13bb fd3a 0f06 103a
00000330: 03e6 96ba e3f6 563a 9c95 04ba 7977 193a
00000340: e30b 8c3a 0120 1e39 e2bf bc3a b713 b43a
00000350: 681c ccba a3b3 293a cbba 0d3b 460c 0b3a
00000360: 4da1 b03a b3d7 583a ac98 d1b8 afe3 8d3a
00000370: e076 d5b8 2757 71ba 9a7c 42ba 4172 723a
00000380: 76e9 c1b9 ef42 2b36 c653 adb8 e4b5 ad3a
00000390: c62e e7ba 35d5 c538 d293 573a 036b 4fba
000003a0: 2b18 8c3a fd8b 09ba b1a9 f239 39fc eaba
000003b0: 12af ff39 3d44 81ba 71a8 5bb7 63ab 033a
000003c0: 18f6 96ba 5cde 68ba 436e 99b9 6920 52ba
000003d0: 9ee8 6c3a 260f a139 4766 2a3a 637c db39
000003e0: 0478 4bba bb7b 82b9 ce1c 233a 0e06 78ba
000003f0: 4188 ec39 244c ec3a 499d f9b9 4eb5 b03a

running_mean f4 [256]
25.493044 -248.95155 278.24442 -245.02252 238.95699 -179.22406 431.3848 244.05981
275.5326 330.45117 -144.38719 -55.33349 -179.64554 -103.25734 330.02658 -231.09575
103.11005 382.01968 -304.47067 295.16202 5.7449956 -21.362822 205.59906 -181.67195
-188.35873 -224.90283 222.39336 278.5843 -167.02841 24.493841 -209.14888 -151.89342
3.5932605 -291.7751 -252.21056 -25.532442 -72.60061 -219.31746 -13.573775 234.81042
-309.64578 47.152008 -297.94254 300.18542 -209.04497 41.59516 -107.150154 109.58331
370.06143 -254.56416 -243.89622 42.798164 -243.26208 46.52321 181.88478 -237.80457
67.71537 35.770668 108.92985 360.5354 62.55889 83.802864 -94.483185 218.24637
-242.74666 4.3859696 51.552624 -56.540314 174.59445 -6.4205136 -191.20871 161.58351
50.68347 -17.74654 -140.43335 263.465 234.88281 182.72795 -36.28717 -93.202805
-56.027145 63.60727 255.56012 164.09537 171.82204 -46.921833 94.27621 143.69788
105.22144 163.85742 -212.32158 338.83728 323.74667 58.42474 -20.782095 227.1128
-40.37049 155.69562 -134.54341 174.17494 31.167042 -277.5045 -113.521866 404.78357
-125.9076 127.19963 -332.9734 338.3777 -206.68794 75.91079 -178.23149 44.460102
-215.6464 69.33659 262.11282 -67.91774 237.09682 394.6206 13.194062 44.10402
-299.4885 -188.56602 134.36578 159.04431 122.15522 160.00407 -288.01044 375.09805
-224.52122 -313.1317 330.1318 -91.70652 220.99168 -351.6789 -237.86281 -124.38077
294.98862 303.1147 59.431877 259.2796 -123.816925 26.489721 146.92531 -245.1434
310.09995 211.97543 -244.1484 -128.27841 162.37018 112.67511 129.06519 265.29956
-215.74594 25.362202 205.56985 -289.91473 78.60115 -159.07797 -277.57544 -323.0244
304.58182 41.33343 -163.26445 -236.92601 -256.07217 -188.3998 -366.6259 -290.79608
-75.78494 91.10688 185.36098 -283.50363 130.21172 251.78755 -17.381104 -172.36575
275.31802 124.69553 -156.90047 -167.96614 35.319927 -52.305706 -317.64737 -79.18613
-123.93723 -347.9891 230.73518 -195.90727 -135.00128 -94.01308 63.238743 273.78894
14.991951 -363.72836 -60.339516 16.0044 -225.55545 -148.07898 370.94223 161.07086
270.68607 268.54898 138.39697 -264.60742 -353.24664 -217.08223 -121.95878 15.562237
418.22327 319.5903 73.22364 41.045284 -73.13513 -373.53226 121.08813 55.963387
-2.183577 -71.13681 354.66907 308.83707 -360.71683 -166.18001 90.988304 157.92978
82.33728 -46.72779 -247.78061 -206.33372 65.11969 -189.21613 252.46353 101.52933
185.13574 147.15707 -49.60362 -38.765575 131.32127 -254.84673 -238.2855 117.31873
-170.34251 -181.66098 277.20422 40.163986 -95.10127 36.116505 193.1487 -132.36346
-234.9767 261.57242 -163.28516 -106.60743 218.35408 -34.016956 -72.887596 337.1651
00000000: c1f1 cb41 99f3 78c3 491f 8b43 c405 75c3
00000010: fdf4 6e43 5c39 33c3 41b1 d743 500f 7443
00000020: 2cc4 8943 c039 a543 1f63 10c3 7e55 5dc2
00000030: 42a5 33c3 c283 cec2 6703 a543 8318 67c3
00000040: 5838 ce42 8502 bf43 3f3c 98c3 bd94 9343
00000050: 01d7 b740 0fe7 aac1 5c99 4d43 05ac 35c3
00000060: d65b 3cc3 20e7 60c3 b364 5e43 ca4a 8b43
00000070: 4607 27c3 63f3 c341 1d26 51c3 b7e4 17c3
00000080: fbf7 6540 36e3 91c3 e735 7cc3 7142 ccc1
00000090: 8333 91c2 4551 5bc3 2f2e 59c1 78cf 6a43
000000a0: a9d2 9ac3 a89b 3c42 a5f8 94c3 bc17 9643
000000b0: 830b 51c3 7261 2642 e14c d6c2 a82a db42
000000c0: dd07 b943 6d90 7ec3 6fe5 73c3 5231 2b42
000000d0: 1843 73c3 c417 3a42 81e2 3543 f8cd 6dc3
000000e0: 456e 8742 2a15 0f42 15dc d942 8844 b443
000000f0: 4e3c 7a42 119b a742 64f7 bcc2 123f 5a43
00000100: 25bf 72c3 dd59 8c40 e335 4e42 4829 62c2
00000110: 2e98 2e43 d974 cdc0 6e35 3fc3 6195 2143
00000120: e0bb 4a42 eaf8 8dc1 f06e 0cc3 85bb 8343
00000130: 00e2 6a43 5bba 3643 1026 11c2 d667 bac2
00000140: cc1b 60c2 d86d 7e42 648f 7f43 6a18 2443
00000150: 71d2 2b43 f5af 3bc2 6b8d bc42 a8b2 0f43
00000160: 6171 d242 80db 2343 5352 54c3 2c6b a943
00000170: 93df a143 efb2 6942 bb41 a6c1 e01c 6343
00000180: 627b 21c2 14b2 1b43 1d8b 06c3 c92c 2e43
00000190: 1a56 f941 93c0 8ac3 320b e3c2 4c64 ca43
000001a0: b1d0 fbc2 3666 fe42 987c a6c3 5830 a943
000001b0: 1db0 4ec3 53d2 9742 433b 32c3 25d7 3142
000001c0: 7aa5 57c3 56ac 8a42 710e 8343 e2d5 87c2
000001d0: c918 6d43 704f c543 e11a 5341 846a 3042
000001e0: 87be 95c3 e790 3cc3 a45d 0643 580b 1f43
000001f0: 794f f442 0b01 2043 5601 90c3 8d8c bb43
00000200: 6f85 60c3 dc90 9cc3 df10 a543 bd69 b7c2
00000210: dffd 5c43 e6d6 afc3 e1dc 6dc3 f4c2 f8c2
00000220: 8b7e 9343 ae8e 9743 3eba 6d42 caa3 8143
00000230: 44a2 f7c2 f3ea d341 e1ec 1243 b624 75c3
00000240: cb0c 9b43 b6f9 5343 fe25 74c3 4647 00c3
00000250: c45e 2243 a859 e142 b010 0143 58a6 8443
00000260: f6be 57c3 cae5 ca41 e291 4d43 16f5 90c3
00000270: ca33 9d42 f613 1fc3 a8c9 8ac3 2083 a1c3
00000280: 794a 9843 6f55 2542 b343 23c3 0fed 6cc3
00000290: 3d09 80c3 5966 3cc3 1d50 b7c3 e665 91c3
000002a0: e491 97c2 b936 b642 695c 3943 77c0 8dc3
000002b0: 3336 0243 9dc9 7b43 800c 8bc1 a25d 2cc3
000002c0: b5a8 8943 1d64 f942 85e6 1cc3 55f7 27c3
000002d0: 9b47 0d42 0b39 51c2 ddd2 9ec3 4c5f 9ec2
000002e0: dddf f7c2 9bfe adc3 35bc 6643 43e8 43c3
000002f0: 5400 07c3 b206 bcc2 79f4 7c42 fce4 8843
00000300: 08df 6f41 3bdd b5c3 aa5b 71c2 0309 8041
00000310: 328e 61c3 3814 14c3 9b78 b943 2412 2143
00000320: d157 8743 4546 8643 a065 0a43 c04d 84c3
00000330: 929f b0c3 0d15 59c3 e5ea f3c2 ecfe 7841
00000340: 941c d143 8fcb 9f43 8172 9242 5f2e 2442
00000350: 3045 92c2 21c4 bac3 1f2d f242 82da 5f42
00000360: babf 0bc0 0c46 8ec2 a455 b143 256b 9a43
00000370: c15b b4c3 152e 26c3 03fa b542 06ee 1d43
00000380: b0ac a442 42e9 3ac2 d6c7 77c3 6f55 4ec3
00000390: 483d 8242 5437 3dc3 aa76 7c43 040f cb42
000003a0: c022 3943 3628 1343 1b6a 46c2 f30f 1bc2
000003b0: 3f52 0343 c3d8 7ec3 1749 6ec3 31a3 ea42
000003c0: af57 2ac3 36a9 35c3 249a 8a43 eca7 2042
000003d0: da33 bec2 4d77 1042 1126 4143 0c5d 04c3
000003e0: 09fa 6ac3 45c9 8243 0049 23c3 0137 d5c2
000003f0: a55a 5a43 5d11 08c2 73c6 91c2 2295 a843

running_var f4 [256]
72.942276 19.960089 16.03164 23.70184 22.53432 20.102262 16.449627 90.66761
16.349573 74.05528 15.735571 8.62321 78.98066 45.44505 18.541866 93.36359
20.258837 11.439452 208.54842 18.087318 12.779257 102.31218 105.38259 198.8944
67.6459 3.9323049 18.926287 35.091343 82.64924 52.38057 6.089406 4.867384
18.41656 43.289936 20.411161 118.79294 51.542313 84.11315 56.325417 22.401093
13.818544 17.515053 43.542114 22.70496 75.039215 19.92368 100.991196 101.742775
78.97508 66.166046 83.336296 44.036453 127.62128 32.459843 63.323933 86.230194
87.02077 13.062033 60.79391 14.735769 22.830267 122.18145 15.168268 49.12739
99.5879 2.865522 8.013825 19.429703 65.19319 65.29599 134.28896 88.9683
89.13459 17.584467 20.118034 55.83254 42.565224 18.80432 11.765335 78.54724
105.10492 43.96364 21.88099 31.520521 21.798645 68.89474 6.0164385 17.07038
77.57938 7.5113845 111.31015 37.438377 64.14034 11.020161 6.2627 106.980286
73.051155 68.97094 45.705296 19.708897 73.401505 103.71196 70.563515 704.10315
89.2882 71.98258 25.307266 15.418465 106.255196 43.420006 56.791367 93.76032
19.887457 104.99998 8.771907 96.8569 22.745611 18.245207 76.985374 18.835047
47.92555 99.730354 79.25277 55.278847 15.981434 75.37867 63.0778 155.69753
19.523697 8.125267 44.185337 26.606953 87.3268 82.13039 24.892181 89.607124
47.27973 65.179436 104.74814 58.417965 25.403242 22.757545 42.05537 14.315237
11.880197 10.322831 13.4644985 16.930834 75.30804 15.503394 12.9875555 39.24824
53.260223 16.009418 27.656246 12.88867 40.940655 32.00371 8.18706 32.33413
36.32257 71.97653 107.16421 58.68613 42.614597 22.587582 61.933296 78.14393
11.069112 82.52127 43.861385 63.580574 88.35254 105.38791 109.62038 5.196528
11.547882 53.126595 16.897564 32.1954 64.80744 54.57426 39.260746 15.433773
17.992373 16.664179 38.67842 76.26398 29.087896 67.909164 23.84284 18.906897
70.58607 83.77594 42.56416 83.381836 96.97753 52.26996 8.429461 67.63732
116.46764 17.71883 86.42938 33.966106 15.133624 109.20794 71.13395 6.531656
17.835384 21.304525 3.9385805 31.497894 54.267395 92.94985 52.840805 25.875587
9.883941 20.49161 44.589203 14.46865 73.02222 24.66706 7.801409 106.67682
122.09694 6.066606 89.51515 69.727585 31.472239 7.601624 24.418816 47.45076
61.821465 15.247866 62.359222 63.15855 122.5905 120.710106 19.444662 85.78936
29.08263 51.478508 10.836735 62.004787 71.66385 12.8775425 51.591164 27.5155
30.327513 71.64931 19.440668 66.32284 18.898752 33.082348 55.357273 16.831991
00000000: 72e2 9142 43ae 9f41 cc40 8041 5e9d bd41
00000010: 4a46 b441 6fd1 a041 d698 8341 d155 b542
00000020: edcb 8241 4e1c 9442 e6c4 7b41 abf8 0941
00000030: 19f6 9d42 bbc7 3542 be55 9441 28ba ba42
00000040: 1912 a241 ff07 3741 658c 5043 d4b2 9041
00000050: d677 4c41 d69f cc42 e3c3 d242 f7e4 4643
00000060: b34a 8742 e2aa 7b40 0969 9741 895d 0c42
00000070: 694c a542 b485 5142 6adc c240 9cc1 9b40
00000080: 1d55 9341 e528 2d42 0f4a a341 fc95 ed42
00000090: 542b 4e42 ef39 a842 3a4d 6142 7035 b341
000000a0: c218 5d41 d41e 8c41 202b 2e42 c2a3 b541
000000b0: 1414 9642 b263 9f41 7efb c942 4d7c cb42
000000c0: 3ef3 9d42 0455 8442 2fac a642 5425 3042
000000d0: 183e ff42 e1d6 0142 b54b 7d42 dc75 ac42
000000e0: a20a ae42 16fe 5041 f72c 7342 b6c5 6b41
000000f0: 63a4 b641 e75c f442 3ab1 7241 7382 4442
00000100: 012d c742 b664 3740 a138 0041 0870 9b41
00000110: ea62 8242 8c97 8242 f949 0643 c5ef b142
00000120: e944 b242 fdac 8c41 bcf1 a041 8554 5f42
00000130: ca42 2a42 3f6f 9641 d03e 3c41 3018 9d42
00000140: b835 d242 c4da 2f42 440c af41 072a fc41
00000150: a063 ae41 1bca 8942 aa86 c040 2390 8841
00000160: a428 9b42 435d f040 cc9e de42 e6c0 1542
00000170: db47 8042 9452 3041 0a68 c840 e8f5 d542
00000180: 311a 9242 1ff1 8942 39d2 3642 d2ab 9d41
00000190: 92cd 9242 866c cf42 8520 8d42 9a06 3044
000001a0: 8f93 b242 15f7 8f42 4875 ca41 08b2 7641
000001b0: a982 d442 16ae 2d42 5c2a 6342 4985 bb42
000001c0: 8319 9f41 fdff d142 bb59 0c41 bcb6 c142
000001d0: 03f7 b541 2ff6 9141 83f8 9942 2dae 9641
000001e0: c3b3 3f42 f175 c742 6b81 9e42 8a1d 5d42
000001f0: f4b3 7f41 e1c1 9642 ab4f 7c42 91b2 1b43
00000200: 8830 9c41 1801 0241 c9bd 3042 0adb d441
00000210: 52a7 ae42 c242 a442 3023 c741 d936 b342
00000220: 721e 3d42 df5b 8242 0c7f d142 ffab 6942
00000230: d739 cb41 740f b641 b338 2842 360b 6541
00000240: 4915 3e41 512a 2541 966e 5741 5972 8741
00000250: b79d 9642 e70d 7841 07cd 4f41 33fe 1c42
00000260: 780a 5542 4a13 8041 fe3f dd41 fe37 4e41
00000270: 3bc3 2342 cd03 0042 33fe 0241 2656 0142
00000280: 504a 1142 fcf3 8f42 1354 d642 99be 6a42
00000290: 5975 2a42 5eb3 b441 b2bb 7742 b149 9c42
000002a0: 151b 3141 e40a a542 0f72 2f42 8252 7e42
000002b0: 80b4 b042 9cc6 d242 a23d db42 f549 a640
000002c0: 20c4 3841 a281 5442 362e 8741 17c8 0042
000002d0: 699d 8142 0b4c 5a42 010b 1d42 bcf0 7641
000002e0: 61f0 8f41 3d50 8541 b4b6 1a42 2887 9842
000002f0: 03b4 e841 7ed1 8742 23be be41 5341 9741
00000300: 112c 8d42 488d a742 b341 2a42 80c3 a642
00000310: 7ff4 c142 7014 5142 12df 0641 4f46 8742
00000320: 6fef e842 2ac0 8d41 d8db ac42 4bdd 0742
00000330: 5323 7241 776a da42 9544 8e42 5303 d140
00000340: deae 8e41 ab6f aa41 b411 7c40 b0fb fb41
00000350: d011 5942 53e6 b942 fc5c 5342 3401 cf41
00000360: 9f24 1e41 d1ee a341 585b 3242 977f 6741
00000370: 600b 9242 2456 c541 24a5 f940 885a d542
00000380: a231 f442 a321 c240 c207 b342 8674 8b42
00000390: 25c7 fb41 8140 f340 bc59 c341 94cd 3d42
000003a0: 2e49 7742 42f7 7341 d86f 7942 5ba2 7c42
000003b0: 562e f542 936b f142 ab8e 9b41 2794 ab42
000003c0: 3aa9 e841 fee9 4d42 4463 2d41 e704 7842
000003d0: e453 8f42 6a0a 4e41 5a5d 4e42 be1f dc41
000003e0: bf9e f241 724c 8f42 7d86 9b41 4ba5 8442
000003f0: a530 9741 5354 0442 d96d 5d42 eba7 8641

weight f4 [256, 256]
-0.015273934 -0.05219283 0.060429003 -0.023463268 -0.009465823 0.062461928 0.040566575 -0.049129914
-0.010152954 0.005067745 -0.0152798565 0.0047905254 0.04539533 0.0449517 -0.0025656319 -0.010566651
-0.048890255 -0.01774272 -0.040395003 0.045376807 0.05145347 0.038729087 0.023907576 0.06587278
-0.04160204 0.029491117 0.0057524857 -0.02552009 -0.05457308 0.0128869945 -0.013016427 -0.0555637
0.05034093 -0.014149363 0.04365571 -0.04665538 -0.023202984 -0.05525446 0.048125993 -0.039651085
0.04358587 0.04739714 -0.012589929 0.017792143 -0.055074394 -0.03867459 0.044185944 -0.025507774
-0.027228193 -0.056049984 0.019081708 -0.04355025 0.046162307 -0.023187265 -0.010240535 -0.028952627
0.023335768 0.0016639805 -0.044270236 0.056309126 0.038419798 0.046401616 0.038090847 0.0034955386
-0.03922525 -0.029365817 -0.022689674 0.04125653 0.0062858555 -0.038988046 0.02327402 0.010658865
-0.028258357 -0.012786019 -0.011786488 0.052782916 -0.0020347228 -0.014369325 0.016821943 0.05167397
-0.044647343 -0.055224728 0.051700845 -0.04175018 -0.027856305 -0.016324272 0.022092994 0.00760718
-0.060748156 -0.012317372 0.021211063 -0.060693834 -0.051933534 0.005939306 -0.05435393 -0.025169425
-0.027103461 0.021868626 0.03722326 -0.05772813 0.02431261 -0.03511356 0.010210428 0.035216033
-0.023102043 -0.033982255 0.051690612 -0.019895237 0.027357427 -0.012205149 0.048672684 -0.050051127
0.022848966 -0.053506065 -0.011471982 0.04104182 0.045130577 0.05832658 0.055333972 0.06205763
0.05812943 0.007737336 0.009698608 -0.010424405 0.03951793 0.040515497 -0.03512501 -0.0603917
-0.033004407 0.005770716 0.057435155 -0.014439976 0.03007032 0.006535744 0.060063552 -0.03866204
0.05226778 0.022450825 -0.014913058 0.04840178 -0.061659656 -0.007203357 0.043071914 0.0170882
0.0071447594 -0.011652951 -0.05018496 -0.033083763 0.028379317 -0.007416939 -0.04388556 -0.02993446
-0.04114227 -0.053096518 0.013650467 0.0405041 -0.026497409 -0.024105683 -0.054987524 0.011252038
0.027560653 -0.038963053 0.01550685 0.03940499 0.004808792 -0.04320753 -0.025518062 0.051360037
0.012905529 0.021085413 -0.0058830003 -0.05066134 -0.022398025 0.027635816 0.06702881 -0.040432196
0.030258488 -0.037783563 -0.025934039 0.05049629 -0.044622794 -0.046911407 -0.05689238 0.044316486
0.048989203 -0.027015876 -0.03570596 0.006493819 -0.030766523 -0.0067016613 -0.017909605 0.05323723
-0.047614045 -0.05578849 0.026690913 0.01972285 -0.037872918 0.0038414365 0.051121872 -0.032602597
0.04436772 -0.0062119593 0.033071212 -0.061218914 0.04927718 0.03702517 -0.0070928955 0.032454215
-0.024047652 0.06960734 0.01976734 0.004892825 -0.04163133 0.017896593 0.0054437346 -0.023322707
0.039837983 0.05601349 -0.03226421 0.058969516 -0.004913868 -0.015586419 -0.054131236 -0.036875974
-0.053870715 0.03684403 -0.03245873 0.03870725 -0.04226282 -0.04481391 -0.012643935 -0.008840276
-0.062024012 0.04353873 0.040620975 0.048751827 -0.058772087 -0.062438603 -0.014469615 0.033840634
-0.023313291 -0.024646996 -0.046399195 0.029838031 0.01458284 -0.033266615 -0.015706131 0.051732127
0.04486309 0.03719045 -0.0053651845 -0.053678013 -0.03766106 -0.05445197 0.017736997 -0.04771911
00000000: 863f 7abc 26c8 55bd 6784 773d 0a36 c0bc
00000010: 8a16 1bbc 14d8 7f3d 2329 263d 733c 49bd
00000020: 9358 26bc 540f a63b 5d58 7abc d7f9 9c3b
00000030: 74f0 393d 461f 383d 2924 28bb bf1f 2dbc
00000040: 2641 48bd 2e59 91bc 3b75 25bd 08dd 393d
00000050: e0c0 523d 64a2 1e3d d2d9 c33c 4fe8 863d
00000060: e766 2abd 5b97 f13c 597f bc3b 820f d1bc
00000070: 0688 5fbd f923 533c da42 55bc c396 63bd
00000080: 4b32 4e3d bbd2 67bc 54d0 323d b619 3fbd
00000090: 2f14 bebc 8052 62bd c31f 453d 2d69 22bd
000000a0: 1987 323d 8123 423d fd45 4ebc d4c0 913c
000000b0: b095 61bd 3f69 1ebd 52fc 343d aef5 d0bc
000000c0: a90d dfbc ab94 65bd 3e51 9c3c bf61 32bd
000000d0: b014 3d3d 38f3 bdbc ebc7 27bc 0f2e edbc
000000e0: a72a bf3c ec19 da3a b554 35bd 66a4 663d
000000f0: 145e 1d3d 9f0f 3e3d 2605 1c3d 6815 653b
00000100: a8aa 20bd 9590 f0bc b2df b9bc 9bfc 283d
00000110: 94f9 cd3b eeb1 1fbd 28a9 be3c 85a2 2e3c
00000120: 127e e7bc 737c 51bc 1d1c 41bc e632 583d
00000130: fc58 05bb 516d 6bbc 2cce 893c 16a8 533d
00000140: 22e0 36bd 5333 62bd 44c4 533d 3d02 2bbd
00000150: e832 e4bc 7bba 85bc 5efc b43c a745 f93b
00000160: 0fd3 78bd cdce 49bc d3c2 ad3c 199a 78bd
00000170: 42b8 54bd 839e c23b 3aa2 5ebd 1c30 cebc
00000180: 1408 debc d525 b33c 6b77 183d 5574 6cbd
00000190: 3d2b c73c 3cd3 0fbd a449 273c b03e 103d
000001a0: 7f40 bdbc fa30 0bbd 89b9 533d 56fb a2bc
000001b0: af1c e03c 1bf8 47bc 025d 473d 6902 4dbd
000001c0: c12d bb3c 2d29 5bbd fbf4 3bbc 781b 283d
000001d0: d7da 383d dae7 6e3d e0a5 623d 2430 7e3d
000001e0: 2019 6e3d 7b89 fd3b e9e6 1e3c 20cb 2abc
000001f0: 8edd 213d 94f3 253d 3edf 0fbd 4a5d 77bd
00000200: a12f 07bd 4618 bd3b 2041 6b3d a695 6cbc
00000210: 0856 f63c cb29 d63b 3305 763d 165c 1ebd
00000220: bd16 563d cbea b73c e655 74bc f240 463d
00000230: d68e 7cbd 230a ecbb 2d6c 303d 8efc 8b3c
00000240: 961e ea3b 05ec 3ebc bf8e 4dbd d782 07bd
00000250: be7b e83c cb09 f3bb 58c1 33bd 1d39 f5bc
00000260: cc84 28bd bc7b 59bd 35a6 5f3c a1e7 253d
00000270: 1811 d9bc 4879 c5bc 993a 61bd 785a 383c
00000280: e1c6 e13c b997 1fbd 7110 7e3c 2067 213d
00000290: 1293 9d3b 61fa 30bd 410b d1bc e75e 523d
000002a0: b671 533c 51bb ac3c 2fc6 c0bb 4482 4fbd
000002b0: 107c b7bc 8264 e23c 6746 893d 3b9c 25bd
000002c0: a6e0 f73c f0c2 1abd 9f73 d4bc 33d5 4e3d
000002d0: 64c6 36bd 2d26 40bd fc07 69bd 3485 353d
000002e0: e7a8 483d 6650 ddbc 6a40 12bd 1aca d43b
000002f0: 130a fcbc 9c99 dbbb 2ab7 92bc 480f 5a3d
00000300: f206 43bd 7982 64bd e7a6 da3c d091 a13c
00000310: a220 1bbd 9cc0 7b3b 2b65 513d 4d8a 05bd
00000320: edba 353d b18d cbbb ae75 073d afc0 7abd
00000330: ded6 493d b4a7 173d 856b e8bb b6ee 043d
00000340: 95ff c4bc 4b8e 8e3d 1eef a13c fe53 a03b
00000350: 9d85 2abd e09b 923c 5b61 b23b 430f bfbc
00000360: 272d 233d 676e 653d 7a27 04bd 058a 713d
00000370: 8304 a1bb 2e5e 7fbc b7b8 5dbd 430b 17bd
00000380: 8aa7 5cbd c4e9 163d 72f3 04bd 7e8b 1e3d
00000390: c71b 2dbd ca8e 37bd 8228 4fbc ced6 10bc
000003a0: e40c 7ebd ab55 323d 2e62 263d ffaf 473d
000003b0: 00bb 70bd 9fbf 7fbd f711 6dbc 7a9c 0a3d
000003c0: 84fb bebc 7fe8 c9bc 150d 3ebd e36e f43c
000003d0: ddec 6e3c 9342 08bd 25aa 80bc 11e5 533d
000003e0: 5cc2 373d 0355 183d 6ece afbb 7add 5bbd
000003f0: 7c42 1abd 0709 5fbd 2e4d 913c 1d75 43bd

bias f4 [256]
0.036257118 -0.046935037 0.007790737 -0.047511376 -0.0033113423 0.03452705 -0.023477316 -0.022992052
0.027094565 -0.033335112 0.05001106 0.026733294 0.003214977 0.041537337 -0.037521586 0.017729804
0.019580305 0.028026968 0.039314345 0.038005464 0.01649464 -0.029033102 0.034004122 -0.043426014
0.011821702 0.0006261848 0.023949951 -0.040705495 0.006475419 0.018320538 -0.058416665 -0.029194154
0.0052381004 0.036341496 -0.0018414713 0.03814687 -0.026074544 -0.008599363 -0.0109205395 -0.038060233
-0.050193563 -0.001482211 0.06016031 0.04335416 -0.022127502 -0.0035766503 0.0061833933 0.028559074
-0.036287345 -0.032513455 0.05030661 -0.0054338053 0.023062631 -0.024098925 -0.035060726 0.03782949
0.042569235 0.04644067 -0.01006189 -0.042782433 -0.051988028 0.038917243 -0.06050262 -0.055534318
-0.023320556 0.04864133 -0.036139645 0.01912687 -0.033486776 0.013368212 0.04350692 0.051875606
0.029597089 0.0099722445 -0.037500717 0.012136988 0.023321472 0.04805044 -0.050480284 -0.019003816
-0.007727362 -0.027677074 0.0513201 0.034019418 -0.027426764 0.020776235 0.044835843 -0.051625542
0.056752943 0.032992475 0.026064374 -0.009188995 0.022312239 0.059623428 0.029984504 -0.022034451
-0.009797916 -0.06137617 0.04185278 0.014947966 0.026427649 0.05746592 0.012971468 0.052604504
-0.030046664 0.045924112 -0.051726766 0.045307912 -0.024137989 0.0017460436 -0.005718261 -0.0016000121
0.032955915 -0.013855495 0.028519623 0.029147863 -0.028998882 0.026090167 -0.0459719 -0.057128616
-0.04451233 -0.04799796 0.037471816 0.060004212 0.041989245 0.039861865 -0.0027656865 -0.025453992
0.029704973 0.01989393 -0.05283507 -0.00013042874 -0.019716702 -0.007411532 0.02716592 -0.028392121
0.023778558 -0.03069894 0.06061662 -0.028231643 0.0018672347 -0.05090189 0.02423212 0.056667782
-0.04931142 0.015429072 0.058630705 -0.045830302 0.007464467 -0.017404057 0.03684812 -0.037494205
0.059301563 -0.010716535 0.019854225 0.020710133 -0.04939808 0.013242095 0.013581313 0.053548433
-0.0072282627 -0.053953163 -0.05549998 -0.028138123 -0.013181999 0.044410028 -0.052188978 0.032606
-0.014094591 0.003639154 -0.040428035 -0.0034098998 -0.01442045 -0.013566501 0.03994053 0.0101656765
-0.012920469 0.055134058 0.028382853 -0.020056821 -0.014949739 -0.0072070807 -0.002440311 -0.05058319
0.047034025 -0.027269527 0.061379276 -0.03446517 -0.034053005 0.048252024 -0.02127079 -0.0088509545
-0.005119972 0.002883747 -0.059549622 -0.05233428 -0.016961604 -0.030384079 0.0555968 -0.029818758
-0.030071914 0.027246423 0.01159624 -0.028656088 0.04910916 0.03687609 -0.011738673 -0.016257621
-0.0068023577 -0.060109213 0.020162731 0.035600156 -0.03508742 0.033432372 0.018504933 -0.0039185807
0.017342642 -0.04497263 0.026712492 -0.060963765 -0.0578549 0.0077968985 -0.04872407 0.04119063
-0.027999096 -0.04300292 -0.017683104 -0.051073834 0.027434781 -0.050701365 0.040767476 0.010681383
0.004842475 -0.0049646944 0.023307629 0.059417598 -0.05780697 0.007534109 0.05873639 -0.04726301
0.022009157 0.048004687 0.05639433 -0.057214715 0.015503809 0.042617112 0.033863537 -0.011874355
0.012997344 0.053981423 0.04137785 -0.06076976 0.010463044 0.05975361 -0.029667176 0.055232905
00000000: 5882 143d f43e 40bd 7049 ff3b 4a9b 42bd
00000010: 1b03 59bb 3c6c 0d3d 8053 c0bc d459 bcbc
00000020: 6cf5 dd3c 668a 08bd 66d8 4c3d c8ff da3c
00000030: 5db2 523b 0e23 2a3d 3cb0 19bd 183e 913c
00000040: e066 a03c d098 e53c 1408 213d 9eab 1b3d
00000050: c41f 873c d4d6 edbc e847 0b3d 7adf 31bd
00000060: d0af 413c 8d26 243a b032 c43c ceba 26bd
00000070: c02f d43b f414 963c 5046 6fbd 9428 efbc
00000080: 5fa4 ab3b d2da 143d 865d f1ba e43f 1c3d
00000090: 489a d5bc 58e4 0cbc 10ec 32bc 0ce5 1bbd
000000a0: c497 4dbd c046 c2ba a86a 763d 2294 313d
000000b0: bc44 b5bc 3c66 6abb 109e ca3b b8f4 e93c
000000c0: 0aa2 14bd d42c 05bd 4e0e 4e3d 100e b2bb
000000d0: d8ed bc3c 1c6b c5bc d69b 0fbd 18f3 1a3d
000000e0: 145d 2e3d 9238 3e3d a0da 24bc a23c 2fbd
000000f0: 66f1 54bd b067 1f3d 98d1 77bd f477 63bd
00000100: c00a bfbc 223c 473d 2a07 14bd f4af 9c3c
00000110: 6e29 09bd 5806 5b3c 5034 323d 847b 543d
00000120: 9875 f23c a062 233c 5a9a 19bd 38da 463c
00000130: ac0c bf3c 8ad0 443d 6ac4 4ebd e4ad 9bbc
00000140: d035 fdbb 08bb e2bc 0635 523d f257 0b3d
00000150: 18ae e0bc ec32 aa3c caa5 373d 4e75 53bd
00000160: c675 683d 1e23 073d f484 d53c 708d 16bc
00000170: 28c8 b63c b237 743d 10a2 f53c 9881 b4bc
00000180: 7087 20bc 9465 7bbd d26d 2b3d 50e8 743c
00000190: cc7e d83c 6261 6b3d 4886 543c d277 573d
000001a0: 6c24 f6bc ec1a 3c3d 72df 53bd ca94 393d
000001b0: 08bd c5bc 80db e43a 4060 bbbb 7fb7 d1ba
000001c0: c8fc 063d 2802 63bc fca1 e93c 80c7 ee3c
000001d0: 108f edbc 0cbb d53c 084d 3cbd b2ff 69bd
000001e0: 9052 36bd 8299 44bd 0c7c 193d fac6 753d
000001f0: eafc 2b3d 3246 233d 8540 35bb e484 d0bc
00000200: d857 f33c 98f8 a23c 9669 58bd b3c3 08b9
00000210: ec84 a1bc 70dc f2bb 108b de3c 9896 e8bc
00000220: 40cb c23c 587c fbbc 2249 783d 0c46 e7bc
00000230: 00be f43a 807e 50bd 7082 c63c 7a1c 683d
00000240: c6fa 49bd 38ca 7c3c c026 703d 8eb8 3bbd
00000250: 7d98 f43b f492 8ebc 0eee 163d 8693 19bd
00000260: 32e6 723d 6894 2fbc 54a5 a23c 4ca8 a93c
00000270: a455 4abd 5ff5 583c 2884 5e3c 9a55 5b3d
00000280: 10db ecbb fefd 5cbd f253 63bd ec81 e6bc
00000290: 50f9 57bc 4ae7 353d 1cc4 55bd de8d 053d
000002a0: 00ed 66bc df7e 6e3b de97 25bd a078 5fbb
000002b0: c043 6cbc 0846 5ebc ae98 233d f08d 263c
000002c0: 60b0 53bc 40d4 613d 2883 e83c 344e a4bc
000002d0: c0ef 74bc 6029 ecbb a0ed 1fbb 5230 4fbd
000002e0: c0a6 403d 5864 dfbc d668 7b3d 5a2b 0dbd
000002f0: 2a7b 0bbd eaa3 453d 1440 aebc 9803 11bc
00000300: 70c5 a7bb 3ffd 3c3b 4eea 73bd 785c 56bd
00000310: 10f3 8abc 08e8 f8bc 78b9 633d 7846 f4bc
00000320: 6059 f6bc e433 df3c 28fe 3d3c 2cc0 eabc
00000330: b026 493d 620b 173d 9053 40bc b42e 85bc
00000340: 50e6 debb 1435 76bd 502c a53c 78d1 113d
00000350: d4b7 0fbd 62f0 083d a897 973c 7067 80bb
00000360: 2812 8e3c 3835 38bd 28d4 da3c 24b5 79bd
00000370: 42f9 6cbd 207d ff3b e492 47bd 82b7 283d
00000380: 5c5e e5bc d423 30bd 28dc 90bc cc32 51bd
00000390: e8be e03c 3cac 4fbd ccfb 263d f800 2f3c
000003a0: a0ad 9e3b e0ae a2bb a4ef be3c de5f 733d
000003b0: 00c7 6cbd b0e0 f63b 9295 703d dc96 41bd
000003c0: 8c4c b43c 90a0 443d befd 663d fa59 6abd
000003d0: b003 7e3c 488f 2e3d 7eb4 0a3d a88c 42bc
000003e0: d0f2 543c a01b 5d3d d27b 293d b6e9 78bd
000003f0: 306d 2b3c 34c0 743d 9408 f3bc e63b 623d
