Predict/storage/MLP_256_200_SGD_11/trained_14.pt (torch, 339061 bytes, 13 tensors)

weight f4 [256, 58]
00000000: 7c68 81bd 8ebc a13d 9d6b d03d 965f b33d
00000010: 49c8 57bd e30c dc3d 5d57 533d c9c5 88bd
00000020: c40c a03d b08f f4bc 99e3 f6bc 5a64 de3d
00000030: 4ae5 0dbd 8768 ef3d 8850 583d 6f58 ffbc
00000040: c84c dfbd 5c14 e5bd 3464 abbb 3ec7 a4bd
00000050: 9554 d1bd 28c8 f0bd 8f0d 363d 78d2 b9bd
00000060: 2245 d33d 4fb0 44bc b40e 603d 2960 6bbd
00000070: 6191 f93d 8dfa 343d f86b ea3c 1cbd 20bd
00000080: 5c72 043e 020f 4cbd 9a04 dbbd 2320 04be
00000090: 4ea8 e9bd c932 babd 62c2 c13d 0598 d8bd
000000a0: d637 9bbc b7a8 013e b33b 1bbd fe61 773c
000000b0: 46b6 903d c84d dabc 685e 19bd b3db fb3c
000000c0: 2c3f 98bd ba1c ab3d d9d8 c9bd ce69 89bd
000000d0: c1b7 d8bd 9790 7b3d 5d10 83bb 91b5 f4bd
000000e0: 5a34 b13d e0ac ad3d 3b5f b1bd 4afa fe3b
000000f0: cc74 bcbc 66ff 92bb 6f9f 9b3c 1949 fcbd
00000100: 45a2 8b3d 7046 f7bd ac27 97bd 931f 8b3d
00000110: 9653 ec3d 4c3a a53d 5eb0 e23d 3beb 58bd
00000120: 6e52 1cbd 01d9 cd3c 1db8 eabd 3256 ecbd
00000130: 104f c33d 515c ddbd 3247 02be 42b6 53bd
00000140: e50e 51bd 44b3 80bd e050 d33d 8b7d df3d
00000150: dc93 0dbd 7131 403d 0355 f5bc 3dc1 b93c
00000160: 3e05 aabd 61c0 d83c fe05 a1bb 9d27 9cbd
00000170: b5ac a03c 63ff 803c e2dd bcbd f716 cdbd
00000180: 07e5 e43d 7a7e 88bc 9439 873d ca75 783b
00000190: 8e1f 4abd f321 013d fdcd 193d deb0 01be
000001a0: 3d4d 853b c99f ce3d bb9c 273d 6773 053e
000001b0: 8f14 b23d 19c8 ddbd bafd aa3a 394a e63d
000001c0: dcfc 93bd d197 843d 3084 9c3c 0ebd 9c3d
000001d0: 3d8c 69bb f6d2 b1bd 339c a9ba 3c15 39bd
000001e0: 340a b63d 1954 193c d2ec 65bd 2408 5a3d
000001f0: 3426 f8bd e66f cbbd 5eff 263d 8908 8bbd
00000200: 7261 06bd affe 0b3d 33d2 5c3c 3a91 b7bd
00000210: c4d2 b9bd 879e ea3d 3842 fb3c 99e2 dfbd
00000220: 9baf b13d f8c3 6bbd 2bab 813d 433a b63d
00000230: f551 97bd d5fa 3c3c 66ea 47bc 22f8 a2bd
00000240: e6bf 5b3d e9b8 9fba 6d2e feba d466 b8bd
00000250: 81a1 b13c c567 c03d 992b 5c3c 974f 69bd
00000260: ec7f 3bbd de42 823d 45be cabd 5bc9 613d
00000270: c903 b5bc c7b8 d03d b597 36bd 6b97 05be
00000280: 1d40 b03d 36e8 bb3d 1f1a fe3d 65a1 97bd
00000290: cc72 c3bd 9f42 aabd 9f42 343d 4572 fdbd
000002a0: 61fd ccbd 0c2d 04be 7fb8 4bbd aca3 c2bd
000002b0: 51c1 3ebd 4f5d f1bd 5dac f2bd 5fe2 1cbd
000002c0: b113 213d 75cf 973d cc69 bf3d ba96 71bd
000002d0: 79ab 723d 7214 633c 70ae 453c 1781 633d
000002e0: a213 9abd 89b6 53bd c5fd 35bd 2eb0 04be
000002f0: e111 4f3d 6121 623d 7b77 523c 20d6 e8bd
00000300: c7bd b3bd b231 833d bf08 39bd 23d0 e1bd
00000310: 35c7 56bd 97b3 96bd 65a1 6b3d 4850 0fbd
00000320: fb7b cebd c16c 55bd 7886 20bd 43e4 943c
00000330: e229 a23d 723f a6bd 352b bfbd f22a 3a3d
00000340: ced2 3abd 2761 c03d 5ee8 ce3d ae04 a43d
00000350: 234a 5dbd e505 e63d 1b55 e03d 99da 97bd
00000360: 0463 003e 3934 f83d ead6 50bc 9f84 cebd
00000370: d5d4 253d 0362 55bd fd3e f3bc b581 f6bd
00000380: f1e1 603d c8af dcbc 23d3 9b3d ed33 023e
00000390: 0ad3 623d 7e6e 2a3d 6d02 9ebd 2e02 27bd
000003a0: 55be 96bd b3e5 c6bd 1d96 c3bc 956d 79bd
000003b0: da4a 033e 2677 88bc 5df9 1b3d c52b 953d
000003c0: fdd2 afbd 9233 85bd 8251 84bd 76be 85bd
000003d0: e3e8 e93d 362c 823d 1606 9e3d 5abe b83c
000003e0: 4955 a2bd e145 f63d 02f5 043d 01dd aa3c
000003f0: 998f e1bd b649 893d 9620 9fbd a39f a93c
-0.06318757 0.07897292 0.101767756 0.08758466 -0.05268124 0.107446454 0.051596988 -0.066783495
0.07814935 -0.029853672 -0.030137824 0.10858984 -0.034642495 0.11689859 0.052811176 -0.031170098
-0.10903317 -0.11185524 -0.005230451 -0.08045815 -0.10221211 -0.11756927 0.044446524 -0.09073347
0.103159204 -0.012004926 0.054701522 -0.057464752 0.12185932 0.044184256 0.028615937 -0.03924285
0.1293425 -0.049819 -0.10694237 -0.12902884 -0.11409055 -0.09091718 0.09460904 -0.105758704
-0.018947523 0.12662016 -0.03789873 0.015099047 0.07066016 -0.026648417 -0.03744355 0.03074441
-0.07433924 0.083550885 -0.098558135 -0.06709634 -0.10581923 0.06141719 -0.0039997534 -0.119486935
0.086525634 0.08480239 -0.08660742 0.0077813016 -0.023004912 -0.0044860123 0.018996922 -0.1231863
0.0681806 -0.12073982 -0.07380614 0.06793132 0.1153938 0.0806776 0.110687956 -0.05295871
-0.03816455 0.02512789 -0.11460898 -0.11539878 0.09536564 -0.108086236 -0.12722471 -0.051687486
-0.051039595 -0.06284192 0.1031816 0.10912617 -0.034564838 0.04692215 -0.029947763 0.022675151
-0.08301781 0.02645892 -0.0049140444 -0.07624743 0.019613603 0.015746778 -0.09222008 -0.10014146
0.11176496 -0.016661871 0.06602779 0.0037912005 -0.0493465 0.031526517 0.03754996 -0.12665126
0.0040680454 0.1008907 0.040920954 0.13032304 0.086953275 -0.10829181 0.0013045587 0.112446256
-0.072259635 0.06474269 0.019106 0.07653247 -0.0035636567 -0.08682816 -0.0012940228 -0.045186266
0.08888665 0.009358429 -0.056134053 0.05323042 -0.12116662 -0.09933452 0.04077088 -0.06788737
-0.032807775 0.034178432 0.01347785 -0.08963247 -0.090734035 0.11456018 0.030671224 -0.10931892
0.08676072 -0.057559937 0.06331476 0.08897831 -0.07388679 0.011534412 -0.012201881 -0.07957484
0.053649805 -0.0012185845 -0.0019392498 -0.09003988 0.021683456 0.093947925 0.013438129 -0.05696067
-0.045776293 0.0636041 -0.09899572 0.05512367 -0.022096531 0.101914935 -0.044578273 -0.13046043
0.08605979 0.0917515 0.12407326 -0.074038304 -0.0954338 -0.08313488 0.044008847 -0.12375311
-0.10009266 -0.12907809 -0.049736496 -0.09503874 -0.04657108 -0.11785375 -0.11849282 -0.03830182
0.03932542 0.07412616 0.09346351 -0.058981635 0.05924556 0.013859855 0.012065515 0.05554303
-0.07523276 -0.05168775 -0.044431467 -0.12957832 0.05055416 0.055207614 0.012845869 -0.11368966
-0.087764315 0.06405963 -0.045174357 -0.11026027 -0.052436072 -0.07358473 0.057526965 -0.03498867
-0.10082241 -0.05210567 -0.03919074 0.01817525 0.07918145 -0.0811757 -0.09334413 0.045451112
-0.045611195 0.0939353 0.10102914 0.08008705 -0.05402578 0.11231593 0.109537326 -0.07414741
0.12537771 0.12119336 -0.012746552 -0.10083889 0.040486176 -0.052095424 -0.029693121 -0.120364584
0.054902975 -0.026939288 0.076086305 0.1271512 0.055377044 0.04160928 -0.077153064 -0.040773563
-0.07360522 -0.097117804 -0.02387529 -0.06089552 0.12821522 -0.016658377 0.03807961 0.07283739
-0.08585165 -0.06503977 -0.06460859 -0.06530468 0.11421373 0.06356089 0.077160046 0.022551704
-0.07926423 0.12025047 0.03246022 0.020857336 -0.11013717 0.06703512 -0.07769887 0.020706004

bias f4 [256]
00000000: 0403 993d 5198 573d 24f6 493d 3b03 283d
00000010: 6c73 a4bd e8eb f53d 1cfc e93b 8b7c 39bd
00000020: a177 c8bd 8b24 f43d 66ab c1bd 0b00 d0bc
00000030: 7739 a13d 7dfb 71bd d112 d7bc 80b7 b5bd
00000040: 948d b2bd a47d d83d 643f f3bd f3bc 5dbc
00000050: 59a1 1a3c 6f91 f13d fa74 c3bc eec4 c73d
00000060: 5a42 2abd 8b51 a9bd f2db ebbd edd6 9abd
00000070: c685 9f3d 578e a3bb 931c babd f585 f43d
00000080: 1e0e 2e3c 76fc 18bd c3df cfbc 0bc3 993a
00000090: b346 36bc 1b24 573c a278 053e 46bc 50bd
000000a0: 06dc ae3d 55e1 053e e827 22bd a54d fcbd
000000b0: 484d eb3d 1874 793a f1a4 9fbd 7aa1 00be
000000c0: 7c57 8dbd efaf f5bd 3a98 653d 85e1 4c3d
000000d0: 7c6e 2c3d 3f8f 98bd 6fc2 8c3d c6eb f1bd
000000e0: 87a1 f23c 07bd e8ba 5869 713c b1c2 93bd
000000f0: 5e68 a0bd 874d 34bd 955c 163d 0c20 483d
00000100: 9924 8cbd 8ab0 443d 5be9 dcbd 04e5 13bd
00000110: a718 e63d 7d6d 00be fbc0 17bd dd3c de3d
00000120: a352 62bc fa61 bc3d 11ee d3bd cd06 993d
00000130: 62d6 ca3a 59b2 423d c279 dfbc 5f69 ca3d
00000140: 260e 043e 1ff4 bf3b 179d dcbd f714 19bd
00000150: 77b7 4f3d 4f15 c13d c4fc dbbd 12ef f5bb
00000160: 04fd e83d 4f4c a9bd 5fbb 9fbd 34af f53d
00000170: 91a5 d93d 38d2 623d 4468 513d 4170 cabc
00000180: 674e b8bd 2c9d 01be 67a2 ef3d 2256 d03d
00000190: 4e00 793d e1e0 7e3d 36d0 22bc 79f4 95bd
000001a0: dfc1 c5bd c12f f0bd e82a eebd cb0b c33d
000001b0: 810f afbd 474f 8db9 3663 163d 0161 6a3d
000001c0: e017 b43d 9257 f0ba 31e8 cc3b 8400 53bc
000001d0: 2899 233d e694 e4bb 5f5c 61bd a2a5 7b3d
000001e0: 95eb 563d b9b7 78bd e573 c93d 1858 5e3d
000001f0: 028c 9a3c fbe6 503d c84d babd 16b9 9c3d
00000200: b720 f6bd 0e66 a7bd 2a50 82bd 1ce6 d0bd
00000210: 6c63 853d d339 1c3d ccc7 01bd b488 583d
00000220: 6f81 d8bd d057 1bbd 5981 283d 4f88 c13d
00000230: 5749 933d 034e e6bd 3579 b2bd e59c b5bd
00000240: 204e d63d 07bb 963c efb6 adbd 518a af3d
00000250: c8fb 8cbd 730f b6bd 62b1 903c 490b 823d
00000260: 8888 86bc 0af0 b2bd 84f9 b83d c852 f4bd
00000270: 7ed0 5bbc 33a5 b13c 2e10 8cbd 971b 3b3d
00000280: 9687 eebc b4ef 4bbd e099 af3c bdc1 b23d
00000290: 63b4 edbd 666d 373c 8e9e 383d 16a2 043e
000002a0: f856 95bd a9af 1a3d 135f af3d b62f 00be
000002b0: 0535 c6bd dc66 9d3d d25e afbc a7db e93d
000002c0: 56a4 ab3d afa1 b3bd 2242 f23d 240b 45bd
000002d0: 1b24 85bd 2a6d 26bd 7ba8 1d3d 31ce f03d
000002e0: 9d30 e73d 36af b1bd 2bf9 803c 4a97 f9bd
000002f0: d4e5 b8bd 80b6 e43d 7212 8f3d 1af5 dabd
00000300: 344c d9bd 59f3 8abd ec72 d83b 589e adbc
00000310: 4914 8a3d 2f80 f8bd b96d 7c3c ccbb ac3a
00000320: 8852 c4bd abff ca3d 3831 bd3d bdc6 5c3d
00000330: 17ab fe3d a057 b43d 322c f83c d0dc edbd
00000340: b161 4cbd 4c07 5b3d 3f7c 1d3c e337 603c
00000350: 066d a13b 671c 343d b3c2 e83c 4c03 94bd
00000360: aac5 3b3d 2dce cd3d b1e9 0a3d 2fa4 3a3c
00000370: 1f2f 9ebd ade1 c3bd 4e86 6dbd 1643 a93d
00000380: 4ed8 91bd 7848 d5bc 93e0 483d 0070 1f3d
00000390: 65d3 aa3d 92fc 023e 9495 3f3c 96b6 f6bd
000003a0: 9529 c43d 3336 523b ace3 afbd ba1b ec3d
000003b0: 047c c1bd b9aa 84bd a3a9 e33d 7ab8 653b
000003c0: 8bef e63c b18b 01bd 5383 b63c 6969 b7bc
000003d0: e261 e53c 5256 1abd ad88 2e3d fe50 d2bc
000003e0: 5344 c1bd 875b b0bd 4e05 7bbc 382f ce3b
000003f0: 777f c33d 895b 80bd ecda 08bd 54ee 18bd
0.07471278 0.052635495 0.049307004 0.041018706 -0.080298275 0.12007886 0.0071406495 -0.04528479
-0.097884424 0.119210325 -0.0945652 -0.025390645 0.07872289 -0.05907773 -0.02625409 -0.088728905
-0.0871841 0.10570839 -0.11877325 -0.013533819 0.009437882 0.117953174 -0.02385949 0.09754358
-0.041567184 -0.08267506 -0.115165606 -0.07560525 0.07789187 -0.0049913335 -0.09087481 0.11939613
0.010623483 -0.03735014 -0.025375253 0.0011731101 -0.011125254 0.013131167 0.13034299 -0.0509608
0.0853806 0.13074239 -0.03958884 -0.12319497 0.114893496 0.00095158955 -0.07795132 -0.12561598
-0.06901452 -0.11996447 0.056053378 0.05001976 0.042097554 -0.07449197 0.06873023 -0.11812548
0.029618038 -0.001775653 0.014734589 -0.07214869 -0.078324065 -0.04401925 0.036709387 0.048858687
-0.06842918 0.048019923 -0.107866965 -0.03610708 0.11235171 -0.12541766 -0.037049275 0.108514525
-0.013813647 0.09198375 -0.10348142 0.07472 0.0015475268 0.047533367 -0.027279738 0.09883379
0.12896022 0.005857959 -0.1077215 -0.03737351 0.050712075 0.094278924 -0.107415706 -0.007505306
0.11376384 -0.08266508 -0.0779941 0.11996308 0.106272824 0.05537626 0.051124826 -0.02471173
-0.08999329 -0.12657613 0.11700898 0.101726785 0.060791306 0.06222618 -0.009937337 -0.0732202
-0.096561186 -0.11727858 -0.116292775 0.09523734 -0.08547879 -0.00026952682 0.03671571 0.057221416
0.08793616 -0.0018336645 0.0062532653 -0.012878541 0.039940983 -0.006975758 -0.055019733 0.061437257
0.052470762 -0.060722087 0.09836558 0.05428323 0.018865589 0.05100153 -0.09096867 0.0765249
-0.120179586 -0.08173762 -0.06362946 -0.1020014 0.06513104 0.038141083 -0.03168468 0.052864745
-0.105715625 -0.03792554 0.04113898 0.09449827 0.07191723 -0.11245348 -0.08714525 -0.08867816
0.1046412 0.018399728 -0.084821574 0.08571304 -0.06883961 -0.088896655 0.017662708 0.06349809
-0.016422525 -0.0873719 0.09031966 -0.11929852 -0.013416408 0.021685218 -0.068390235 0.04568061
-0.029117387 -0.049789146 0.021435678 0.08728359 -0.11606672 0.011195516 0.045073085 0.12952456
-0.072919786 0.03776518 0.08563056 -0.125182 -0.096780814 0.076856345 -0.021407519 0.114188485
0.08380954 -0.08771073 0.1182902 -0.048106328 -0.06501027 -0.04063145 0.038490754 0.11758078
0.11288569 -0.08675997 0.015743813 -0.12187059 -0.09028211 0.111676216 0.0698594 -0.10691281
-0.10610238 -0.06784696 0.0066054966 -0.021193668 0.0674215 -0.12133824 0.015407019 0.0013178526
-0.09586054 0.09912046 0.09237903 0.05390047 0.124349765 0.08805776 0.030294511 -0.11614382
-0.049897853 0.053473756 0.009612142 0.013685199 0.0049263267 0.0439724 0.028413152 -0.07227191
0.045842804 0.100490905 0.03391427 0.0113916835 -0.077238314 -0.095645286 -0.05798941 0.08264749
-0.07121335 -0.026035532 0.049042296 0.03892517 0.083411016 0.1279166 0.011693377 -0.12046544
0.09578244 0.0032075762 -0.08588347 0.11528726 -0.09447482 -0.06477875 0.1111634 0.0035052584
0.028190395 -0.03162736 0.022279417 -0.02238913 0.028000776 -0.037679978 0.042610813 -0.025673386
-0.0943686 -0.086112075 -0.015321089 0.00629225 0.09545796 -0.06267459 -0.033411905 -0.037336662

weight f4 [256]
00000000: 1d77 7f3f 415d 803f e645 803f 8ad2 7e3f
00000010: 701e 803f 0952 7f3f aae3 803f 3d52 803f
00000020: f657 803f b561 803f 2067 7e3f f645 7f3f
00000030: abd3 7e3f ee11 803f 4cad 803f 7c7b 803f
00000040: 6401 803f 651e 803f 3f0f 803f 7320 803f
00000050: 8fa9 803f 810a 803f 53f8 7e3f 07ab 7f3f
00000060: a2c3 7d3f 6b4f 803f c956 803f 0f8c 7f3f
00000070: 9c09 803f d4d9 7e3f 615d 803f 3f16 803f
00000080: 042c 7f3f cb4c 7f3f f71a 7f3f 87ff 7f3f
00000090: 321d 803f 0348 803f dc98 7f3f 4bd9 7f3f
000000a0: c5a8 7f3f b01c 803f d92b 803f e935 803f
000000b0: faaa 7e3f 2f64 803f ffcb 7e3f 0514 803f
000000c0: eb2e 803f bcce 7e3f 9504 7f3f fd06 803f
000000d0: ac43 803f bb9f 7f3f a889 7f3f 5a32 803f
000000e0: 4308 803f 011c 813f aa4e 7f3f 91f6 7f3f
000000f0: e43f 7f3f 433a 803f 8541 803f 7d48 803f
00000100: 6ed5 7e3f 29ab 7f3f fa17 803f 84d6 7f3f
00000110: 3f66 803f 9a06 7f3f 7aed 7e3f 62da 7f3f
00000120: d021 803f 592d 803f e213 803f b83b 803f
00000130: d008 7f3f fc61 803f b50d 803f 7e42 803f
00000140: 8608 803f 9974 7e3f d739 803f 813b 803f
00000150: 9419 803f a83a 803f 685b 803f 1116 803f
00000160: e113 803f b595 803f 4b3d 7f3f 1e1c 803f
00000170: eddf 7f3f 7992 7f3f a145 803f c309 803f
00000180: 02bf 7f3f d8e3 7f3f 780d 803f 3917 813f
00000190: e708 803f cd47 803f 8278 7f3f 61ff 7e3f
000001a0: 2443 803f d662 7f3f 5ffd 7e3f 94b8 803f
000001b0: a7de 7e3f ec20 7e3f 980a 803f f5c4 7f3f
000001c0: 7356 7f3f 8d50 803f 0049 803f 68cf 7f3f
000001d0: 6331 803f adca 7f3f 739a 7e3f 242d 7f3f
000001e0: b13c 803f 1c7f 7f3f cbc4 7f3f b311 803f
000001f0: e529 803f 0400 803f 0303 803f 9233 803f
00000200: 380e 7f3f 6b34 803f de72 7f3f a412 7e3f
00000210: de09 803f 5595 7e3f 7a42 803f 1363 7f3f
00000220: d916 803f e273 7f3f 4f32 803f 8edf 7f3f
00000230: 26e6 7f3f 844c 803f 634e 7f3f 4ef9 7f3f
00000240: d880 7e3f 49a7 7f3f cc19 803f 2641 803f
00000250: 5929 803f 1fb0 7f3f fa16 803f a814 803f
00000260: 9f30 803f dbce 7f3f 145d 803f 9855 803f
00000270: 1c0f 803f 915a 7f3f f015 803f 1977 803f
00000280: 4d71 813f 4187 7e3f 6a7e 7f3f 486c 7e3f
00000290: da34 7f3f e77d 7f3f d484 803f bf94 7e3f
000002a0: 3b83 803f e7bc 7f3f ed3b 803f 2130 803f
000002b0: db32 803f a5ee 7e3f 03e5 7e3f 372b 803f
000002c0: ffd2 803f f457 803f f858 803f 2e1f 803f
000002d0: 430f 803f 33a0 7f3f d605 803f 8a21 803f
000002e0: 3fa9 7f3f ae51 803f e8c6 7f3f ab8a 7f3f
000002f0: 9c4c 803f 6e0a 803f 4293 7f3f ca8b 803f
00000300: b8c9 7e3f e032 803f aa05 7f3f 09ea 7f3f
00000310: 353a 803f 211b 803f 121f 803f 4be6 7e3f
00000320: 6014 803f e157 823f d399 7f3f b14f 803f
00000330: 1325 803f 1956 803f 6de7 7d3f 102e 7f3f
00000340: 7b6c 813f eecb 803f c440 803f 091e 803f
00000350: 5837 803f 721a 803f f440 803f 3564 803f
00000360: a26d 803f e001 803f 7801 803f 92f2 7f3f
00000370: 1320 803f 6a1b 7f3f fa8b 7f3f e792 7f3f
00000380: a29d 7f3f 3abd 7f3f 2571 7e3f 2ddf 7e3f
00000390: 15f2 7e3f 795d 803f 5695 7f3f 9da2 7f3f
000003a0: a86c 803f 220c 803f 275b 7f3f 87f2 7e3f
000003b0: 1d21 803f e2eb 7f3f 1424 803f 072c 803f
000003c0: e2f6 7e3f 4288 7f3f aee2 7f3f ca25 7e3f
000003d0: b003 803f d8db 7f3f 3629 803f a9c1 803f
000003e0: 9b60 803f 278f 7f3f 3a2c 803f 2621 803f
000003f0: ec26 803f 48aa 7f3f 5cb8 7f3f 4a4d 803f
0.9979113 1.0028459 1.0021331 0.9954001 1.0009289 0.9973455 1.0069478 1.0025097
1.0026844 1.0029818 0.99376106 0.99716127 0.9954173 1.0005472 1.0052886 1.0037684
1.0000424 1.0009276 1.0004653 1.0009903 1.0051745 1.0003206 0.9959766 0.9987034
0.99126637 1.0024236 1.0026485 0.9982309 1.0002933 0.9955113 1.0028497 1.0006789
0.9967654 0.9972655 0.9965052 0.9999928 1.000891 1.0021976 0.9984262 0.9994094
0.99866897 1.0008755 1.0013381 1.0016452 0.9947964 1.0030574 0.99530023 1.000611
1.0014318 0.995342 0.99616367 1.0002133 1.0020652 0.99853104 0.9981942 1.0015366
1.0002521 1.0086671 0.99729407 0.99985605 0.99706864 1.001778 1.0019995 1.0022122
0.9954442 0.99870545 1.0007317 0.999367 1.0031203 0.9961945 0.9958111 0.999426
1.0010319 1.0013839 1.0006068 1.0018225 0.9962282 1.0029902 1.0004183 1.0020292
1.0002601 0.99396664 1.0017651 1.0018159 1.0007806 1.00179 1.0027895 1.0006734
1.0006067 1.0045687 0.997029 1.0008581 0.9995106 0.99832875 1.0021249 1.0002979
0.9990083 0.99957037 1.000411 1.0085212 1.0002717 1.0021912 0.99793255 0.9960843
1.002049 0.99760187 0.99605364 1.0056329 0.9955849 0.99268985 1.0003233 0.9990991
0.99741286 1.0024582 1.0022278 0.9992585 1.0015072 0.99918634 0.9945442 0.99678254
1.0018522 0.9980333 0.9990966 1.0005401 1.0012785 1.0000005 1.0000919 1.0015738
0.9963107 1.0015997 0.9978465 0.99247193 1.0003011 0.9944661 1.0020287 0.9976055
1.0006973 0.997862 1.0015353 0.9995049 0.99960554 1.0023351 0.99728984 0.99989784
0.9941535 0.9986463 1.0007873 1.0019882 1.0012618 0.99878114 1.0007012 1.0006304
1.0014838 0.9992501 1.0028405 1.0026121 1.0004611 0.9974757 1.0006695 1.0036346
1.0112702 0.9942513 0.9980227 0.99383974 0.9969002 0.99801487 1.0040536 0.9944572
1.0040048 0.9989762 1.0018288 1.0014688 1.001552 0.9958289 0.99568194 1.0013188
1.0064391 1.0026841 1.0027151 1.0009515 1.0004658 0.9985382 1.0001781 1.0010235
0.99867624 1.0024927 0.9991288 0.99820966 1.0023379 1.0003183 0.9983407 1.004266
0.9952655 1.0015526 0.9961802 0.99966484 1.0017763 1.0008279 1.0009482 0.9957015
1.0006218 1.0183069 0.9984409 1.002432 1.0011314 1.0026275 0.9918125 0.9967966
1.0111231 1.0062234 1.0019765 1.0009166 1.001689 1.000807 1.0019822 1.0030581
1.0033457 1.0000572 1.0000448 0.9997951 1.0009788 0.99651206 0.9982296 0.9983353
0.99849904 0.9989811 0.99391395 0.9955929 0.9958814 1.0028526 0.99837244 0.99857503
1.0033159 1.0003703 0.9974846 0.9958882 1.0010105 0.99969304 1.001101 1.0013436
0.99595463 0.9981729 0.9995526 0.9927641 1.0001125 0.9994483 1.0012577 1.00591
1.0029482 0.9982781 1.0013497 1.0010116 1.0011878 0.99869204 0.99890685 1.0023587

bias f4 [256]
00000000: 34c5 cdba f6ce 2d3b 1b37 9c3a 3aa4 d83a
00000010: d4dc 453a d751 bf3a 046b 203b 3c21 203b
00000020: a9d7 e03a 0cae 443b dd1d 74bb dc2f 1c3b
00000030: 7240 9fba d27b 8439 f6c8 43ba 5fba c93b
00000040: a561 95ba 1e88 013b 3540 cdba 356e acba
00000050: 32d0 8c3b 84e3 973a 9b5e 3dbb 0e19 803a
00000060: fadc adba ec2d b43a d4d2 1f3b a782 76ba
00000070: cf7b adba a79f cd39 bc9b 113b f1f3 fdba
00000080: a6bf ef38 f10f dab9 f63f 9ab9 b406 383a
00000090: c676 b0ba 352d 60b9 9dce 02bb 5967 893a
000000a0: e648 5e3b 53f9 a23a 81ae ca3a 1726 13ba
000000b0: ee8c 3bba 14a4 6e3b a6fc afba 72c4 7e39
000000c0: 4b74 cc3a 38fd 2d3a 5682 493b 53ad 50b9
000000d0: 93ed af3b b2ff 663a 6948 dcba 3ab7 513a
000000e0: 84a5 163b 2c62 0a3b b85a f5b8 fa5b 0dbb
000000f0: 0c4c 9b3a 0d7f b43b 32a7 353b 45c8 073b
00000100: f965 50bb fb9f f43a 353e ce39 0166 213b
00000110: 021e c2ba a56a 683a 2e00 bb3a 915d 883a
00000120: ca7f 78ba edaa 38bb b2e9 de3a 3183 4a3b
00000130: 302a a8ba 4e1e d23a 46af 523b daaa b23a
00000140: d8ab f1ba 652d 9eba 4865 123b 94a3 3a3b
00000150: ee78 3cbb 3ec1 a5b7 486d 4a3b f6e4 8f3a
00000160: fc22 313a 3663 843b a8e9 4eba c399 7539
00000170: c865 16bb 7b75 efb9 7b52 56ba 9b8f 973a
00000180: af18 98ba afe0 ff3a de61 8e3a 2867 a13a
00000190: 641f 7438 0f9d cfba 3685 80bb 80af b4bb
000001a0: dd53 8e3b b04d 7d3b 5371 10ba cc80 8eba
000001b0: 4312 ad3a 1d8c e139 277c 683a 2298 2dbb
000001c0: 13f0 0739 119e 373b 1f2b 413a e80f 0ebb
000001d0: 7bdc 48ba 4e68 a3ba f2d3 d8ba 2f3d c8ba
000001e0: 1ffd 51ba c50d 06ba 0020 0fbb 4f4f 38ba
000001f0: 1fb8 d03a 1ab0 c33a bd8e b1ba 55fb 02b8
00000200: 1690 4eba bf5a 003b 8adb 263a d6b2 85ba
00000210: a27c 423a 1a1e 9db4 7237 243b 57ea 6dbb
00000220: ff57 15b9 04e0 193b 822a 4d3b 76a2 813a
00000230: 2b8d b43a 2e74 2c3b 45ec 2cbb 782e e6ba
00000240: f1de 01bb 1eef 08ba 2cc2 d6b9 5900 5039
00000250: 2743 c53a 7744 943a ed70 1a3b fc61 ca39
00000260: d02f fdb7 4ed5 d53a b0fc e43a 6735 983a
00000270: f234 d63a 8cd4 cd3a 9fb0 973a 9147 543b
00000280: 177a 663a b2eb 933a 3ab3 573a 0c14 a3bb
00000290: fa30 9438 f773 d8ba 4581 883b c3a9 a7ba
000002a0: 596d 863b 217a 6d3b 1a0e 193b b046 ad3a
000002b0: bed5 fe3a 15a5 8c38 671c 0d3b 1020 55b9
000002c0: 7a81 293b 9448 3bb9 5597 b33b 182e b43b
000002d0: b703 333b a4a1 37bb 44d6 d7ba cfaa 63b8
000002e0: a875 ca3a dd7b fc3a 0233 803a 868d 7c3a
000002f0: 8b2b 8f3b 0640 5d3a 56e2 b43a 4ad1 a5ba
00000300: 80f8 5bba 4e84 643b abc8 4b3a edc0 3c3b
00000310: e925 db39 e4ca c1ba 3314 19bb 4ef9 e1ba
00000320: d07c f1ba 3a3c 883b 65a8 0d3b 0998 0d3a
00000330: c8a4 2bba 221f 1e3b 1431 80ba f4fe 653a
00000340: 772b de3a 97b1 92b8 d20d 333b 057f 173b
00000350: fe58 3bbb e85c a13a 5617 4a3b 269f f43a
00000360: 19d0 ce3a bf75 023a 6bbb 383a 6e56 a93a
00000370: bb22 2a3a 2aac 25bb b216 c6ba 9f9a 0b3a
00000380: f331 f6b9 564d 0339 9cd8 8a3a 2f13 dd3a
00000390: 399c eeba ffd4 a13a 612d df3a 07ff 55ba
000003a0: 5283 b93a 8516 83ba 971a a03a 1a7d 23bb
000003b0: d9bb b53a 59f3 86bb 7f55 8f3a 7df6 683a
000003c0: 7bdd 1cbb 0bee afba 0b11 94ba d221 f6ba
000003d0: bf95 b53a 36bc ef39 2026 923a 9ed9 bd3a
000003e0: c56c 7a39 5c52 c9b8 a5ae aa3a 668d c6b9
000003f0: b20e afba 5f6d 613b 9650 60bb 56fb 0c3b
-0.001569903 0.0026521063 0.0011918278 0.0016528436 0.00075478596 0.0014596534 0.0024477849 0.0024433872
0.0017154115 0.0030010967 -0.0037249245 0.0023832237 -0.0012149944 0.00025269255 -0.0007468605 0.0061562504
-0.0011396898 0.001976497 -0.0015659394 -0.0013155403 0.0042972798 0.0011588191 -0.00288955 0.0009773092
-0.0013264709 0.0013746596 0.0024387138 -0.0009403624 -0.001323575 0.00039219597 0.002221807 -0.0019375068
0.000114321054 -0.00041592077 -0.00029420824 0.0007020042 -0.0013463132 -0.00021379146 -0.0019959577 0.001048307
0.0033917963 0.0012433924 0.0015463383 -0.0005613281 -0.0007154484 0.0036413716 -0.0013426736 0.00024296509
0.0015598623 0.0006637159 0.0030747852 -0.00019900994 0.005368897 0.0008811905 -0.0016806248 0.000800002
0.0022986839 0.0021115644 -0.00011699408 -0.0021569715 0.0011848225 0.0055083097 0.0027718064 0.0020718735
-0.0031799062 0.00186634 0.0003933773 0.002462745 -0.0014809968 0.0008865989 0.0014267021 0.0010403862
-0.0009479491 -0.0028178052 0.0017006902 0.003090095 -0.0012829956 0.001603076 0.0032147928 0.001363124
-0.0018438054 -0.0012067972 0.00223382 0.0028478848 -0.0028758603 -1.9759518e-05 0.003088789 0.001097827
0.0006757227 0.004040147 -0.0007893094 0.00023422301 -0.002294885 -0.00045673162 -0.00081757427 0.0011563184
-0.0011604036 0.0019521917 0.0010862907 0.0012314068 5.8203368e-05 -0.0015839654 -0.00392213 -0.0055140853
0.0043434934 0.0038651042 -0.00055100507 -0.0010872125 0.0013204295 0.00043019737 0.0008868598 -0.0026488383
0.00012964038 0.00280178 0.0007368791 -0.0021676961 -0.00076622487 -0.0012466998 -0.0016542657 -0.0015277023
-0.0008010435 -0.0005113746 -0.0021839142 -0.0007030861 0.0015924013 0.0014929802 -0.0013546568 -3.1228486e-05
-0.0007879747 0.001958534 0.00063651113 -0.0010200392 0.00074190844 -2.926543e-07 0.0025057462 -0.0036303008
-0.00014242528 0.002347947 0.0031305854 0.0009890336 0.0013774981 0.0026314366 -0.0026385945 -0.0017561456
-0.0019816721 -0.00052236195 -0.0004096193 0.00019836555 0.001504992 0.0011311908 0.0023565844 0.00038601446
-3.0182215e-05 0.001631418 0.0017470326 0.0011612595 0.0016342683 0.0015703603 0.0011573023 0.003239129
0.00087919965 0.0011285453 0.0008228306 -0.004976755 7.0663125e-05 -0.0016514052 0.0041658008 -0.0012791682
0.0041023907 0.0036236125 0.0023354352 0.0013219919 0.0019442362 6.706469e-05 0.0021531822 -0.00020325207
0.0025864528 -0.00017860747 0.0054806867 0.005498659 0.0027315447 -0.002801993 -0.0016467054 -5.4280095e-05
0.0015446441 0.0019262988 0.0009780827 0.0009634126 0.0043692044 0.0008440021 0.0013800364 -0.0012650874
-0.00083912164 0.0034868899 0.00077737373 0.0028801516 0.0004179918 -0.0014785198 -0.0023357987 -0.0017240436
-0.0018424038 0.00415757 0.0021615264 0.0005401378 -0.00065476866 0.0024127443 -0.0009780251 0.0008773648
0.0016950209 -6.994901e-05 0.002732147 0.002311648 -0.002858698 0.0012311013 0.0030836663 0.0018663153
0.0015778571 0.0004976652 0.00070469704 0.0012919435 0.00064901606 -0.002527962 -0.0015112965 0.00053254695
-0.0004695799 0.00012521943 0.0010593119 0.0016866679 -0.0018204517 0.0012346803 0.0017027074 -0.0008163307
0.0014153516 -0.0010001218 0.0012214956 -0.0024946393 0.0013865187 -0.004118365 0.0010935514 0.0008886827
-0.0023935724 -0.0013422383 -0.0011296583 -0.001877839 0.0013853832 0.0004572586 0.0011150278 0.0014484411
0.00023882378 -9.5997675e-05 0.0013022019 -0.00037870853 -0.001335582 0.0034397466 -0.003422772 0.0021512113

running_mean f4 [256]
00000000: e4b5 6c41 f990 80c3 371b 9243 7178 6ec3
00000010: 354f 6e43 4956 24c3 1afc fd43 44c3 6a43
00000020: 3762 a343 250d b043 b89f eac2 01a4 5cc2
00000030: bbba 30c3 b141 c8c2 d5e8 be43 df4f 63c3
00000040: 9764 d242 efc8 cb43 81bf 93c3 f57e 9743
00000050: 7827 b342 1c61 7fc1 7f05 5143 1b0e 3ec3
00000060: 1c47 47c3 a8bd 82c3 d499 6e43 6631 8d43
00000070: a593 1fc3 0479 b141 1721 8ec3 121c 3bc3
00000080: 1498 a03e 259c 97c3 9939 98c3 b2d2 92c1
00000090: d317 80c2 0878 4ac3 8d4c 0040 8523 7343
000000a0: 7396 97c3 8254 3942 d870 90c3 a08e b243
000000b0: 0496 4ec3 9c3d 4c42 c5a2 e1c2 addf c342
000000c0: 299e b743 57d9 80c3 bc27 6dc3 ffd0 1b42
000000d0: 8f2a 6fc3 581e 3842 797c 3943 eae1 72c3
000000e0: 74f2 9842 5582 a442 1cf4 d942 d5fa c943
000000f0: cc2a 8242 f708 a442 2511 cbc2 0649 5a43
00000100: 36e0 6cc3 0f3a 4441 74a3 0142 2d43 32c2
00000110: 4f5f 4043 7162 bbc1 f023 45c3 4566 1f43
00000120: 4576 5442 8acc 66c0 a664 05c3 e7d9 8443
00000130: b266 6d43 d161 4b43 37ce c7c1 6687 bfc2
00000140: 1d2d 4cc2 b460 1442 aaa9 8f43 5740 2043
00000150: f524 ca42 6b2e 3cc2 1b49 c742 df4b 1043
00000160: f089 c542 2ad1 4743 67d7 5cc3 bc22 a843
00000170: 84cb a143 7b87 9442 e871 0640 dec2 6143
00000180: ad84 20c2 e6d8 2043 f9ef 02c3 4120 5a43
00000190: 5ddf 9841 e952 8ac3 05aa dfc2 95ac c943
000001a0: 00ae 07c3 9509 0543 4177 adc3 9388 c343
000001b0: 6be4 57c3 a365 d942 168b 35c3 6b10 3842
000001c0: 1b24 72c3 b80c 9942 6bc3 9843 72ad 8cc2
000001d0: 40b9 5f43 1977 c443 0bd2 4cbf a4c2 9341
000001e0: 04bd 97c3 23e2 42c3 a84e 1043 b36c 1943
000001f0: e642 2043 00e2 2743 9e1a 91c3 c4ee ba43
00000200: d819 74c3 90a7 acc3 a392 a243 e8b9 b6c2
00000210: e6b0 5843 7cea abc3 7bd8 7bc3 6b18 efc2
00000220: 4c1d 9143 2588 9243 5981 6242 f3db 8143
00000230: 8e94 f0c2 2a85 2042 2961 2943 9976 8cc3
00000240: 63fc a543 52ad 5f43 3acb 8cc3 f7db e0c2
00000250: ffb2 2343 5c13 f242 7360 e442 5ec9 8043
00000260: b0e0 57c3 f23b 1a41 927d 5743 ddf0 abc3
00000270: 6192 ae42 32ee 14c3 56e8 a1c3 d9a3 a7c3
00000280: f745 b243 fdaf 0542 9526 1ec3 12d2 80c3
00000290: 54fc 7fc3 b483 3cc3 804f bac3 e1dc 8fc3
000002a0: e99f 93c2 5275 b942 d6ea 4343 1075 8cc3
000002b0: 9c78 f642 5f7c 7f43 268b dac1 c99a 2ec3
000002c0: 6200 9143 bd75 f942 19db 16c3 88d8 35c3
000002d0: 0456 1042 8e46 11c2 5462 a5c3 9794 b1c2
000002e0: 6c85 d5c2 18cf adc3 3006 5443 31ca 53c3
000002f0: e1e7 fac2 01ba cfc2 a02b 8e42 fad6 8543
00000300: 1da5 0341 be0b b4c3 4ee1 8dc2 3a41 8141
00000310: f4c1 67c3 9e42 22c3 6e14 c343 34c2 2943
00000320: 5be3 8543 6508 b243 75f8 1943 7f9f 87c3
00000330: ff4f aec3 9ce6 66c3 ea28 f5c2 7005 6242
00000340: 4c6f ef43 eea4 ad43 dc1c f841 8d53 1a42
00000350: 04e8 a8c2 bdc3 b9c3 dc42 0143 bffb 7642
00000360: b273 3b42 4004 b5c2 91e6 b343 a1a3 9d43
00000370: 41aa b7c3 5698 2bc3 e3f5 bf42 980a 1643
00000380: 70eb ad42 ed2d 49c2 09cd 7cc3 a4fb 59c3
00000390: bc31 6242 d237 44c3 75f1 7a43 327d ca42
000003a0: 7510 2d43 7f54 0b43 f74b 58c2 5243 05c2
000003b0: 65d7 0243 ffab 79c3 28b2 78c3 6135 e942
000003c0: 1e82 38c3 a4fb 47c3 42d6 9543 1ee0 1142
000003d0: 7f3b adc2 6c30 9042 a8bd 3a43 71b4 bfc2
000003e0: 9e57 80c3 be94 8743 8a18 23c3 47ed c9c2
000003f0: ce12 5b43 f796 adc1 3711 8ac2 883c b543
14.794407 -257.1326 292.21262 -238.47047 238.3094 -164.33705 507.96954 234.76276
326.7673 352.1027 -117.31195 -55.16016 -176.72942 -100.1283 381.819 -227.312
105.196465 407.5698 -295.49612 302.99185 89.57709 -15.961208 209.02147 -190.0551
-199.27777 -261.4817 238.60089 282.38593 -159.57674 22.18409 -284.2585 -187.10965
0.31366026 -303.21988 -304.44998 -18.352879 -64.04653 -202.46887 2.0046723 243.13875
-303.17538 46.332527 -288.8816 357.11426 -206.586 51.060165 -112.81791 97.93687
367.23563 -257.69797 -237.15521 38.954098 -239.16624 46.029633 185.48622 -242.88248
76.47354 82.254555 108.976776 403.95963 65.08359 82.01751 -101.533485 218.28525
-236.87582 12.264174 32.409622 -44.5656 192.3723 -23.423067 -197.14038 159.39949
53.115498 -3.606234 -133.39316 265.70236 237.40115 203.3821 -24.97569 -95.76445
-51.044056 37.094437 287.3255 160.25133 101.07218 -47.04533 99.642784 144.29637
98.76941 199.81705 -220.84142 336.27136 323.58997 74.26461 2.1007023 225.7612
-40.129566 160.84726 -130.9374 218.12599 19.109064 -276.64774 -111.83207 403.3483
-135.67969 133.03743 -346.93167 391.067 -215.89226 108.69851 -181.5433 46.016033
-242.14104 76.52484 305.5267 -70.33876 223.72363 392.93045 -0.80008 18.47004
-303.47668 -194.88335 144.30725 153.4246 160.26132 167.88281 -290.20795 373.86536
-244.10095 -345.30908 325.1456 -91.3631 216.69101 -343.8319 -251.84563 -119.54769
290.22888 293.06363 56.626316 259.71835 -120.290146 40.130043 169.37953 -280.92654
331.97177 223.67703 -281.5877 -112.42962 163.6992 121.03781 114.18838 257.57318
-215.87769 9.639635 215.49051 -343.88174 87.2859 -148.93045 -323.81512 -335.28006
356.5466 33.421864 -158.15071 -257.64117 -255.98566 -188.51447 -372.6211 -287.72562
-73.812325 92.72914 195.91733 -280.91455 123.235565 255.48582 -27.317944 -174.60463
290.003 124.72996 -150.85585 -181.84583 36.084 -36.3189 -330.7682 -88.790215
-106.76059 -347.61792 212.02417 -211.78981 -125.45289 -103.86329 71.085205 267.6795
8.227811 -360.09174 -70.94005 16.156849 -231.75763 -162.26022 390.1596 169.7586
267.7762 356.06558 153.97054 -271.24606 -348.62497 -230.90082 -122.57991 56.50531
478.8695 347.2885 31.014091 38.581593 -84.453156 -371.5292 129.26117 61.745846
46.862984 -90.5083 359.8013 315.27835 -367.3301 -171.59506 95.98025 150.04138
86.95984 -50.29485 -252.80092 -217.98297 56.54857 -196.21805 250.94319 101.24452
173.06429 139.33006 -54.074184 -33.315742 130.84138 -249.67186 -248.69592 116.604256
-184.50827 -199.98297 299.6739 36.468864 -86.6162 72.094574 186.74084 -95.852425
-256.6845 271.16205 -163.09586 -100.96343 219.07346 -21.698713 -69.03362 362.4729

running_var f4 [256]
00000000: 07cb 9642 8ad1 2441 bb52 c440 846b 7641
00000010: 0376 2741 64e3 7941 eeec 7241 569f a942
00000020: c429 3a41 5c25 5842 7cbe de42 0e0e b740
00000030: 3040 a042 f0c4 3342 b37d 5e41 2c2a b542
00000040: 1fc3 a741 b4d8 0e41 89a7 5f43 c1e9 0b41
00000050: bbc4 b141 1687 d742 3055 dc42 8020 4343
00000060: 9450 6942 1e83 6f41 5cb9 aa42 0762 e641
00000070: 63ed b742 0be1 4142 733a 0641 7341 8c43
00000080: f480 4e41 921b 0a42 ac4b cf40 0521 eb42
00000090: ff92 5242 df7a a542 3b5d 4a42 8bf6 af41
000000a0: 9541 d940 6422 9041 5b8b 3542 ea9c 6c41
000000b0: 1d3e a042 d237 2641 8cf0 c742 9f3b cf42
000000c0: e4b0 9642 4598 7642 f735 a342 f01c 3f42
000000d0: a4d0 fd42 9e29 df41 8929 6842 1175 a542
000000e0: e086 9d42 6d5c 7941 47c7 7a42 a2b5 8141
000000f0: 138a 6441 df52 f542 141c 4d41 ad70 4942
00000100: 08d9 c742 ffc9 9441 c8ae 8441 f25c b541
00000110: 7e21 e241 ab28 8d42 ff64 0943 730a a742
00000120: e1ee a642 29ec 7b41 a5c5 8441 c696 5842
00000130: 9d29 1842 ef28 9a41 8866 2141 ebe2 9142
00000140: a402 ce42 6ac7 1e42 9d12 0241 dd52 0042
00000150: 6ec9 4241 18fb 8f42 c8d0 5c40 4841 4841
00000160: fd63 8c42 3613 4241 7361 d642 0ad7 0442
00000170: 6ebe 7642 2157 1341 f1f2 2941 4e57 db42
00000180: 243a 9842 f405 9642 171e 1242 e901 fb41
00000190: 1a83 9642 5f34 c942 c2b6 9242 fb2d 3744
000001a0: be06 bb42 1f58 8642 b426 3d41 133f 6242
000001b0: 9f88 c642 632b 9d41 178a 6242 c4d9 ce42
000001c0: e8c3 1f41 77d1 cd42 7dd2 0041 a7bb aa42
000001d0: ef4c 6f41 de60 a041 b3ef a642 9a8d 0f41
000001e0: b565 2342 4bfa cf42 1ba7 9d42 ff60 6a42
000001f0: 7666 af40 98c4 8d42 6126 7942 2b7a 1a43
00000200: 05ce bf40 3725 5b42 2dc7 4942 1c4e c041
00000210: f9a5 a842 610b ac42 9cd1 8342 7f40 be42
00000220: 92cc 3242 b47d 8c42 1b2e cf42 7df8 5842
00000230: 0b71 b041 1f6f 4e41 68c3 3441 f0fb 6a43
00000240: 0eb8 c641 0f40 b041 777f e441 de6f 5941
00000250: 7bee 8342 2aa5 2141 0ac3 a341 7b8a 1d42
00000260: ad31 3642 3b3a 4f41 5b8d 0241 e221 3d42
00000270: 81c8 2442 e5c2 6641 f0d9 5b41 f937 4c41
00000280: 9cad 8341 58d1 8d42 cbc4 d142 804d 4942
00000290: dbe3 0742 eaf2 7541 31ea 5d42 59ee 9a42
000002a0: 12e5 2541 0a18 9e42 de8e a141 7ce7 6842
000002b0: d37d b142 5c7e cd42 d2a7 e542 a1cd ca40
000002c0: 5583 c441 952b 2442 0e5e 8041 070d cb41
000002d0: 207e 7942 8050 6442 6a58 1442 7066 5041
000002e0: 4fe3 9841 6355 2941 6683 3d42 613f 5e42
000002f0: 3037 7e41 2ef5 8642 5851 a141 64f1 3341
00000300: 9df1 7842 6b5b a342 9c4a 0942 eb90 ab42
00000310: 4597 ad42 27c5 0342 c2e0 e540 db4c 6d42
00000320: e49d eb42 8e3c bd42 8eb5 a642 78c6 f741
00000330: 257b 7d41 ef40 c842 d7c8 9842 8c76 e140
00000340: 5dac 9341 d820 4342 24c1 b240 e11e 1242
00000350: 8b58 4242 5560 bb42 9e7c 4842 269c b441
00000360: e24a 5041 e5a3 e640 453e f541 f316 cd41
00000370: 68fb 8f42 7e2b 9841 6497 2e41 68ad d342
00000380: 73ea f342 44f1 1241 cf55 b742 2c3c 7242
00000390: 90ea fd41 ebf3 2c41 78e9 d041 dcd6 0642
000003a0: 4192 4442 a9e8 0e41 e7bb 4c42 4c1a 8242
000003b0: 6822 ed42 a630 0043 924a 8f41 340c ab42
000003c0: f074 9541 7629 2442 c6ab ff40 6db9 7e42
000003d0: a132 9942 ff0c 4641 a5cd 5642 5fb3 9e41
000003e0: cbf4 6341 3503 8542 8a3c 4341 3085 8042
000003f0: 53a5 a541 37d8 fd41 2061 6042 2008 2f41
75.39654 10.301157 6.135099 15.401249 10.466311 15.618015 15.182844 84.8112
11.635197 54.036484 111.37204 5.7204657 80.12537 44.94232 13.905688 90.58237
20.970274 8.927906 223.65443 8.744569 22.22106 107.76384 110.16638 195.12695
58.32869 14.969511 85.36203 28.797865 91.963646 48.46977 8.38927 280.51132
12.906483 34.526924 6.4779873 117.56449 52.64355 82.73998 50.591045 21.995382
6.7892556 18.016792 45.38609 14.788309 80.121315 10.388628 99.96982 103.61645
75.34549 61.6487 81.6054 47.77826 126.9075 27.89532 58.04056 82.728645
78.76343 15.585065 62.694607 16.213688 14.28371 122.66186 12.819355 50.360035
99.92389 18.59863 16.585342 22.670383 28.266354 70.57943 137.39452 83.52041
83.46656 15.745156 16.596506 54.14724 38.040638 19.269987 10.087532 72.9432
103.00516 39.69474 8.129544 32.08092 12.174177 71.99042 3.450243 12.515938
70.19529 12.12969 107.19033 33.21 61.685966 9.208772 10.621812 109.67052
76.113556 75.01163 36.529385 31.375933 75.25606 100.60229 73.35695 732.71844
93.51317 67.17211 11.821949 56.561596 99.26684 19.646185 56.634853 103.42532
9.985329 102.90911 8.051389 85.36651 14.956283 20.047298 83.46816 8.972071
40.849323 103.98885 78.82638 58.594723 5.4812574 70.88397 62.28748 154.47722
5.993899 54.786343 50.444508 24.03814 84.324165 86.022224 65.90939 95.12597
44.699776 70.245514 103.59005 54.242664 22.055197 12.902129 11.297707 234.98413
24.83987 22.031279 28.562239 13.589811 65.96578 10.102823 20.470234 39.385235
45.54851 12.951716 8.159511 47.28309 41.195805 14.422582 13.740707 12.763665
16.45977 70.908875 104.88436 50.325684 33.972515 15.371805 55.478703 77.46552
10.368425 79.04695 20.19476 58.22606 88.74575 102.746796 114.827774 6.337601
24.564127 41.04256 16.045925 25.381361 62.37317 57.078613 37.08634 13.025009
19.11099 10.583346 47.37832 55.561893 15.8884735 67.47887 20.164719 11.246433
62.23595 81.67855 34.32286 85.78304 86.79545 32.94253 7.1836863 59.325054
117.80838 94.61827 83.3546 30.971909 15.842565 100.12682 76.392265 7.045721
18.459162 48.782074 5.5860767 36.530155 48.586468 93.68815 50.121696 22.576244
13.018282 7.2075067 30.655405 25.636206 71.99103 19.021236 10.911961 105.838684
121.95791 9.183903 91.667595 60.55876 31.739532 10.80955 26.113998 33.709824
49.142826 8.931802 51.1835 65.05136 118.5672 128.19003 17.911411 85.523834
18.682098 41.04049 7.9897184 63.68108 76.598885 12.378173 53.700825 19.837584
14.247264 66.50626 12.20228 64.26013 20.705725 31.730574 56.09485 10.939484

weight f4 [256, 256]
00000000: 2f12 a7bc adc6 4ebd 9e4b 803d df31 d1bc
00000010: 65c6 0fbc b7d3 6f3d 9a5f 353d 31d2 4dbd
00000020: 7f1f 57bc 0239 b639 6612 9abc c316 513a
00000030: 95a6 243d 2b4b 403d 614d efba 50e5 13bc
00000040: e750 4ebd 4b22 8fbc daa2 25bd 06b9 373d
00000050: 7e16 4a3d 6bb3 163d d4f2 9a3c 57b6 7b3d
00000060: 7ea1 34bd 49b4 e03c ba35 0b3b 6496 f3bc
00000070: 602a 61bd 30b8 143c c6be a5bc f204 6dbd
00000080: c541 463d 6dc3 82bc 49c1 263d b152 4fbd
00000090: 0337 c1bc a5d5 62bd c89d 393d 6709 22bd
000000a0: c508 1d3d 4181 453d ac04 29bc 31f7 893c
000000b0: eec3 71bd d69b 1bbd dd2a 243d 0423 d9bc
000000c0: cfad dcbc b053 75bd 13d7 843c 6261 3bbd
000000d0: f7ce 3a3d c25c c1bc a85b 5ebc 4c92 f0bc
000000e0: 9436 c13c 76bc 883b 85d2 48bd daae 653d
000000f0: 7d56 033d 66b4 3e3d f00a 2a3d f92a 573b
00000100: 098a 2ebd 76ab 04bd 1bb7 ccbc 2c9c 1e3d
00000110: 64bc 553b bc20 37bd 3094 a83c 240f d23b
00000120: 425b f4bc ceab 67bc 9135 09bc 2f09 553d
00000130: e046 c3bb d091 6ebc c4c1 613c 6a4b 533d
00000140: 821c 33bd b81f 7bbd 2b7e 553d 1e69 22bd
00000150: a679 09bd f444 69bc 082e cd3c 9136 fb3b
00000160: 5564 80bd faaf 50bc f1ee 883c 2b9f 7abd
00000170: 34b3 5abd 0ec7 b33b 254c 64bd 0656 dbbc
00000180: cf2e e6bc 183a a93c a67a 173d 3593 85bd
00000190: 4c66 cb3c 2bf9 12bd ac1b 993b 9c61 f83c
000001a0: c969 cfbc 4e98 24bd d695 483d 16cd b1bc
000001b0: 73bc ba3c 9dfd 7ebc 25db 443d 9cf7 50bd
000001c0: 3695 a13c 6671 5dbd 4aa0 42bc 1bb4 263d
000001d0: c22d 3f3d 1fd2 673d 9998 513d df4f 793d
000001e0: 83c8 743d 2697 5f3b 7419 253c b31d 35bc
000001f0: 42d3 163d ac02 243d 05b9 17bd 09bf 78bd
00000200: 823d 15bd 531e 813b d8cb 633d 3785 86bc
00000210: c14c f53c 6df9 5a3b 4138 6c3d aaa7 2fbd
00000220: d03c 523d 7022 8c3c 8358 73bc 114e 413d
00000230: a5ab 6ebd ccac f6bb d6af 1d3d f90b 743c
00000240: 2a26 f43b 3bbf 44bc 3071 50bd bd71 f3bc
00000250: 8430 e53c cd0d f0bb aef5 3abd ecf0 fabc
00000260: dcf2 26bd 0b1d 6dbd 53c6 673c cf38 1e3d
00000270: 496c e7bc 9bd1 dbbc fd6e 5ebd 157f 633c
00000280: 7944 013d b396 31bd 8fac 4b3c c34b 133d
00000290: 760f 303b 0913 34bd f281 dabc 29b0 433d
000002a0: 5790 623c 6d16 8b3c 8915 eabb 7cc8 50bd
000002b0: 90fd a9bc 75e4 bc3c dab5 7a3d 8ab8 21bd
000002c0: 2807 f93c 3f1c 22bd 1633 b1bc 4c87 563d
000002d0: 4c91 3fbd cb85 57bd 1c21 68bd 3e4b 2d3d
000002e0: 5f04 4a3d 1d0d ddbc b5c7 20bd ec61 853b
000002f0: 1281 debc b992 0cbc fa0d 8fbc 24dd 4c3d
00000300: 62a2 55bd f868 69bd 86d6 ba3c 251f 5b3c
00000310: 31e1 20bd 2b64 f53b 9a76 4a3d a209 1cbd
00000320: 8615 353d f56f a0bb 956d eb3c 2bde 7dbd
00000330: 0ff7 4f3d 7707 1a3d b73c 17bc 4cb3 e93c
00000340: 755c b7bc 795a 8a3d d27e b33c 11c6 c83b
00000350: 0169 2ebd 943b 893c e2ef c83b b122 cbbc
00000360: b6f4 253d 6753 4e3d efa8 07bd 6452 773d
00000370: 12a8 93bb 5d57 9dbc 6a68 60bd 952d 2dbd
00000380: 9649 6fbd a114 153d 6ceb 14bd 22cc 0d3d
00000390: 1f5e 36bd d03e 2cbd d10d 65bc 8168 38bc
000003a0: 79a6 78bd 8943 243d df01 0e3d c720 373d
000003b0: 5bac 75bd 9032 81bd 5f40 49bc fe9e 123d
000003c0: 1de9 e1bc 7a2e e4bc cab7 4dbd e924 c83c
000003d0: 0592 883c 03ee 00bd 6421 69bc 6839 613d
000003e0: 1be6 463d 1822 043d 2ea1 2dbb e2d0 62bd
000003f0: 687a 15bd 79e0 73bd 1457 3e3c b057 54bd
-0.020394413 -0.05048244 0.06264423 -0.025536476 -0.008775328 0.058551516 0.044280626 -0.050249282
-0.013130068 0.0003475622 -0.018807601 0.0007976109 0.040197928 0.046946686 -0.0018257314 -0.00902684
-0.050370123 -0.017472407 -0.04043851 0.044854186 0.049337856 0.0367922 0.018914618 0.06145319
-0.044099323 0.027429717 0.002124174 -0.029734798 -0.054972053 0.009077117 -0.02023257 -0.057866044
0.048402566 -0.015962327 0.040711675 -0.05061597 -0.023585802 -0.05537953 0.045316488 -0.039559748
0.03833844 0.04821897 -0.010316055 0.016841503 -0.059024744 -0.037990414 0.04007994 -0.026505955
-0.026938347 -0.059894264 0.016215837 -0.04574717 0.045607533 -0.0236038 -0.013571657 -0.029366635
0.023585595 0.004172857 -0.049028892 0.056074955 0.032064904 0.04655876 0.041514337 0.003283201
-0.04261211 -0.03239008 -0.024989655 0.038723156 0.003261351 -0.044708952 0.020578474 0.0064104963
-0.029828671 -0.0141400825 -0.008374588 0.05201071 -0.0059593767 -0.014561132 0.0137791075 0.051585592
-0.04372836 -0.061309546 0.052122276 -0.03965103 -0.03356328 -0.014237631 0.025046363 0.007666417
-0.06269137 -0.012737269 0.016715499 -0.06118695 -0.053393558 0.0054863757 -0.05573668 -0.026774418
-0.028098492 0.020657584 0.0369822 -0.06522218 0.024829052 -0.035882156 0.004672488 0.030319981
-0.025318997 -0.04018431 0.04897102 -0.021704238 0.022794938 -0.015563396 0.048060555 -0.05101739
0.01972447 -0.054063223 -0.011879036 0.040699106 0.046674497 0.05659687 0.05117092 0.060867187
0.059761535 0.003411719 0.010076869 -0.011054444 0.036822565 0.04004161 -0.037041683 -0.06072906
-0.03643561 0.0039403825 0.055614322 -0.016420944 0.029943826 0.003341283 0.057670835 -0.042884506
0.051327527 0.017106265 -0.014852646 0.04719359 -0.05826916 -0.007527923 0.03849777 0.014895433
0.0074508386 -0.0120084835 -0.050889194 -0.02971732 0.027977236 -0.007325864 -0.045644455 -0.030632459
-0.040758952 -0.057889026 0.014146405 0.038628396 -0.028249877 -0.026833346 -0.054305065 0.013885279
0.03155944 -0.04335661 0.012431278 0.035960924 0.0026864684 -0.043963466 -0.02667329 0.04777542
0.013828359 0.016978467 -0.0071436805 -0.050972447 -0.02075079 0.023058156 0.061208583 -0.03948263
0.03039892 -0.03957772 -0.021630805 0.052375123 -0.046769425 -0.05261783 -0.0566722 0.042308085
0.049320575 -0.026983792 -0.039252955 0.004070511 -0.027161155 -0.008579903 -0.01746272 0.050015584
-0.052156813 -0.05698487 0.02280737 0.013374125 -0.03927726 0.0074887476 0.049429514 -0.038095124
0.04420998 -0.004896159 0.028738776 -0.061979454 0.050772723 0.037604775 -0.009230784 0.028527878
-0.022382954 0.067555375 0.021911059 0.006127127 -0.04258061 0.016752042 0.006132112 -0.024796816
0.040516578 0.050372507 -0.033120092 0.06038131 -0.0045061195 -0.019206697 -0.054787077 -0.0422798
-0.058419786 0.036396626 -0.03635733 0.034618504 -0.044523355 -0.04205209 -0.013980345 -0.011255384
-0.060705636 0.04010347 0.034669753 0.044708993 -0.059978824 -0.06308472 -0.012283414 0.035796158
-0.027576977 -0.027854193 -0.050224103 0.024431663 0.01667119 -0.031476986 -0.014229152 0.054986387
0.04855929 0.032259077 -0.0026493776 -0.055374987 -0.03649369 -0.059540246 0.011617441 -0.051841438

bias f4 [256]
00000000: 5882 143d f43e 40bd 6e49 ff3b 4a9b 42bd
00000010: 1b03 59bb 3c6c 0d3d 8053 c0bc d459 bcbc
00000020: 6cf5 dd3c 668a 08bd 66d8 4c3d c8ff da3c
00000030: 58b2 523b 0e23 2a3d 3cb0 19bd 183e 913c
00000040: e066 a03c d098 e53c 1408 213d 9eab 1b3d
00000050: c41f 873c d4d6 edbc e847 0b3d 7adf 31bd
00000060: d0af 413c a026 243a b032 c43c ceba 26bd
00000070: c02f d43b f414 963c 5046 6fbd 9428 efbc
00000080: 5da4 ab3b d2da 143d 935d f1ba e43f 1c3d
00000090: 489a d5bc 58e4 0cbc 10ec 32bc 0ce5 1bbd
000000a0: c497 4dbd c046 c2ba a86a 763d 2294 313d
000000b0: bc44 b5bc 3c66 6abb 109e ca3b b8f4 e93c
000000c0: 0aa2 14bd d42c 05bd 4e0e 4e3d 100e b2bb
000000d0: d8ed bc3c 1c6b c5bc d69b 0fbd 18f3 1a3d
000000e0: 145d 2e3d 9238 3e3d a0da 24bc a23c 2fbd
000000f0: 66f1 54bd b067 1f3d 98d1 77bd f477 63bd
00000100: c00a bfbc 223c 473d 2a07 14bd f4af 9c3c
00000110: 6e29 09bd 5806 5b3c 5034 323d 847b 543d
00000120: 9875 f23c a062 233c 5a9a 19bd 38da 463c
00000130: ac0c bf3c 8ad0 443d 6ac4 4ebd e4ad 9bbc
00000140: d035 fdbb 08bb e2bc 0635 523d f257 0b3d
00000150: 18ae e0bc ec32 aa3c caa5 373d 4e75 53bd
00000160: c675 683d 1e23 073d f484 d53c 708d 16bc
00000170: 28c8 b63c b237 743d 10a2 f53c 9881 b4bc
00000180: 7087 20bc 9465 7bbd d26d 2b3d 50e8 743c
00000190: cc7e d83c 6261 6b3d 4886 543c d277 573d
000001a0: 6c24 f6bc ec1a 3c3d 72df 53bd ca94 393d
000001b0: 08bd c5bc 80db e43a 4060 bbbb 7fb7 d1ba
000001c0: c8fc 063d 2802 63bc fca1 e93c 80c7 ee3c
000001d0: 108f edbc 0cbb d53c 084d 3cbd b2ff 69bd
000001e0: 9052 36bd 8299 44bd 0c7c 193d fac6 753d
000001f0: eafc 2b3d 3246 233d 8c40 35bb e484 d0bc
00000200: d857 f33c 98f8 a23c 9669 58bd 45c3 08b9
00000210: ec84 a1bc 70dc f2bb 108b de3c 9896 e8bc
00000220: 40cb c23c 587c fbbc 2249 783d 0c46 e7bc
00000230: fdbd f43a 807e 50bd 7082 c63c 7a1c 683d
00000240: c6fa 49bd 36ca 7c3c c026 703d 8eb8 3bbd
00000250: 7598 f43b f492 8ebc 0eee 163d 8693 19bd
00000260: 32e6 723d 6894 2fbc 54a5 a23c 4ca8 a93c
00000270: a455 4abd 5ff5 583c 2884 5e3c 9a55 5b3d
00000280: 0fdb ecbb fefd 5cbd f253 63bd ec81 e6bc
00000290: 50f9 57bc 4ae7 353d 1cc4 55bd de8d 053d
000002a0: 00ed 66bc df7e 6e3b de97 25bd a078 5fbb
000002b0: c043 6cbc 0846 5ebc ae98 233d f08d 263c
000002c0: 60b0 53bc 40d4 613d 2883 e83c 344e a4bc
000002d0: c0ef 74bc 6029 ecbb a0ed 1fbb 5230 4fbd
000002e0: c0a6 403d 5864 dfbc d668 7b3d 5a2b 0dbd
000002f0: 2a7b 0bbd eaa3 453d 1440 aebc 9803 11bc
00000300: 70c5 a7bb 3efd 3c3b 4eea 73bd 785c 56bd
00000310: 10f3 8abc 08e8 f8bc 78b9 633d 7846 f4bc
00000320: 6059 f6bc e433 df3c 28fe 3d3c 2cc0 eabc
00000330: b026 493d 620b 173d 9053 40bc b42e 85bc
00000340: 50e6 debb 1435 76bd 502c a53c 78d1 113d
00000350: d4b7 0fbd 62f0 083d a897 973c 7067 80bb
00000360: 2812 8e3c 3835 38bd 28d4 da3c 24b5 79bd
00000370: 42f9 6cbd 207d ff3b e492 47bd 82b7 283d
00000380: 5c5e e5bc d423 30bd 28dc 90bc cc32 51bd
00000390: e8be e03c 3cac 4fbd ccfb 263d f800 2f3c
000003a0: a0ad 9e3b e0ae a2bb a4ef be3c de5f 733d
000003b0: 00c7 6cbd b0e0 f63b 9295 703d dc96 41bd
000003c0: 8c4c b43c 90a0 443d befd 663d fa59 6abd
000003d0: b003 7e3c 488f 2e3d 7eb4 0a3d a88c 42bc
000003e0: d0f2 543c a01b 5d3d d27b 293d b6e9 78bd
000003f0: 306d 2b3c 34c0 743d 9408 f3bc e63b 623d
0.036257118 -0.046935037 0.007790736 -0.047511376 -0.0033113423 0.03452705 -0.023477316 -0.022992052
0.027094565 -0.033335112 0.05001106 0.026733294 0.0032149758 0.041537337 -0.037521586 0.017729804
0.019580305 0.028026968 0.039314345 0.038005464 0.01649464 -0.029033102 0.034004122 -0.043426014
0.011821702 0.0006261859 0.023949951 -0.040705495 0.006475419 0.018320538 -0.058416665 -0.029194154
0.0052380995 0.036341496 -0.0018414728 0.03814687 -0.026074544 -0.008599363 -0.0109205395 -0.038060233
-0.050193563 -0.001482211 0.06016031 0.04335416 -0.022127502 -0.0035766503 0.0061833933 0.028559074
-0.036287345 -0.032513455 0.05030661 -0.0054338053 0.023062631 -0.024098925 -0.035060726 0.03782949
0.042569235 0.04644067 -0.01006189 -0.042782433 -0.051988028 0.038917243 -0.06050262 -0.055534318
-0.023320556 0.04864133 -0.036139645 0.01912687 -0.033486776 0.013368212 0.04350692 0.051875606
0.029597089 0.0099722445 -0.037500717 0.012136988 0.023321472 0.04805044 -0.050480284 -0.019003816
-0.007727362 -0.027677074 0.0513201 0.034019418 -0.027426764 0.020776235 0.044835843 -0.051625542
0.056752943 0.032992475 0.026064374 -0.009188995 0.022312239 0.059623428 0.029984504 -0.022034451
-0.009797916 -0.06137617 0.04185278 0.014947966 0.026427649 0.05746592 0.012971468 0.052604504
-0.030046664 0.045924112 -0.051726766 0.045307912 -0.024137989 0.0017460436 -0.005718261 -0.0016000121
0.032955915 -0.013855495 0.028519623 0.029147863 -0.028998882 0.026090167 -0.0459719 -0.057128616
-0.04451233 -0.04799796 0.037471816 0.060004212 0.041989245 0.039861865 -0.002765688 -0.025453992
0.029704973 0.01989393 -0.05283507 -0.00013042714 -0.019716702 -0.007411532 0.02716592 -0.028392121
0.023778558 -0.03069894 0.06061662 -0.028231643 0.0018672344 -0.05090189 0.02423212 0.056667782
-0.04931142 0.01542907 0.058630705 -0.045830302 0.0074644634 -0.017404057 0.03684812 -0.037494205
0.059301563 -0.010716535 0.019854225 0.020710133 -0.04939808 0.013242095 0.013581313 0.053548433
-0.0072282623 -0.053953163 -0.05549998 -0.028138123 -0.013181999 0.044410028 -0.052188978 0.032606
-0.014094591 0.003639154 -0.040428035 -0.0034098998 -0.01442045 -0.013566501 0.03994053 0.0101656765
-0.012920469 0.055134058 0.028382853 -0.020056821 -0.014949739 -0.0072070807 -0.002440311 -0.05058319
0.047034025 -0.027269527 0.061379276 -0.03446517 -0.034053005 0.048252024 -0.02127079 -0.0088509545
-0.005119972 0.0028837468 -0.059549622 -0.05233428 -0.016961604 -0.030384079 0.0555968 -0.029818758
-0.030071914 0.027246423 0.01159624 -0.028656088 0.04910916 0.03687609 -0.011738673 -0.016257621
-0.0068023577 -0.060109213 0.020162731 0.035600156 -0.03508742 0.033432372 0.018504933 -0.0039185807
0.017342642 -0.04497263 0.026712492 -0.060963765 -0.0578549 0.0077968985 -0.04872407 0.04119063
-0.027999096 -0.04300292 -0.017683104 -0.051073834 0.027434781 -0.050701365 0.040767476 0.010681383
0.004842475 -0.0049646944 0.023307629 0.059417598 -0.05780697 0.007534109 0.05873639 -0.04726301
0.022009157 0.048004687 0.05639433 -0.057214715 0.015503809 0.042617112 0.033863537 -0.011874355
0.012997344 0.053981423 0.04137785 -0.06076976 0.010463044 0.05975361 -0.029667176 0.055232905
