Predict/storage/MLP_256_200_SGD_11/trained_229.pt (torch, 339061 bytes, 13 tensors)

weight f4 [256, 58]
000000 26 0b 71 bd 97 c9 a4 3d 8b 19 85 bd ec f9 a8 3d
       -0.058848523 0.08046263 -0.064990126 0.08250794
000010 36 c0 53 bd 46 59 de 3d 12 b5 4d 3d 01 0f 86 bd
       -0.05169698 0.10856871 0.05022151 -0.065458305
000020 28 9b a1 3d b3 6c 05 bd b7 6f e8 bc 42 bd e0 3d
       0.07890922 -0.032574367 -0.028373582 0.10973598
000030 f7 07 4c bd ec cb f7 3d 67 5c 56 3d 52 bf 06 bd
       -0.049812283 0.12099442 0.052334215 -0.0328973
000040 1b bd da bd 28 f3 e1 bd 43 52 79 bb bb 35 a0 bd
       -0.106806 -0.110327065 -0.0038043417 -0.07822748
000050 d8 8c d3 bd b6 66 ed bd a1 08 31 3d b9 95 b1 bd
       -0.10329598 -0.11591856 0.04322112 -0.086711355
000060 fc ae d3 3d 59 fb 5b bc 93 6a 5e 3d a2 ed 4e bd
       0.1033611 -0.013426625 0.054300856 -0.050519593
000070 43 f0 ff 3d 1a d7 2d 3d 45 28 bf 3c 3f 6d 25 bd
       0.12496998 0.042441465 0.023334632 -0.04038739
000080 8e 01 04 3e 52 65 87 bd e0 a9 e3 bd 13 22 08 be
       0.12891218 -0.06611122 -0.111163855 -0.13294248
000090 eb 5e eb bd cc 2d a3 bd c6 4e c0 3d bc 13 d4 bd
       -0.114927135 -0.079677194 0.09390025 -0.103553265
0000a0 02 29 93 bc 6c ee 01 3e 16 22 1d bd 6b 23 76 3c
       -0.01796389 0.12688607 -0.038362585 0.015023093
0000b0 92 a9 8f 3d 5e 9d b0 bd 58 bf 5b bd 48 b1 b2 3c
       0.07014765 -0.086237654 -0.053649276 0.02181305
0000c0 ef a8 96 bd 7d fe a6 3d af 52 cf bd 68 37 84 bd
       -0.0735644 0.081540085 -0.101231925 -0.064558804
0000d0 82 e8 d9 bd f9 02 86 3d 6e b5 73 bb 82 26 f3 bd
       -0.106400505 0.06543536 -0.0037186998 -0.11872579
0000e0 35 42 b3 3d 7d 61 b6 3d 62 03 a2 bd 29 1d cf 3b
       0.08752862 0.08905313 -0.079108015 0.006320615
0000f0 ef 0e 19 bd cd ec 46 3c 2e 59 a0 3c b3 19 ff bd
       -0.037367757 0.012141419 0.019573774 -0.124560736
000100 9b 21 8f 3d 92 86 f7 bd 1d da 99 bd 1d 3a 90 3d
       0.069888316 -0.12086214 -0.07512305 0.07042334
000110 4c ec e5 3d 8d df a5 3d 65 bb 00 3e 11 43 57 bd
       0.11226711 0.080992796 0.12571485 -0.052554194
000120 e2 da 19 bd d0 37 f2 3c 0f f7 f4 bd 79 33 f0 bd
       -0.03756226 0.02956763 -0.11961185 -0.11728568
000130 69 19 bf 3d de 3b e1 bd 17 bb 02 be c9 ca 59 bd
       0.093310185 -0.10997747 -0.12766682 -0.053171907
000140 cb 24 4e bd a3 16 84 bd c2 9f cb 3d 55 44 e0 3d
       -0.050328057 -0.0644963 0.09942581 0.10950533
000150 5e 3f 14 bd 97 8c eb 3c 23 f7 10 bd 65 b0 bf 3c
       -0.036193244 0.028753562 -0.035391938 0.023399541
000160 e0 b9 b6 bd 19 f5 e5 3c af f0 b0 bb 9d fc 25 bd
       -0.089221716 0.028070973 -0.0053997855 -0.040524114
000170 5e 42 e8 3c 4f 42 bb 3c 3b a5 b8 bd eb 49 fc bd
       0.028351959 0.022858767 -0.0901589 -0.12318786
000180 d8 e8 e2 3d ce 91 8e bc f9 6c 7b 3d ca e8 51 3b
       0.11079568 -0.01740351 0.06138322 0.0032029622
000190 fa 77 44 bd fc 45 01 3d 14 ea ab 3b 31 17 8c be
       -0.04796598 0.031560883 0.00524641 -0.27361444
0001a0 42 e8 b7 3c 7b e5 cf 3d 6e ac 26 3d 43 53 03 3e
       0.022449616 0.10151192 0.040691786 0.1282473
0001b0 85 e9 c2 3d 89 98 dd bd b9 f4 9b bb 9e 1f bd 3d
       0.095171966 -0.108201094 -0.004759398 0.09234546
0001c0 fe f7 96 bd 2c 89 80 3d 66 db 5b 3c 93 21 7f 3d
       -0.073715195 0.062761635 0.013419008 0.06228788
0001d0 e7 ef 40 3c 36 d4 b2 bd f1 66 01 bd 8b 8b 9b bd
       0.011775947 -0.08731882 -0.031592313 -0.07594975
0001e0 87 4d ad 3d 5c 6c d5 3b a2 4e 56 bd 31 75 41 3d
       0.08462053 0.0065131616 -0.052321084 0.047230903
0001f0 3f 63 00 be e8 27 cc bd cf b6 d8 3c c6 d1 59 bd
       -0.1253786 -0.09968549 0.026454357 -0.05317857
000200 cd c0 a8 bd 54 84 ee 3c e7 73 43 3b 5c 13 91 bd
       -0.08239899 0.029115833 0.0029823722 -0.07083771
000210 a9 b1 ca bd a4 c7 ed 3d b8 ad 02 3d ce c7 06 be
       -0.09897167 0.11610344 0.031903952 -0.13162157
000220 0f 60 9c 3d 6d cf 93 bd df b9 62 3d 65 63 a2 3d
       0.07635509 -0.07217298 0.05535304 0.07929114
000230 75 54 bb bd 3f 4c 03 ba c1 62 78 bc d2 9c f2 bd
       -0.09146968 -0.0005008615 -0.0151602635 -0.11846317
000240 bf 4a 21 3d b2 f5 63 bc 12 4e 88 bc 92 38 bf bd
       0.039377924 -0.013913559 -0.01663879 -0.09336962
000250 66 f6 eb 3c 08 a1 d7 3d 3c 4c ba 3c fe a8 3e bd
       0.028804015 0.10528761 0.02274143 -0.046547882
000260 15 1c 35 bd d0 18 4e 3c 71 8e db bd e8 2c 8a 3d
       -0.044216234 0.012579158 -0.10720528 0.067468464
000270 ce bf 0c bd b6 bd ca 3d e0 34 29 bd aa 7c 05 be
       -0.034362607 0.09899466 -0.04131019 -0.13035837
000280 dd 18 14 3d 4f b2 23 3d 31 76 57 3e 4b 82 b7 bd
       0.036156524 0.03996497 0.2104118 -0.08960398
000290 78 7e ce bd 0d d9 e9 bd ee e2 72 3d fc a1 fc bd
       -0.10082716 -0.11418352 0.05929845 -0.123355836
0002a0 b6 b4 2d be 9b 5a 2f be 2f 7a 5d bd 10 2a cd bd
       -0.16963467 -0.17124407 -0.0540716 -0.100177884
0002b0 9f 42 85 bd 72 2b 24 be 9c 23 0b be b1 1c e9 bc
       -0.065068476 -0.16032198 -0.13587803 -0.028456064
0002c0 06 5a b5 bd 61 f3 74 3d 3a ac bf 3d 33 dc 5c bd
       -0.08855061 0.059802417 0.093590215 -0.053920936
0002d0 41 7e 62 3d dc 55 a9 3c 96 46 c7 3c 72 4f 6c 3d
       0.055296186 0.020670824 0.02432565 0.057692952
0002e0 5c 4e 84 bd 62 c9 83 bd 2c 56 f8 3d 50 00 04 be
       -0.06460258 -0.06434895 0.12125811 -0.12890744
0002f0 02 bb 81 3d c4 ca f6 3c 1c 83 cd 3c 95 e4 e6 bd
       0.06334497 0.030125983 0.025086932 -0.11274067
000300 4f 35 b1 bd 71 73 9b 3d 67 87 41 bd 07 fa d2 bd
       -0.08652746 0.07590378 -0.04724827 -0.10301595
000310 d0 af 6c bd 60 fc a7 bd 04 08 8d 3d d7 50 ff bc
       -0.057784855 -0.082024336 0.068862945 -0.031166477
000320 b4 cb ca bd 55 0b 89 3b cb e9 e5 bc 3f b4 b3 3c
       -0.099021345 0.004182259 -0.028065583 0.021936534
000330 d8 d2 d0 3d 7b 93 b2 bd b7 25 cb bd 63 2e da 3c
       0.10196465 -0.08719536 -0.09919303 0.026633447
000340 84 cb 83 bd 27 a1 96 3d fe ce c3 3d 03 09 11 3e
       -0.06435302 0.07354956 0.09560965 0.14163594
000350 3f b7 3c bd 5b 43 da 3d 36 03 02 3e 84 c5 92 bd
       -0.046073195 0.10657378 0.12696537 -0.07166579
000360 d9 0d f6 3d 1a de f7 3d 16 90 0c bb 89 0e 8b bd
       0.1201436 0.121029094 -0.0021448187 -0.06789882
000370 69 f8 2b 3d a5 0f 29 3d 2d e7 ab bc 50 50 df bd
       0.04198495 0.041274685 -0.020984257 -0.1090399
000380 b4 8a c6 3c b0 3b 18 bd 8b fb 40 3e e7 cf 4f 3e
       0.02423606 -0.037166297 0.18845956 0.20294152
000390 ee 31 7c 3d 72 de 3b 3d 9a 0e 50 bd 99 41 03 3c
       0.061571054 0.045866437 -0.050795175 0.008011245
0003a0 7a d3 5e bd 4e 7a bf bd 88 06 77 3b 7c f8 60 bd
       -0.0544009 -0.093495 0.0037693102 -0.054924473
0003b0 41 89 03 3e 84 f5 9c bc 3a 77 26 3d 45 8f 97 3d
       0.12845327 -0.01916004 0.040641047 0.07400373
0003c0 ae b7 b8 bd 40 61 83 bd 6e 1a 8c bd 15 4c 7f bd
       -0.09019409 -0.06415033 -0.068409786 -0.062328417
0003d0 5d 19 06 3e 55 f4 91 3d bb 49 9f 3d f5 8a ce 3c
       0.13095613 0.07126681 0.07777735 0.025212744
0003e0 8f 16 a9 bd 60 14 f5 3d 71 7f 01 3d 94 a8 8a 3c
       -0.08256256 0.11966777 0.03161568 0.016926087
0003f0 bc 57 da bd b8 e1 8e 3d 7b a4 96 bd 9f c5 e2 3c
       -0.10661265 0.06976646 -0.07355591 0.027682124

bias f4 [256]
000000 04 03 99 3d 52 98 57 3d 19 f6 49 3d 36 03 28 3d
       0.07471278 0.0526355 0.049306963 0.041018687
000010 6b 73 a4 bd e8 eb f5 3d 78 f9 e9 3b 8b 7c 39 bd
       -0.08029827 0.12007886 0.0071403347 -0.04528479
000020 a0 77 c8 bd 8b 24 f4 3d 65 ab c1 bd 0b 00 d0 bc
       -0.09788442 0.119210325 -0.09456519 -0.025390645
000030 77 39 a1 3d 7d fb 71 bd 3c 12 d7 bc 80 b7 b5 bd
       0.07872289 -0.05907773 -0.026253812 -0.088728905
000040 94 8d b2 bd a4 7d d8 3d 64 3f f3 bd e5 bc 5d bc
       -0.0871841 0.10570839 -0.11877325 -0.0135338055
000050 4f a1 1a 3c 6f 91 f1 3d ee 74 c3 bc ee c4 c7 3d
       0.009437873 0.117953174 -0.023859467 0.09754358
000060 5a 42 2a bd 8a 51 a9 bd f2 db eb bd ed d6 9a bd
       -0.041567184 -0.082675055 -0.115165606 -0.07560525
000070 c6 85 9f 3d 53 8e a3 bb 8b 1c ba bd f5 85 f4 3d
       0.07789187 -0.0049913316 -0.090874754 0.11939613
000080 1e 0e 2e 3c 76 fc 18 bd a7 df cf bc a0 c2 99 3a
       0.010623483 -0.03735014 -0.0253752 0.0011730976
000090 b3 46 36 bc 1b 24 57 3c a2 78 05 3e 43 bc 50 bd
       -0.011125254 0.013131167 0.13034299 -0.05096079
0000a0 06 dc ae 3d 55 e1 05 3e e8 27 22 bd a5 4d fc bd
       0.0853806 0.13074239 -0.03958884 -0.12319497
0000b0 48 4d eb 3d bb 6f 79 3a f1 a4 9f bd 7a a1 00 be
       0.114893496 0.00095152453 -0.07795132 -0.12561598
0000c0 7c 57 8d bd ef af f5 bd 3a 98 65 3d 85 e1 4c 3d
       -0.06901452 -0.11996447 0.056053378 0.05001976
0000d0 7c 6e 2c 3d 3f 8f 98 bd 6f c2 8c 3d c6 eb f1 bd
       0.042097554 -0.07449197 0.06873023 -0.11812548
0000e0 87 a1 f2 3c 9b bc e8 ba 56 69 71 3c b1 c2 93 bd
       0.029618038 -0.0017756404 0.014734587 -0.07214869
0000f0 5e 68 a0 bd 87 4d 34 bd 95 5c 16 3d 0a 20 48 3d
       -0.078324065 -0.04401925 0.036709387 0.04885868
000100 99 24 8c bd 8a b0 44 3d 5b e9 dc bd 04 e5 13 bd
       -0.06842918 0.048019923 -0.107866965 -0.03610708
000110 a7 18 e6 3d 7d 6d 00 be fb c0 17 bd dd 3c de 3d
       0.11235171 -0.12541766 -0.037049275 0.108514525
000120 a3 52 62 bc fa 61 bc 3d 11 ee d3 bd cd 06 99 3d
       -0.013813647 0.09198375 -0.10348142 0.07472
000130 fc d4 ca 3a 5a b2 42 3d c2 79 df bc 5f 69 ca 3d
       0.0015474851 0.04753337 -0.027279738 0.09883379
000140 26 0e 04 3e 1f f4 bf 3b 17 9d dc bd f7 14 19 bd
       0.12896022 0.005857959 -0.1077215 -0.03737351
000150 79 b7 4f 3d 4f 15 c1 3d c4 fc db bd 08 ef f5 bb
       0.050712083 0.094278924 -0.107415706 -0.0075053014
000160 04 fd e8 3d 4f 4c a9 bd 5f bb 9f bd 33 af f5 3d
       0.11376384 -0.08266508 -0.0779941 0.11996307
000170 90 a5 d9 3d 38 d2 62 3d 44 68 51 3d 41 70 ca bc
       0.10627282 0.05537626 0.051124826 -0.02471173
000180 67 4e b8 bd 2c 9d 01 be 67 a2 ef 3d 22 56 d0 3d
       -0.08999329 -0.12657613 0.11700898 0.101726785
000190 4e 00 79 3d e1 e0 7e 3d 07 d0 22 bc 79 f4 95 bd
       0.060791306 0.06222618 -0.009937293 -0.0732202
0001a0 df c1 c5 bd c1 2f f0 bd e8 2a ee bd cb 0b c3 3d
       -0.096561186 -0.11727858 -0.116292775 0.09523734
0001b0 7e 0f af bd b2 4e 8d b9 39 63 16 3d 01 61 6a 3d
       -0.08547877 -0.00026952248 0.03671572 0.057221416
0001c0 e2 17 b4 3d 92 57 f0 ba 5c e6 cc 3b 84 00 53 bc
       0.08793618 -0.0018336645 0.006253047 -0.012878541
0001d0 29 99 23 3d a9 93 e4 bb 5f 5c 61 bd a2 a5 7b 3d
       0.039940987 -0.0069756103 -0.055019733 0.061437257
0001e0 95 eb 56 3d b8 b7 78 bd e5 73 c9 3d 18 58 5e 3d
       0.052470762 -0.060722083 0.09836558 0.05428323
0001f0 02 8c 9a 3c fb e6 50 3d c8 4d ba bd 16 b9 9c 3d
       0.018865589 0.05100153 -0.09096867 0.0765249
000200 b7 20 f6 bd 0b 66 a7 bd 2a 50 82 bd 1c e6 d0 bd
       -0.120179586 -0.0817376 -0.06362946 -0.1020014
000210 6c 63 85 3d d2 39 1c 3d cc c7 01 bd b4 88 58 3d
       0.06513104 0.03814108 -0.03168468 0.052864745
000220 6f 81 d8 bd d0 57 1b bd 59 81 28 3d 4e 88 c1 3d
       -0.105715625 -0.03792554 0.04113898 0.09449826
000230 57 49 93 3d 03 4e e6 bd 35 79 b2 bd e5 9c b5 bd
       0.07191723 -0.11245348 -0.08714525 -0.08867816
000240 20 4e d6 3d ef ba 96 3c ef b6 ad bd 51 8a af 3d
       0.1046412 0.018399684 -0.084821574 0.08571304
000250 c8 fb 8c bd 73 0f b6 bd 62 b1 90 3c 49 0b 82 3d
       -0.06883961 -0.088896655 0.017662708 0.06349809
000260 84 88 86 bc 0a f0 b2 bd 84 f9 b8 3d c8 52 f4 bd
       -0.016422518 -0.0873719 0.09031966 -0.11929852
000270 7e d0 5b bc 33 a5 b1 3c 2e 10 8c bd 97 1b 3b 3d
       -0.013416408 0.021685218 -0.068390235 0.04568061
000280 92 87 ee bc b3 ef 4b bd e2 99 af 3c bd c1 b2 3d
       -0.02911738 -0.049789142 0.021435682 0.08728359
000290 63 b4 ed bd 5f 6d 37 3c 8e 9e 38 3d 16 a2 04 3e
       -0.11606672 0.01119551 0.045073085 0.12952456
0002a0 f8 56 95 bd a8 af 1a 3d 13 5f af 3d b6 2f 00 be
       -0.072919786 0.037765175 0.08563056 -0.125182
0002b0 05 35 c6 bd dc 66 9d 3d d0 5e af bc a7 db e9 3d
       -0.096780814 0.076856345 -0.021407515 0.114188485
0002c0 56 a4 ab 3d af a1 b3 bd 22 42 f2 3d 24 0b 45 bd
       0.08380954 -0.08771073 0.1182902 -0.048106328
0002d0 1b 24 85 bd 26 6d 26 bd 7b a8 1d 3d 31 ce f0 3d
       -0.06501027 -0.040631436 0.038490754 0.11758078
0002e0 9d 30 e7 3d 36 af b1 bd 24 f9 80 3c 4a 97 f9 bd
       0.11288569 -0.08675997 0.0157438 -0.12187059
0002f0 d4 e5 b8 bd 80 b6 e4 3d 72 12 8f 3d 19 f5 da bd
       -0.09028211 0.111676216 0.0698594 -0.1069128
000300 34 4c d9 bd 59 f3 8a bd ec 72 d8 3b 58 9e ad bc
       -0.10610238 -0.06784696 0.0066054966 -0.021193668
000310 49 14 8a 3d 2f 80 f8 bd b5 6d 7c 3c 78 bb ac 3a
       0.0674215 -0.12133824 0.015407016 0.0013178429
000320 88 52 c4 bd aa ff ca 3d 38 31 bd 3d bd c6 5c 3d
       -0.09586054 0.09912045 0.09237903 0.05390047
000330 17 ab fe 3d a0 57 b4 3d 32 2c f8 3c d0 dc ed bd
       0.124349765 0.08805776 0.030294511 -0.11614382
000340 a8 61 4c bd 54 07 5b 3d 3d 7c 1d 3c e3 37 60 3c
       -0.04989782 0.053473786 0.00961214 0.013685199
000350 05 6d a1 3b 67 1c 34 3d b3 c2 e8 3c 4c 03 94 bd
       0.004926326 0.0439724 0.028413152 -0.07227191
000360 aa c5 3b 3d 2d ce cd 3d b1 e9 0a 3d 13 a4 3a 3c
       0.045842804 0.100490905 0.03391427 0.011391657
000370 1f 2f 9e bd ad e1 c3 bd 4e 86 6d bd 16 43 a9 3d
       -0.077238314 -0.095645286 -0.05798941 0.08264749
000380 4e d8 91 bd 78 48 d5 bc 93 e0 48 3d 00 70 1f 3d
       -0.07121335 -0.026035532 0.049042296 0.03892517
000390 65 d3 aa 3d 92 fc 02 3e 80 95 3f 3c 96 b6 f6 bd
       0.083411016 0.1279166 0.011693358 -0.12046544
0003a0 95 29 c4 3d 01 35 52 3b ac e3 af bd ba 1b ec 3d
       0.09578244 0.003207505 -0.08588347 0.11528726
0003b0 04 7c c1 bd b9 aa 84 bd a3 a9 e3 3d 73 b8 65 3b
       -0.09447482 -0.06477875 0.1111634 0.0035052567
0003c0 88 ef e6 3c ae 8b 01 bd 3c 83 b6 3c 69 69 b7 bc
       0.02819039 -0.03162735 0.022279374 -0.02238913
0003d0 e2 61 e5 3c 52 56 1a bd ad 88 2e 3d e8 50 d2 bc
       0.028000776 -0.037679978 0.042610813 -0.025673345
0003e0 53 44 c1 bd 89 5b b0 bd 4b 05 7b bc 38 2f ce 3b
       -0.0943686 -0.08611209 -0.015321086 0.00629225
0003f0 77 7f c3 3d 89 5b 80 bd ec da 08 bd 53 ee 18 bd
       0.09545796 -0.06267459 -0.033411905 -0.03733666

weight f4 [256]
000000 5a 23 7c 3f 2f 8c 81 3f 17 c3 82 3f a0 40 78 3f
       0.9849144 1.0120906 1.0215787 0.9697361
000010 48 53 82 3f c3 17 82 3f 09 62 88 3f c6 a0 82 3f
       1.0181665 1.0163502 1.0654918 1.0205314
000020 d3 52 77 3f ab cc 76 3f bb 75 7e 3f eb 97 83 3f
       0.96610755 0.9640605 0.9939839 1.0280737
000030 36 e7 79 3f 4e 35 82 3f 7b e3 91 3f 2c f5 82 3f
       0.97618425 1.0172517 1.1397547 1.023107
000040 1f ac 82 3f 00 6c 81 3f b0 5a 81 3f 31 84 6e 3f
       1.0208777 1.0111084 1.0105801 0.9317046
000050 36 7a 82 3f 5a 0c 83 3f 92 de 78 3f 09 e8 75 3f
       1.0193546 1.0238144 0.97214615 0.9605718
000060 5c 5b 80 3f f3 d0 81 3f 61 90 72 3f 4f 4b 64 3f
       1.0027881 1.0141891 0.94751555 0.8917741
000070 94 04 81 3f 21 27 7f 3f 94 8a 83 3f 2f f4 81 3f
       1.0079522 0.9966908 1.0276666 1.0152644
000080 07 10 7c 3f 3c 8a 75 3f 8b cb 81 3f 80 35 75 3f
       0.98461956 0.95914054 1.0140241 0.9578476
000090 91 c9 7a 3f 07 6a 83 3f cb bf 79 3f 14 73 69 3f
       0.97963816 1.0266732 0.9755828 0.9119122
0000a0 55 70 80 3f f4 cb 81 3f c4 f1 83 3f 51 71 84 3f
       1.0034281 1.0140367 1.0308156 1.0347081
0000b0 3d c6 7d 3f 49 93 82 3f e3 2f 71 3f 5f ef 81 3f
       0.9913061 1.0201198 0.94213694 1.0151175
0000c0 62 1c 83 3f be e6 7b 3f 4e 7d 7c 3f 2e 14 83 3f
       1.0243037 0.9839896 0.986287 1.0240533
0000d0 af 51 85 3f 2f 0a 7a 3f f5 c1 7d 3f 92 3d 82 3f
       1.0415553 0.9767179 0.9912408 1.017504
0000e0 b7 c6 83 3f 13 6b 83 3f 4c 0d 75 3f 47 51 81 3f
       1.0295018 1.0267051 0.95723414 1.0102929
0000f0 54 25 84 3f 9f 11 82 3f d2 7f 87 3f be 92 82 3f
       1.0323892 1.0161628 1.0585883 1.0201032
000100 0d a1 7c 3f 39 f4 81 3f 3b d5 81 3f bc 29 81 3f
       0.98683244 1.0152656 1.0143198 1.0090861
000110 9a 7d 7d 3f 67 59 71 3f d6 1c 78 3f 13 a6 75 3f
       0.9901978 0.9427704 0.96919 0.95956534
000120 99 db 83 3f e3 02 82 3f b1 e7 84 3f 98 7a 78 3f
       1.0301391 1.0157131 1.0383207 0.97062063
000130 8c 9e 7e 3f f7 74 83 3f 95 19 84 3f 85 ec 83 3f
       0.99460673 1.027007 1.0320307 1.0306555
000140 f5 a8 81 3f eb 63 7d 3f f8 87 81 3f 65 09 82 3f
       1.0129687 0.9898059 1.0119619 1.0159117
000150 39 51 7f 3f 52 2b 83 3f 40 4a 83 3f f3 39 83 3f
       0.9973331 1.0247595 1.0257034 1.025206
000160 1e 77 6d 3f 59 a0 7f 3f af eb 77 3f 50 7e 7f 3f
       0.92759883 0.99854046 0.96844 0.9980211
000170 8d 87 7c 3f 68 ae 83 3f da bc 82 3f 9d ef 82 3f
       0.98644334 1.02876 1.0213883 1.0229374
000180 1f d3 82 3f 44 e8 81 3f 6a f5 81 3f f9 c5 72 3f
       1.0220679 1.0149007 1.015302 0.9483333
000190 80 c3 82 3f 54 92 82 3f d5 4b 7d 3f c1 1a 67 3f
       1.0215912 1.0200906 0.98943835 0.902752
0001a0 f5 c4 82 3f ca 2d 78 3f da 50 84 3f d1 e2 77 3f
       1.0216357 0.9694487 1.0337174 0.9683047
0001b0 c4 f0 6c 3f 60 5d 7e 3f a2 11 81 3f 80 0c 82 3f
       0.9255488 0.9936123 1.0083506 1.0160065
0001c0 ac b8 7f 3f 2c a4 81 3f 91 1e 82 3f 8a b6 80 3f
       0.9989116 1.0128226 1.0165578 1.0055707
0001d0 99 8d 7b 3f 83 b1 82 3f 1c 85 69 3f 8a 3e 81 3f
       0.98262936 1.0210422 0.91218734 1.009721
0001e0 e6 87 85 3f 24 3d 6d 3f 15 b4 80 3f 76 48 83 3f
       1.0432098 0.9267142 1.0054957 1.0256488
0001f0 44 67 6a 3f 3c 44 82 3f 05 4e 81 3f 71 9d 82 3f
       0.9156382 1.0177073 1.0101935 1.0204297
000200 01 13 84 3f 7c ad 83 3f 19 b7 74 3f a7 7c 81 3f
       1.03183 1.0287318 0.95591885 1.0116166
000210 43 19 81 3f ae 6f 80 3f 2e 55 74 3f 55 32 7e 3f
       1.0085834 1.0034082 0.95442474 0.9929555
000220 95 4b 72 3f ac 18 65 3f 1e 84 82 3f 1d 11 83 3f
       0.9464658 0.8949077 1.0196569 1.0239598
000230 ea a0 83 3f f1 4c 6f 3f d6 d4 70 3f a1 42 81 3f
       1.0283482 0.9347678 0.9407476 1.0098459
000240 94 b7 7d 3f 24 72 7a 3f 23 de 7f 3f bd 92 81 3f
       0.99108243 0.97830415 0.9994833 1.0122906
000250 2c 26 83 3f f9 c9 69 3f 37 49 82 3f b5 9b 82 3f
       1.0246024 0.9132381 1.0178593 1.0203768
000260 28 a5 83 3f a2 49 66 3f ab fc 7c 3f 96 d1 85 3f
       1.0284777 0.89956105 0.9882304 1.0454586
000270 06 11 83 3f ea db 71 3f fb cb 88 3f 00 d4 89 3f
       1.023957 0.9447619 1.068725 1.0767822
000280 ee 74 71 3f 2a e0 65 3f cd 7d 7b 3f 63 77 6c 3f
       0.94319046 0.8979517 0.9823883 0.9236967
000290 f0 0d 81 3f 31 9b 81 3f 54 49 86 3f 0e e3 75 3f
       1.0082378 1.0125486 1.0491128 0.9604958
0002a0 d2 95 7d 3f c0 69 7d 3f 28 df 80 3f 16 c1 82 3f
       0.9905673 0.98989487 1.0068102 1.0215175
0002b0 ae b0 82 3f a1 02 74 3f 40 72 78 3f a3 68 84 3f
       1.0210168 0.9531651 0.9704933 1.0344433
0002c0 fe 12 82 3f 84 b7 82 3f f1 88 85 3f 11 61 85 3f
       1.0162046 1.0212255 1.0432416 1.0420247
0002d0 c0 e2 82 3f 7b f3 7b 3f 64 d8 84 3f 1b 55 7a 3f
       1.0225449 0.98418397 1.0378537 0.9778611
0002e0 27 db 82 3f 50 a4 81 3f 9b 97 76 3f ab 47 80 3f
       1.022313 1.0128269 0.9632508 1.0021871
0002f0 44 4b 85 3f c4 9e 81 3f d9 cf 81 3f 63 88 6c 3f
       1.0413594 1.0126576 1.0141555 0.9239561
000300 82 71 6f 3f bf 9a 84 3f 87 b5 62 3f b7 c8 74 3f
       0.93532574 1.0359725 0.8855824 0.95618767
000310 c0 16 84 3f 5f d0 80 3f d4 b3 80 3f 85 0f 7f 3f
       1.0319443 1.006359 1.0054879 0.99633056
000320 82 88 81 3f 08 c9 80 3f 83 8d 7a 3f a0 18 83 3f
       1.0119784 1.006135 0.9787218 1.024189
000330 9f af 85 3f 70 04 82 3f c7 62 7b 3f 14 24 80 3f
       1.044422 1.0157604 0.981976 1.001101
000340 4b fb 85 3f 93 b4 86 3f 4a 7e 82 3f 96 82 82 3f
       1.0467314 1.0523857 1.019479 1.0196102
000350 5e 87 81 3f 97 88 82 3f 1b d6 82 3f 6e 2d 85 3f
       1.0119436 1.0197934 1.022159 1.0404489
000360 80 3a 69 3f 80 b5 7f 3f f8 3a 67 3f 27 56 7f 3f
       0.9110489 0.9988632 0.90324354 0.99740833
000370 ac 1f 85 3f d3 c7 81 3f 93 e5 80 3f 42 74 67 3f
       1.040029 1.0139107 1.007006 0.9041177
000380 61 ff 7c 3f 7a 34 81 3f 1e 5c 73 3f 18 a1 7f 3f
       0.9882718 1.009414 0.95062435 0.99855185
000390 38 c8 7e 3f 72 8a 83 3f 0f 88 6a 3f 3c 7d 81 3f
       0.9952426 1.0276625 0.9161386 1.0116343
0003a0 96 19 85 3f e9 43 7d 3f ca 71 80 3f 2b a1 77 3f
       1.0398433 0.9893175 1.0034726 0.967303
0003b0 3a 0e 83 3f 0c ca 81 3f af 57 84 3f 01 98 85 3f
       1.0238717 1.0139785 1.0339259 1.0437013
0003c0 0a 9e 84 3f c6 16 80 3f 2c c4 70 3f 10 c1 71 3f
       1.036073 1.000695 0.94049335 0.94435215
0003d0 85 49 82 3f 2f 1d 82 3f 4d 78 81 3f bd ad 91 3f
       1.0178686 1.0165156 1.0114838 1.1381146
0003e0 89 34 88 3f a1 94 79 3f 22 25 83 3f 52 a1 83 3f
       1.0641032 0.97492415 1.0245707 1.0283606
0003f0 36 15 6f 3f 81 f4 7d 3f 49 51 6d 3f 3d d9 78 3f
       0.9339174 0.9920121 0.92702156 0.9720648

bias f4 [256]
000000 e6 d3 aa 3b ce 5f c2 3b 99 3b ee bb d4 26 36 3c
       0.0052132485 0.005931831 -0.007270288 0.011117656
000010 3a e7 c9 3c 0e 0f 92 3b b8 68 d6 bb 19 6d 5b ba
       0.02464639 0.004457361 -0.006543245 -0.0008370444
000020 e7 b1 17 3a f4 e0 ab ba c5 90 13 bc 17 7f 76 ba
       0.00057867024 -0.0013113306 -0.009006684 -0.0009403093
000030 9f e1 93 bc c1 b5 da 3b cd 20 b2 bc 29 1f f7 3c
       -0.01805192 0.006674499 -0.021744156 0.030166226
000040 9a 58 5a bc e2 e8 2f 3b 5d b4 87 bc a2 83 c6 bc
       -0.013326788 0.002684169 -0.016565496 -0.02423269
000050 94 db 5f 3a b0 e6 54 3c aa d0 1a bb 94 f8 da bc
       0.00085394946 0.012994453 -0.0023622909 -0.02672986
000060 d6 0e 5e bc bc 46 88 3b ae 16 a7 bb 70 3e f0 bc
       -0.013553342 0.004158823 -0.005099139 -0.029326648
000070 70 b3 00 3b 4f e3 2d bc 7a 63 19 3d ac 1e d3 ba
       0.0019638203 -0.010613277 0.037448384 -0.0016107163
000080 60 2c d0 3b 45 8b 6c 3a f2 04 59 3c 4b dc 41 bc
       0.006352946 0.00090234383 0.013245808 -0.011832307
000090 1d c1 48 bb 68 7f d7 3c 87 ba 58 bc b7 f0 d3 bc
       -0.0030632683 0.02630587 -0.013228065 -0.025871618
0000a0 3b a3 37 bc 66 c8 a4 3c cb d7 b4 3c 6e 88 9d 3b
       -0.011208351 0.020115089 0.022075554 0.0048075235
0000b0 52 77 a7 3b d6 1e c0 3c 83 60 c0 bc 8c 7c 16 3b
       0.0051106596 0.023452204 -0.02348352 0.002296242
0000c0 15 ca 2b 3d da 44 9f 3c 74 f5 0c 3b 95 e2 3a 3c
       0.041940767 0.01944201 0.0021508606 0.01140656
0000d0 39 18 2a 3d 89 53 70 bb 9d 8b 12 3b ce 75 27 3c
       0.041527007 -0.0036670885 0.0022361048 0.010220958
0000e0 78 99 20 3d e7 74 d9 3b e9 3d 82 bc ca 50 91 3c
       0.03920886 0.0066362503 -0.015898662 0.017738719
0000f0 87 a7 88 ba b7 14 ae 3c 74 10 df 3c a6 7d ab 3c
       -0.0010425904 0.021250112 0.027229525 0.020933937
000100 1f 9d bd 3b ff b6 e5 3c b9 2c 6f bc 64 29 01 3d
       0.0057865526 0.02804136 -0.014598065 0.031533614
000110 ff 64 c3 3b 90 c7 03 3c 48 76 30 3b 63 ed 86 bc
       0.0059629674 0.008043185 0.002692597 -0.016470617
000120 20 b0 fb 3c 6f ff 05 bd 39 df 33 bb 70 60 1e 3c
       0.030723631 -0.032714304 -0.0027446283 0.009666547
000130 7a 19 c0 bb ea f9 01 3c b3 74 83 3d 60 d2 05 3c
       -0.005862412 0.007933119 0.06418743 0.008167833
000140 2b b1 ca 3b 79 31 b2 3b 85 b2 e2 3b 74 b0 fd 3c
       0.006185671 0.0054380265 0.006918254 0.030967928
000150 26 2a f3 bc 3b 5e e2 3c f3 d6 5a bc 93 29 0c 3c
       -0.029683184 0.027632823 -0.013356912 0.008554834
000160 b8 96 59 bc 68 92 1a 3c 14 d3 12 bc 87 6a 0c 3b
       -0.013280563 0.00943432 -0.008961458 0.00214258
000170 09 c4 fe 3a 7f c9 db bb 99 2d b8 3c c3 d8 3e 3d
       0.0019437085 -0.00670737 0.02248268 0.04659344
000180 00 cd 43 3c d6 ee be 3c 12 22 0b ba ec eb 75 bc
       0.011950731 0.023307245 -0.0005307506 -0.015009861
000190 6c a8 14 3c 89 54 99 3c 95 ab fd bb 1c 07 65 bd
       0.009073358 0.018717067 -0.0077414014 -0.055914983
0001a0 37 44 05 3d 54 00 72 3c 1f 3a d2 3b 47 d0 83 bc
       0.032535758 0.014770586 0.00641562 -0.016090525
0001b0 f0 fb ec ba cc 21 0a 3b fd e9 76 3c 84 37 41 3b
       -0.0018080454 0.0021077273 0.015070436 0.0029482553
0001c0 f9 b6 42 3a ad 1c e8 3c 6b 89 1b bd 15 27 9e bb
       0.0007427778 0.028333986 -0.03797285 -0.0048264363
0001d0 25 06 0b bc d2 6a a7 3c 94 b6 02 bd 95 9e 43 3c
       -0.008485352 0.020436678 -0.0319124 0.011939664
0001e0 83 73 7a 3c d6 94 83 bc 19 95 94 bb eb ce 7c 3c
       0.015286329 -0.016062181 -0.0045343754 0.015430192
0001f0 2b 5b bd bc a3 e0 8f 3c 2e 4c 87 3b 4c 00 dd 3b
       -0.023114761 0.01756317 0.0041289544 0.00674442
000200 66 ef a5 3c 63 7a 3c ba 84 cd 8d 3b a4 7f 2c 3c
       0.020255756 -0.0007189868 0.004327478 0.010528479
000210 96 9c 47 3b 6d 09 3b 3c ba a9 f7 3b 3f 73 65 bc
       0.0030458323 0.0114158215 0.007558075 -0.014004528
000220 ed b4 f5 bc 19 ea 17 bd ad a4 10 3d aa 74 d9 3c
       -0.029993499 -0.037088487 0.035313297 0.026544888
000230 de 30 cf 3b 6c f3 14 3a df 3d 36 bc e9 ac 86 bb
       0.006322964 0.00056820246 -0.01112315 -0.004109968
000240 36 8c bd bc ea 5b 36 bc cb 0f c4 3b 79 0f db bb
       -0.023138147 -0.011130312 0.005983328 -0.006685194
000250 62 54 15 3d b6 fa b3 bc a2 1a 56 3c 17 04 97 3c
       0.036457427 -0.021970134 0.013067873 0.018434567
000260 d1 d2 78 3c 9e 93 ff bc 3d 1b be 3c d4 ca b4 3c
       0.015186981 -0.031198319 0.023206348 0.022069372
000270 87 3d 90 3b c4 67 41 bc da 48 d5 3b 56 63 e9 3c
       0.004401866 -0.011804525 0.0065089287 0.02848975
000280 48 b4 eb bc c3 7b b2 bc 41 4c e4 3b 00 ac 26 bd
       -0.028772488 -0.02178753 0.006967098 -0.040691376
000290 df 16 a2 bb 9c 24 8b bc 1a 2c 84 3c 07 83 08 bb
       -0.004946574 -0.01698523 0.01613431 -0.0020830052
0002a0 17 c0 f3 3c 0f b2 48 bc 10 e7 ab bb c7 b3 3f 3c
       0.029754682 -0.012249484 -0.0052460507 0.011700577
0002b0 74 f6 8c 3c 0e 52 85 bc 74 32 56 bb 59 56 68 ba
       0.017207362 -0.016274478 -0.003268388 -0.00088629645
0002c0 57 79 6b 3c cc 08 35 3c 47 07 46 3c f2 55 2a 3d
       0.014372191 0.011049461 0.012086696 0.04158587
0002d0 4a 86 19 3d 7c 96 ed bb 1a 81 a3 3c 0d b9 8f 3b
       0.037481584 -0.007250605 0.019959021 0.0043860734
0002e0 85 75 6f 3c 42 b2 1c bb 40 7f 93 3b d6 f1 00 3b
       0.014615421 -0.002390996 0.0045012534 0.0019675395
0002f0 a5 19 36 3d a8 45 7c 3c 16 59 5b 3c f7 34 88 bb
       0.04445805 0.015397467 0.013387939 -0.0041567045
000300 12 1a 01 3c 40 cc 72 3d f7 7d 09 bd a9 c3 1c bb
       0.007879751 0.05927682 -0.033567395 -0.0023920333
000310 e3 5f e5 3c 2d f9 23 3c c5 5e ed bc 8c 26 a5 3b
       0.027999824 0.010008139 -0.028975854 0.0050399955
000320 96 14 08 3b 1b 92 dd bc 38 78 91 3b 66 3c 6a 3c
       0.0020764223 -0.027047208 0.00443938 0.014296627
000330 ee 78 ae 3c 57 cf b5 3b 26 c5 39 3c a0 2e ae 3c
       0.021297898 0.0055483985 0.011338508 0.021262467
000340 d0 21 2d bc de c6 0a 3c be 2c aa 3b 71 eb 66 3a
       -0.010567144 0.008470265 0.005193322 0.0008808887
000350 94 db 0a bc b7 3d 9e 3c 19 e4 3b 3d c2 51 39 3d
       -0.008475203 0.019316537 0.045871828 0.045243986
000360 b5 08 fa bc 75 d5 cd 3c 3f 11 40 bc c6 e3 45 bb
       -0.03052173 0.025126198 -0.011722862 -0.0030195578
000370 64 b7 b4 3c c7 76 bd 3c 34 f5 97 3b ec 29 46 bd
       0.022060104 0.023127927 0.004637385 -0.048379824
000380 f1 9f 85 ba 67 27 92 3c 93 0d 39 bc ab fa 40 3b
       -0.0010194761 0.017841054 -0.01129474 0.0029446285
000390 b5 fa a6 3c bc 80 23 3d 52 e9 f6 bc ec c3 a2 bb
       0.020383218 0.039917693 -0.030140553 -0.0049672034
0003a0 e9 fa d0 3c 1b e9 cd bc c8 a5 82 bc 3f 8d 12 bc
       0.025510268 -0.025135567 -0.015948191 -0.0089448085
0003b0 d1 fa e2 3c 4a e2 2a 3c dd 67 0c 3d e0 f9 8e 3c
       0.02770749 0.010429928 0.03427874 0.017453134
0003c0 9b 04 a2 3c bd 50 a6 3c d2 b9 dc 3b 72 86 24 bc
       0.019777587 0.02030217 0.0067360187 -0.01004182
0003d0 70 6d 2b 3d c2 8d 17 3c f1 16 dc 3b bc 6b b0 bc
       0.041852415 0.009250106 0.006716602 -0.021535747
0003e0 07 b5 2c 3d 28 22 0e 3d 71 fb b6 3c 2c c2 d0 3c
       0.04216483 0.034700543 0.022336693 0.025483213
0003f0 17 1c bf bc ff 6b 02 bc 81 26 06 bd e4 66 9a bb
       -0.023328824 -0.007960319 -0.032751564 -0.0047119725

running_mean f4 [256]
000000 d8 dc 0c c3 f4 13 1c c4 b3 c6 f6 42 52 36 24 c3
       -140.86267 -624.31177 123.388084 -164.21219
000010 d3 5a 41 44 a2 89 64 c3 63 b1 e9 44 65 68 5f 43
       773.4191 -228.53763 1869.5433 223.40779
000020 87 1d 28 44 c7 7a 29 44 f4 3b 07 c4 23 38 f9 c2
       672.46136 677.9184 -540.93677 -124.60964
000030 a2 38 b6 c3 d3 7c cc c2 46 d9 e1 44 05 ca 5f c3
       -364.44244 -102.2438 1806.7898 -223.78914
000040 87 8a d4 42 58 98 d0 43 2e 8f 99 c3 69 1f e6 43
       106.27056 417.1902 -307.1186 460.2454
000050 94 58 b2 43 1d c3 69 c2 95 ed ac 43 3a e9 08 c4
       356.69202 -58.44054 345.8561 -547.64417
000060 5b f6 cc c3 13 90 b3 c3 f1 db 02 44 e3 c9 d7 43
       -409.92465 -359.12558 523.4366 431.57724
000070 25 d8 05 c3 55 89 c5 41 95 d2 5f c4 e2 af 78 c3
       -133.84431 24.692057 -895.29034 -248.68704
000080 84 17 14 c2 8b ff 07 c4 ed 8a 1f c4 ee e2 8d c3
       -37.022964 -543.99286 -638.1707 -283.7729
000090 07 6a f7 42 e7 88 17 c3 85 6c b4 c0 fc 8a 05 44
       123.707085 -151.53477 -5.638247 534.17163
0000a0 d8 53 d7 c3 74 cc b9 42 24 35 58 c3 41 d7 c2 43
       -430.65503 92.89932 -216.20758 389.68167
0000b0 2b 08 a2 c3 95 30 95 43 f7 df 8e c3 71 90 02 42
       -324.0638 298.37955 -285.74973 32.641056
0000c0 91 b9 a1 43 ca 18 ce c3 fd fb b6 c3 a4 a2 0d 42
       323.44974 -412.19366 -365.96866 35.40883
0000d0 59 83 0c c3 4e 04 69 c0 43 58 6a 43 ad a0 90 c3
       -140.51308 -3.6408877 234.34477 -289.25528
0000e0 7b fa 8e c2 dc a6 98 43 b5 03 6b 41 7a 33 a4 43
       -71.48922 305.3036 14.688405 328.40216
0000f0 b9 1c 25 c3 83 13 ac 42 58 4d 8c c2 5e 46 ab 43
       -165.1122 86.03811 -70.15106 342.54974
000100 ba c3 e8 c3 dd cc 5a c1 3d ac 8a 43 42 d2 c0 c2
       -465.5291 -13.675015 277.3456 -96.41066
000110 5c 5f 9c 43 8a 56 60 c3 36 69 9d c3 ad 45 73 43
       312.745 -224.33804 -314.82196 243.27217
000120 0b 2a 8e 42 10 b0 c3 c0 54 86 ad c3 5c 81 9f 43
       71.082115 -6.115242 -347.04944 319.01062
000130 b4 0b 17 43 4a 15 a9 43 3c 47 99 c2 5d c5 07 c3
       151.04572 338.16632 -76.63913 -135.77095
000140 a2 b9 5b c2 d0 db d3 c2 84 7b 97 43 39 0f 5a 43
       -54.931282 -105.92932 302.96497 218.05946
000150 fa 68 17 c4 71 87 fa c2 e7 1f 65 c2 c4 cd a4 42
       -605.64026 -125.264534 -57.281155 82.401886
000160 53 fa d1 41 bc 9f d6 43 51 67 c4 c3 40 b1 fd 43
       26.247229 429.24792 -392.80716 507.38477
000170 64 ee 1e 44 df ef 8f c2 ad 7a 15 c3 44 44 04 43
       635.72485 -71.9685 -149.4792 132.26666
000180 54 84 40 c2 d6 35 f1 42 a6 cc a1 c2 de 6b 74 43
       -48.129227 120.60515 -80.899704 244.42136
000190 44 f4 29 c3 81 df 82 c3 14 38 0c c4 35 b2 e2 43
       -169.95416 -261.74612 -560.8762 453.39224
0001a0 c9 5a 53 c3 76 f6 65 c2 9b c9 06 c4 2a 27 9b 44
       -211.35463 -57.490685 -539.1501 1241.2239
0001b0 21 15 3c c4 5d 58 8f 42 53 b0 ee c3 67 95 82 c2
       -752.33014 71.672585 -477.37753 -65.2918
0001c0 71 a4 f6 c3 7a e4 93 41 52 1e 97 44 c6 b3 73 3f
       -493.2847 18.48656 1208.9475 0.9519619
0001d0 1a e3 09 43 be 2b 52 44 c9 7f 72 c3 56 9b d6 c2
       137.88712 840.6835 -242.49916 -107.30339
0001e0 65 76 ac c3 06 cc d6 c3 41 93 71 43 95 67 28 43
       -344.92496 -429.59393 241.57521 168.40462
0001f0 29 05 8e 42 1b e1 28 43 c6 25 03 c4 b9 47 c9 43
       71.01008 168.87932 -524.5902 402.56033
000200 68 94 a3 c3 df b6 27 c4 ad 16 3b 44 a2 94 15 c3
       -327.15942 -670.85736 748.3543 -149.5806
000210 99 19 3b 43 c6 56 1c c4 51 ff e5 c2 1d 5b 16 c3
       187.09999 -625.35583 -114.998665 -150.35591
000220 72 ce 15 43 b2 fa 9b 43 3e a8 89 c2 fe 9a 0d 44
       149.80643 311.95856 -68.8286 566.42175
000230 7b 3f 5e c3 fc 22 8d 43 5d 60 82 43 5a da 51 c3
       -222.24797 282.27332 260.75284 -209.85294
000240 7b 66 a7 43 74 91 d2 43 06 b4 e5 c3 78 13 3f c3
       334.80063 421.13635 -459.40643 -191.07605
000250 2b 6b 5b 43 87 9c e7 43 e2 9b 14 c2 94 17 44 43
       219.41862 463.22287 -37.15223 196.0921
000260 85 d6 f2 c3 53 dd 4f 43 8b b1 1f c2 df 9a 90 c3
       -485.67593 207.86455 -39.92338 -289.20993
000270 c6 6d 8f 42 f6 fc ae c2 b0 d4 8b c3 c2 f9 b2 c3
       71.7144 -87.494064 -279.66162 -357.95123
000280 06 4d 24 44 c2 d3 32 43 df d3 b6 c3 57 30 2e c4
       657.2035 178.82718 -365.65524 -696.7553
000290 8c 24 b2 c3 68 13 bc c3 21 96 0c c4 f0 9f f3 c3
       -356.28552 -376.1516 -562.34576 -487.2495
0002a0 a3 46 00 c3 4f f6 d7 41 75 9e cf 43 30 52 99 c3
       -128.27592 26.995268 415.23795 -306.6421
0002b0 c8 82 28 43 cd 2f b6 43 7b 22 54 c3 c3 63 af c3
       168.51086 364.37344 -212.13469 -350.7794
0002c0 b3 4e 86 43 03 d7 0c 43 51 a4 04 c3 40 6a c5 c3
       268.61484 140.83989 -132.64186 -394.83008
0002d0 db 4c 75 41 f7 06 54 c3 25 66 e4 c3 a1 c1 85 c3
       15.331264 -212.0272 -456.798 -267.51273
0002e0 c9 0d 90 c2 46 d3 c8 c3 a5 1a 45 44 89 dc a1 c3
       -72.026924 -401.65057 788.4163 -323.72293
0002f0 04 87 c4 c2 50 a5 4c c3 7b 3a 0a 43 b3 fe 39 44
       -98.2637 -204.64575 138.22844 743.9797
000300 38 32 f0 c1 c9 4f a5 c3 59 bf 72 c3 f5 c1 e6 c2
       -30.02452 -330.62332 -242.74745 -115.37882
000310 b0 0f 80 c3 35 30 84 c3 3f 41 b5 43 b2 8e 90 43
       -256.12256 -264.37662 362.50974 289.1148
000320 7a c4 67 43 60 4b 9b 44 7e 76 ec 42 67 b9 a3 c3
       231.76749 1242.3555 118.23143 -327.44846
000330 63 bb b9 c3 db ef 98 c3 05 7e 3b c3 b9 45 09 43
       -371.46396 -305.87387 -187.49226 137.27235
000340 37 e4 42 44 7d f8 81 44 62 93 7a 42 0c fa 01 41
       779.56586 1039.7653 62.64393 8.123547
000350 f9 58 38 c3 d9 84 b8 c3 81 97 38 43 c5 5c e9 c2
       -184.34755 -369.03787 184.59181 -116.68119
000360 0f ea 13 43 55 dd e4 c3 dd 4d 09 44 de 8d b3 43
       147.91429 -457.72916 549.2166 359.10834
000370 a7 46 0c c4 71 4c c5 c3 bd 9c 4e 43 2a 7a b5 c1
       -561.10394 -394.5972 206.61226 -22.68465
000380 55 4a 38 43 b5 92 0d c3 b3 8d 45 c3 8b 65 1f c3
       184.29036 -141.57307 -197.55351 -159.39665
000390 12 02 40 41 1f f9 aa c3 9f 20 a9 43 59 82 ac 43
       12.000505 -341.94626 338.25485 345.01834
0003a0 80 46 31 42 59 a6 b8 40 d6 a8 8d c3 cd a0 95 c2
       44.318848 5.770306 -283.31903 -74.814064
0003b0 68 84 c0 41 0c 6b 8e c3 3c b8 89 c3 35 52 e6 41
       24.064651 -284.8363 -275.43933 28.79014
0003c0 80 e6 ac c3 84 97 9b c3 c1 02 2e c3 58 68 84 c1
       -345.80078 -311.18372 -174.01076 -16.55095
0003d0 9d dc af c2 62 8a 0c c2 c8 81 51 43 b9 6f 53 44
       -87.930885 -35.13514 209.50696 845.74567
0003e0 b2 a8 af c3 25 c6 27 44 c7 75 a0 c2 f6 2f d5 c2
       -351.31793 671.096 -80.230034 -106.59367
0003f0 67 e5 21 44 25 62 d7 c2 34 24 fd c2 be 45 a6 40
       647.5844 -107.69169 -126.57071 5.1960135

running_var f4 [256]
000000 59 d2 fc 41 08 bb de 41 87 c3 81 41 4f 64 58 42
       31.602709 27.841324 16.220472 54.097958
000010 ad 15 db 41 9e 52 54 43 b9 c9 30 43 29 3c 72 42
       27.385584 212.32272 176.78798 60.55875
000020 24 b7 d4 42 1a 9b 3d 43 29 d4 86 42 74 19 13 41
       106.3577 189.60587 67.414375 9.193714
000030 a8 f2 89 41 f6 4c 16 42 55 eb 29 44 60 4e 57 42
       17.243484 37.575157 679.67706 53.826538
000040 28 91 10 41 3b 68 69 43 fb 2f 32 43 bb c8 9f 43
       9.035439 233.40715 178.18742 319.5682
000050 76 52 82 43 55 b3 91 42 ec fa 1d 41 d6 2d 19 42
       260.64423 72.85026 9.87376 38.29476
000060 53 1a d8 41 ed 35 47 43 58 3c d8 41 0e 17 9c 42
       27.012854 199.21065 27.029465 78.04503
000070 cc 43 09 43 ff 27 4b 44 a9 aa 0a 44 ad e3 48 43
       137.26483 812.62494 554.66656 200.88936
000080 87 39 0d 41 59 65 cc 41 7f 4e da 41 a4 61 fc 41
       8.826545 25.549486 27.288328 31.547676
000090 8d 61 77 42 dd 01 4c 42 98 4a 1a 41 d7 52 a9 43
       61.845264 51.00182 9.643211 338.6472
0000a0 53 94 fc 43 23 07 8c 41 87 99 82 41 1a 70 1b 41
       505.15878 17.503485 16.324965 9.714869
0000b0 6d e2 80 41 b1 97 04 42 f8 49 8c 42 20 0b 4a 42
       16.11056 33.148136 70.14447 50.510864
0000c0 b5 d2 d0 42 3c 88 19 42 c3 00 39 41 f6 41 31 42
       104.41154 38.38304 11.562686 44.314415
0000d0 50 0a fc 42 eb d2 80 42 76 13 a5 42 f0 68 03 41
       126.02014 64.41195 82.53801 8.2131195
0000e0 dd 52 5d 41 1a 71 f4 42 6a f0 9b 40 c0 08 8c 42
       13.83273 122.2209 4.8730974 70.01709
0000f0 02 09 ae 41 57 08 ca 42 c7 17 3f 41 69 65 82 43
       21.754398 101.01629 11.943305 260.79227
000100 0b 8b b5 41 a6 d4 e6 41 83 66 35 42 a4 47 05 42
       22.692892 28.853832 45.35011 33.31996
000110 82 91 2c 42 a9 85 72 42 8c 9c a0 41 7c 00 3a 42
       43.142097 60.630527 20.076439 46.500473
000120 55 0f 42 42 91 3d f9 40 11 65 b3 41 d9 17 d7 40
       48.514973 7.7887654 22.424349 6.721661
000130 ea 4d 63 41 91 16 3d 42 1c 3e af 41 1b 1c 39 41
       14.206522 47.272038 21.905327 11.569362
000140 3e 0d 3c 41 0d e9 0f 42 d9 5d 04 43 5e be c3 43
       11.753233 35.97759 132.3666 391.48724
000150 01 60 d4 43 a3 ea a8 41 b1 5f 49 41 50 ce f5 40
       424.75003 21.114569 12.585862 7.6814346
000160 36 fc 0b 42 c0 75 bd 41 95 14 99 41 e8 08 49 42
       34.9963 23.682495 19.13505 50.258698
000170 81 b6 7e 42 a0 4d 0a 41 48 31 7b 41 d8 8e 97 42
       63.678226 8.643951 15.699532 75.77899
000180 36 e7 bb 41 2b 70 f0 42 94 f0 e5 41 ff 14 75 42
       23.487896 120.21908 28.74247 61.270504
000190 28 20 aa 41 20 b4 cc 41 33 8e e8 42 91 9f 0f 44
       21.265701 25.587952 116.27773 574.4932
0001a0 22 9a c2 42 9c 7d 08 42 38 19 be 41 9a 63 a9 42
       97.30104 34.122665 23.762314 84.694534
0001b0 44 8f eb 41 60 10 d8 42 95 0a 33 41 e2 a0 76 42
       29.444954 108.03198 11.1900835 61.657112
0001c0 68 0e 5b 43 2e ee b7 42 6c 14 c4 43 84 01 15 42
       219.05627 91.965195 392.15955 37.25148
0001d0 24 ef 16 42 ff a4 29 43 92 fa 14 41 25 da 0e 42
       37.733536 169.64452 9.311174 35.71303
0001e0 20 87 8d 41 87 2e 08 43 5a 6e 80 41 39 a0 c0 42
       17.690979 136.18175 16.053883 96.312935
0001f0 0e 6b 6e 42 98 a7 82 42 4c d4 1d 43 31 e2 d2 42
       59.604546 65.32733 157.82928 105.44178
000200 5e f4 1d 42 48 79 ff 42 e9 42 ed 41 b1 60 36 41
       39.48864 127.73688 29.657671 11.398606
000210 14 bb dd 42 f6 5c 5c 41 6c 5c 21 42 02 1d ee 41
       110.86539 13.772696 40.340256 29.764164
000220 1d d6 45 42 75 e9 2c 41 38 01 d7 41 c2 1d 70 42
       49.459095 10.806996 26.875595 60.02906
000230 dc a5 93 41 2a 42 19 43 1e f9 cd 41 92 06 51 43
       18.455986 153.25845 25.74664 209.02567
000240 2a b5 e0 40 c8 39 5b 41 24 88 37 42 bf 05 5a 42
       7.0221148 13.701607 45.88295 54.50561
000250 f9 c7 f4 41 7b f8 92 43 b2 53 bd 41 16 34 83 42
       30.597643 293.94125 23.665867 65.60173
000260 11 b9 45 41 e3 6b 11 44 e9 4f 63 43 73 7e ae 41
       12.357682 581.6857 227.31215 21.811743
000270 ae 04 80 41 f1 cf e0 43 02 23 cb 41 06 b4 e9 41
       16.002285 449.62454 25.392094 29.212902
000280 95 4c 70 43 fd 88 af 43 23 46 9d 41 d4 58 01 42
       240.29915 351.07022 19.659246 32.336746
000290 4f 95 8a 41 f9 d4 90 41 ab 58 7f 41 20 ef 32 42
       17.322905 18.10399 15.959147 44.73352
0002a0 7f 56 1b 43 c8 ef 12 41 3d ea 23 42 13 a2 9c 41
       155.33788 9.18354 40.97875 19.579138
0002b0 d5 32 bb 41 e2 2a 7a 42 7d 60 1a 41 db e7 53 41
       23.39982 62.541878 9.648557 13.244105
0002c0 88 e1 73 42 e6 3b 6c 43 c6 7a cc 41 6d 91 9e 41
       60.970245 236.23398 25.559948 19.821009
0002d0 4b 2e 31 42 98 67 28 45 d8 21 dd 41 b1 00 08 42
       44.295208 2694.4746 27.641525 34.000675
0002e0 8d d0 5c 42 ee 44 8a 43 fd e1 e7 42 3c 30 98 41
       55.203663 276.5385 115.94138 19.023552
0002f0 de 8d cd 41 d5 6f 83 42 b5 4c 9a 41 ac 7c 83 44
       25.694271 65.71842 19.287455 1051.896
000300 f8 b9 0e 41 0f 60 21 42 75 15 96 43 49 14 e1 41
       8.920403 40.343807 300.16763 28.134905
000310 a1 45 c6 41 71 7f 0b 43 28 5b ac 43 85 67 80 42
       24.783998 139.49782 344.71216 64.20219
000320 88 19 f2 42 de 04 24 43 64 be 3b 42 8a c0 59 41
       121.049866 164.01901 46.93593 13.609507
000330 58 3b b1 41 2e ee 85 42 64 3c d6 42 29 03 87 41
       22.153976 66.965195 107.11795 16.876543
000340 cb 4d b6 42 c0 c6 00 44 b1 66 ac 43 ef 27 ff 40
       91.15194 515.10547 344.80228 7.9736247
000350 4f e6 88 41 34 f3 4c 42 88 f9 97 41 12 dc 08 41
       17.112455 51.237503 18.996841 8.553728
000360 1b 35 e0 42 3d b3 a2 42 fe 0c 8a 43 23 24 af 43
       112.10372 81.350075 276.1015 350.28232
000370 eb df a1 41 51 a2 86 41 ea 92 c3 41 94 c6 08 42
       20.234335 16.829256 24.446735 34.193924
000380 7d b3 13 42 b5 ce 28 42 46 85 45 42 3f f7 5f 41
       36.92528 42.201862 49.38015 13.997863
000390 ed fe a4 41 c1 20 9e 42 98 6e 01 44 64 b0 27 42
       20.624475 79.06397 517.728 41.922256
0003a0 01 6e 9e 41 73 1a b6 41 0c ac b7 41 23 9d e7 42
       19.803713 22.762915 22.959007 115.80691
0003b0 cb 88 9e 42 b2 72 05 43 c5 ba 91 41 0b 6b ac 41
       79.26717 133.44803 18.216196 21.552267
0003c0 f0 8f cb 41 ce cf 34 42 0f fb 43 44 32 41 ab 41
       25.445282 45.202934 783.9228 21.406834
0003d0 9c 26 ea 41 82 b1 95 41 fd 9c 53 42 25 3e 7d 43
       29.268852 18.711674 52.90331 253.24275
0003e0 a6 30 e7 41 84 f8 bb 41 c5 e0 b0 41 85 b2 5e 42
       28.898754 23.496346 22.10975 55.674335
0003f0 42 5a d0 41 5f 9d e4 40 0c b5 ac 41 44 3e 21 42
       26.044071 7.1442103 21.588402 40.310806

weight f4 [256, 256]
000000 25 13 c7 bc 04 8c 44 bd ad 62 6f 3d 15 0f d5 bc
       -0.024301121 -0.04798509 0.058443714 -0.026008168
000010 41 26 8f 3b b0 b2 6b 3d e8 72 12 3d 4d 53 5b bd
       0.004368574 0.057543457 0.035754114 -0.05354624
000020 33 d1 6e bc 21 10 17 bb 16 92 82 bc bb df 09 bb
       -0.014576244 -0.0023050385 -0.0159388 -0.0021037895
000030 cb cc 37 3d 99 00 28 3d 9c 36 27 3b e7 47 54 bc
       0.04487304 0.041016195 0.0025514727 -0.012956596
000040 2c fa 78 bd 73 c4 b8 bc 9d 02 2c bd db 84 9f 3c
       -0.060785457 -0.022554612 -0.04199468 0.01947253
000050 05 06 61 3d 0e 95 07 3d 47 4d 3b 3c 5a f7 89 3d
       0.05493738 0.033101134 0.011431999 0.06736632
000060 d6 f9 30 bd 47 a5 c1 3c 25 8f d7 bc 15 b9 25 bd
       -0.043207012 0.02363838 -0.026313374 -0.04045971
000070 f6 a2 66 bd fb 33 ab 3c c8 36 a3 bc cb 5e 73 bd
       -0.056307755 0.02089881 -0.019923583 -0.059416573
000080 03 fc 49 3d 35 0c f2 bc 9d c8 29 3d c9 85 33 bd
       0.049312603 -0.029546836 0.041451085 -0.04382876
000090 01 18 ef bc e2 35 6d bd 1c 81 2f 3d a4 d8 85 bd
       -0.02918625 -0.057912715 0.042847738 -0.065354615
0000a0 a9 87 1c 3d 90 40 1b 3d 03 ed 15 bc 41 15 b7 3b
       0.038215313 0.03790337 -0.009150746 0.0055872505
0000b0 50 4b 6a bd 2d 97 20 bd b3 e1 18 3d dd 1d e9 bc
       -0.05720073 -0.039206672 0.03732462 -0.028456623
0000c0 0a 74 0c bd e1 41 61 bd c0 13 a6 3c 1d 3a 48 bd
       -0.03429035 -0.054994468 0.02027309 -0.048883546
0000d0 3b b5 2e 3d ef 7c d9 bc b5 e8 9f bc 58 c5 5e bc
       0.042653304 -0.02654883 -0.019520143 -0.013596855
0000e0 8b 25 74 3c b8 10 c8 3a 98 54 4b bd 04 0c 44 3d
       0.014901529 0.0015263772 -0.04964122 0.04786302
0000f0 50 e1 cc 3c 8e 6a 2e 3d 23 58 61 3d b4 ce 64 ba
       0.025009781 0.042582087 0.055015694 -0.0008728311
000100 ed e4 15 bd f8 63 fe bc cd 4c eb bc 8b b5 33 3d
       -0.036595274 -0.031053528 -0.028723145 0.043874305
000110 58 69 d1 3a 7a cc 30 bd 65 a4 6f 3c ba 86 de bb
       0.001597683 -0.043163754 0.014626597 -0.006790963
000120 b7 89 0f bd 2e 59 ae bc 86 af 65 bc 9c c5 23 3d
       -0.035043444 -0.021282759 -0.014018899 0.039983377
000130 c6 6c 2f bc 91 1d a2 bc 8a 33 30 3c 3d 6d 4f 3d
       -0.010707086 -0.019789489 0.010754475 0.050641287
000140 4e f4 47 bd 11 53 82 bd 3c 4f 3e 3d f2 a0 45 bd
       -0.04881697 -0.063635 0.046462283 -0.048249193
000150 ff 38 23 bd 30 7b 85 bc 75 d3 82 3c e3 68 8b b9
       -0.039849278 -0.016294092 0.015969971 -0.00026590293
000160 db 3c b2 bd 48 41 33 bb 1a 86 b4 3c cb ec 89 bd
       -0.087030135 -0.0027352143 0.0220366 -0.06734618
000170 0f 37 2f bd 2d c6 b7 3a b0 21 62 bd 1c 1b 0b bd
       -0.042777117 0.0014020853 -0.05520791 -0.0339614
000180 15 1d 04 bd 7f 3c 83 3c b6 6e fc 3c a0 c3 87 bd
       -0.032254297 0.016020058 0.03081451 -0.066291094
000190 d9 db 91 3c b3 96 fa bc 0e 17 0f 3c 7c 87 4d 3c
       0.017805027 -0.030589437 0.008733524 0.012544509
0001a0 c6 bc ce bc 83 39 2e bd 93 96 3e 3d 75 2f 26 bd
       -0.025236499 -0.042535316 0.046530318 -0.040572602
0001b0 cc 41 49 3c 42 f0 8e bc 23 43 5e 3d 18 1f 61 bd
       0.012283754 -0.017448548 0.054263245 -0.054961294
0001c0 53 82 87 3c 00 e1 6d bd 17 c2 6d bc f7 14 1f 3d
       0.016541636 -0.058075905 -0.014511607 0.038838353
0001d0 a3 3d 0b 3d 39 26 54 3d f8 f0 16 3d f8 a5 67 3d
       0.03399433 0.051794264 0.0368509 0.056554765
0001e0 18 9c 77 3d 0d 00 0b bc f8 60 ab 3a 18 79 87 bc
       0.060451597 -0.008483899 0.0013075164 -0.016537234
0001f0 73 91 ca 3c 8a 24 09 3d d9 d0 15 bd 60 45 89 bd
       0.024727559 0.033482112 -0.036576126 -0.06702685
000200 1f bb 18 bd 64 61 f6 3a 51 b0 77 3d 3a 22 9b bc
       -0.037287828 0.0018797335 0.060470883 -0.018937219
000210 a1 a4 d3 3c 0c 33 66 3c 00 d3 39 3d c0 89 19 bd
       0.025835337 0.014050256 0.04536724 -0.037484884
000220 e9 59 fb 3c d3 2d 69 bb 14 e9 a3 bc 9d 36 90 3d
       0.030682521 -0.0035580292 -0.020008601 0.07041667
000230 28 b6 73 bd 4f 87 3e bc e5 5d ed 3c e1 ed 58 3c
       -0.05949989 -0.01162894 0.028975436 0.0132403085
000240 3e ae e3 39 57 2b 38 bc e9 0e 52 bd 67 d2 d7 bc
       0.00043426635 -0.011240802 -0.05128375 -0.026345445
000250 c9 35 ba 3c 4b 93 c0 bc 83 8d 4a bd 2b e2 17 bd
       0.022730725 -0.023507735 -0.049451362 -0.037080925
000260 de 43 17 bd 19 e2 94 bd 17 87 4d 3b bf 37 16 3d
       -0.036929958 -0.07269687 0.0031361037 0.036674257
000270 da 53 0a bd ee 47 1e bd 76 bc 8a bd 3f 7e 1f 3c
       -0.033771373 -0.038642816 -0.06774227 0.009734689
000280 32 23 61 3c 62 54 7d bd b9 73 5d 3c 55 64 57 3c
       0.013741301 -0.06184805 0.01351636 0.01314648
000290 89 65 c6 3b ff 98 3b bd 57 86 e9 bc 81 56 57 3d
       0.0060545844 -0.045800205 -0.028506441 0.05257273
0002a0 a4 ed 84 3c a4 ff 8d 3c ab 4f 93 ba ae d8 47 bd
       0.016226597 0.017333813 -0.0011238953 -0.048790626
0002b0 9e 95 bd bc b7 0b 88 3c 19 5c 88 3d 8d 04 33 bd
       -0.023142632 0.016607149 0.06658191 -0.04370551
0002c0 08 34 c6 3c ce 63 38 bd 8c 7f a1 bc 0a f5 3b 3d
       0.024194732 -0.045017056 -0.01971414 0.045887984
0002d0 89 66 4a bd d4 1f 61 bd 3c 1e 76 bd 96 17 1b 3d
       -0.04941419 -0.054961994 -0.060087427 0.03786429
0002e0 6e 74 36 3d 42 d1 e0 bc cb e2 1a bd b8 d0 1b 3c
       0.04454463 -0.027443532 -0.037813943 0.009510212
0002f0 bf 0c 08 bd 3f 72 c8 bb c4 38 df bc 89 bf af 3c
       -0.03321528 -0.006117135 -0.027248748 0.021453636
000300 74 5e a4 bd 9a 6c 61 bd 4f 3d 24 3c d4 e0 28 3c
       -0.08025828 -0.05503521 0.010024383 0.010307509
000310 40 a2 0b bd 37 43 3b 3b b8 a0 2d 3d f9 17 1d bd
       -0.03409028 0.0028573999 0.0423896 -0.03835294
000320 d1 e3 1f 3d 84 7a 7a bc 6c b2 c4 3c 6e 0e 55 bd
       0.039035622 -0.015287999 0.02401086 -0.052015714
000330 12 0c 30 3d 3f 53 0d 3d 1a aa 4e bc 97 c2 f4 3c
       0.04298026 0.034503218 -0.012613798 0.029877944
000340 18 3f 78 bc 1d b6 82 3d d6 f3 7a 3c db 6a df 3a
       -0.0151517615 0.063823916 0.015316924 0.0017045395
000350 b2 f7 48 bd 00 73 9b 3c 57 f1 72 ba 51 c8 00 bd
       -0.049064346 0.018975735 -0.000926753 -0.031441037
000360 3f 93 e9 3c 42 0c 56 3d 45 aa 57 bd b1 fa 57 3d
       0.028512595 0.052257784 -0.052652616 0.052729312
000370 a9 34 df bb 0e 5f 9b bc 6e 45 7d bd 70 e3 50 bd
       -0.0068116975 -0.018966224 -0.06183379 -0.05099815
000380 81 00 61 bd f0 1c 07 3d 6b 1d b8 bc 97 7b 3e 3d
       -0.05493212 0.03298658 -0.022474965 0.046504583
000390 3e 35 7e bd 66 4c 59 bd 3e 26 d2 bc a6 af d7 bb
       -0.062062494 -0.053051375 -0.025653 -0.006582218
0003a0 a0 75 8b bd 4f a4 e7 3c 16 9b 00 3d 1b 31 51 3d
       -0.068095446 0.02827659 0.0313979 0.05107222
0003b0 13 4b 82 bd f9 94 81 bd d4 51 8a bc cc a0 e4 3c
       -0.063619755 -0.063272424 -0.016884722 0.027908705
0003c0 f3 df ec bc a0 1a 09 bd 48 e9 71 bd ed 6e b6 3c
       -0.028915381 -0.033472657 -0.059060365 0.02226969
0003d0 d3 db 4c 3c 8f 7a 22 bd 8f e7 c4 bc 99 ff 84 3d
       0.012503582 -0.039667662 -0.024036197 0.06494064
0003e0 89 07 37 3d b0 42 26 3d 70 c4 aa bb 23 9a 5f bd
       0.04468492 0.040590942 -0.0052114055 -0.054590356
0003f0 20 ee 91 bd d6 65 61 bd 26 a9 d3 3b 35 64 8a bd
       -0.07125497 -0.05502876 0.006459373 -0.06757394
