Predict/storage/MLP_256_200_SGD_11/trained_1.pt (torch, 339061 bytes, 13 tensors)

weight f4 [256, 58]
00000000: e3ba 80bd d370 a13d cdfb cf3d 605e b13d
00000010: 01da 57bd 75e7 db3d 7687 533d 5717 89bd
00000020: e697 9f3d b097 f5bc c0da f7bc 32e5 de3d
00000030: 88ba 17bd f45b ef3d c646 573d e4b8 fbbc
00000040: 84b0 dfbd 3710 e5bd 1f29 abbb 4f74 a5bd
00000050: 00b4 d1bd cb7f f1bd b3b4 353d 7f46 babd
00000060: a3b4 d23d 4d3d 48bc 508d 5f3d 2102 6fbd
00000070: 91fa f83d b0cb 333d b49e eb3c 376e 20bd
00000080: 3fa1 043e e598 4bbd 3fb5 dabd 82df 03be
00000090: 228d e9bd 142e bcbd 0084 c13d d857 d8bd
000000a0: 0f11 9dbc 599f 013e 21f3 1abd ca66 773c
000000b0: fb1d 923d 3c69 a2bc b2c0 0bbd 412a f33c
000000c0: 9c8d 98bd cd3c a93d ef80 c9bd b216 89bd
000000d0: cee8 e0bd c6b9 773d c217 86bb 24cd f4bd
000000e0: 416e b03d 285d ac3d 5d54 b2bd 4891 043c
000000f0: c7d7 2abd 1f65 bbbb e070 9b3c 051d fcbd
00000100: 86a2 8b3d 29a0 f7bd 6051 96bd 7edf 8a3d
00000110: e982 ec3d f051 a53d 0f7f d83d a55d 59bd
00000120: 0dd7 1bbd 661e cb3c 6448 eabd f722 ecbd
00000130: 538b c33d 6533 ddbd 1c6c 02be 9839 54bd
00000140: a2d8 50bd 1ba4 80bd a28f d33d 9561 df3d
00000150: b879 0dbd 5c70 443d 8a68 f2bc 0c99 b93c
00000160: 5e06 a9bd 452d d83c bafd 9cbb d29d 9dbd
00000170: 57c6 9b3c e748 793c 98d4 bcbd 5a70 cabd
00000180: 6410 e53d d50f 86bc e0b5 873d 554e 793b
00000190: 8368 4abd c321 013d 1a5a 263d 2847 fdbd
000001a0: 5d9c 713b 8f89 cc3d 8a6f 273d dbe3 053e
000001b0: 7502 b13d 994c debd 02e7 6a3b b8e2 e83d
000001c0: 83e2 93bd 92a6 843d 4c3a 9f3c b902 9e3d
000001d0: 93d5 9fbb ffd1 b1bd 6158 0abd 9699 31bd
000001e0: 7739 b63d 9d0e 1c3c 4f2e 66bd 594e 5a3d
000001f0: 22af f7bd 3293 cbbd 78a2 283d fab0 8bbd
00000200: 6478 08bd 3c08 0c3d f932 653c 68b4 b8bd
00000210: 6abd b9bd 7c44 ea3d 78e2 f93c 4c2d debd
00000220: 5a37 b23d e9ce 69bd 721e 823d 5dab b63d
00000230: 8daa 96bd 8b12 423c 06c2 43bc 62fc a0bd
00000240: a7f4 5d3d 12dc 5eba 3a53 1d35 3e15 b7bd
00000250: 685b b13c eb12 c63d 5944 573c 2f87 6abd
00000260: 37b1 3abd 9f9c 853d 985e cabd ea61 613d
00000270: 501d b5bc 12ba d03d e4b5 36bd 7a9b 05be
00000280: e683 963d 2fa4 bd3d 23f6 ff3d 7684 9cbd
00000290: 0769 c3bd 1dc6 a9bd c302 323d 09f8 fdbd
000002a0: 726c c7bd 9e8a 02be 1ad1 4abd 5782 c2bd
000002b0: 440a 3cbd 877e efbd 31e6 efbd be9f 1cbd
000002c0: b1e7 543d 6dc8 913d 955f bf3d 5b6e 72bd
000002d0: b605 733d 3eb9 5c3c 58b8 353c fa16 633d
000002e0: 5aa1 9abd 352d 52bd 6c2c 40bd bb5e 04be
000002f0: 8039 4b3d e849 683d 1f44 493c 3ea0 e8bd
00000300: 1085 b3bd fe6e 823d 33cf 38bd 5730 e3bd
00000310: 5ad9 55bd bd9b 96bd 5efb 693d 333b 10bd
00000320: d903 cfbd 2e79 61bd 933e 23bd 2145 913c
00000330: ee7f 9f3d 9fab a5bd f56a bebd 38ad 2b3d
00000340: 271a 39bd f472 c23d e99f cf3d 7387 9e3d
00000350: ec7f 5ebd 8970 e73d 5e15 df3d 9cff 97bd
00000360: a99a 003e e93a f83d 40c1 8abc 1684 cfbd
00000370: b2a3 253d 64e0 76bd 7408 f7bc a93d fbbd
00000380: e5ba 643d a821 d6bc c7f8 813d 0576 fd3d
00000390: 8485 613d 8e20 2a3d 8fc4 a0bd 4b90 2ebd
000003a0: ea2b 97bd 5f4e c7bd f1e7 17bd e8aa 75bd
000003b0: d561 033e e193 88bc 2703 1c3d 8af1 943d
000003c0: 8ca2 afbd 7529 85bd 0b12 84bd 8b08 86bd
000003d0: 1588 ef3d 4b7d 823d e217 9e3d 7086 b83c
000003e0: 8358 a2bd d63d f63d 78cf 043d 6d8c ac3c
000003f0: 8f50 e1bd 9c94 893d 18ae 9ebd dee9 aa3c
-0.06285646 0.07882848 0.10155449 0.08660579 -0.05269814 0.10737506 0.051642857 -0.06693905
0.07792644 -0.029979557 -0.030255675 0.10883559 -0.037043124 0.116874605 0.05255773 -0.030727811
-0.109223396 -0.11184733 -0.005223408 -0.08078825 -0.102394104 -0.11791953 0.04436178 -0.09095477
0.1028836 -0.0122216465 0.054578125 -0.05835164 0.12157167 0.043895423 0.028762199 -0.03916761
0.12952136 -0.04970636 -0.10679101 -0.1287823 -0.11403872 -0.09188476 0.09449005 -0.1056363
-0.019173173 0.12658443 -0.037829522 0.01510019 0.071346246 -0.01982557 -0.034119315 0.029683234
-0.07448885 0.0826355 -0.09839045 -0.06693782 -0.10981904 0.0604799 -0.0040921876 -0.1195319
0.08614779 0.08416206 -0.08707497 0.008091278 -0.041709688 -0.0057188417 0.018974721 -0.123102225
0.06818108 -0.12091095 -0.0733974 0.06780909 0.11548407 0.08072269 0.105711095 -0.053067822
-0.038046885 0.024794769 -0.11439589 -0.115301065 0.09548058 -0.10800818 -0.12736553 -0.05181274
-0.050987847 -0.06281301 0.1033013 0.10907284 -0.03453991 0.047958717 -0.029590864 0.022655986
-0.082531676 0.026388774 -0.0047909888 -0.076961175 0.019015474 0.015215135 -0.092202365 -0.098847106
0.11184767 -0.016364971 0.06626487 0.0038041074 -0.049416076 0.03152634 0.04061327 -0.123670876
0.0036866881 0.09987175 0.040877856 0.13075201 0.08643047 -0.108544536 0.0035843258 0.11371368
-0.07220938 0.06477083 0.019436978 0.07715363 -0.004877755 -0.08682632 -0.03377569 -0.04335936
0.08897679 0.009524968 -0.056196507 0.053297374 -0.12093951 -0.09940185 0.041170567 -0.06820865
-0.03331794 0.03418754 0.013989204 -0.09018785 -0.09069331 0.114388436 0.030503497 -0.108484834
0.08701964 -0.05708209 0.06353463 0.08919404 -0.07356749 0.011845241 -0.011948114 -0.07860638
0.054188397 -0.0008501421 5.860817e-07 -0.089395985 0.021650031 0.09671577 0.013138854 -0.057257827
-0.04557916 0.06524014 -0.098813236 0.05502502 -0.022108704 0.1019174 -0.04460706 -0.13047591
0.073493764 0.09259831 0.12498119 -0.076424524 -0.09541517 -0.0828974 0.043459665 -0.124008246
-0.09737481 -0.12748191 -0.04951582 -0.094975166 -0.045908228 -0.11694055 -0.117138274 -0.03823828
0.05197877 0.07118306 0.09344403 -0.059187274 0.05933162 0.0134719 0.011091314 0.055441834
-0.075503066 -0.051312644 -0.046917364 -0.12926762 0.049615383 0.056711107 0.012284308 -0.11358689
-0.08765614 0.06368826 -0.045119476 -0.110932045 -0.052209236 -0.073539235 0.057124488 -0.035212707
-0.10108156 -0.055047207 -0.039854597 0.017733159 0.077880725 -0.08089375 -0.09297744 0.04191324
-0.045190956 0.09494582 0.10137922 0.07740679 -0.054321215 0.11300761 0.10892747 -0.074218005
0.12558998 0.12120611 -0.016937852 -0.10132615 0.040439315 -0.06027259 -0.030155398 -0.1226762
0.0558423 -0.026139095 0.06346279 0.12376026 0.05505897 0.041534953 -0.078499906 -0.042618077
-0.07381423 -0.09731745 -0.03708643 -0.059977442 0.12830289 -0.016672077 0.038088944 0.072726324
-0.08575925 -0.06502048 -0.06448754 -0.06544598 0.116958775 0.06371554 0.07719399 0.022525042
-0.079270385 0.12023513 0.03242442 0.021063054 -0.110016935 0.06717798 -0.077480495 0.02086347

bias f4 [256]
00000000: 0403 993d 5198 573d 24f6 493d 3b03 283d
00000010: 6c73 a4bd e8eb f53d 46fc e93b 8b7c 39bd
00000020: a177 c8bd 8b24 f43d 66ab c1bd 0b00 d0bc
00000030: 7739 a13d 7dfb 71bd d312 d7bc 80b7 b5bd
00000040: 948d b2bd a47d d83d 643f f3bd f5bc 5dbc
00000050: 59a1 1a3c 6f91 f13d fa74 c3bc eec4 c73d
00000060: 5a42 2abd 8b51 a9bd f2db ebbd edd6 9abd
00000070: c685 9f3d 578e a3bb 931c babd f585 f43d
00000080: 1e0e 2e3c 76fc 18bd c6df cfbc 0bc3 993a
00000090: b346 36bc 1b24 573c a278 053e 46bc 50bd
000000a0: 06dc ae3d 55e1 053e e827 22bd a54d fcbd
000000b0: 484d eb3d 1974 793a f1a4 9fbd 7aa1 00be
000000c0: 7c57 8dbd efaf f5bd 3a98 653d 85e1 4c3d
000000d0: 7c6e 2c3d 3f8f 98bd 6fc2 8c3d c6eb f1bd
000000e0: 87a1 f23c 16bd e8ba 5869 713c b1c2 93bd
000000f0: 5e68 a0bd 874d 34bd 955c 163d 0c20 483d
00000100: 9924 8cbd 8ab0 443d 5be9 dcbd 04e5 13bd
00000110: a718 e63d 7d6d 00be fbc0 17bd dd3c de3d
00000120: a352 62bc fa61 bc3d 11ee d3bd cd06 993d
00000130: 70d6 ca3a 59b2 423d c279 dfbc 5f69 ca3d
00000140: 260e 043e 1ff4 bf3b 179d dcbd f714 19bd
00000150: 77b7 4f3d 4f15 c13d c4fc dbbd 12ef f5bb
00000160: 04fd e83d 4f4c a9bd 5fbb 9fbd 34af f53d
00000170: 91a5 d93d 38d2 623d 4468 513d 4170 cabc
00000180: 674e b8bd 2c9d 01be 67a2 ef3d 2256 d03d
00000190: 4e00 793d e1e0 7e3d 36d0 22bc 79f4 95bd
000001a0: dfc1 c5bd c12f f0bd e82a eebd cb0b c33d
000001b0: 810f afbd 734f 8db9 3663 163d 0161 6a3d
000001c0: e017 b43d 9257 f0ba 43e8 cc3b 8400 53bc
000001d0: 2899 233d f994 e4bb 5f5c 61bd a2a5 7b3d
000001e0: 95eb 563d b9b7 78bd e573 c93d 1858 5e3d
000001f0: 028c 9a3c fbe6 503d c84d babd 16b9 9c3d
00000200: b720 f6bd 1066 a7bd 2a50 82bd 1ce6 d0bd
00000210: 6c63 853d d339 1c3d ccc7 01bd b488 583d
00000220: 6f81 d8bd d057 1bbd 5981 283d 4f88 c13d
00000230: 5749 933d 034e e6bd 3579 b2bd e59c b5bd
00000240: 214e d63d 06bb 963c f0b6 adbd 518a af3d
00000250: c8fb 8cbd 730f b6bd 62b1 903c 490b 823d
00000260: 8888 86bc 0af0 b2bd 84f9 b83d ca52 f4bd
00000270: 7ed0 5bbc 33a5 b13c 2e10 8cbd 971b 3b3d
00000280: 9a87 eebc b4ef 4bbd e099 af3c bdc1 b23d
00000290: 63b4 edbd 6a6d 373c 8e9e 383d 16a2 043e
000002a0: f856 95bd a9af 1a3d 135f af3d b62f 00be
000002b0: 0535 c6bd dc66 9d3d d25e afbc a7db e93d
000002c0: 56a4 ab3d afa1 b3bd 2242 f23d 240b 45bd
000002d0: 1b24 85bd 2a6d 26bd 7ba8 1d3d 31ce f03d
000002e0: 9d30 e73d 36af b1bd 2af9 803c 4a97 f9bd
000002f0: d4e5 b8bd 80b6 e43d 7212 8f3d 1af5 dabd
00000300: 344c d9bd 59f3 8abd ec72 d83b 589e adbc
00000310: 4914 8a3d 2f80 f8bd bc6d 7c3c cfbb ac3a
00000320: 8852 c4bd abff ca3d 3831 bd3d bdc6 5c3d
00000330: 17ab fe3d a057 b43d 322c f83c d0dc edbd
00000340: b261 4cbd 4c07 5b3d 437c 1d3c e337 603c
00000350: 066d a13b 671c 343d b3c2 e83c 4c03 94bd
00000360: aac5 3b3d 2dce cd3d b1e9 0a3d 2ea4 3a3c
00000370: 1f2f 9ebd ade1 c3bd 4e86 6dbd 1643 a93d
00000380: 4ed8 91bd 7848 d5bc 93e0 483d 0070 1f3d
00000390: 65d3 aa3d 92fc 023e 9695 3f3c 96b6 f6bd
000003a0: 9529 c43d 5136 523b ace3 afbd ba1b ec3d
000003b0: 047c c1bd b9aa 84bd a3a9 e33d 7ab8 653b
000003c0: 8bef e63c b18b 01bd 5683 b63c 6969 b7bc
000003d0: e261 e53c 5256 1abd ad88 2e3d fe50 d2bc
000003e0: 5344 c1bd 875b b0bd 4e05 7bbc 382f ce3b
000003f0: 777f c33d 895b 80bd ecda 08bd 54ee 18bd
0.07471278 0.052635495 0.049307004 0.041018706 -0.080298275 0.12007886 0.007140669 -0.04528479
-0.097884424 0.119210325 -0.0945652 -0.025390645 0.07872289 -0.05907773 -0.026254093 -0.088728905
-0.0871841 0.10570839 -0.11877325 -0.01353382 0.009437882 0.117953174 -0.02385949 0.09754358
-0.041567184 -0.08267506 -0.115165606 -0.07560525 0.07789187 -0.0049913335 -0.09087481 0.11939613
0.010623483 -0.03735014 -0.025375258 0.0011731101 -0.011125254 0.013131167 0.13034299 -0.0509608
0.0853806 0.13074239 -0.03958884 -0.12319497 0.114893496 0.0009515896 -0.07795132 -0.12561598
-0.06901452 -0.11996447 0.056053378 0.05001976 0.042097554 -0.07449197 0.06873023 -0.11812548
0.029618038 -0.0017756547 0.014734589 -0.07214869 -0.078324065 -0.04401925 0.036709387 0.048858687
-0.06842918 0.048019923 -0.107866965 -0.03610708 0.11235171 -0.12541766 -0.037049275 0.108514525
-0.013813647 0.09198375 -0.10348142 0.07472 0.0015475284 0.047533367 -0.027279738 0.09883379
0.12896022 0.005857959 -0.1077215 -0.03737351 0.050712075 0.094278924 -0.107415706 -0.007505306
0.11376384 -0.08266508 -0.0779941 0.11996308 0.106272824 0.05537626 0.051124826 -0.02471173
-0.08999329 -0.12657613 0.11700898 0.101726785 0.060791306 0.06222618 -0.009937337 -0.0732202
-0.096561186 -0.11727858 -0.116292775 0.09523734 -0.08547879 -0.0002695281 0.03671571 0.057221416
0.08793616 -0.0018336645 0.0062532737 -0.012878541 0.039940983 -0.0069757667 -0.055019733 0.061437257
0.052470762 -0.060722087 0.09836558 0.05428323 0.018865589 0.05100153 -0.09096867 0.0765249
-0.120179586 -0.08173764 -0.06362946 -0.1020014 0.06513104 0.038141083 -0.03168468 0.052864745
-0.105715625 -0.03792554 0.04113898 0.09449827 0.07191723 -0.11245348 -0.08714525 -0.08867816
0.10464121 0.018399727 -0.08482158 0.08571304 -0.06883961 -0.088896655 0.017662708 0.06349809
-0.016422525 -0.0873719 0.09031966 -0.11929853 -0.013416408 0.021685218 -0.068390235 0.04568061
-0.029117394 -0.049789146 0.021435678 0.08728359 -0.11606672 0.01119552 0.045073085 0.12952456
-0.072919786 0.03776518 0.08563056 -0.125182 -0.096780814 0.076856345 -0.021407519 0.114188485
0.08380954 -0.08771073 0.1182902 -0.048106328 -0.06501027 -0.04063145 0.038490754 0.11758078
0.11288569 -0.08675997 0.01574381 -0.12187059 -0.09028211 0.111676216 0.0698594 -0.10691281
-0.10610238 -0.06784696 0.0066054966 -0.021193668 0.0674215 -0.12133824 0.015407022 0.001317853
-0.09586054 0.09912046 0.09237903 0.05390047 0.124349765 0.08805776 0.030294511 -0.11614382
-0.049897857 0.053473756 0.009612146 0.013685199 0.0049263267 0.0439724 0.028413152 -0.07227191
0.045842804 0.100490905 0.03391427 0.011391683 -0.077238314 -0.095645286 -0.05798941 0.08264749
-0.07121335 -0.026035532 0.049042296 0.03892517 0.083411016 0.1279166 0.011693379 -0.12046544
0.09578244 0.0032075832 -0.08588347 0.11528726 -0.09447482 -0.06477875 0.1111634 0.0035052584
0.028190395 -0.03162736 0.022279423 -0.02238913 0.028000776 -0.037679978 0.042610813 -0.025673386
-0.0943686 -0.086112075 -0.015321089 0.00629225 0.09545796 -0.06267459 -0.033411905 -0.037336662

weight f4 [256]
00000000: ff02 803f 5d04 803f ca11 803f 8981 7f3f
00000010: 1002 803f fcd9 7f3f 38aa 7f3f 8b05 803f
00000020: b61f 803f e721 803f af79 7f3f 74d8 7f3f
00000030: b597 7f3f 75f8 7f3f 6e12 803f 770b 803f
00000040: 2edb 7f3f 9016 803f e1f4 7f3f 99fd 7f3f
00000050: fbf7 7f3f a00f 803f 178d 7f3f bcd9 7f3f
00000060: 6091 7f3f d108 803f 1fff 7f3f 0acc 7f3f
00000070: b50d 803f 0fbb 7f3f 9a18 803f b402 803f
00000080: a0f3 7f3f 8af8 7f3f d0d5 7f3f be1b 803f
00000090: 0c1a 803f 612f 803f cb07 803f f2ae 7f3f
000000a0: cda0 7f3f 0b08 803f 272c 803f 1493 7f3f
000000b0: a7d3 7f3f 0512 803f 1109 803f 0116 803f
000000c0: 7006 803f cbd8 7f3f 5981 7f3f 980b 803f
000000d0: 0e14 803f fec0 7f3f 3007 803f 0f01 803f
000000e0: d702 803f 084f 803f e192 7f3f 61c8 7f3f
000000f0: f485 7f3f 1b05 803f d5f0 7f3f 4f0e 803f
00000100: 8df1 7f3f b7c4 7f3f f5e3 7f3f 9df1 7f3f
00000110: 372b 803f 1604 803f 8b00 803f aaf6 7f3f
00000120: fbfb 7f3f 2f10 803f 2acb 7f3f 5105 803f
00000130: 2ad1 7f3f 1335 803f 4fef 7f3f 2504 803f
00000140: 0204 803f 1b15 803f bd13 803f 6c0a 803f
00000150: 89ce 7f3f e820 803f bd21 803f 33d4 7f3f
00000160: f114 803f f820 803f 88df 7f3f 2f0b 803f
00000170: b8f3 7f3f 20c2 7f3f 7c22 803f 3e0c 803f
00000180: 44f7 7f3f 55f2 7f3f eb0c 803f 8006 803f
00000190: 5dfd 7f3f 1d0e 803f 44f4 7f3f cffb 7f3f
000001a0: 2117 803f 6396 7f3f 8bac 7f3f 592b 803f
000001b0: cd43 803f 2801 803f bfea 7f3f 5903 803f
000001c0: 7711 803f 36f6 7f3f d2b1 7f3f a7e2 7f3f
000001d0: ce34 803f facb 7f3f 49fb 7f3f 4509 803f
000001e0: ecfb 7f3f d214 803f 62e6 7f3f 6f11 803f
000001f0: bd17 803f a3f9 7f3f 09ee 7f3f 1d0e 803f
00000200: 3e25 803f b57c 7f3f 63fc 7f3f 649e 7f3f
00000210: 36f5 7f3f 4fea 7f3f 9908 803f 6717 803f
00000220: d702 803f e0ee 7f3f bf11 803f d1cc 7f3f
00000230: 7a0a 803f a50b 803f 1610 803f 2608 803f
00000240: ea02 803f b58c 7f3f 5914 803f 2e0f 803f
00000250: 380e 803f ff0a 803f 89d9 7f3f a60b 803f
00000260: 86fa 7f3f 6b05 803f 8916 803f b847 803f
00000270: 56ee 7f3f 55a3 7f3f f9fd 7f3f 750c 803f
00000280: da24 803f 3aad 7f3f 9e0c 803f 0fac 7f3f
00000290: 5c7d 7f3f ff83 7f3f 6513 803f d685 7f3f
000002a0: f31f 803f fcf0 7f3f 270b 803f f108 803f
000002b0: 2a08 803f e188 7f3f 25ec 7f3f aaf9 7f3f
000002c0: 9b4a 803f 5314 803f 4f24 803f 62d3 7f3f
000002d0: 11f8 7f3f 2edc 7f3f 0cfa 7f3f 6c06 803f
000002e0: c3e5 7f3f 460f 803f f2f4 7f3f 2bff 7f3f
000002f0: 9afc 7f3f d000 803f e0c6 7f3f f37f 803f
00000300: bbdd 7f3f 35e6 7f3f 9c00 803f a23f 803f
00000310: 2401 803f 77ff 7f3f 61f7 7f3f ea9f 7f3f
00000320: b810 803f 458d 803f 304b 803f 0a04 803f
00000330: dcf5 7f3f e9fd 7f3f 8213 803f 65b0 7f3f
00000340: 3d0f 803f fa08 803f ec0e 803f 3f09 803f
00000350: 922f 803f 2a05 803f dc1e 803f 3f05 803f
00000360: 91db 7f3f ee0f 803f 18e2 7f3f cb15 803f
00000370: a501 803f 58c3 7f3f b8de 7f3f 1ccf 7f3f
00000380: 08dd 7f3f f39a 7f3f f350 7f3f 73fc 7f3f
00000390: 499e 7f3f e4f3 7f3f ddcc 7f3f 02e1 7f3f
000003a0: f518 803f bced 7f3f b40c 803f 5d12 803f
000003b0: cd07 803f 4200 803f fdf8 7f3f 550a 803f
000003c0: 43ff 7f3f a505 803f f895 7f3f 33cb 7f3f
000003d0: bbfe 7f3f d2f0 7f3f 4509 803f f613 803f
000003e0: fa03 803f e9f2 7f3f 1317 803f 7e05 803f
000003f0: b120 803f 7a3e 803f 7305 803f ccd2 7f3f
1.0000914 1.0001332 1.0005429 0.9980703 1.000063 0.9994199 0.9986911 1.0001692
1.0009677 1.0010346 0.9979505 0.99939656 0.9984086 0.9998849 1.0005624 1.0003499
0.99943817 1.0006886 0.9998303 0.99996334 0.99987763 1.0004768 0.9982466 0.9994161
0.998312 1.000269 0.9999866 0.99920714 1.0004183 0.99894804 1.0007508 1.0000825
0.9998112 0.99988616 0.99935627 1.0008466 1.0007949 1.0014459 1.0002378 0.9987632
0.9985474 1.0002455 1.0013474 0.998338 0.9993233 1.0005499 1.0002767 1.0006715
1.0001965 0.99940175 0.99806744 1.0003538 1.000612 0.9990386 1.0002193 1.0000323
1.0000867 1.0024118 0.99833494 0.9991513 0.9981377 1.0001558 0.99976856 1.0004367
0.9997795 0.9990954 0.9995721 0.9997805 1.0013188 1.0001247 1.0000166 0.99985754
0.99993867 1.0004939 0.9991938 1.0001622 0.99928534 1.0016197 0.9997453 1.0001265
1.0001223 1.0006441 1.0006024 1.000318 0.9992452 1.0010042 1.0010296 0.99933165
1.0006391 1.0010061 0.99950457 1.0003413 0.9998126 0.99905586 1.0010524 1.0003736
0.9998667 0.99979144 1.0003942 1.0001984 0.99995977 1.0004307 0.99982095 0.99993604
1.0007058 0.99838847 0.99872655 1.0013229 1.0020691 1.0000353 0.9996757 1.0001022
1.000533 0.99985063 0.9988071 0.9995522 1.0016115 0.9992062 0.99992806 1.0002829
0.9999378 1.0006354 0.9996091 1.000532 1.0007244 0.9999029 0.9997259 1.0004307
1.0011365 0.9979966 0.99994487 0.9985106 0.9998354 0.999669 1.0002624 1.0007142
1.0000867 0.9997387 1.0005416 0.999219 1.0003197 1.0003554 1.0004909 1.0002487
1.0000889 0.99824077 1.000621 1.0004632 1.0004339 1.0003356 0.9994131 1.0003555
0.99991643 1.0001653 1.0006877 1.0021887 0.99973047 0.998586 0.99996907 1.0003802
1.0011246 0.998737 1.000385 0.99871916 0.9980066 0.99810785 1.0005919 0.9981359
1.000975 0.9997709 1.0003403 1.0002729 1.0002491 0.99818236 0.999697 0.9999033
1.0022768 1.0006202 1.001108 0.9993192 0.99987894 0.9994534 0.99990916 1.000196
0.99959964 1.0004661 0.9998313 0.9999873 0.99994814 1.0000248 0.99912834 1.0039047
0.9994771 0.99960643 1.0000186 1.0019419 1.0000348 0.99999183 0.99986845 0.99853384
1.0005102 1.0043112 1.0022945 1.0001233 0.99984527 0.9999681 1.0005953 0.9987853
1.000465 1.000274 1.0004554 1.0002822 1.0014517 1.0001576 1.0009418 1.0001601
0.99944407 1.0004861 0.99954367 1.0006651 1.0000502 0.99907446 0.99949217 0.999254
0.9994664 0.9984581 0.99732894 0.9999458 0.998509 0.9998152 0.9992197 0.9995271
1.0007616 0.9997213 1.0003877 1.0005604 1.0002381 1.0000079 0.999893 1.0003153
0.99998873 1.0001723 0.9983821 0.9991943 0.9999806 0.9997684 1.0002829 1.0006092
1.0001214 0.99980026 1.0007042 1.0001676 1.0009977 1.0019066 1.0001663 0.99931026

bias f4 [256]
00000000: e99e 9539 6c3e e1b4 7a7f fa39 e9d6 e839
00000010: 9dea 63b8 7853 103a e812 cdb8 dff6 41b9
00000020: 9ba9 753a 40a8 ca3a fb61 42ba 3d6d 5039
00000030: f1e5 bcb7 f7c8 8339 4a58 2eb8 0cb7 4839
00000040: cf07 65ba 0317 303a 8290 37b9 32f5 45ba
00000050: 0573 7c3a be83 983a 985c b8b9 a412 b239
00000060: 0b15 e1b9 6871 d539 1fde 6d3a 8a44 bfb8
00000070: e8e8 3c3a 8f63 b7b9 0a47 363a 5fd4 36ba
00000080: cb3b 9539 076b 0d39 04fa 4438 3d2a e038
00000090: 1e3b 823a 164f 933a 7d8d 1aba 5ecd abb9
000000a0: 5fbe 883a fd4c 193a b92b 4e3a 4076 aeb9
000000b0: 0a87 a8b9 3c9c 8c3a 7286 b0b7 4646 613a
000000c0: ff1a d039 7fe5 ab39 803b bd39 865c 4b3a
000000d0: cfd5 b23a 5b3f 68b9 9582 6bb8 8122 39b9
000000e0: b7ed 3d3a c1e6 fc3a faad 00b9 fe38 9eb7
000000f0: b7ac 3db9 3ee6 403a aed6 073a e3d5 e239
00000100: e364 97ba 72ee 053a d96e 5a39 3501 bb39
00000110: 635f 343a 70ed 04b9 cdc6 6239 12b8 7fb8
00000120: 4a7c d6b9 2640 fcb8 2f79 e239 acda 0e3a
00000130: 90c8 34b9 ecf6 9f3a 84e9 253a db4d 9fb9
00000140: 47be f3b9 9963 3f39 477c 473a 28c7 563a
00000150: 4304 70ba e398 263a dd68 9839 cb1c 9bb9
00000160: e67f 4c3a 08b2 703a 4a84 133a 2c17 683a
00000170: c180 c0b9 dc34 6aba 937d 47b8 7ff3 483a
00000180: 1d6e 13ba 39e5 b9b9 c66a 9e37 d625 ceb9
00000190: 26b2 ac38 189c cf38 eee9 2fba ced3 3db9
000001a0: aad9 573a 702f 3c3a 0492 a239 941c c638
000001b0: d12b 9f3a 19f4 b539 9785 3fb9 9259 3738
000001c0: dd9c 9d3a 5e03 63b9 aacc 56b9 2810 67ba
000001d0: ccec 833a e34a df38 b5f7 ecb9 f611 1138
000001e0: e82a 9eb9 0d7c 0fb7 9665 57ba 1d42 cb39
000001f0: e7a4 983a 66f6 053a 7068 17ba 707f 74b9
00000200: f332 abb8 9e18 0cba 32dc 14b8 d4db 5f39
00000210: 3875 ea36 5266 87b9 5a52 633a 2490 3db8
00000220: c87c c9b9 f1d5 6638 9577 c73a 0e78 0dba
00000230: e89f 893a 4ba4 3b3a c070 1bba 348e 24b9
00000240: 1ead 6b39 64ec d338 0dfe 513a 8274 773a
00000250: 790b 1a3a 3775 063a 4e7d 943a 6955 113a
00000260: 68df 07ba 737f c739 2ae6 4139 a0c1 b9b9
00000270: 116a 4638 c759 7db9 75b7 3cb9 c4c2 da39
00000280: 07f3 0c39 f0f4 b839 eb35 46b9 6829 a1ba
00000290: 5f69 dd39 db95 27ba 093c 883a 3912 66ba
000002a0: 3346 2a3a 8939 6339 e15a c439 ee54 d339
000002b0: cc3f 0b39 25e6 f7b9 233f d739 2e50 46b9
000002c0: 3bb1 413a 65e7 5639 a472 8a3a 0711 6c3a
000002d0: 4363 1337 d2c9 81ba 884a d5b9 2d43 9d39
000002e0: 3af6 9a39 f20e 3d39 7dc5 42ba b24e 3339
000002f0: e5ee a639 8242 2839 832f 4b39 096e 893a
00000300: 0909 1c3a 4119 8139 ff9b 6b3a cbfb a53a
00000310: cb40 d7b9 ee2c 83b9 79ba 14ba 85a9 88ba
00000320: 6b16 d239 879e cc3a 82f5 c33a 1325 20b8
00000330: 8e9e 56ba 14ac 61b8 08d4 acb8 b8e4 15b9
00000340: 9682 ba39 e89b a0b9 6732 363a 80ad 5d3a
00000350: 818e efb6 079a 2039 e433 b63a 6f0c 5db7
00000360: 12ec ad39 f74f 653a e305 16b9 6f7c 1e3a
00000370: 9aa0 8538 ad08 a537 f0e2 8038 56fd ca39
00000380: 01b8 deb9 378d 20b8 8fd6 2ab9 7bc0 3d3a
00000390: ed0c 89ba b9fe 19b9 2016 8239 ee38 35ba
000003a0: 391b 313a 1a40 e6b9 b80b c8b9 762a 18ba
000003b0: 59fb 9339 392f 5bb6 1414 8536 cfc7 e939
000003c0: 6fa5 56b9 a7a0 78b9 948e bcb9 96c2 beb9
000003d0: 42ab 333a 0147 2a3a a3ac e939 6125 7b39
000003e0: c36f 27ba 7a9c c7b9 2688 3639 f8ee eeb7
000003f0: 29e6 f139 c756 443a f6b1 38b9 af47 0e39
0.00028537892 -4.1954934e-07 0.00047778693 0.0004441061 -5.4339518e-05 0.0005505602 -9.778683e-05 -0.00018497881
0.00093712815 0.0015461519 -0.0007415113 0.0001987712 -2.2518421e-05 0.00025135998 -4.156706e-05 0.00019141677
-0.00087368203 0.0006717296 -0.00017506073 -0.00075514906 0.00096301764 0.0011635942 -0.00035164203 0.00033964694
-0.00042931022 0.0004071102 0.0009073931 -9.120356e-05 0.00072063366 -0.00034978657 0.00069533347 -0.0006974395
0.00028464044 0.00013486679 4.6962887e-05 0.0001068902 0.0009935831 0.0011238779 -0.0005895717 -0.00032768672
0.0010432712 0.0005847959 0.00078647916 -0.0003327597 -0.0003214407 0.0010727714 -2.1043441e-05 0.00085935404
0.00039692965 0.0003278665 0.0003609322 0.00077576225 0.0013644042 -0.00022148846 -5.614998e-05 -0.00017655829
0.00072452 0.0019294844 -0.00012271843 -1.8861607e-05 -0.00018088786 0.00073585275 0.0005181831 0.00043265437
-0.0011550452 0.00051090785 0.00020831394 0.0003566832 0.0006880669 -0.00012676953 0.00021627099 -6.0968167e-05
-0.00040909863 -0.00012028245 0.00043196368 0.0005449455 -0.00017240853 0.0012204326 0.0006329047 -0.0003038485
-0.0004649034 0.00018252282 0.00076097663 0.0008193129 -0.00091559085 0.00063551794 0.00029069828 -0.00029585356
0.0007801041 0.0009181802 0.00056273176 0.00088535505 -0.00036717023 -0.0008934268 -4.7562247e-05 0.0007665678
-0.0005624013 -0.00035456734 1.8884788e-05 -0.00039319572 8.234782e-05 9.899604e-05 -0.00067105785 -0.00018103348
0.00082340336 0.00071786996 0.00031007838 9.446699e-05 0.0012143796 0.00034704877 -0.00018264946 4.371402e-05
0.0012024898 -0.00021649661 -0.00020484874 -0.0008814358 0.0010065078 0.000106474174 -0.00045197984 3.458742e-05
-0.00030168076 -8.552347e-06 -0.00082167366 0.00038768435 0.0011645824 0.00051102636 -0.0005775755 -0.00023317127
-8.1634054e-05 -0.00053442444 -3.5491023e-05 0.0002134883 6.9873895e-06 -0.0002582544 0.0008671634 -4.5195353e-05
-0.00038430677 5.503552e-05 0.0015218133 -0.00053966127 0.0010499926 0.00071579654 -0.0005929582 -0.00015693234
0.00022475838 0.00010105295 0.0008010574 0.0009439663 0.00058763433 0.00051291607 0.0011328848 0.0005544038
-0.00051831314 0.00038051195 0.00018491657 -0.00035430212 4.730566e-05 -0.00024161405 -0.0001799742 0.00041725312
0.00013441975 0.00035277708 -0.00018902837 -0.0012295665 0.00042230912 -0.00063928746 0.0010393868 -0.0008776519
0.0006495446 0.0002166984 0.00037451743 0.00040308334 0.00013279839 -0.00047282982 0.00041055036 -0.0001891262
0.0007388775 0.00020494832 0.001056273 0.0009005223 8.784994e-06 -0.0009902066 -0.00040682056 0.00029995423
0.00029556622 0.00018030012 -0.0007429941 0.00017100087 0.00031839978 0.00016046505 0.00019377288 0.0010485064
0.0005952274 0.00024623613 0.0008987784 0.0012663541 -0.0004105627 -0.00025019742 -0.00056735385 -0.0010426497
0.00040071024 0.001561121 0.0014950486 -3.81815e-05 -0.00081870786 -5.380444e-05 -8.241093e-05 -0.00014294952
0.0003557398 -0.00030633737 0.00069502596 0.00084563345 -7.1393447e-06 0.00015316169 0.0013900963 -1.3175521e-05
0.00033173017 0.00087475724 -0.00014307308 0.0006045764 6.3718486e-05 1.9673573e-05 6.145786e-05 0.00038717192
-0.00042480233 -3.827849e-05 -0.00016292393 0.00072384597 -0.0010456123 -0.00014686109 0.00024812017 -0.0006913085
0.00067560707 -0.00043916778 -0.00038155704 -0.0005804667 0.00028225293 -3.266103e-06 3.9660463e-06 0.00044590092
-0.00020470259 -0.0002371097 -0.00035964383 -0.00036384602 0.00068538275 0.0006495566 0.00044569848 0.0002395115
-0.0006387198 -0.00038072822 0.00017407592 -2.848309e-05 0.00046138585 0.00074897375 -0.00017613903 0.0001356888

running_mean f4 [256]
00000000: 4863 fe41 26ae 79c3 184a 8b43 3dc2 71c3
00000010: f2bd 6d43 7c82 23c3 6a58 ca43 8ecc 7843
00000020: fba1 7443 b79f 9d43 24bb 21c3 58db 21c2
00000030: c41d 2bc3 b438 cec2 edd4 9643 3e1a 6cc3
00000040: c671 d242 106a b843 a765 9ac3 4be0 8e43
00000050: 9a5b aac0 a915 e7c1 4ad7 4d43 e9d4 58c3
00000060: 696c 37c3 5024 52c3 0888 4843 16c0 8a43
00000070: 16ee 28c3 8809 ba41 f230 4dc3 f4f0 03c3
00000080: 48e5 00c1 7c4f 88c3 1402 7bc3 963a ebc1
00000090: 810f 9fc2 be4f 60c3 0faa b8c1 1d7a 6d43
000000a0: b759 9dc3 9593 2542 6ca1 99c3 35f1 9043
000000b0: d0fa 50c3 80a5 0142 33a0 d3c2 0e3e d042
000000c0: 83b8 b843 7c0a 7ac3 05fb 7bc3 309b 1f42
000000d0: 30d2 77c3 9e78 6042 5c8f 3b43 bf7e 6ec3
000000e0: beb2 8242 84c0 d0c1 725e c842 dcad 9f43
000000f0: fd60 8142 3224 a442 163f bbc2 0a53 5743
00000100: e438 72c3 bcb2 c6c0 e0e9 5c42 363c 71c2
00000110: 2b95 2543 57dc c4c0 65a0 43c3 3462 2143
00000120: c50d 4a42 1d1a a1c1 6c21 11c3 043e 8343
00000130: e07e 6643 fb6b 2643 3803 0ac2 31d1 acc2
00000140: 187b 66c2 4ee7 8942 4aa8 6f43 1771 2c43
00000150: a502 4543 7393 3ec2 86f5 c542 8256 1043
00000160: 09ea cb42 5d46 0f43 414d 52c3 1524 ac43
00000170: c4ac a043 6c38 4642 b011 35c1 a0c5 6343
00000180: 5c6c 27c0 e47c 2043 02f4 0ac3 0302 1843
00000190: 4275 0a42 289a 8bc3 9c59 e0c2 4d84 cc43
000001a0: a0af f1c2 ce44 fc42 61bf a0c3 e754 9343
000001b0: c217 55c3 c53c 8242 a5ad 31c3 f172 2942
000001c0: 4a9a 53c3 db80 8f42 dc02 6943 d1bb 87c2
000001d0: 69f8 7b43 3948 bc43 2108 b741 889b 4a42
000001e0: a89d 94c3 4bfa 3bc3 7165 0643 bf89 1b43
000001f0: 2eb9 e242 88ef 1b43 3563 92c3 ba40 bd43
00000200: ef37 5cc3 76e4 91c3 f5e7 a443 dc06 b5c2
00000210: f4e7 5d43 dfba b2c3 fb98 6dc3 a91c 06c3
00000220: 9321 9543 d1e1 9843 a357 6e42 34c6 8443
00000230: 1b04 edc2 c98c a841 7579 1743 02d6 5fc3
00000240: 371f 9443 5d86 4243 3ba5 54c3 af9f 26c3
00000250: c7c8 1e43 338d ee42 8ba6 bb42 8cc0 8743
00000260: 43eb 57c3 9593 b440 cd95 3d43 d818 87c3
00000270: 98fe 9242 89f6 20c3 9762 8dc3 baed 9fc3
00000280: 8f5d 9543 9389 3942 8355 21c3 9bf4 62c3
00000290: 7750 7ec3 53c3 33c3 4ec3 b5c3 0f26 92c3
000002a0: d798 b5c2 c88e be42 6337 3043 5515 8fc3
000002b0: c0f1 ff42 6e41 8043 9585 09c2 64e4 1ec3
000002c0: 5cab 6f43 fa4f f342 85e6 28c3 c8c7 28c3
000002d0: 9c8b 1842 4626 5ec2 77eb 8dc3 70e0 a3c2
000002e0: b0f5 00c3 c0bb adc3 7302 6043 9c1a 45c3
000002f0: 1bcd cbc2 e823 b2c2 42a7 6142 843a 8b43
00000300: 90e7 8841 3f4b b6c3 5816 63c2 4e60 3341
00000310: 7d3d 5fc3 b985 0fc3 0d5b b743 1c17 2443
00000320: bb8f 8743 e96d 6c43 6f29 1343 ec37 84c3
00000330: 91dd b3c3 c03e 53c3 c643 e9c2 b24f 7dc0
00000340: 4dd4 c543 c0b6 9043 fd70 d942 9757 3442
00000350: b778 80c1 6a05 bcc3 e22e eb42 fd2b 5642
00000360: 3eeb 84c1 d25e 10c2 7393 b343 4970 9743
00000370: 3993 b2c3 2243 24c3 5fb8 9242 7537 2143
00000380: 42d0 a742 9090 0dc2 aa16 79c3 9d0d 49c3
00000390: 0c14 a242 7958 39c3 ca1a 7f43 9aae d242
000003a0: a47a 3943 c96a 2143 2874 43c2 3c09 01c2
000003b0: 4a45 0243 4ec7 7ec3 4a9c 6ac3 672f ea42
000003c0: b6c6 1ac3 7671 3cc3 74d1 8743 fd46 3f42
000003d0: 4b48 cdc2 f29a 1440 7a60 4443 ca3f 04c3
000003e0: 151e 65c3 9025 8043 3979 18c3 4626 dfc2
000003f0: aa2e 5443 0139 24c2 75ce 8ac2 cd0b a743
31.798477 -249.68027 278.57886 -241.75874 237.74197 -163.5097 404.69073 248.79904
244.63274 315.24777 -161.73102 -40.464203 -171.11627 -103.11075 301.66348 -236.10251
105.22221 368.8286 -308.79416 285.7523 -5.323682 -28.885576 205.84097 -216.83168
-183.42348 -210.14185 200.53137 277.50067 -168.93002 23.254654 -205.1912 -131.94122
-8.055977 -272.62097 -251.00812 -29.403606 -79.53028 -224.3115 -23.083036 237.477
-314.7009 41.394123 -307.2611 289.88443 -208.97974 32.41162 -105.81289 104.1212
369.4415 -250.04095 -251.98055 39.90155 -247.82104 56.11779 187.56 -238.4951
65.349106 -26.094002 100.18446 319.35828 64.68943 82.070694 -93.623215 215.32437
-242.22223 -6.209318 55.228394 -60.3088 165.58269 -6.151897 -195.62654 161.3836
50.513447 -20.13775 -145.13055 262.4845 230.4956 166.4218 -34.503143 -86.40858
-57.62021 68.95177 239.65738 172.44176 197.01033 -47.643993 98.97954 144.33792
101.9571 143.27486 -210.30177 344.2819 321.34973 49.5551 -11.316818 227.77197
-2.6159887 160.48785 -138.95316 152.00786 34.61451 -279.20435 -112.17502 409.0336
-120.84302 126.134384 -321.49515 294.6633 -213.0928 65.11869 -177.6783 42.362247
-211.60269 71.75167 233.01117 -67.86683 251.97035 376.56424 22.87897 50.651886
-297.2317 -187.9777 134.39626 155.53807 113.36168 155.93567 -292.77505 378.50568
-220.21849 -291.78485 329.81216 -90.5134 221.90607 -357.45993 -237.59758 -134.11195
298.2623 305.7642 59.585583 265.54846 -118.50802 21.068743 151.47444 -223.83597
296.24387 194.52486 -212.64543 -166.62376 158.78429 119.27578 93.82528 271.50427
-215.91899 5.6430154 189.58516 -270.1941 73.49725 -160.96303 -282.77023 -319.85724
298.73093 46.38435 -161.33403 -226.95549 -254.31432 -179.76299 -363.52582 -292.29733
-90.798515 95.27887 176.21635 -286.16666 127.97217 256.51117 -34.38045 -158.89215
239.66937 121.656204 -168.90047 -168.7804 38.136337 -55.537376 -283.83957 -81.938354
-128.95972 -347.4668 224.00957 -197.10394 -101.9006 -89.07013 56.413338 278.45715
17.113068 -364.58786 -56.77182 11.211012 -223.24019 -143.52235 366.71133 164.09027
271.1229 236.42934 147.16185 -264.4369 -359.731 -211.24512 -116.63237 -3.9579892
395.6586 289.42773 108.72068 45.085537 -16.058943 -376.0423 117.59157 53.542957
-16.614864 -36.092598 359.15195 302.87723 -357.15018 -164.26224 73.3601 161.21663
83.90675 -35.391174 -249.08853 -201.05318 81.039154 -185.3456 255.10464 105.34102
185.47906 161.41713 -48.863434 -32.259018 130.27066 -254.77853 -234.6105 117.09258
-154.77621 -188.4432 271.63635 47.819324 -102.6412 2.321957 196.37686 -132.24918
-229.11751 256.29346 -152.47353 -111.57475 212.18228 -41.055668 -69.40324 334.0922

running_var f4 [256]
00000000: ab1c de42 9d88 d341 30d8 9741 bef5 0c42
00000010: aa51 b841 37e0 1e42 9a83 2641 6e5e f442
00000020: 3647 9b41 535b f142 ca61 2d41 7b0d 3041
00000030: 6547 ee42 9257 4d42 4f16 2d42 4785 ff42
00000040: 775b c041 6474 9741 4758 9e43 11d5 3541
00000050: e8a7 7242 c9f6 1143 92c6 2143 321f 2041
00000060: fb2d a242 594e b640 9faf 6541 8cf9 5042
00000070: 596a 0143 e78a 9442 b3cc d040 1cb0 1241
00000080: c0a4 d841 91b2 8442 b73a 0a42 f2f3 3143
00000090: c44e 9742 8f84 df42 86d4 8f42 f37f ac41
000000a0: e17c c941 a8fa c341 af6b 6542 7574 1742
000000b0: 2a79 d842 a420 3642 9f6a 1543 27c0 1443
000000c0: 8d7c dd42 2e2a c742 ef82 d342 51c2 5842
000000d0: 71ff 2943 39ff 2c42 61c7 a942 960c fb42
000000e0: 5dcc f342 222b 5541 2b6c b142 176f 5e42
000000f0: e1d2 fc41 5748 3643 b8df 7d41 4f12 8f42
00000100: c64a 0943 a9d8 1640 0dbb 8241 5d11 c741
00000110: 4d1e ed42 7f4b c442 b055 2b43 a384 f342
00000120: 50c4 0743 0fbd e941 8ef7 5b41 49f5 9842
00000130: eea9 7a42 d5d5 4e42 5e85 4341 591e e042
00000140: 75f8 1f43 65c5 8742 ec4d 1e41 fed2 2b42
00000150: c4da 2342 6120 d042 81d5 b140 65a8 8941
00000160: 28e0 d742 d87c eb40 0e02 2743 2996 3442
00000170: 85a6 aa42 9cf1 0941 6651 9740 29b5 1543
00000180: 51c9 3140 1fc3 bd42 3313 6942 ac56 3e41
00000190: 3518 dc42 2ef0 1943 2d4e d842 d228 8644
000001a0: e248 0643 dd55 e142 db0d 3442 247c 1341
000001b0: b959 1a43 2819 8142 7624 a442 18fe 0443
000001c0: e2ad 2542 2a13 1543 18eb 8740 93dc 1043
000001d0: c21a a540 1df2 0c41 bba9 e042 55d4 ea41
000001e0: 9436 8742 9359 1143 8d88 f142 0615 7742
000001f0: 90dc e341 9cf9 d642 14a5 b642 fd27 cd40
00000200: e5e8 1a42 867f 8941 8662 4b42 4603 1142
00000210: f9b5 ef42 0c60 d242 95da 4f41 9d82 f642
00000220: 57fa 5f42 6cfb bd42 9f37 2343 67b4 8542
00000230: 9b39 1842 6430 2042 d89a 3c42 6de7 3441
00000240: c834 9a41 a13d a141 f3a5 0341 6d34 d641
00000250: 7dc8 c542 2c30 4440 437e ed40 7d57 3342
00000260: 13bc a742 223d 6c40 3ca7 3d42 fc45 c740
00000270: 5c1f 5742 bc5c 1342 e160 2c41 5f09 5442
00000280: 9abb b342 ad22 d042 1307 1843 8c86 af42
00000290: cf6b 3b42 d0f7 f941 53d3 b742 0494 d942
000002a0: 9c95 4941 48a0 f842 d831 5e42 4acd a842
000002b0: 48f6 0643 b0c9 1843 ff04 2b43 39a7 4740
000002c0: cc40 0141 3f2b 8942 3a3f 6441 9bcb 0542
000002d0: 8e4b b442 4899 a642 b09e cd40 6028 4d41
000002e0: 52ba f441 619b 8441 0657 df40 d33a cd42
000002f0: e8c7 0741 e6af c542 219c 1642 bd5e ba40
00000300: 736c df42 da98 ef42 5207 9542 b991 f842
00000310: e58e 1343 bb45 aa42 170c c740 c1ed be42
00000320: e986 2743 145f 0e41 5625 0443 ad04 2342
00000330: f112 7341 2fae 1c43 448c 9942 ed1a c041
00000340: ca31 1741 f3d7 3e42 f9e4 6b40 a6a8 2442
00000350: 69ad a340 1b4d 0243 82f6 9842 5cdc 1942
00000360: a3a6 7141 e972 cb40 88e5 5642 726e cf41
00000370: 68f8 e442 21e6 d841 de6a e341 fc80 2343
00000380: a8f5 3843 3b76 c740 b21a 0743 d027 d642
00000390: 030e 0742 a599 e740 2731 1541 9548 5c42
000003a0: 8b96 b142 4d6e 0d41 0fa6 ba42 f7d9 b642
000003b0: 34cd 3243 deb2 3b43 77b2 d641 799a 0543
000003c0: 1a40 5042 7cd7 8442 b946 c140 b383 ba42
000003d0: fbbd b742 932e 3b41 1313 a042 bdc8 be41
000003e0: c12c 4742 99ce db42 1ae9 5841 545f cf42
000003f0: 1b5c 9041 72b6 2142 4377 9842 27f8 9941
111.05599 26.441706 18.98056 35.239983 23.039875 39.71896 10.407129 122.18443
19.409771 120.67837 10.836374 11.003291 119.13944 51.335518 43.271786 127.76031
24.04466 18.931831 316.68967 11.364518 60.66397 145.964 161.77567 10.007616
81.089806 5.697064 14.355376 52.2437 129.41542 74.27129 6.5249877 9.167995
27.080444 66.34876 34.55734 177.95291 75.65384 111.7589 71.915085 21.562475
25.185976 24.49739 57.35516 37.863728 108.23665 45.531876 149.41649 148.7506
110.74326 99.58238 105.75573 54.189762 169.99782 43.24924 84.88941 125.52458
121.89915 13.32303 88.711266 55.608486 31.602968 182.28258 15.867119 71.53576
137.29208 2.356974 16.341333 24.883478 118.55918 98.14745 171.33472 121.759056
135.76685 29.217314 13.747938 76.47907 62.665947 51.70882 12.22006 112.05927
159.97054 67.88554 9.894024 42.956047 40.96364 104.06324 5.5573125 17.207224
107.937805 7.3589897 167.00803 45.14664 85.32523 8.621487 4.7286863 149.70766
2.7779124 94.881096 58.26875 11.89616 110.04728 153.9382 108.15269 1073.2756
134.2847 112.6677 45.01353 9.217808 154.35048 64.54913 82.07121 132.99255
41.419807 149.07486 4.247448 144.86162 5.1595163 8.80911 112.331505 29.353678
67.6066 145.3499 120.7667 61.77053 28.482697 107.48752 91.32242 6.4111314
38.727436 17.187267 50.846214 36.253197 119.855415 105.18759 12.990865 123.255104
55.994473 94.99106 163.21727 66.85235 38.056255 40.047256 47.151215 11.3065
19.275772 20.155092 8.228015 26.775599 98.89158 3.0654402 7.421663 44.835438
83.86733 3.6912313 47.413315 6.227293 53.780624 36.84056 10.773652 53.00915
89.86641 104.067726 152.02763 87.76279 46.85528 31.246002 91.91274 108.78909
12.599026 124.31305 55.548676 84.400955 134.96204 152.78784 171.01952 3.1195815
8.07832 68.584465 14.265436 33.448833 90.14757 83.29938 6.425621 12.822357
30.590977 16.575869 6.979373 102.61489 8.486305 98.84355 37.65247 5.8240647
111.711815 119.79854 74.5143 124.284615 147.55818 85.13619 6.220226 95.46436
167.527 8.898212 132.14584 40.754566 15.192124 156.6804 76.77396 24.013147
9.449656 47.710888 3.6858504 41.164696 5.114918 130.3012 76.48146 38.465195
15.103183 6.357777 53.72415 25.928928 114.48517 27.112368 28.427181 163.50385
184.9596 6.2331824 135.10428 107.07776 33.763683 7.2375054 9.3245 55.07088
88.79403 8.839429 93.32433 91.42571 178.80157 187.6987 26.837141 133.60341
52.0626 66.42087 6.039883 93.257225 91.871056 11.698871 80.037254 23.848017
49.793705 109.90351 13.55691 103.68619 18.044973 40.42817 76.23293 19.246168

weight f4 [256, 256]
00000000: e5ab 99bc a720 54bd 0a39 743d fde7 debc
00000010: 6585 15bc 4789 703d dabe 0d3d d587 45bd
00000020: 61e6 18bc ecfb 993a de23 a0bc 7259 0f3b
00000030: 7694 2a3d ffaa 353d 0351 03bc e6ae 36bc
00000040: 9968 46bd 6377 94bc 7606 26bd b6d8 223d
00000050: d65f 3f3d 2984 213d c67c a43c 1d7d 7d3d
00000060: 2498 39bd 0a7b ff3c 071b 113c 7c3c efbc
00000070: 6434 5ebd 8a7c 0b3c e17b 5dbc d4cf 5fbd
00000080: 793c 3d3d 9d38 98bc f491 253d 3c35 4fbd
00000090: 5e8a bbbc d330 62bd 956d 323d ea9b 3abd
000000a0: 45fd 253d 9b77 413d 3a65 58bc 219e 583c
000000b0: 94af 73bd 62e2 1cbd 1506 263d e869 cebc
000000c0: 3529 debc bc11 75bd 44f1 763c d50c 2fbd
000000d0: 465e 3e3d 00a0 e7bc cd29 71bc 74ff e9bc
000000e0: 104d bf3c 928b 5cbb b45f 45bd 34f1 553d
000000f0: fe63 133d cf83 3d3d d2a6 183d f795 7a3b
00000100: 6658 2fbd 9942 0ebd b232 e3bc 2ab4 2d3d
00000110: 29f5 0a3b 5b41 2ebd 8bec 9d3c 39f4 cf3b
00000120: d32c e2bc 3e45 4bbc 1dd1 44bc cf15 5a3d
00000130: a80a bdbb 01d8 a6bc 6dca 913c 8761 533d
00000140: d1ab 38bd afa4 6fbd 4640 563d 25f8 2dbd
00000150: 657d fbbc 7248 8cbc 07c7 af3c 3e54 003c
00000160: e6f9 74bd cfe9 39bc 9c0b 903c 3314 78bd
00000170: b39f 52bd 64ff d83b 08d4 5ebd 08a9 c8bc
00000180: 05f7 d5bc 0f00 b53c 1f7f 193d 7264 60bd
00000190: c6af c43c 206b 0ebd 6fcf dc3b 536b 003d
000001a0: b23f b6bc eb0f 18bd 1613 453d f2b6 dfbc
000001b0: 139d c03c 93dd 81bc 4041 483d 464c 4bbd
000001c0: 9b0a 9b3c 3d3f 59bd e0cf 90bc 1501 293d
000001d0: 15da 3b3d 1c40 553d 8cb0 513d cc98 6a3d
000001e0: cf51 6b3d 2e84 633b 3511 1e3c 4f89 24bc
000001f0: bf7e 243d d512 273d 4ec3 0cbd 03dd 70bd
00000200: b841 15bd b361 173c ab94 553d 0a40 9dbc
00000210: 1221 f93c ede0 103b 6452 6f3d 986f 30bd
00000220: 259a 583d fdb2 993c dc9e 74bc db53 4b3d
00000230: c52c 7fbd 235d d0bb 408f 213d 2371 a23c
00000240: 7152 e53b 2e91 84bc 525e 4abd 4497 1dbd
00000250: 88d5 eb3c 82e0 e4bb c87b 44bd 0434 f1bc
00000260: e423 29bd c1e2 4ebd 8c6d 623c f7e4 243d
00000270: 7c5e d5bc 2815 eabc ba89 64bd d6e5 2c3c
00000280: 2058 b73c b708 30bd 2337 3c3c f475 0f3d
00000290: 04dc 8e3a 04cd 41bd 2a9d ccbc 0fd1 423d
000002a0: e2fe 543c d3de 8b3c f0a6 afbb 89c9 4dbd
000002b0: 6756 bcbc 6f95 c33c 320b 823d 5934 26bd
000002c0: 5c85 bf3c 9759 17bd 6192 d9bc 70c5 4c3d
000002d0: 207c 33bd cfc3 4dbd f72c 5ebd 69c6 383d
000002e0: 8007 373d 5a17 d9bc 2119 0bbd 9514 183b
000002f0: dcc6 09bd db4c babb dcd1 b4bc a84d 633d
00000300: bf33 52bd 7f90 62bd 9dce ba3c 3ecf 853c
00000310: 3af3 18bd 41b4 413b 766b 583d d655 14bd
00000320: 5080 363d 7f40 4cbc 9ec6 ed3c 7bcd 76bd
00000330: 3aed 473d d924 173d 6aa6 41bc 3824 eb3c
00000340: 6451 f4bc 8f9e 813d f762 823c 50c7 903b
00000350: 8944 2dbd 118f 963c 8d0f a83b 3988 bbbc
00000360: c3aa 0e3d ab6c 6e3d c5d0 01bd e8fa 703d
00000370: ac78 9ebb 5bfe 9dbc c2f1 71bd 42b4 25bd
00000380: 9ba4 6cbd 0394 1b3d f624 14bd 819d 0c3d
00000390: aa4d 40bd a29b 3bbd 9662 28bc d1e7 59bc
000003a0: ed64 7fbd c174 3a3d 471a 183d defb 383d
000003b0: a0e7 6ebd 7466 7ebd e6d7 7abc eee1 073d
000003c0: f273 dcbc bc0c e3bc 2304 33bd 5ce5 d93c
000003d0: 1068 603c 952d 1cbd ca6b 82bc 7246 3d3d
000003e0: ab31 333d 7999 093d 27dd 09bc 51e5 58bd
000003f0: 9fee 1cbd 84f4 6cbd b850 6b3c 83af 3bbd
-0.018758724 -0.051788952 0.05962471 -0.02721023 -0.009126042 0.058724668 0.03460584 -0.048225243
-0.00933227 0.0011748052 -0.019548353 0.0021873382 0.04164549 0.044352528 -0.00801492 -0.0111500975
-0.048439596 -0.018123334 -0.040533505 0.039757453 0.046722256 0.03943268 0.020079028 0.061886895
-0.04531111 0.0311866 0.0088565415 -0.029203646 -0.054249182 0.008513579 -0.013518305 -0.05464156
0.04620025 -0.018581683 0.040422395 -0.050587878 -0.022893127 -0.055222344 0.043561537 -0.045558847
0.04052474 0.047233205 -0.013207728 0.013221295 -0.059493616 -0.038301833 0.040533144 -0.025196984
-0.027119258 -0.059831366 0.015072171 -0.042736847 0.046476625 -0.028274536 -0.014719439 -0.028564192
0.023352176 -0.0033652526 -0.048186973 0.052231982 0.03598403 0.04626828 0.037268467 0.0038236359
-0.042808913 -0.03473148 -0.027734134 0.042408146 0.0021203256 -0.042542797 0.019277832 0.0063462523
-0.027609264 -0.012406645 -0.012012747 0.053243455 -0.0057690926 -0.02036667 0.01779672 0.05160668
-0.045085732 -0.058506664 0.05230739 -0.042472977 -0.030699441 -0.017124388 0.021457208 0.007832585
-0.059808634 -0.011347248 0.01758366 -0.06056614 -0.051421832 0.006622242 -0.054401428 -0.024494663
-0.026118765 0.022094755 0.037474748 -0.054783292 0.024009597 -0.03477013 0.006738595 0.031352352
-0.02224717 -0.037124556 0.048113905 -0.027308915 0.023512399 -0.015852725 0.048890352 -0.049633287
0.018925956 -0.053038824 -0.017677248 0.041260798 0.045862276 0.052063093 0.05119376 0.057274625
0.057451066 0.0034716236 0.009647657 -0.010042503 0.040159937 0.040789444 -0.034365945 -0.058804523
-0.036439627 0.009239602 0.052143734 -0.019195575 0.030411277 0.0022106722 0.058428183 -0.043075174
0.05288138 0.018762106 -0.014930453 0.049640518 -0.062298555 -0.006358759 0.039443254 0.019829338
0.006998353 -0.016182508 -0.049406357 -0.038474336 0.028788343 -0.006984771 -0.04796961 -0.029443748
-0.041293994 -0.050509218 0.013820063 0.04025742 -0.02604603 -0.028574541 -0.05579541 0.010552844
0.022380888 -0.04297706 0.011487755 0.0350246 0.001089931 -0.04731466 -0.024977285 0.047562655
0.013000222 0.017074024 -0.0053604767 -0.050241027 -0.022990419 0.023874966 0.063497916 -0.040577266
0.02337902 -0.036950674 -0.026559057 0.04999298 -0.043819547 -0.050235566 -0.0542421 0.045111094
0.044684887 -0.026500393 -0.03395951 0.0023205627 -0.033636913 -0.0056854314 -0.022072725 0.05549398
-0.05131888 -0.055313583 0.022803599 0.016334172 -0.037341334 0.0029556903 0.052836858 -0.036214672
0.044555962 -0.012466549 0.029025372 -0.060254555 0.04881022 0.036900375 -0.011819461 0.028703794
-0.029823966 0.06329071 0.01591633 0.004418291 -0.04230169 0.018378766 0.005128807 -0.022892104
0.03483082 0.058209103 -0.03169324 0.058833033 -0.0048361626 -0.019286325 -0.05906845 -0.04045511
-0.057774168 0.03798295 -0.03616806 0.034329895 -0.046949066 -0.04580272 -0.010277411 -0.013299898
-0.06235211 0.0455215 0.037134435 0.045162074 -0.058326364 -0.062109426 -0.015310263 0.033174448
-0.026910756 -0.027716033 -0.043705117 0.026598625 0.013696685 -0.038129408 -0.015920538 0.04620976
0.04374854 0.03359363 -0.008414543 -0.05295307 -0.038313504 -0.057850376 0.014362507 -0.045821678

bias f4 [256]
00000000: 5882 143d f43e 40bd 7049 ff3b 4a9b 42bd
00000010: 1e03 59bb 3c6c 0d3d 8053 c0bc d459 bcbc
00000020: 6cf5 dd3c 668a 08bd 66d8 4c3d c8ff da3c
00000030: 5fb2 523b 0e23 2a3d 3cb0 19bd 183e 913c
00000040: e066 a03c d098 e53c 1408 213d 9eab 1b3d
00000050: c41f 873c d4d6 edbc e847 0b3d 7adf 31bd
00000060: d0af 413c 8c26 243a b032 c43c ceba 26bd
00000070: c02f d43b f414 963c 5046 6fbd 9428 efbc
00000080: 60a4 ab3b d2da 143d 7f5d f1ba e43f 1c3d
00000090: 489a d5bc 58e4 0cbc 10ec 32bc 0ce5 1bbd
000000a0: c497 4dbd c046 c2ba a86a 763d 2294 313d
000000b0: bc44 b5bc 3d66 6abb 109e ca3b b8f4 e93c
000000c0: 0aa2 14bd d42c 05bd 4e0e 4e3d 100e b2bb
000000d0: d8ed bc3c 1c6b c5bc d69b 0fbd 18f3 1a3d
000000e0: 145d 2e3d 9238 3e3d a0da 24bc a23c 2fbd
000000f0: 66f1 54bd b067 1f3d 98d1 77bd f477 63bd
00000100: c00a bfbc 223c 473d 2a07 14bd f4af 9c3c
00000110: 6e29 09bd 5806 5b3c 5034 323d 847b 543d
00000120: 9875 f23c a062 233c 5a9a 19bd 38da 463c
00000130: ac0c bf3c 8ad0 443d 6ac4 4ebd e4ad 9bbc
00000140: d035 fdbb 08bb e2bc 0635 523d f257 0b3d
00000150: 18ae e0bc ec32 aa3c caa5 373d 4e75 53bd
00000160: c675 683d 1e23 073d f484 d53c 708d 16bc
00000170: 28c8 b63c b237 743d 10a2 f53c 9881 b4bc
00000180: 7087 20bc 9465 7bbd d26d 2b3d 50e8 743c
00000190: cc7e d83c 6261 6b3d 4886 543c d277 573d
000001a0: 6c24 f6bc ec1a 3c3d 72df 53bd ca94 393d
000001b0: 08bd c5bc 80db e43a 4060 bbbb 7fb7 d1ba
000001c0: c8fc 063d 2802 63bc fca1 e93c 80c7 ee3c
000001d0: 108f edbc 0cbb d53c 084d 3cbd b2ff 69bd
000001e0: 9052 36bd 8299 44bd 0c7c 193d fac6 753d
000001f0: eafc 2b3d 3246 233d 8340 35bb e484 d0bc
00000200: d857 f33c 98f8 a23c 9669 58bd eec3 08b9
00000210: ec84 a1bc 70dc f2bb 108b de3c 9896 e8bc
00000220: 40cb c23c 587c fbbc 2249 783d 0c46 e7bc
00000230: 00be f43a 807e 50bd 7082 c63c 7a1c 683d
00000240: c6fa 49bd 38ca 7c3c c026 703d 8eb8 3bbd
00000250: 7d98 f43b f492 8ebc 0eee 163d 8693 19bd
00000260: 32e6 723d 6894 2fbc 54a5 a23c 4ca8 a93c
00000270: a455 4abd 5ff5 583c 2884 5e3c 9a55 5b3d
00000280: 10db ecbb fefd 5cbd f253 63bd ec81 e6bc
00000290: 50f9 57bc 4ae7 353d 1cc4 55bd de8d 053d
000002a0: 00ed 66bc df7e 6e3b de97 25bd a078 5fbb
000002b0: c043 6cbc 0846 5ebc ae98 233d f08d 263c
000002c0: 60b0 53bc 40d4 613d 2883 e83c 344e a4bc
000002d0: c0ef 74bc 6029 ecbb a0ed 1fbb 5230 4fbd
000002e0: c0a6 403d 5864 dfbc d668 7b3d 5a2b 0dbd
000002f0: 2a7b 0bbd eaa3 453d 1440 aebc 9803 11bc
00000300: 70c5 a7bb 40fd 3c3b 4eea 73bd 785c 56bd
00000310: 10f3 8abc 08e8 f8bc 78b9 633d 7846 f4bc
00000320: 6059 f6bc e433 df3c 28fe 3d3c 2cc0 eabc
00000330: b026 493d 620b 173d 9053 40bc b42e 85bc
00000340: 50e6 debb 1435 76bd 502c a53c 78d1 113d
00000350: d4b7 0fbd 62f0 083d a897 973c 7067 80bb
00000360: 2812 8e3c 3835 38bd 28d4 da3c 24b5 79bd
00000370: 42f9 6cbd 207d ff3b e492 47bd 82b7 283d
00000380: 5c5e e5bc d423 30bd 28dc 90bc cc32 51bd
00000390: e8be e03c 3cac 4fbd ccfb 263d f800 2f3c
000003a0: a0ad 9e3b e0ae a2bb a4ef be3c de5f 733d
000003b0: 00c7 6cbd b0e0 f63b 9295 703d dc96 41bd
000003c0: 8c4c b43c 90a0 443d befd 663d fa59 6abd
000003d0: b003 7e3c 488f 2e3d 7eb4 0a3d a88c 42bc
000003e0: d0f2 543c a01b 5d3d d27b 293d b6e9 78bd
000003f0: 306d 2b3c 34c0 743d 9408 f3bc e63b 623d
0.036257118 -0.046935037 0.007790737 -0.047511376 -0.003311343 0.03452705 -0.023477316 -0.022992052
0.027094565 -0.033335112 0.05001106 0.026733294 0.0032149774 0.041537337 -0.037521586 0.017729804
0.019580305 0.028026968 0.039314345 0.038005464 0.01649464 -0.029033102 0.034004122 -0.043426014
0.011821702 0.00062618474 0.023949951 -0.040705495 0.006475419 0.018320538 -0.058416665 -0.029194154
0.005238101 0.036341496 -0.0018414705 0.03814687 -0.026074544 -0.008599363 -0.0109205395 -0.038060233
-0.050193563 -0.001482211 0.06016031 0.04335416 -0.022127502 -0.0035766505 0.0061833933 0.028559074
-0.036287345 -0.032513455 0.05030661 -0.0054338053 0.023062631 -0.024098925 -0.035060726 0.03782949
0.042569235 0.04644067 -0.01006189 -0.042782433 -0.051988028 0.038917243 -0.06050262 -0.055534318
-0.023320556 0.04864133 -0.036139645 0.01912687 -0.033486776 0.013368212 0.04350692 0.051875606
0.029597089 0.0099722445 -0.037500717 0.012136988 0.023321472 0.04805044 -0.050480284 -0.019003816
-0.007727362 -0.027677074 0.0513201 0.034019418 -0.027426764 0.020776235 0.044835843 -0.051625542
0.056752943 0.032992475 0.026064374 -0.009188995 0.022312239 0.059623428 0.029984504 -0.022034451
-0.009797916 -0.06137617 0.04185278 0.014947966 0.026427649 0.05746592 0.012971468 0.052604504
-0.030046664 0.045924112 -0.051726766 0.045307912 -0.024137989 0.0017460436 -0.005718261 -0.0016000121
0.032955915 -0.013855495 0.028519623 0.029147863 -0.028998882 0.026090167 -0.0459719 -0.057128616
-0.04451233 -0.04799796 0.037471816 0.060004212 0.041989245 0.039861865 -0.002765686 -0.025453992
0.029704973 0.01989393 -0.05283507 -0.0001304296 -0.019716702 -0.007411532 0.02716592 -0.028392121
0.023778558 -0.03069894 0.06061662 -0.028231643 0.0018672347 -0.05090189 0.02423212 0.056667782
-0.04931142 0.015429072 0.058630705 -0.045830302 0.007464467 -0.017404057 0.03684812 -0.037494205
0.059301563 -0.010716535 0.019854225 0.020710133 -0.04939808 0.013242095 0.013581313 0.053548433
-0.0072282627 -0.053953163 -0.05549998 -0.028138123 -0.013181999 0.044410028 -0.052188978 0.032606
-0.014094591 0.003639154 -0.040428035 -0.0034098998 -0.01442045 -0.013566501 0.03994053 0.0101656765
-0.012920469 0.055134058 0.028382853 -0.020056821 -0.014949739 -0.0072070807 -0.002440311 -0.05058319
0.047034025 -0.027269527 0.061379276 -0.03446517 -0.034053005 0.048252024 -0.02127079 -0.0088509545
-0.005119972 0.0028837472 -0.059549622 -0.05233428 -0.016961604 -0.030384079 0.0555968 -0.029818758
-0.030071914 0.027246423 0.01159624 -0.028656088 0.04910916 0.03687609 -0.011738673 -0.016257621
-0.0068023577 -0.060109213 0.020162731 0.035600156 -0.03508742 0.033432372 0.018504933 -0.0039185807
0.017342642 -0.04497263 0.026712492 -0.060963765 -0.0578549 0.0077968985 -0.04872407 0.04119063
-0.027999096 -0.04300292 -0.017683104 -0.051073834 0.027434781 -0.050701365 0.040767476 0.010681383
0.004842475 -0.0049646944 0.023307629 0.059417598 -0.05780697 0.007534109 0.05873639 -0.04726301
0.022009157 0.048004687 0.05639433 -0.057214715 0.015503809 0.042617112 0.033863537 -0.011874355
0.012997344 0.053981423 0.04137785 -0.06076976 0.010463044 0.05975361 -0.029667176 0.055232905
