Predict/storage/MLP_256_200_SGD_11/trained_187.pt (torch, 339061 bytes, 13 tensors)

weight f4 [256, 58]
-0.059810847 0.080630004 -0.05819106 0.08215011 -0.051828064 0.10844532 0.050483566 -0.065797515
0.07913186 -0.032298658 -0.028131701 0.10918786 -0.038360693 0.120617226 0.05231101 -0.03269674
-0.10698772 -0.11047204 -0.0039406302 -0.0786945 -0.103191264 -0.11630466 0.043633707 -0.087555364
0.10339833 -0.013133326 0.054398373 -0.05092612 0.12475427 0.042741783 0.023707362 -0.040664207
0.12884486 -0.06342061 -0.110946484 -0.13280495 -0.114727974 -0.080486715 0.09385816 -0.10409429
-0.017963246 0.12686448 -0.038324334 0.015048048 0.0716676 -0.092891544 -0.05302904 0.024215328
-0.073726885 0.08159432 -0.10125346 -0.06522661 -0.10560166 0.06634737 -0.0036064023 -0.118750244
0.087858014 0.08925773 -0.080958135 0.0062260972 -0.06543798 0.009896798 0.019434024 -0.12444464
0.06951333 -0.12057411 -0.075219795 0.07059411 0.11215622 0.08100501 0.13042921 -0.052310493
-0.037599724 0.028376263 -0.11839069 -0.11673853 0.09388142 -0.10927999 -0.12675455 -0.052101165
-0.050148446 -0.06331547 0.100851245 0.10999171 -0.035523154 0.032109458 -0.034435898 0.02388628
-0.08799263 0.02800253 -0.004992073 -0.04457916 0.027432477 0.022077838 -0.090804875 -0.11886217
0.11115241 -0.017290793 0.06210028 0.0033584891 -0.048200045 0.03155471 0.0015369492 -0.24043429
0.030115176 0.09791577 0.040845044 0.1306315 0.09442919 -0.108125016 0.00018669084 0.09517207
-0.073357895 0.06320719 0.014427461 0.06502504 0.00789316 -0.08825119 -0.034963574 -0.07440403
0.08484702 0.0069572357 -0.052801393 0.04782942 -0.124734685 -0.10038303 0.027973179 -0.05397709
-0.086948805 0.02910268 0.0040085586 -0.07224086 -0.098606475 0.116024435 0.0318494 -0.12971754
0.076508954 -0.07128176 0.055307984 0.07958213 -0.090504326 -3.7784597e-05 -0.014641776 -0.11535493
0.04079384 -0.013421014 -0.014317567 -0.09200646 0.027779033 0.10630325 0.021878578 -0.046728097
-0.044928443 0.016192537 -0.10651344 0.06612336 -0.03411044 0.09930586 -0.041653287 -0.13036704
0.036546864 0.05835084 0.20444226 -0.08888305 -0.100414395 -0.113671 0.05770526 -0.123204105
-0.16782592 -0.1683276 -0.05368542 -0.100048766 -0.06393729 -0.15848368 -0.13530138 -0.029136343
-0.0958756 0.05922982 0.093601815 -0.05419489 0.055686265 0.020494847 0.024061363 0.057655394
-0.06484763 -0.0641056 0.12243109 -0.12858728 0.06312695 0.030490443 0.024949837 -0.11288278
-0.08670465 0.07624097 -0.04719614 -0.10277584 -0.057349414 -0.0818049 0.068604745 -0.031083463
-0.099646546 0.0029794665 -0.028202245 0.022482732 0.10264369 -0.08736327 -0.09951752 0.028863268
-0.06308855 0.07416274 0.09637672 0.13999574 -0.045329742 0.105238385 0.12696056 -0.07169145
0.12022792 0.12105583 -0.0045588394 -0.06331233 0.04034492 0.04221349 -0.021107111 -0.10874769
0.025401467 -0.037260942 0.18801978 0.20198935 0.06161176 0.045897268 -0.05091916 0.0076768226
-0.06610223 -0.09547654 -0.02189605 -0.06682664 0.12822783 -0.01790774 0.039207965 0.07418782
-0.088272095 -0.06408533 -0.06672697 -0.06407382 0.15402965 0.06909816 0.0778744 0.023648676
-0.08109103 0.12007479 0.032177795 0.02021861 -0.10777384 0.06906844 -0.07519719 0.024213016
00000000: 38fc 74bd 5821 a53d c059 6ebd 513e a83d
00000010: aa49 54bd 9418 de3d dbc7 4e3d d9c0 86bd
00000020: e20f a23d 994b 04bd 7474 e6bc e29d df3d
00000030: 1a20 1dbd 2a06 f73d 1244 563d 04ed 05bd
00000040: 611c dbbd 2a3f e2bd 6720 81bb 952a a1bd
00000050: f155 d3bd 2331 eebd 42b9 323d 3a50 b3bd
00000060: 81c2 d33d 292d 57bc d4d0 5e3d e897 50bd
00000070: 2b7f ff3d 0212 2f3d f135 c23c 838f 26bd
00000080: e8ef 033e aae2 81bd e937 e3bd 05fe 07be
00000090: 80f6 eabd 38d6 a4bd b538 c03d 632f d5bd
000000a0: a827 93bc c3e8 013e faf9 1cbd 178c 763c
000000b0: 76c6 923d ec3d bebd fb34 59bd 395f c63c
000000c0: 1ffe 96bd ec1a a73d f95d cfbd 8795 85bd
000000d0: af45 d8bd 21e1 873d 6459 6cbb 5433 f3bd
000000e0: e7ee b33d c2cc b63d 61cd a5bd 4a04 cc3b
000000f0: 5904 86bd 2e26 223c 1a34 9f3c d5dc febd
00000100: 015d 8e3d 8fef f6bd d60c 9abd a593 903d
00000110: 29b2 e53d f4e5 a53d 3c8f 053e 8743 56bd
00000120: 2b02 1abd 5675 e83c d176 f2bd 9c14 efbd
00000130: e744 c03d 30ce dfbd f2cb 01be 0868 55bd
00000140: 7568 4dbd 8bab 81bd 198b ce3d 5543 e13d
00000150: ba80 11bd 3585 033d a80c 0dbd 29ad c33c
00000160: 7b35 b4bd 9065 e53c 8b94 a3bb a398 36bd
00000170: 13ba e03c 95dc b43c e8f7 b9bd 026e f3bd
00000180: e0a3 e33d 6ca5 8dbc dd5c 7e3d 191a 5c3b
00000190: 696d 45bd 833f 013d 7573 c93a 6834 76be
000001a0: 1ab4 f63c 1088 c83d 224d 273d 44c4 053e
000001b0: 1764 c13d a670 ddbd 71c2 4339 93e9 c23d
000001c0: aa3c 96bd c572 813d 2861 6c3c d92b 853d
000001d0: 5052 013c 0abd b4bd f735 0fbd 2461 98bd
000001e0: 46c4 ad3d 86f9 e33b 4646 58bd c8e8 433d
000001f0: e674 ffbd 9e95 cdbd 0228 e53c 1517 5dbd
00000200: 3712 b2bd be68 ee3c 3a5a 833b 04f3 93bd
00000210: 31f2 c9bd 389e ed3d 8474 023d add4 04be
00000220: bab0 9c3d 2cfc 91bd a08a 623d f5fb a23d
00000230: 555a b9bd e77a 1eb8 0fe4 6fbc 353f ecbd
00000240: 7117 273d d0e3 5bbc 3b94 6abc e26d bcbd
00000250: db90 e33c 85b5 d93d b43a b33c f665 3fbd
00000260: e306 38bd 36a6 843c b823 dabd af6b 873d
00000270: 64b7 0bbd df60 cb3d a39c 2abd f07e 05be
00000280: 2ab2 153d 4a01 6f3d 5059 513e 5108 b6bd
00000290: 10a6 cdbd 57cc e8bd 5a5c 6c3d 6f52 fcbd
000002a0: 8fda 2bbe 125e 2cbe 3ee5 5bbd 5ee6 ccbd
000002b0: 8ef1 82bd 8c49 22be 728c 0abe 57af eebc
000002c0: 6d5a c4bd f89a 723d 4fb2 bf3d 76fb 5dbd
000002d0: 4817 643d cfe4 a73c 561c c53c 1028 6c3d
000002e0: d6ce 84bd cc49 83bd 27bd fa3d 62ac 03be
000002f0: b448 813d 18c7 f93c 9a63 cc3c 162f e7bd
00000300: 3592 b1bd 3a24 9c3d bd50 41bd 247c d2bd
00000310: 38e7 6abd 5489 a7bd a580 8c3d bfa2 febc
00000320: 7d13 ccbd 2743 433b 6508 e7bc b52d b83c
00000330: db36 d23d 84eb b2bd d7cf cbbd a972 ec3c
00000340: 9234 81bd a2e2 973d 2861 c53d 0b5b 0f3e
00000350: aeab 39bd 3987 d73d f301 023e f8d2 92bd
00000360: 0e3a f63d 1eec f73d 5162 95bb e5a9 81bd
00000370: b740 253d 0de8 2c3d d2e8 acbc 1cb7 debd
00000380: bd16 d03c ee9e 18bd 4288 403e 4cd6 4e3e
00000390: 9d5c 7c3d c6fe 3b3d 9c90 50bd db8d fb3b
000003a0: 9b60 87bd 3489 c3bd 585f b3bc 68dc 88bd
000003b0: 284e 033e 41b3 92bc 8898 203d c9ef 973d
000003c0: 00c8 b4bd 2b3f 83bd 26a8 88bd 2339 83bd
000003d0: f3b9 1d3e 5683 8d3d 9d7c 9f3d deba c13c
000003e0: 0e13 a6bd c6e9 f53d ddcc 033d 80a1 a53c
000003f0: 88b8 dcbd c173 8d3d fc00 9abd 605a c63c

bias f4 [256]
0.07471278 0.052635495 0.049306963 0.041018687 -0.08029827 0.12007886 0.0071404916 -0.04528479
-0.09788442 0.119210325 -0.09456519 -0.025390645 0.07872289 -0.05907773 -0.026253812 -0.088728905
-0.0871841 0.10570839 -0.11877325 -0.0135338055 0.009437877 0.117953174 -0.023859467 0.09754358
-0.041567184 -0.082675055 -0.115165606 -0.07560525 0.07789187 -0.004991329 -0.09087476 0.11939613
0.010623483 -0.03735014 -0.0253752 0.001173096 -0.011125254 0.013131167 0.13034299 -0.05096079
0.0853806 0.13074239 -0.03958884 -0.12319497 0.114893496 0.0009515598 -0.07795132 -0.12561598
-0.06901452 -0.11996447 0.056053378 0.05001976 0.042097554 -0.07449197 0.06873023 -0.11812548
0.029618038 -0.0017756416 0.014734587 -0.07214869 -0.078324065 -0.04401925 0.036709387 0.04885868
-0.06842918 0.048019923 -0.107866965 -0.03610708 0.11235171 -0.12541766 -0.037049275 0.108514525
-0.013813647 0.09198375 -0.10348142 0.07472 0.0015474899 0.04753337 -0.027279738 0.09883379
0.12896022 0.005857959 -0.1077215 -0.03737351 0.050712083 0.094278924 -0.107415706 -0.0075053023
0.11376384 -0.08266508 -0.0779941 0.11996307 0.106272824 0.05537626 0.051124826 -0.02471173
-0.08999329 -0.12657613 0.11700898 0.101726785 0.060791306 0.06222618 -0.009937293 -0.0732202
-0.096561186 -0.11727858 -0.116292775 0.09523733 -0.08547879 -0.0002695225 0.036715716 0.057221416
0.08793618 -0.0018336645 0.006253048 -0.012878541 0.039940987 -0.0069756103 -0.055019733 0.061437257
0.052470762 -0.060722087 0.09836558 0.05428323 0.018865589 0.05100153 -0.09096867 0.0765249
-0.120179586 -0.0817376 -0.06362946 -0.1020014 0.06513104 0.038141076 -0.03168468 0.052864745
-0.105715625 -0.03792554 0.04113898 0.09449827 0.07191723 -0.11245348 -0.08714525 -0.08867816
0.1046412 0.0183997 -0.084821574 0.08571304 -0.06883961 -0.088896655 0.017662708 0.06349809
-0.016422523 -0.0873719 0.09031966 -0.11929852 -0.013416408 0.021685218 -0.068390235 0.04568061
-0.02911738 -0.049789142 0.021435682 0.08728359 -0.11606672 0.011195511 0.045073085 0.12952456
-0.072919786 0.037765175 0.08563056 -0.125182 -0.096780814 0.076856345 -0.021407515 0.114188485
0.08380954 -0.08771073 0.1182902 -0.048106328 -0.06501027 -0.040631436 0.038490754 0.11758078
0.11288569 -0.08675997 0.0157438 -0.12187059 -0.09028211 0.111676216 0.0698594 -0.1069128
-0.10610238 -0.06784696 0.0066054966 -0.021193668 0.0674215 -0.12133824 0.015407016 0.0013178429
-0.09586054 0.09912045 0.09237903 0.05390047 0.124349765 0.08805776 0.030294511 -0.11614382
-0.04989782 0.053473786 0.00961214 0.013685199 0.004926326 0.0439724 0.028413152 -0.07227191
0.045842804 0.100490905 0.03391427 0.011391657 -0.077238314 -0.095645286 -0.05798941 0.08264749
-0.07121335 -0.026035532 0.049042296 0.03892517 0.083411016 0.1279166 0.011693358 -0.12046544
0.09578244 0.0032075082 -0.08588347 0.11528726 -0.09447482 -0.06477875 0.1111634 0.0035052567
0.02819039 -0.03162735 0.022279372 -0.02238913 0.028000776 -0.037679978 0.042610813 -0.025673365
-0.0943686 -0.08611209 -0.015321086 0.00629225 0.09545796 -0.06267459 -0.033411905 -0.03733666
00000000: 0403 993d 5198 573d 19f6 493d 3603 283d
00000010: 6b73 a4bd e8eb f53d c9fa e93b 8b7c 39bd
00000020: a077 c8bd 8b24 f43d 65ab c1bd 0b00 d0bc
00000030: 7739 a13d 7dfb 71bd 3c12 d7bc 80b7 b5bd
00000040: 948d b2bd a47d d83d 643f f3bd e5bc 5dbc
00000050: 53a1 1a3c 6f91 f13d ee74 c3bc eec4 c73d
00000060: 5a42 2abd 8a51 a9bd f2db ebbd edd6 9abd
00000070: c685 9f3d 4d8e a3bb 8c1c babd f585 f43d
00000080: 1e0e 2e3c 76fc 18bd a7df cfbc 92c2 993a
00000090: b346 36bc 1b24 573c a278 053e 43bc 50bd
000000a0: 06dc ae3d 55e1 053e e827 22bd a54d fcbd
000000b0: 484d eb3d 1972 793a f1a4 9fbd 7aa1 00be
000000c0: 7c57 8dbd efaf f5bd 3a98 653d 85e1 4c3d
000000d0: 7c6e 2c3d 3f8f 98bd 6fc2 8c3d c6eb f1bd
000000e0: 87a1 f23c a5bc e8ba 5669 713c b1c2 93bd
000000f0: 5e68 a0bd 874d 34bd 955c 163d 0a20 483d
00000100: 9924 8cbd 8ab0 443d 5be9 dcbd 04e5 13bd
00000110: a718 e63d 7d6d 00be fbc0 17bd dd3c de3d
00000120: a352 62bc fa61 bc3d 11ee d3bd cd06 993d
00000130: 25d5 ca3a 5ab2 423d c279 dfbc 5f69 ca3d
00000140: 260e 043e 1ff4 bf3b 179d dcbd f714 19bd
00000150: 79b7 4f3d 4f15 c13d c4fc dbbd 0aef f5bb
00000160: 04fd e83d 4f4c a9bd 5fbb 9fbd 33af f53d
00000170: 91a5 d93d 38d2 623d 4468 513d 4170 cabc
00000180: 674e b8bd 2c9d 01be 67a2 ef3d 2256 d03d
00000190: 4e00 793d e1e0 7e3d 07d0 22bc 79f4 95bd
000001a0: dfc1 c5bd c12f f0bd e82a eebd ca0b c33d
000001b0: 810f afbd b34e 8db9 3863 163d 0161 6a3d
000001c0: e217 b43d 9257 f0ba 5ee6 cc3b 8400 53bc
000001d0: 2999 233d a993 e4bb 5f5c 61bd a2a5 7b3d
000001e0: 95eb 563d b9b7 78bd e573 c93d 1858 5e3d
000001f0: 028c 9a3c fbe6 503d c84d babd 16b9 9c3d
00000200: b720 f6bd 0b66 a7bd 2a50 82bd 1ce6 d0bd
00000210: 6c63 853d d139 1c3d ccc7 01bd b488 583d
00000220: 6f81 d8bd d057 1bbd 5981 283d 4f88 c13d
00000230: 5749 933d 034e e6bd 3579 b2bd e59c b5bd
00000240: 204e d63d f8ba 963c efb6 adbd 518a af3d
00000250: c8fb 8cbd 730f b6bd 62b1 903c 490b 823d
00000260: 8788 86bc 0af0 b2bd 84f9 b83d c852 f4bd
00000270: 7ed0 5bbc 33a5 b13c 2e10 8cbd 971b 3b3d
00000280: 9287 eebc b3ef 4bbd e299 af3c bdc1 b23d
00000290: 63b4 edbd 606d 373c 8e9e 383d 16a2 043e
000002a0: f856 95bd a8af 1a3d 135f af3d b62f 00be
000002b0: 0535 c6bd dc66 9d3d d05e afbc a7db e93d
000002c0: 56a4 ab3d afa1 b3bd 2242 f23d 240b 45bd
000002d0: 1b24 85bd 266d 26bd 7ba8 1d3d 31ce f03d
000002e0: 9d30 e73d 36af b1bd 24f9 803c 4a97 f9bd
000002f0: d4e5 b8bd 80b6 e43d 7212 8f3d 19f5 dabd
00000300: 344c d9bd 59f3 8abd ec72 d83b 589e adbc
00000310: 4914 8a3d 2f80 f8bd b56d 7c3c 78bb ac3a
00000320: 8852 c4bd aaff ca3d 3831 bd3d bdc6 5c3d
00000330: 17ab fe3d a057 b43d 322c f83c d0dc edbd
00000340: a861 4cbd 5407 5b3d 3d7c 1d3c e337 603c
00000350: 056d a13b 671c 343d b3c2 e83c 4c03 94bd
00000360: aac5 3b3d 2dce cd3d b1e9 0a3d 13a4 3a3c
00000370: 1f2f 9ebd ade1 c3bd 4e86 6dbd 1643 a93d
00000380: 4ed8 91bd 7848 d5bc 93e0 483d 0070 1f3d
00000390: 65d3 aa3d 92fc 023e 8095 3f3c 96b6 f6bd
000003a0: 9529 c43d 0f35 523b ace3 afbd ba1b ec3d
000003b0: 047c c1bd b9aa 84bd a3a9 e33d 73b8 653b
000003c0: 88ef e63c ae8b 01bd 3b83 b63c 6969 b7bc
000003d0: e261 e53c 5256 1abd ad88 2e3d f350 d2bc
000003e0: 5344 c1bd 895b b0bd 4b05 7bbc 382f ce3b
000003f0: 777f c33d 895b 80bd ecda 08bd 53ee 18bd

weight f4 [256]
0.984223 1.0086615 1.0154902 0.97163475 1.0041027 1.0158981 0.99292034 1.0184656
0.96573853 0.96502614 0.99296373 1.0231334 0.97538847 1.012611 1.1489903 1.0214475
1.016454 1.0090387 1.0087931 0.95474017 1.0186577 1.0215988 0.9727414 0.96269596
0.99671197 1.0116159 0.9624394 0.91803986 1.0063987 0.9973747 1.0215122 1.0134461
0.98986286 0.9703985 1.0093479 0.9624736 1.0017904 1.023479 0.9728129 0.9273759
1.0026629 1.0115829 1.0256329 1.0291508 0.9899305 1.0255165 0.9411285 1.0120823
1.0212709 0.9810199 0.98146397 1.0218768 1.0363468 0.9764429 0.98960394 1.0169939
1.0261276 1.0249349 0.9558074 1.0091189 1.0269396 1.0144354 1.0471386 1.017027
0.98142326 1.012928 1.0098897 1.0237957 0.99110234 0.943151 0.9684132 0.95755184
1.0269156 1.0133089 1.0322905 0.9825331 0.99163646 1.0246556 1.0267746 1.0279258
1.0103123 0.9888857 1.0117397 1.0133461 0.9991399 1.0181389 1.0216784 1.0211637
0.9401581 1.0024602 0.9670715 0.9961156 0.98520935 1.022438 1.0182718 1.018015
1.0187804 1.0121056 1.0135325 0.94740504 1.0174234 1.0164526 0.9889546 0.9234403
1.0192145 0.9682629 1.0288444 0.97684497 0.92870593 0.99199 1.0120474 1.0148447
0.9981082 1.0123475 1.0276264 1.0053396 0.9816856 1.0174273 0.91811424 1.0068111
1.0354366 0.93596005 1.0033376 1.0217416 0.9412634 1.0165601 1.0093101 1.0189553
1.0272828 1.0268413 0.9654986 1.0084718 1.0073755 1.0005413 0.9723507 0.9916253
0.97529924 0.9131101 1.0159421 1.0305712 1.021974 0.9634261 0.960638 1.0087696
0.99050725 0.99623257 0.99732774 1.011292 1.022604 0.9249329 1.0171423 1.0180054
1.027974 0.91972536 0.98772866 1.0375388 1.0185481 0.95985484 1.0591725 1.0645581
0.9602512 0.91894346 0.97579676 0.9348171 1.001674 1.0084196 1.0433532 0.9606263
0.9879745 0.987629 1.0033969 1.0183818 1.0172772 0.95353943 0.9685854 1.0300372
1.0147798 1.0190258 1.0362761 1.0351019 1.0195972 0.9829488 1.0306945 0.977041
1.0198487 1.0136307 0.97894603 0.9998578 1.0331397 1.0113482 1.0068924 0.94875854
0.93997544 1.0313015 0.9119039 0.95619524 1.0285094 1.0048891 1.0053803 0.99348265
1.0099728 1.0079845 0.97794825 1.0232984 1.0406215 1.013903 0.9807779 0.9985012
1.0436221 1.0522897 1.0173641 1.0164013 1.009955 1.0180265 1.0197335 1.0347908
0.93135464 0.9991743 0.929405 0.99691874 1.0326048 1.0100075 1.0054644 0.92325324
0.9849212 1.0056702 0.9661956 0.99619657 0.9885922 1.0510412 0.93757546 1.0069226
1.0344032 0.9889513 1.000378 0.974187 1.0199014 1.0115892 1.0269494 1.0363396
1.0296195 0.9962346 0.94044584 0.94477534 1.0156269 1.0153403 1.0102206 1.1180013
1.0532621 0.99369836 1.0220047 1.0238013 0.9436704 0.9929641 0.92645925 0.97406715
00000000: 0af6 7b3f d21b 813f 95fb 813f 0ebd 783f
00000010: 7086 803f f308 823f 0730 7e3f 155d 823f
00000020: a43a 773f f40b 773f df32 7e3f 09f6 823f
00000030: 0fb3 793f 3d9d 813f 1d12 933f cbbe 823f
00000040: 2a1b 823f 2e28 813f 2220 813f da69 743f
00000050: 6063 823f c0c3 823f 9505 793f 3e73 763f
00000060: 8428 7f3f a17c 813f 6e62 763f a904 6b3f
00000070: acd1 803f f353 7f3f e9c0 823f 9ab8 813f
00000080: a767 7d3f 096c 783f 5032 813f ab64 763f
00000090: ab3a 803f 5c01 833f 440a 793f 8268 6d3f
000000a0: 4257 803f 8c7b 813f f047 833f 37bb 833f
000000b0: 166c 7d3f 2044 833f cced 703f ea8b 813f
000000c0: 01b9 823f 1f24 7b3f 3941 7b3f dccc 823f
000000d0: 03a7 843f 29f8 793f af56 7d3f db2c 823f
000000e0: 2658 833f 1131 833f cbaf 743f cf2a 813f
000000f0: c272 833f 05d9 813f a308 863f f12d 823f
00000100: 8e3e 7b3f a0a7 813f 1144 813f bd0b 833f
00000110: e2b8 7d3f 5872 713f ede9 773f 1e22 753f
00000120: f871 833f 1bb4 813f 1822 843f 4a87 7b3f
00000130: e3db 7d3f ea27 833f 5a6d 833f 1393 833f
00000140: ea51 813f 9d27 7d3f b080 813f 53b5 813f
00000150: a2c7 7f3f 6052 823f 5cc6 823f 7eb5 823f
00000160: 34ae 703f 9e50 803f ff91 773f 6f01 7f3f
00000170: ae36 7c3f 40df 823f bb56 823f 514e 823f
00000180: 6567 823f ad8c 813f 6fbb 813f 2389 723f
00000190: ee3a 823f 1e1b 823f 212c 7d3f 9566 6c3f
000001a0: 9f75 823f 14e0 773f 2cb1 833f 8312 7a3f
000001b0: acbf 6d3f 0ef3 7d3f c58a 813f 6ee6 813f
000001c0: 0584 7f3f 9a94 813f 4389 833f f8ae 803f
000001d0: bf4f 7b3f 0f3b 823f 8909 6b3f 30df 803f
000001e0: 3089 843f 149b 6f3f 5e6d 803f 6ec8 823f
000001f0: a3f6 703f a41e 823f 1331 813f 216d 823f
00000200: 017e 833f 896f 833f eb2a 773f 9b15 813f
00000210: aef1 803f bd11 803f faeb 783f 28db 7d3f
00000220: 36ad 793f 95c1 693f 640a 823f c2e9 833f
00000230: 0bd0 823f 18a3 763f 5fec 753f 5d1f 813f
00000240: e291 7d3f 1909 7f3f df50 7f3f 0472 813f
00000250: b0e4 823f 67c8 6c3f b831 823f 004e 823f
00000260: a794 833f 1f73 6b3f c9db 7c3f 12ce 843f
00000270: c95f 823f 0cb9 753f f792 873f 7143 883f
00000280: 06d3 753f e13f 6b3f d1cd 793f 2c50 6f3f
00000290: db36 803f e513 813f 998c 853f 9beb 753f
000002a0: e6eb 7c3f 41d5 7c3f 4f6f 803f 565a 823f
000002b0: 2436 823f 291b 743f 36f5 773f 42d8 833f
000002c0: 4ee4 813f 706f 823f b2a4 843f 387e 843f
000002d0: 2982 823f 88a2 7b3f cced 833f 5c1f 7a3f
000002e0: 678a 823f a7be 813f 359c 7a3f aef6 7f3f
000002f0: ec3d 843f dc73 813f dae1 803f d7e1 723f
00000300: 3ba2 703f b001 843f 8972 693f 36c9 743f
00000310: 32a6 833f 35a0 803f 4db0 803f e154 7e3f
00000320: ca46 813f a305 813f d15a 7a3f 71fb 823f
00000330: 1633 853f 93c7 813f 4314 7b3f c69d 7f3f
00000340: 6995 853f 6eb1 863f fd38 823f 7019 823f
00000350: 3546 813f b14e 823f a186 823f 0674 843f
00000360: 426d 6e3f e3c9 7f3f 7ced 6d3f 1136 7f3f
00000370: 652c 843f ed47 813f 0fb3 803f 535a 6c3f
00000380: cc23 7c3f cdb9 803f 9858 773f bd06 7f3f
00000390: 6114 7d3f 8588 863f f204 703f d7e2 803f
000003a0: 5367 843f ea2b 7d3f 630c 803f 5264 793f
000003b0: 218c 823f c17b 813f 1473 833f c7a6 843f
000003c0: 92ca 833f 3b09 7f3f 0fc1 703f ccdc 713f
000003d0: 1000 823f acf6 813f e94e 813f ab1a 8f3f
000003e0: 4bd1 863f 0463 7e3f 0dd1 823f ec0b 833f
000003f0: 6294 713f e532 7e3f 6f2c 6d3f 775c 793f

bias f4 [256]
0.0029993858 0.0046866876 -0.0028342598 0.01532872 0.016068628 0.006657898 -0.006761401 -5.4453983e-05
-0.0019096857 -0.0005707294 -0.006302305 0.0039704796 -0.016995102 0.0021692892 -0.009823718 0.027839359
-0.0101639945 0.0028813065 -0.017080797 -0.01447058 0.00031344127 0.00624096 -0.00050566485 -0.026931917
-0.011539601 0.0020403583 0.0029764434 -0.020270253 0.0009538082 -0.0114476085 0.030777253 -0.0034773746
0.00488982 0.0035908984 0.006954291 -0.01266473 -0.00081847166 0.02173174 -0.013399064 -0.024630193
-0.012335553 0.01552702 0.017324459 0.0053418986 0.005015347 0.023201328 -0.027904058 6.227858e-05
0.035580922 0.013312318 0.0073188078 0.009622754 0.03771423 -0.0026725815 -0.00080951717 0.007128286
0.034826227 0.004894285 -0.016241975 0.016796995 0.0021210238 0.021808632 0.0183602 0.014283738
0.0025827351 0.026919803 -0.010392092 0.025046736 0.005325312 0.002319962 0.0024449113 -0.011271322
0.025266893 -0.028544327 -0.0024915854 0.011186268 -0.0028129027 0.008495494 0.053939935 0.011767367
0.006232768 0.0030633153 0.005868392 0.02549925 -0.029694075 0.021486929 -0.0064057936 0.0076031564
-0.007855252 0.00717857 -0.0064330804 -0.002099586 -0.00027091408 -0.0035829279 0.01361618 0.034443904
0.006964344 0.024282489 0.0029162685 -0.0097147785 0.005751222 0.00755897 -0.012961308 -0.04916896
0.030853245 0.009603433 0.008803521 -0.011714633 0.004901765 -0.0011919921 0.014448753 0.0013057262
-0.00019095979 0.02691715 -0.02358501 -0.0011440938 -0.008893458 0.015166788 -0.030019386 0.009039278
0.013958371 -0.01306277 -0.0045518978 0.012207629 -0.011265931 0.0147491805 0.004277181 0.007308595
0.013242601 -0.0044129486 0.0059332554 0.009855545 0.0016805897 0.006430961 0.008236489 -0.013574621
-0.01790781 -0.028934538 0.02772128 0.01820731 0.00456872 0.0044091158 -0.0046516946 -0.00458853
-0.018846331 -0.005147802 0.0030188803 -0.004986438 0.03301058 -0.01998783 0.015059997 0.014932479
0.016217867 -0.018642206 0.019193659 0.017853133 0.0026202581 -0.007881152 0.006325447 0.021593982
-0.022951942 -0.019431034 0.001966534 -0.035550028 -0.0029277639 -0.011229549 0.017985642 -0.0068964395
0.019717382 -0.0059440476 -0.006507487 0.010369861 0.014396152 -0.015030953 -0.0018319198 0.002662108
0.015123777 0.005873742 0.012944663 0.0361045 0.032122478 -0.012766293 0.014166563 -0.0024448626
0.014733802 -0.00013394067 0.006342988 0.0050501483 0.039558426 0.01148136 0.009339056 -0.0029480245
0.0020617165 0.051719774 -0.02698716 -0.008563744 0.025696985 0.009623007 -0.026448036 0.0005164705
-0.0013915838 -0.016441274 0.0017439409 0.013634828 0.023129644 0.0020715396 0.008061013 0.01858188
-0.0144069055 0.008516532 0.004748165 0.0034851655 -0.008565021 0.018199109 0.03825684 0.038966432
-0.022673314 0.018649641 -0.009007203 -0.0021606344 0.02107998 0.020338524 0.0018930843 -0.03466704
-0.0020148223 0.01382292 -0.008171917 0.0011729785 0.016472677 0.029681375 -0.018783314 -0.0066939425
0.020823946 -0.022069989 -0.015060528 -0.0068923035 0.02431107 0.0089474525 0.027553651 0.016003193
0.015870877 0.014126153 -0.0010507122 -0.015044564 0.035977766 0.008501037 0.005813758 -0.0148377875
0.034084514 0.035521634 0.016755821 0.020234067 -0.020034607 -0.0047776857 -0.03636609 -0.013028765
00000000: 5891 443b c992 993b fdbe 39bb 5025 7b3c
00000010: 5ba2 833c 7f2a da3b be8e ddbb 8565 64b8
00000020: 6b4e faba 009d 15ba 9183 cebb cc1a 823b
00000030: 5039 8bbc a22a 0e3b a9f3 20bc 5e0f e43c
00000040: e286 26bc 4dd4 3c3b 07ed 8bbc 0316 6dbc
00000050: 6055 a439 f880 cc3b 988e 04ba 53a0 dcbc
00000060: 9810 3dbc 88b7 053b 6f10 433b cd0d a6bc
00000070: fc08 7a3a c08e 3bbc 9420 fc3c aae4 63bb
00000080: c83a a03b 4755 6b3b d2e0 e33b ba7f 4fbc
00000090: b48e 56ba c306 b23c bf87 5bbc 42c5 c9bc
000000a0: 0f1b 4abc 0b65 7e3c 06ec 8d3c 180b af3b
000000b0: c857 a43b b610 be3c 0d97 e4bc 8f9b 8238
000000c0: 4dbd 113d e91b 5a3c 9cd2 ef3b c1a8 1d3c
000000d0: 3d7a 1a3d 7a26 2fbb c735 54ba 6694 e93b
000000e0: f2a5 0e3d 3d60 a03b e40d 85bc da99 893c
000000f0: e000 0b3b 04a8 b23c 2168 963c 5706 6a3c
00000100: 1b43 293b eb86 dc3c 9843 2abc d02e cd3c
00000110: f47f ae3b 810a 183b ce3a 203b 5aab 38bc
00000120: 84fc ce3c cbd5 e9bc de49 23bb 9c46 373c
00000130: ad58 38bb af30 0b3c 1ff0 5c3d eacb 403c
00000140: 3f3c cc3b e7c1 483b a44b c03b cee3 d03c
00000150: fd40 f3bc 5b05 b03c b1e7 d1bb e623 f93b
00000160: 51b3 00bc 363a eb3b 97cc d2bb 3599 09bb
00000170: 7909 8eb9 8ecf 6abb 6616 5f3c 0d15 0d3d
00000180: 2735 e43b 12ec c63c de1e 3f3b bc2a 1fbc
00000190: bf74 bc3b 3cb1 f73b aa5b 54bc 6465 49bd
000001a0: f2bf fc3c b857 1d3c a53c 103c bbee 3fbc
000001b0: fc9e a03b 9e3c 9cba 76ba 6c3c e724 ab3a
000001c0: 613c 48b9 5b81 dc3c 5a35 c1bc 6bf5 95ba
000001d0: deb5 11bc 1f7e 783c 37eb f5bc 7b19 143c
000001e0: a7b1 643c 3a05 56bc 1628 95bb 8202 483c
000001f0: bd94 38bc 8ca6 713c 9827 8c3b f07c ef3b
00000200: 7ff7 583c 7f9a 90bb c16b c23b 2779 213c
00000210: 3c47 dc3a d0ba d23b 57f2 063c 1668 5ebc
00000220: 66b3 92bc 2008 edbc bd17 e33c 7f27 953c
00000230: 33b5 953b 587a 903b 3e6d 98bb 615b 96bb
00000240: 9f63 9abc e5ae a8bb 68d8 453b 4665 a3bb
00000250: 1a36 073d 85bd a3bc 35be 763c 5ba7 743c
00000260: 55db 843c 8ab7 98bc 053c 9d3c bc40 923c
00000270: a3b8 2b3b f31f 01bc b245 cf3b dde5 b03c
00000280: b605 bcbc d52d 9fbc f7e0 003b e89c 11bd
00000290: badf 3fbb 24fc 37bc a056 933c 87fb e1bb
000002a0: 5986 a13c 49c6 c2bb c23c d5bb 59e6 293c
000002b0: d7dd 6b3c 6344 76bc 071d f0ba c376 2e3b
000002c0: b8c9 773c 8578 c03b da15 543c 50e2 133d
000002d0: dc92 033d b729 51bc df1a 683c fd39 20bb
000002e0: 0b66 713c 6d72 0cb9 d7d8 cf3b b77b a53b
000002f0: 0408 223d 501c 3c3c d702 193c a533 41bb
00000300: dd1d 073b 1dd8 533d 2d14 ddbc f24e 0cbc
00000310: 7c82 d23c d1a9 1d3c 8da9 d8bc c063 073a
00000320: ce65 b6ba daaf 86bc f294 e43a 9d64 5f3c
00000330: 617a bd3c abc2 073b 5712 043c 0739 983c
00000340: f10a 6cbc ed88 0b3c 7f96 9b3b 6067 643b
00000350: 4d54 0cbc 4c16 953c 34b3 1c3d 449b 1f3d
00000360: 63bd b9bc 22c7 983c f392 13bc 6e99 0dbb
00000370: ecaf ac3c fa9c a63c 5e21 f83a 07ff 0dbd
00000380: 1c0b 04bb 8779 623c 81e3 05bc a1be 993a
00000390: b5f1 863c 5b26 f33c 77df 99bc dc58 dbbb
000003a0: fb96 aa3c 1fcc b4bc 6fc0 76bc d5d8 e1bb
000003b0: 0228 c73c 5698 123c 32b8 e13c 2119 833c
000003c0: a403 823c 6171 673c 0db8 89ba 7a7d 76bc
000003d0: 6c5d 133d ef47 0b3c 5681 be3b 311a 73bc
000003e0: 349c 0b3d 227f 113d 8143 893c eac1 a53c
000003f0: 9e1f a4bc 228e 9cbb 9cf4 14bd 9a76 55bc

running_mean f4 [256]
-153.86983 -554.92334 165.36717 -156.69392 609.7449 -236.12546 1318.0057 223.07552
685.4793 713.846 -479.34592 -112.75932 -350.80093 -105.85737 1831.3981 -214.95448
47.723324 412.10178 -299.28326 446.35617 320.23715 -47.421535 316.2911 -506.7525
-396.59256 -327.23398 452.4835 406.7401 -125.48275 63.79434 -863.771 -232.69135
-5.403877 -439.0603 -633.3451 -211.18489 93.03455 -162.11703 26.33266 515.1196
-435.70062 76.31238 -234.49359 372.1418 -314.97458 280.725 -294.37228 47.62927
325.1791 -418.28976 -361.47144 23.504427 -143.06973 11.203901 236.15102 -267.34097
-78.65612 302.28433 93.0157 340.3253 -104.86177 86.891655 -96.75503 341.96576
-468.79285 -26.703836 238.79854 -69.99459 308.9981 -239.78683 -295.99234 250.2977
71.99602 2.7295322 -309.09195 266.65308 183.27463 365.06567 -85.91422 -132.33083
-44.380863 -99.55784 297.99307 222.5316 -611.06354 -125.08456 10.552895 102.609535
47.93238 396.70755 -388.21753 459.4355 507.11145 -95.83201 -150.30846 148.67722
-31.434748 88.77775 -73.7848 239.81003 -95.29719 -275.35373 -552.31305 442.94595
-208.6991 -39.718243 -497.8496 1034.4833 -533.92456 68.12266 -423.83408 -56.855797
-478.6109 39.97898 1253.1965 0.038389362 137.43062 802.50757 -173.80202 -85.61809
-316.8263 -325.80585 243.71321 177.52129 60.738148 173.68208 -525.2544 394.83853
-306.66434 -657.1209 674.5481 -128.38904 198.28442 -503.12476 -84.69652 -113.71887
153.82176 322.9229 -28.386576 463.4293 -237.76373 277.5677 317.9644 -212.36168
315.00082 410.98688 -463.21576 -170.2781 208.31583 382.34277 -3.630722 212.74297
-434.66705 207.57771 -37.36634 -280.28378 58.344986 -21.102892 -271.08765 -360.87408
630.20703 178.14265 -349.51926 -577.2782 -339.22275 -358.92795 -507.4839 -467.53943
-145.94128 50.4487 352.1958 -301.85367 190.46089 353.40344 -217.7207 -317.23117
271.30643 137.65558 -155.18288 -349.95206 -48.155945 -207.11824 -432.1662 -266.26016
-100.43957 -403.68576 663.1158 -306.53113 -106.769745 -204.15024 156.20558 730.8398
65.6787 -327.77264 -195.67805 -117.82319 -257.01883 -264.4196 370.43927 284.07504
237.46916 1019.356 97.53983 -324.28845 -361.13818 -316.1275 -193.31767 135.69722
754.66345 1057.0116 63.074272 -1.0798988 -173.4797 -379.86807 158.85663 -113.25639
162.4485 -427.33484 527.7026 368.25305 -520.22235 -347.2875 180.99863 3.2468567
176.06212 -135.71193 -226.8733 -178.99869 59.089054 -330.09326 331.84772 345.13354
103.08151 125.42031 -317.84006 -81.66562 68.20128 -272.4188 -258.51904 61.437256
-332.22705 -307.9192 -96.51228 -33.63108 -96.40158 -36.569847 172.81699 703.57776
-318.48737 665.9781 -114.84023 -92.472145 569.5175 -102.9846 -102.480804 26.28104
00000000: adde 19c3 18bb 0ac4 ff5d 2543 a5b1 1cc3
00000010: ac6f 1844 1e20 6cc3 2fc0 a444 5513 5f43
00000020: ad5e 2b44 2576 3244 47ac efc3 c684 e1c2
00000030: 8566 afc3 f9b6 d3c2 bdec e444 59f4 56c3
00000040: afe4 3e42 070d ce43 42a4 95c3 972d df43
00000050: 5b1e a043 a7af 3dc2 4325 9e43 5260 fdc3
00000060: d94b c6c3 f39d a3c3 e33d e243 bc5e cb43
00000070: 2bf7 fac2 672d 7f42 58f1 57c4 fcb0 68c3
00000080: 8fec acc0 b887 dbc3 1656 1ec4 552f 53c3
00000090: b111 ba42 f61d 22c3 4aa9 d241 a8c7 0044
000000a0: aed9 d9c3 f09f 9842 5c7e 6ac3 2712 ba43
000000b0: bf7c 9dc3 cd5c 8c43 a72f 93c3 5f84 3e42
000000c0: ed96 a243 1725 d1c3 58bc b4c3 1109 bc41
000000d0: da11 0fc3 2e43 3341 a926 6c43 a5ab 85c3
000000e0: ef4f 9dc2 6524 9743 0a08 ba42 a329 aa43
000000f0: 3ab9 d1c2 87c8 ad42 9382 c1c2 9efb aa43
00000100: 7c65 eac3 75a1 d5c1 6dcc 6e43 3bfd 8bc2
00000110: c27f 9a43 6ec9 6fc3 05ff 93c3 364c 7a43
00000120: f6fd 8f42 a8b0 2e40 c58b 9ac3 9853 8543
00000130: 4e46 3743 6888 b643 15d4 abc2 b154 04c3
00000140: 0186 31c2 9d1d c7c2 1dff 9443 1788 5e43
00000150: 11c4 18c4 4b2b fac2 a8d8 2841 1538 cd42
00000160: c2ba 3f42 915a c643 d81b c2c3 beb7 e543
00000170: 448e fd43 fda9 bfc2 f74e 16c3 5ead 1443
00000180: 5d7a fbc1 358e b142 d191 93c2 5ecf 6f43
00000190: 2998 bec2 47ad 89c3 0914 0ac4 1579 dd43
000001a0: f8b2 50c3 7bdf 1ec2 c0ec f8c3 774f 8144
000001b0: 2c7b 05c4 cd3e 8842 c3ea d3c3 566c 63c2
000001c0: 324e efc3 7aea 1f42 4aa6 9c44 2a3e 1d3d
000001d0: 3d6e 0943 7ca0 4844 51cd 2dc3 763c abc2
000001e0: c469 9ec3 26e7 a2c3 95b6 7343 7385 3143
000001f0: ddf3 7242 9dae 2d43 4850 03c4 556b c543
00000200: 0955 99c3 bd47 24c4 14a3 2844 9863 00c3
00000210: d048 4643 f88f fbc3 9e64 a9c2 1070 e3c2
00000220: 5fd2 1943 2276 a143 b517 e3c1 f3b6 e743
00000230: 84c3 6dc3 aac8 8a43 71fb 9e43 975c 54c3
00000240: 1b80 9d43 527e cd43 9e9b e7c3 3247 2ac3
00000250: da50 5043 e02b bf43 c05d 68c0 33be 5443
00000260: 6255 d9c3 e593 4f43 2277 15c2 5324 8cc3
00000270: 4461 6942 b9d2 a8c1 388b 87c3 e26f b4c3
00000280: 408d 1d44 8524 3243 77c2 aec3 ce51 10c4
00000290: 839c a9c3 c776 b3c3 f0bd fdc3 0cc5 e9c3
000002a0: f8f0 11c3 78cb 4942 1019 b043 45ed 96c3
000002b0: fd75 3e43 a4b3 b043 80b8 59c3 979d 9ec3
000002c0: 39a7 8743 d4a7 0943 d12e 1bc3 ddf9 aec3
000002d0: b09f 40c2 451e 4fc3 4615 d8c3 4d21 85c3
000002e0: 0fe1 c8c2 c7d7 c9c3 69c7 2544 fc43 99c3
000002f0: 1c8a d5c2 7626 4cc3 a134 1c43 bfb5 3644
00000300: 7f5b 8342 e6e2 a3c3 95ad 43c3 79a5 ebc2
00000310: 6982 80c3 b535 84c3 3a38 b943 9b09 8e43
00000320: 1b78 6d43 c9d6 7e44 6514 c342 ec24 a2c3
00000330: b091 b4c3 5210 9ec3 5351 41c3 7db2 0743
00000340: 76aa 3c44 5f20 8444 0e4c 7c42 203a 8abf
00000350: ce7a 2dc3 1def bdc3 4cdb 1e43 4683 e2c2
00000360: d172 2243 dcaa d5c3 f7ec 0344 6420 b843
00000370: 3b0e 02c4 cda4 adc3 a6ff 3443 80cc 4f40
00000380: e70f 3043 41b6 07c3 91df 62c3 aaff 32c3
00000390: 315b 6c42 f00b a5c3 82ec a543 1891 ac43
000003a0: bc29 ce42 33d7 fa42 87eb 9ec3 cc54 a3c2
000003b0: 0e67 8842 9b35 88c3 7042 81c3 c0bf 7542
000003c0: 101d a6c3 a8f5 99c3 4a06 c1c2 3a86 06c2
000003d0: 9ccd c0c2 8647 12c2 26d1 2c43 fae4 2f44
000003e0: 623e 9fc3 997e 2644 33ae e5c2 bdf1 b8c2
000003f0: 1f61 0e44 1df8 cdc2 2cf6 ccc2 923f d241

running_var f4 [256]
31.403248 48.889935 17.636383 67.84414 26.309813 273.84116 345.5339 71.73929
100.898445 158.13908 20.838947 6.3752356 22.35553 53.814545 565.7404 68.26914
7.93942 260.57114 207.00194 407.14896 76.2256 84.5581 26.922325 44.6399
27.894247 233.47076 215.29419 123.165436 136.91895 12.630127 115.66548 235.88539
6.98179 150.63911 28.526945 11.945512 49.671535 51.794254 11.291664 467.13956
550.12726 12.5382185 12.709674 23.72215 21.05182 26.070608 63.74721 63.339203
115.52801 38.14034 12.232788 51.810722 145.69707 76.47577 84.75479 12.067055
16.642742 178.94572 6.202929 74.47003 13.859027 110.23461 11.646973 289.9201
24.716337 35.840263 22.928066 16.923864 50.48344 64.198074 28.636333 26.117771
51.0039 8.171254 15.262082 37.824543 14.324889 56.327976 17.783129 15.2814665
10.68244 36.27318 153.35089 13.505949 480.74295 21.224228 12.967735 10.460578
85.71242 28.856705 24.892048 27.882273 13.787302 8.367604 8.061368 92.66645
30.395384 124.94083 32.15743 70.93272 11.106522 36.45032 145.90259 668.6958
112.932396 36.47158 20.671251 531.95074 13.284942 146.09503 32.03679 72.89842
261.60907 95.07122 260.74594 41.35269 25.779135 245.0517 37.8627 35.328957
19.028887 58.699207 14.226063 108.50266 95.80551 69.801834 190.9555 120.65333
46.990936 218.6099 128.30217 8.200185 114.52403 12.536199 162.13527 41.77935
65.36447 43.485065 51.38606 29.77507 18.15686 225.16208 46.909176 241.96176
15.703869 16.6302 58.213684 54.89278 49.59181 100.74832 24.061892 67.37963
10.7429905 655.91376 254.37787 18.315153 21.589268 155.77951 23.996437 25.560629
504.53357 445.00485 18.181248 155.38275 17.8271 19.712294 14.819998 13.061276
167.84598 10.071522 127.28306 32.052837 19.544834 75.35443 11.783948 10.557761
69.371864 259.8544 22.214375 16.122192 45.85702 2993.2622 24.862322 34.43432
58.885586 312.54434 156.16284 23.194689 22.989885 63.217075 19.262312 1212.9014
36.44739 38.479893 376.50104 31.943829 28.49909 174.73952 372.64825 97.74183
133.90645 734.3527 50.033875 17.31035 20.5034 62.123333 109.4253 29.213106
192.3698 503.24115 382.9952 8.850773 17.929123 55.602375 23.802965 7.594848
219.48453 28.852282 353.09375 375.1251 13.578901 13.899953 31.690763 116.45285
59.240868 69.1208 15.344616 23.93465 16.61153 20.255007 594.41254 56.59797
34.6741 66.38922 71.325066 6.858793 88.92308 150.71654 18.11877 17.608639
20.660494 55.476673 7.038775 20.658005 50.166897 13.493663 62.307926 166.51094
20.823286 95.37699 33.836388 64.232376 276.12872 8.548501 21.71878 8.506308
00000000: da39 fb41 4b8f 4342 5017 8d41 33b0 8742
00000010: 7f7a d241 abeb 8843 57c4 ac43 847a 8f42
00000020: 01cc c942 9b23 1e43 2ab6 a641 ee01 cc40
00000030: 20d8 b241 1842 5742 636f 0d44 cd89 8842
00000040: bb0f fe40 1b49 8243 7f00 4f43 1193 cb43
00000050: 8273 9842 bf1d a942 ec60 d741 428f 3242
00000060: 6b27 df41 8478 6943 504b 5743 b454 f642
00000070: 40eb 0843 0015 4a41 ba54 e742 a9e2 6b43
00000080: d36a df40 9da3 1643 2f37 e441 d120 3f41
00000090: a7af 4642 512d 4f42 a8aa 3441 dd91 e943
000000a0: 2588 0944 8b9c 4841 d35a 4b41 f7c6 bd41
000000b0: 216a a841 9b90 d041 25fd 7e42 585b 7d42
000000c0: 570e e742 b58f 1842 80b9 4341 2e3e 4f42
000000d0: 73b2 1143 98f3 9842 7482 a942 a812 4141
000000e0: 5624 8541 1bf2 3243 657e c640 a8f0 9442
000000f0: 93be 5d41 1f78 dc42 005a 3a41 c6f5 9043
00000100: 0fbb c541 6e5c 0f42 ae6c b741 1364 8741
00000110: 0bef 4942 6a65 8042 3617 e541 32f1 d041
00000120: fe03 4c42 75bd 0241 7d31 7441 554c 1742
00000130: bf32 6541 d94f 6142 d943 8e41 e380 7441
00000140: 46eb 2a41 bc17 1142 d459 1943 5e18 5841
00000150: 195f f043 38cb a941 d87b 4f41 875e 2741
00000160: c26c ab42 88da e641 ea22 c741 e50e df41
00000170: ca98 5c41 b5e1 0541 5dfb 0041 3955 b942
00000180: bf29 f341 b4e1 f942 35a1 0042 8ddd 8d42
00000190: 50b4 3141 21cd 1142 10e7 1143 882c 2744
000001a0: 63dd e142 e6e2 1142 b95e a541 d9fc 0444
000001b0: 1f8f 5441 5418 1243 ac25 0042 fecb 9142
000001c0: f6cd 8243 7724 be42 7b5f 8243 2869 2542
000001d0: ab3b ce41 3c0d 7543 6873 1742 da50 0d42
000001e0: 293b 9841 fdcb 6a42 f49d 6341 5d01 d942
000001f0: 6c9c bf42 8a9a 8b42 9cf4 3e43 814e f142
00000200: b8f6 3b42 229c 5a43 5b4d 0043 f533 0341
00000210: 4e0c e542 4594 4841 a122 2243 0e1e 2742
00000220: 9cba 8242 b5f0 2d42 538b 4d42 5833 ee41
00000230: 4041 9141 7e29 6143 ffa2 3b42 36f6 7143
00000240: 0c43 7b41 a60a 8541 d0da 6842 3592 5b42
00000250: 035e 4642 247f c942 c17e c041 5fc2 8642
00000260: 4ae3 2b41 7bfa 2344 bc60 7e43 6f85 9241
00000270: d2b6 ac41 8ec7 1b43 b4f8 bf41 2b7c cc41
00000280: 4c44 fc43 9f80 de43 3273 9141 fc61 1b43
00000290: e79d 8e41 c7b2 9d41 b61e 6d41 fdfa 5041
000002a0: 92d8 2743 f424 2141 ed90 fe42 1b36 0042
000002b0: d25b 9c41 78b5 9642 0d8b 3c41 97ec 2841
000002c0: 65be 8a42 5ded 8143 0ab7 b141 40fa 8041
000002d0: 976d 3742 3214 3b45 09e6 c641 bebc 0942
000002e0: d78a 6b42 ad45 9c43 b029 1c43 b98e b941
000002f0: 49eb b741 49de 7c42 3719 9a41 d89c 9744
00000300: 21ca 1142 69eb 1942 2240 bc43 f68c ff41
00000310: 23fe e341 51bd 2e43 fa52 ba43 d17b c342
00000320: 0de8 0543 9396 3744 b022 4842 997b 8a41
00000330: f706 a441 4b7e 7842 c1d9 da42 71b4 e941
00000340: ab5e 4043 de9e fb43 637f bf43 c49c 0d41
00000350: d86e 8f41 d568 5e42 796c be41 ff08 f340
00000360: 0a7c 5b43 79d1 e641 008c b043 0390 bb43
00000370: 2e43 5941 3566 5e41 af86 fd41 dce7 e842
00000380: a6f6 6c42 d93d 8a42 8c83 7541 2a7a bf41
00000390: 6ae4 8441 410a a241 679a 1444 5264 6242
000003a0: 47b2 0a42 48c7 8442 6fa6 8e42 3b7b db40
000003b0: 9ed8 b142 6fb7 1643 3ef3 9041 7ede 8c41
000003c0: b148 a541 1de8 5d42 a53d e140 9843 a541
000003d0: e7aa 4842 0be6 5741 513b 7942 cd82 2643
000003e0: 1796 a641 05c1 be42 7658 0742 fa76 8042
000003f0: 7a10 8a43 a9c6 0841 10c0 ad41 d619 0841

weight f4 [256, 256]
-0.022204775 -0.05316642 0.05988886 -0.025788307 -9.373178e-05 0.05732135 0.021415347 -0.05260726
-0.014314363 -0.0012080576 -0.01676564 -0.0038517895 0.04384451 0.044023555 0.0027799094 -0.010555699
-0.058396053 -0.02051237 -0.04117864 0.022240575 0.059687432 0.03349473 0.015655046 0.06479433
-0.04410593 0.024305869 -0.024135614 -0.041348755 -0.055565763 0.020074574 -0.022464365 -0.05881066
0.049719565 -0.021628756 0.040615976 -0.045340654 -0.027965304 -0.05719805 0.046505935 -0.062387194
0.038394537 0.04205443 -0.009038847 0.008580857 -0.057451904 -0.043118645 0.038648896 -0.027736044
-0.03153441 -0.056516834 0.020960126 -0.04851346 0.04353658 -0.02429394 -0.016816063 -0.020561168
0.018005341 0.0041538565 -0.048300467 0.0495453 0.028360108 0.044121634 0.051198695 0.0010906023
-0.038608104 -0.032319102 -0.029334998 0.04567416 0.0014664124 -0.04401887 0.014873293 -0.010013056
-0.03337864 -0.019597095 -0.009242482 0.03416684 -0.0085091125 -0.018976329 0.009628786 0.049345553
-0.047340482 -0.062657215 0.048356075 -0.045953836 -0.03826226 -0.015052163 0.018842917 0.0014851476
-0.08711572 -0.00446668 0.018795801 -0.065052696 -0.045446344 0.0018665385 -0.05610662 -0.0320298
-0.031044416 0.018015921 0.032697342 -0.06857827 0.020234026 -0.03334455 0.0087268455 0.014821415
-0.025751334 -0.04235765 0.045883432 -0.047313962 0.011734641 -0.016776325 0.052709438 -0.053657595
0.016733164 -0.05671585 -0.015086868 0.03980098 0.038235787 0.055651315 0.0387648 0.058739346
0.061949268 -0.007981585 0.0044923043 -0.01512253 0.025002465 0.035738237 -0.03683242 -0.06432694
-0.035897467 0.00320643 0.05553169 -0.017246168 0.027302252 0.009051671 0.046842914 -0.039439306
0.030818718 0.00033924234 -0.017682463 0.062389497 -0.058083802 -0.011110188 0.03140155 0.01420868
0.003132543 -0.015577703 -0.050818615 -0.02746997 0.023306347 -0.02112129 -0.049448345 -0.034970243
-0.036462687 -0.07280441 0.0067851585 0.038489472 -0.032182224 -0.039004523 -0.062467653 0.011423745
0.015010061 -0.057946973 0.0136043755 0.020793526 0.006008186 -0.04699621 -0.028114721 0.052656468
0.01683849 0.018314572 -0.007127919 -0.04937478 -0.020803232 0.019521138 0.06266067 -0.042546473
0.026641803 -0.04427712 -0.019408103 0.04805602 -0.04958087 -0.053710226 -0.05825825 0.03771502
0.04622759 -0.027788805 -0.035103947 0.0068693375 -0.031042842 -0.007372996 -0.024001542 0.022913327
-0.077903286 -0.056675594 0.011432798 0.011772082 -0.03689119 0.006601296 0.0444667 -0.039197993
0.04104169 -0.023571871 0.026811413 -0.056885984 0.04578293 0.03638368 -0.010956527 0.03030734
-0.019979535 0.064897016 0.017000288 0.0036654277 -0.048022505 0.017527232 0.0013758881 -0.030906709
0.028116591 0.0541436 -0.050290097 0.055271577 -0.005378813 -0.018527286 -0.058668587 -0.052454125
-0.055620223 0.034015495 -0.027069626 0.040838346 -0.055423025 -0.043943822 -0.026168365 -0.008151739
-0.06664523 0.029064877 0.033342212 0.050361753 -0.06266823 -0.0628796 -0.013971725 0.030581066
-0.027382398 -0.0329813 -0.05769827 0.023304697 0.01464229 -0.036250304 -0.019971658 0.057263393
0.04735886 0.033750325 -0.0060972436 -0.05493012 -0.06485822 -0.058089588 0.0070212837 -0.065114774
00000000: cae6 b5bc 08c5 59bd 054e 753d 0042 d3bc
00000010: de91 c4b8 cbc9 6a3d 3d6f af3c b67a 57bd
00000020: ca86 6abc b057 9eba 1858 89bc 4e6e 7cbb
00000030: 4d96 333d 0b52 343d 242f 363b cff1 2cbc
00000040: b330 6fbd 8f09 a8bc efaa 28bd de31 b63c
00000050: cf7a 743d c531 093d 033f 803c e4b2 843d
00000060: 6ba8 34bd 1a1d c73c 0db8 c5bc 505d 29bd
00000070: ed98 63bd 6f73 a43c 3007 b8bc 72e3 70bd
00000080: bea6 4b3d ca2e b1bc f05c 263d 1fb7 39bd
00000090: 7e17 e5bc 8148 6abd 027d 3e3d b789 7fbd
000000a0: 9743 1d3d 4441 2c3d ac17 14bc b996 0c3c
000000b0: b052 6bbd 2d9d 30bd 4e4e 1e3d b336 e3bc
000000c0: 3a2a 01bd 327e 67bd 92b4 ab3c 0db6 46bd
000000d0: 6a53 323d 1604 c7bc d7c1 89bc e56f a8bc
000000e0: f07f 933c 131d 883b b6d6 45bd 03f0 4a3d
000000f0: 7553 e83c e3b8 343d b9b5 513d 8af2 8e3a
00000100: 8823 1ebd 0961 04bd f34f f0bc d414 3b3d
00000110: a334 c03a 214d 34bd 1daf 733c cd0d 24bc
00000120: 0ab8 08bd 168a a0bc c76d 17bc 87f2 0b3d
00000130: ce69 0bbc 3f74 9bbc 0ec2 1d3c 901e 4a3d
00000140: 18e8 41bd 6d52 80bd 0511 463d 173a 3cbd
00000150: e3b8 1cbd 599d 76bc 765c 9a3c 49a9 c23a
00000160: ba69 b2bd 3a5d 92bb a7f9 993c 593a 85bd
00000170: f225 3abd a4a6 f43a 0ed0 65bd ae31 03bd
00000180: dc50 febc 2096 933c a6ed 053d c472 8cbd
00000190: d4c1 a53c 4b94 08bd 0bfb 0e3c 85d5 723c
000001a0: 76f4 d2bc 377f 2dbd 44f0 3b3d 49cc 41bd
000001b0: a742 403c 816e 89bc dae5 573d 11c8 5bbd
000001c0: fd13 893c e14e 68bd e92e 77bc 5a06 233d
000001d0: 219d 1c3d a2f2 633d d7c7 1e3d ab98 703d
000001e0: 84be 7d3d 32c5 02bc 2e34 933b 7dc4 77bc
000001f0: f8d1 cc3c 4262 123d 97dd 16bd d8bd 83bd
00000200: 3909 13bd f822 523b 3375 633d d647 8dbc
00000210: f9a8 df3c 764d 143c 5bde 3f3d 1c8b 21bd
00000220: 8977 fc3c 56dc b139 d0da 90bc 218c 7f3d
00000230: 48e9 6dbd 8207 36bc e99e 003d 86cb 683c
00000240: 5a4b 4d3b 9f39 7fbc 2e27 50bd b408 e1bc
00000250: f4ec be3c 8e06 adbc 598a 4abd f53c 0fbd
00000260: e659 15bd 7a1a 95bd 0956 de3b 23a7 1d3d
00000270: 82d1 03bd 35c3 1fbd 15de 7fbd a92a 3b3c
00000280: c2ec 753c ce59 6dbd e3e4 5e3c 2f57 aa3c
00000290: 51e0 c43b 197f 40bd d850 e6bc 4fae 573d
000002a0: dff0 893c 7108 963c 5191 e9bb 363d 4abd
000002b0: 8a6b aabc cbea 9f3c 3d54 803d 3645 2ebd
000002c0: e93f da3c ed5b 35bd befd 9ebc 64d6 443d
000002d0: 4f15 4bbd 41ff 5bbd 34a0 6ebd 117b 1a3d
000002e0: 2459 3d3d 59a5 e3bc 28c9 0fbd 2e18 e13b
000002f0: 8f4d febc 2c99 f1bb e29e c4bc bbb4 bb3c
00000300: c28b 9fbd ab24 68bd a150 3b3c b1df 403c
00000310: 371b 17bd af4f d83b b722 363d 138e 20bd
00000320: 551b 283d cc19 c1bc 9ca3 db3c 4701 69bd
00000330: e286 3b3d 0e07 153d 0183 33bc 1947 f83c
00000340: 1fac a3bc bae8 843d 3044 8b3c ac37 703b
00000350: 3fb3 44bd 4595 8f3c 2557 b43a 1130 fdbc
00000360: c454 e63c aec5 5d3d fdfc 4dbd 7364 623d
00000370: c140 b0bb 89c6 97bc 794e 70bd 23da 56bd
00000380: 08d2 63bd d553 0b3d 1fc1 ddbc 1c46 273d
00000390: 4103 63bd 70fe 33bd 0a5f d6bc df8e 05bc
000003a0: 4b7d 88bd 7719 ee3c d891 083d 2048 4e3d
000003b0: 3358 80bd 05c7 80bd a9e9 64bc 2585 fa3c
000003c0: 0d51 e0bc 6617 07bd 0555 6cbd 7ee9 be3c
000003d0: 37e6 6f3c 337b 14bd 9a9b a3bc 058d 6a3d
000003e0: 5dfb 413d c83d 0a3d 63cb c7bb 68fe 60bd
000003f0: 63d4 84bd 59ef 6dbd cc12 e63b e55a 85bd

bias f4 [256]
0.036257118 -0.046935037 0.007790733 -0.047511376 -0.0033113419 0.03452705 -0.023477316 -0.022992052
0.027094565 -0.033335112 0.05001106 0.026733294 0.0032149756 0.041537337 -0.037521586 0.017729804
0.019580305 0.028026968 0.039314345 0.038005464 0.01649464 -0.029033102 0.034004122 -0.043426014
0.011821702 0.00062619004 0.023949951 -0.040705495 0.006475419 0.018320538 -0.058416665 -0.029194152
0.005238094 0.036341496 -0.001841475 0.03814687 -0.026074544 -0.008599363 -0.010920538 -0.038060233
-0.050193563 -0.0014822047 0.06016031 0.043354157 -0.022127502 -0.0035766398 0.00618337 0.028559078
-0.036287345 -0.032513455 0.05030661 -0.00543381 0.023062631 -0.024098925 -0.035060726 0.03782949
0.042569235 0.04644067 -0.01006189 -0.042782433 -0.051988028 0.038917243 -0.06050262 -0.055534318
-0.023320554 0.04864133 -0.036139645 0.019126868 -0.033486776 0.013368212 0.04350692 0.051875606
0.029597087 0.009972244 -0.037500717 0.012136974 0.023321472 0.04805044 -0.050480284 -0.019003816
-0.0077273664 -0.027677074 0.0513201 0.034019418 -0.027426764 0.020776235 0.044835843 -0.051625542
0.056752943 0.032992475 0.026064372 -0.009188979 0.022312228 0.059623428 0.029984504 -0.022034451
-0.009797918 -0.06137617 0.04185278 0.014947965 0.026427649 0.05746592 0.012971462 0.052604504
-0.030046664 0.045924112 -0.051726766 0.045307912 -0.024137987 0.0017460288 -0.0057182624 -0.0016000121
0.032955915 -0.013855494 0.028519623 0.029147863 -0.028998882 0.026090167 -0.0459719 -0.057128616
-0.04451233 -0.04799796 0.037471816 0.060004212 0.041989245 0.039861865 -0.002765693 -0.025453992
0.029704973 0.01989393 -0.05283507 -0.00013042279 -0.019716702 -0.007411514 0.02716592 -0.028392121
0.023778558 -0.03069894 0.06061662 -0.028231643 0.0018672096 -0.05090189 0.02423212 0.056667782
-0.04931142 0.015429057 0.058630705 -0.045830302 0.0074644648 -0.017404057 0.03684812 -0.037494205
0.059301563 -0.010716537 0.019854225 0.020710133 -0.04939808 0.013242095 0.013581307 0.053548433
-0.0072282623 -0.053953163 -0.05549998 -0.028138123 -0.013181999 0.044410024 -0.052188978 0.032606
-0.014094589 0.0036391537 -0.040428035 -0.0034098993 -0.01442045 -0.013566501 0.03994053 0.0101656765
-0.012920469 0.055134058 0.028382855 -0.020056821 -0.014949739 -0.0072070803 -0.002440311 -0.05058319
0.047034025 -0.027269525 0.061379276 -0.03446517 -0.034053005 0.04825202 -0.02127079 -0.008850961
-0.005119972 0.002883739 -0.059549622 -0.05233428 -0.016961604 -0.030384079 0.0555968 -0.029818758
-0.030071914 0.027246423 0.01159624 -0.028656088 0.04910916 0.03687609 -0.01173868 -0.016257621
-0.006802363 -0.060109213 0.020162731 0.035600156 -0.03508742 0.033432372 0.01850493 -0.00391859
0.017342642 -0.04497263 0.026712492 -0.060963765 -0.0578549 0.007796898 -0.04872407 0.04119063
-0.027999096 -0.04300292 -0.017683104 -0.051073834 0.027434781 -0.050701365 0.040767476 0.010681382
0.0048424765 -0.0049646967 0.023307629 0.059417598 -0.05780697 0.007534108 0.05873639 -0.04726301
0.022009157 0.048004687 0.05639433 -0.057214715 0.015503812 0.042617112 0.033863537 -0.011874354
0.012997337 0.053981423 0.04137785 -0.06076976 0.010463044 0.05975361 -0.029667173 0.055232905
00000000: 5882 143d f43e 40bd 6849 ff3b 4a9b 42bd
00000010: 1903 59bb 3c6c 0d3d 8053 c0bc d459 bcbc
00000020: 6cf5 dd3c 668a 08bd 66d8 4c3d c8ff da3c
00000030: 57b2 523b 0e23 2a3d 3cb0 19bd 183e 913c
00000040: e066 a03c d098 e53c 1408 213d 9eab 1b3d
00000050: c41f 873c d4d6 edbc e847 0b3d 7adf 31bd
00000060: d0af 413c e726 243a b032 c43c ceba 26bd
00000070: c02f d43b f414 963c 5046 6fbd 9328 efbc
00000080: 51a4 ab3b d2da 143d a65d f1ba e43f 1c3d
00000090: 489a d5bc 58e4 0cbc 0eec 32bc 0ce5 1bbd
000000a0: c497 4dbd 8946 c2ba a86a 763d 2194 313d
000000b0: bc44 b5bc 0f66 6abb de9d ca3b baf4 e93c
000000c0: 0aa2 14bd d42c 05bd 4e0e 4e3d 1a0e b2bb
000000d0: d8ed bc3c 1c6b c5bc d69b 0fbd 18f3 1a3d
000000e0: 145d 2e3d 9238 3e3d a0da 24bc a23c 2fbd
000000f0: 66f1 54bd b067 1f3d 98d1 77bd f477 63bd
00000100: bf0a bfbc 223c 473d 2a07 14bd f3af 9c3c
00000110: 6e29 09bd 5806 5b3c 5034 323d 847b 543d
00000120: 9775 f23c 9f62 233c 5a9a 19bd 29da 463c
00000130: ac0c bf3c 8ad0 443d 6ac4 4ebd e4ad 9bbc
00000140: d935 fdbb 08bb e2bc 0635 523d f257 0b3d
00000150: 18ae e0bc ec32 aa3c caa5 373d 4e75 53bd
00000160: c675 683d 1e23 073d f384 d53c 5f8d 16bc
00000170: 22c8 b63c b237 743d 10a2 f53c 9881 b4bc
00000180: 7287 20bc 9465 7bbd d26d 2b3d 4fe8 743c
00000190: cc7e d83c 6261 6b3d 4186 543c d277 573d
000001a0: 6c24 f6bc ec1a 3c3d 72df 53bd ca94 393d
000001b0: 07bd c5bc 01db e43a 4360 bbbb 7fb7 d1ba
000001c0: c8fc 063d 2702 63bc fca1 e93c 80c7 ee3c
000001d0: 108f edbc 0cbb d53c 084d 3cbd b2ff 69bd
000001e0: 9052 36bd 8299 44bd 0c7c 193d fac6 753d
000001f0: eafc 2b3d 3246 233d a140 35bb e484 d0bc
00000200: d857 f33c 98f8 a23c 9669 58bd 1ac2 08b9
00000210: ec84 a1bc 49dc f2bb 108b de3c 9896 e8bc
00000220: 40cb c23c 587c fbbc 2249 783d 0c46 e7bc
00000230: 28bd f43a 807e 50bd 7082 c63c 7a1c 683d
00000240: c6fa 49bd 28ca 7c3c c026 703d 8eb8 3bbd
00000250: 7898 f43b f492 8ebc 0eee 163d 8693 19bd
00000260: 32e6 723d 6a94 2fbc 54a5 a23c 4ca8 a93c
00000270: a455 4abd 5ff5 583c 2184 5e3c 9a55 5b3d
00000280: 0fdb ecbb fefd 5cbd f253 63bd ec81 e6bc
00000290: 50f9 57bc 49e7 353d 1cc4 55bd de8d 053d
000002a0: feec 66bc de7e 6e3b de97 25bd 9e78 5fbb
000002b0: c043 6cbc 0846 5ebc ae98 233d f08d 263c
000002c0: 60b0 53bc 40d4 613d 2983 e83c 344e a4bc
000002d0: c0ef 74bc 5f29 ecbb a0ed 1fbb 5230 4fbd
000002e0: c0a6 403d 5764 dfbc d668 7b3d 5a2b 0dbd
000002f0: 2a7b 0bbd e9a3 453d 1440 aebc 9f03 11bc
00000300: 70c5 a7bb 1dfd 3c3b 4eea 73bd 785c 56bd
00000310: 10f3 8abc 08e8 f8bc 78b9 633d 7846 f4bc
00000320: 6059 f6bc e433 df3c 28fe 3d3c 2cc0 eabc
00000330: b026 493d 620b 173d 9853 40bc b42e 85bc
00000340: 5be6 debb 1435 76bd 502c a53c 78d1 113d
00000350: d4b7 0fbd 62f0 083d a797 973c 8467 80bb
00000360: 2812 8e3c 3835 38bd 28d4 da3c 24b5 79bd
00000370: 42f9 6cbd 1f7d ff3b e492 47bd 82b7 283d
00000380: 5c5e e5bc d423 30bd 28dc 90bc cc32 51bd
00000390: e8be e03c 3cac 4fbd ccfb 263d f700 2f3c
000003a0: a3ad 9e3b e5ae a2bb a4ef be3c de5f 733d
000003b0: 00c7 6cbd aee0 f63b 9295 703d dc96 41bd
000003c0: 8c4c b43c 90a0 443d befd 663d fa59 6abd
000003d0: b303 7e3c 488f 2e3d 7eb4 0a3d a78c 42bc
000003e0: c8f2 543c a01b 5d3d d27b 293d b6e9 78bd
000003f0: 306d 2b3c 34c0 743d 9208 f3bc e63b 623d
