Predict/storage/MLP_256_200_SGD_11/trained_44.pt (torch, 339061 bytes, 13 tensors)

weight f4 [256, 58]
0	0xbd8254bc	-0.06363818
1	0x3da2d6b7	0.0795111
2	0x3db1d5c1	0.086833484
3	0x3db3bc5f	0.08776163
4	0xbd579314	-0.0526305
5	0x3ddc4c02	0.10756685
6	0x3d52c59b	0.051457983
7	0xbd87faff	-0.066396706
8	0x3da0c0c2	0.07849266
9	0xbcf1b05b	-0.029503038
10	0xbcf39c65	-0.02973766
11	0x3ddcd57e	0.10782908
12	0xbcd830af	-0.026390402
13	0x3df042fe	0.11731528
14	0x3d59168b	0.053000014
15	0xbd02e190	-0.031953394
16	0xbdde1378	-0.10843557
17	0xbde50d4d	-0.111841775
18	0xbbaae144	-0.005214842
19	0xbda2c4ae	-0.0794767
20	0xbdd01fc6	-0.1016231
21	0xbdef6303	-0.11688807
22	0x3d37acc8	0.04484251
23	0xbdb8d707	-0.09025388
24	0x3dd51821	0.10404993
25	0xbc3a6ea1	-0.011378915
26	0x3d60fb3d	0.0549271
27	0xbd61d659	-0.05513606
28	0x3dfb0a3c	0.122578114
29	0x3d382a85	0.044962425
30	0x3cdfbea5	0.027312586
31	0xbd2365fa	-0.039892174
32	0x3e0423d2	0.1290429
33	0xbd5327e0	-0.0515517
34	0xbddc155f	-0.10746264
35	0xbe051753	-0.12997179
36	0xbde9bf5b	-0.11413451
37	0xbdb4906c	-0.08816609
38	0x3dc27b62	0.0949619
39	0xbdd85812	-0.10563673
40	0xbc949995	-0.01813964
41	0x3e01c634	0.12673265
42	0xbd1c3560	-0.03813684
43	0x3c7764fe	0.015099762
44	0x3d9ae42e	0.07563053
45	0xbd532ec1	-0.05155826
46	0xbd353a28	-0.044244915
47	0x3d07432a	0.033023037
48	0xbd9812ee	-0.074254856
49	0x3dac7b4c	0.084219545
50	0xbdcc118c	-0.09964284
51	0xbd8a20da	-0.06744547
52	0xbdcdcd23	-0.10048892
53	0x3d84e212	0.06488432
54	0xbb71411a	-0.0036812485
55	0xbdf4071a	-0.11915417
56	0x3db3c55a	0.08777876
57	0x3db33013	0.08749404
58	0xbdab9841	-0.083786495
59	0x3bf652a8	0.0075171776
60	0xbcd66d3b	-0.026175132
61	0x3a5aa814	0.00083410856
62	0x3c9e422f	0.019318668
63	0xbdfcc812	-0.12342848
64	0x3d8c0766	0.06837349
65	0xbdf65741	-0.12028361
66	0xbd97d26b	-0.07413181
67	0x3d8c51d9	0.06851549
68	0x3de9ce03	0.11416247
69	0x3da67e25	0.08129529
70	0x3dec9674	0.11552134
71	0xbd572536	-0.05252572
72	0xbd1ca77c	-0.038245663
73	0x3cd5e269	0.026108937
74	0xbdec8cff	-0.1155033
75	0xbdecb592	-0.11558069
76	0x3dc2d5d9	0.095134445
77	0xbddf48bc	-0.10902545
78	0xbe0230ca	-0.12713924
79	0xbd532dbb	-0.051557284
80	0xbd51b373	-0.051196527
81	0xbd808b97	-0.06276625
82	0x3dd1bb18	0.102407634
83	0x3ddfb4bf	0.109231465
84	0xbd0f249b	-0.03494702
85	0x3d2fa0f7	0.042878117
86	0xbcfe2926	-0.03102548
87	0x3cbaec18	0.022817656
88	0xbdad5514	-0.08463493
89	0x3cdda1c8	0.027054682
90	0xbb99fc2c	-0.0046992507
91	0xbd8f0e80	-0.069851875
92	0x3cb2cac9	0.021825211
93	0x3c902257	0.0175945
94	0xbdbc715a	-0.092013076
95	0xbdd6cfad	-0.1048883
96	0x3de46be8	0.11153394
97	0xbc8c8736	-0.017154317
98	0x3d848bfb	0.06472012
99	0x3b72dce7	0.0037057938
100	0xbd48b6a8	-0.04900232
101	0x3d012016	0.03152474
102	0x3ce7bbf3	0.028287863
103	0xbe1a5cb1	-0.15074421
104	0x3c835abe	0.01603448
105	0x3dc86c66	0.097863
106	0x3d2841e8	0.041078478
107	0x3e057b57	0.13035332
108	0x3db68d6d	0.089136936
109	0xbddc912d	-0.107698776
110	0xba648ed9	-0.0008718796
111	0x3dda5efc	0.10662648
112	0xbd94ab6d	-0.072592594
113	0x3d83fd92	0.06444849
114	0x3c909809	0.017650621
115	0x3d969591	0.07352746
116	0xba2b7e9e	-0.0006542
117	0xbdb30478	-0.08741087
118	0x3c9620cb	0.018326184
119	0xbd6153c4	-0.055011526
120	0x3db427bc	0.08796641
121	0x3c1606b8	0.009156875
122	0xbd642c7b	-0.055706482
123	0x3d529517	0.051411714
124	0xbdfaabc9	-0.12239797
125	0xbdcd916b	-0.10037502
126	0x3d1ae393	0.037814688
127	0xbd82cb4e	-0.063864335
128	0xbd66bf03	-0.056334507
129	0x3d045883	0.032310974
130	0x3c2f8a40	0.010714114
131	0xbdadaebc	-0.084805936
132	0xbdbe079d	-0.09278796
133	0x3deb7108	0.114961684
134	0x3cfe2783	0.0310247
135	0xbdeb56f7	-0.114911966
136	0x3dac0642	0.08399631
137	0xbd7ab930	-0.061211765
138	0x3d7acf1e	0.06123268
139	0x3db20537	0.08692401
140	0xbda0986a	-0.07841571
141	0x3c04eba2	0.00811282
142	0xbc50be6a	-0.012740711
143	0xbdb63950	-0.0889765
144	0x3d4ecbf7	0.050487485
145	0xbba4acf6	-0.0050255014
146	0xbbbe5b59	-0.0058092293
147	0xbdb8246f	-0.08991324
148	0x3cbd1922	0.023083273
149	0x3dbaa311	0.09113134
150	0x3c7aec3a	0.01531511
151	0xbd5e55d9	-0.05428109
152	0xbd3c1535	-0.045918662
153	0x3d534741	0.051581625
154	0xbdce4b7a	-0.1007299
155	0x3d6c4b02	0.05768872
156	0xbccd9cc2	-0.025099162
157	0x3dcf7cb9	0.10131211
158	0xbd32a945	-0.04361846
159	0xbe059a7f	-0.13047217
160	0x3d6a2b1b	0.057170015
161	0x3dcc0bb7	0.09963172
162	0x3e110ede	0.14165828
163	0xbda99805	-0.082809485
164	0xbdc5e5a8	-0.09662944
165	0xbdbc3d37	-0.09191363
166	0x3d44f6dd	0.04808699
167	0xbdfc1ab2	-0.12309779
168	0xbe0008d8	-0.12503374
169	0xbe10f276	-0.14154992
170	0xbd50ec21	-0.05100644
171	0xbdc59893	-0.09648242
172	0xbd5457c3	-0.05184151
173	0xbe04aafc	-0.1295585
174	0xbdfaf951	-0.122545846
175	0xbd203de1	-0.039121512
176	0x3cf93d32	0.030424688
177	0x3d9bb7d6	0.07603423
178	0x3dbfc477	0.093636446
179	0xbd6fdb33	-0.058558654
180	0x3d70b4d5	0.058766205
181	0x3c779f8b	0.015113722
182	0x3c5c4030	0.013443038
183	0x3d64c21a	0.055849172
184	0xbd9673b2	-0.07346286
185	0xbd5c4086	-0.05377247
186	0xbce20941	-0.027592303
187	0xbe04a1c7	-0.12952338
188	0x3d5759af	0.052575763
189	0x3d50d140	0.050980806
190	0x3c767a32	0.015043782
191	0xbde93521	-0.11387087
192	0xbdb41e46	-0.08794837
193	0x3d87f692	0.066388264
194	0xbd37e123	-0.04489244
195	0xbdde387b	-0.108506165
196	0xbd55c691	-0.05219132
197	0xbd971b12	-0.0737821
198	0x3d743e90	0.059629977
199	0xbd0b19eb	-0.033960264
200	0xbdce7ff2	-0.100829974
201	0xbd330389	-0.043704543
202	0xbd17ae51	-0.037031475
203	0x3ca3d7ee	0.020000424
204	0x3dae2147	0.08502441
205	0xbda74e73	-0.0816926
206	0xbdc10f93	-0.09426799
207	0x3d451451	0.04811508
208	0xbd4119f6	-0.0471439
209	0x3dbaeaef	0.09126841
210	0x3dcdd38f	0.10050117
211	0x3db3c2aa	0.087773636
212	0xbd56cd77	-0.05244204
213	0x3de2a5c6	0.11066775
214	0x3de56b13	0.112020634
215	0xbd9720d1	-0.07379306
216	0x3dff77e3	0.124740385
217	0x3df8302d	0.12118564
218	0xbba590bc	-0.005052654
219	0xbdc0d0df	-0.09414839
220	0x3d0a7995	0.033807356
221	0xbcf72782	-0.030170206
222	0xbced4738	-0.028964624
223	0xbdf6822c	-0.12036547
224	0x3d4f54db	0.050618034
225	0xbcea1668	-0.028575137
226	0x3dbbb78f	0.091658704
227	0x3e0d679e	0.13809058
228	0x3d666bb0	0.056255043
229	0x3d2cf3ec	0.04222481
230	0xbd961c53	-0.07329621
231	0xbd0a3382	-0.033740528
232	0xbd9116c0	-0.07084417
233	0xbdc68936	-0.0969414
234	0x3de71375	0.11283008
235	0xbd839fb6	-0.06426947
236	0x3e03125f	0.12799977
237	0xbc8c6e3b	-0.017142406
238	0x3d1d5e76	0.038420163
239	0x3d94eba2	0.07271506
240	0xbdb182f1	-0.08667553
241	0xbd85ea24	-0.065387994
242	0xbd876cf3	-0.06612577
243	0xbd81e8db	-0.06343242
244	0x3de01a18	0.10942477
245	0x3d833d48	0.06408173
246	0x3d9c831e	0.07642196
247	0x3cc44a6b	0.023961267
248	0xbda3b6af	-0.079938285
249	0x3df6674f	0.12031423
250	0x3d050620	0.032476544
251	0x3c9e09e9	0.019291835
252	0xbde19223	-0.110142015
253	0x3d8847a9	0.06654293
254	0xbd9f053c	-0.0776467
255	0x3cade67d	0.02122807

bias f4 [256]
0	0x3d990304	0.07471278
1	0x3d579851	0.052635495
2	0x3d49f61d	0.049306978
3	0x3d28033b	0.041018706
4	0xbda4736c	-0.080298275
5	0x3df5ebe8	0.12007886
6	0x3be9fb94	0.007140586
7	0xbd397c8b	-0.04528479
8	0xbdc877a1	-0.097884424
9	0x3df4248b	0.119210325
10	0xbdc1ab66	-0.0945652
11	0xbcd0000b	-0.025390645
12	0x3da13977	0.07872289
13	0xbd71fb7d	-0.05907773
14	0xbcd712bd	-0.026254052
15	0xbdb5b780	-0.088728905
16	0xbdb28d94	-0.0871841
17	0x3dd87da4	0.10570839
18	0xbdf33f64	-0.11877325
19	0xbc5dbceb	-0.013533811
20	0x3c1aa159	0.009437882
21	0x3df1916f	0.117953174
22	0xbcc374fa	-0.02385949
23	0x3dc7c4ee	0.09754358
24	0xbd2a425a	-0.041567184
25	0xbda9518a	-0.082675055
26	0xbdebdbf2	-0.115165606
27	0xbd9ad6ed	-0.07560525
28	0x3d9f85c6	0.07789187
29	0xbba38e57	-0.0049913335
30	0xbdba1c92	-0.090874806
31	0x3df485f5	0.11939613
32	0x3c2e0e1e	0.010623483
33	0xbd18fc76	-0.03735014
34	0xbccfdfc0	-0.025375247
35	0x3a99c30b	0.0011731101
36	0xbc3646b3	-0.011125254
37	0x3c57241b	0.013131167
38	0x3e0578a2	0.13034299
39	0xbd50bc44	-0.050960794
40	0x3daedc06	0.0853806
41	0x3e05e155	0.13074239
42	0xbd2227e8	-0.03958884
43	0xbdfc4da5	-0.12319497
44	0x3deb4d48	0.114893496
45	0x3a7973c6	0.0009515848
46	0xbd9fa4f1	-0.07795132
47	0xbe00a17a	-0.12561598
48	0xbd8d577c	-0.06901452
49	0xbdf5afef	-0.11996447
50	0x3d65983a	0.056053378
51	0x3d4ce185	0.05001976
52	0x3d2c6e7c	0.042097554
53	0xbd988f3f	-0.07449197
54	0x3d8cc26f	0.06873023
55	0xbdf1ebc6	-0.11812548
56	0x3cf2a187	0.029618038
57	0xbae8bd07	-0.001775653
58	0x3c716958	0.014734589
59	0xbd93c2b1	-0.07214869
60	0xbda0685e	-0.078324065
61	0xbd344d87	-0.04401925
62	0x3d165c95	0.036709387
63	0x3d48200c	0.048858687
64	0xbd8c2499	-0.06842918
65	0x3d44b08a	0.048019923
66	0xbddce95b	-0.107866965
67	0xbd13e504	-0.03610708
68	0x3de618a7	0.11235171
69	0xbe006d7d	-0.12541766
70	0xbd17c0fb	-0.037049275
71	0x3dde3cdd	0.108514525
72	0xbc6252a3	-0.013813647
73	0x3dbc61fa	0.09198375
74	0xbdd3ee11	-0.10348142
75	0x3d9906cd	0.07472
76	0x3acad616	0.001547518
77	0x3d42b25a	0.04753337
78	0xbcdf79c2	-0.027279738
79	0x3dca695f	0.09883379
80	0x3e040e26	0.12896022
81	0x3bbff41f	0.005857959
82	0xbddc9d17	-0.1077215
83	0xbd1914f7	-0.03737351
84	0x3d4fb777	0.050712075
85	0x3dc1154f	0.094278924
86	0xbddbfcc4	-0.107415706
87	0xbbf5ef12	-0.007505306
88	0x3de8fd04	0.11376384
89	0xbda94c4f	-0.08266508
90	0xbd9fbb5f	-0.0779941
91	0x3df5af34	0.11996308
92	0x3dd9a591	0.106272824
93	0x3d62d238	0.05537626
94	0x3d516844	0.051124826
95	0xbcca7041	-0.02471173
96	0xbdb84e67	-0.08999329
97	0xbe019d2c	-0.12657613
98	0x3defa267	0.11700898
99	0x3dd05622	0.101726785
100	0x3d79004e	0.060791306
101	0x3d7ee0e1	0.06222618
102	0xbc22d036	-0.009937337
103	0xbd95f479	-0.0732202
104	0xbdc5c1df	-0.096561186
105	0xbdf02fc1	-0.11727858
106	0xbdee2ae8	-0.116292775
107	0x3dc30bcb	0.09523734
108	0xbdaf0f81	-0.08547879
109	0xb98d4f10	-0.00026952522
110	0x3d166336	0.03671571
111	0x3d6a6101	0.057221416
112	0x3db417e0	0.08793616
113	0xbaf05792	-0.0018336645
114	0x3bcce7ff	0.006253242
115	0xbc530084	-0.012878541
116	0x3d239928	0.039940983
117	0xbbe494db	-0.006975753
118	0xbd615c5f	-0.055019733
119	0x3d7ba5a2	0.061437257
120	0x3d56eb95	0.052470762
121	0xbd78b7b9	-0.060722087
122	0x3dc973e5	0.09836558
123	0x3d5e5818	0.05428323
124	0x3c9a8c02	0.018865589
125	0x3d50e6fb	0.05100153
126	0xbdba4dc8	-0.09096867
127	0x3d9cb916	0.0765249
128	0xbdf620b7	-0.120179586
129	0xbda7660e	-0.08173762
130	0xbd82502a	-0.06362946
131	0xbdd0e61c	-0.1020014
132	0x3d85636c	0.06513104
133	0x3d1c39d3	0.038141083
134	0xbd01c7cc	-0.03168468
135	0x3d5888b4	0.052864745
136	0xbdd8816f	-0.105715625
137	0xbd1b57d0	-0.03792554
138	0x3d288159	0.04113898
139	0x3dc1884f	0.09449827
140	0x3d934957	0.07191723
141	0xbde64e03	-0.11245348
142	0xbdb27935	-0.08714525
143	0xbdb59ce5	-0.08867816
144	0x3dd64e20	0.1046412
145	0x3c96bb06	0.018399727
146	0xbdadb6ef	-0.084821574
147	0x3daf8a51	0.08571304
148	0xbd8cfbc8	-0.06883961
149	0xbdb60f73	-0.088896655
150	0x3c90b162	0.017662708
151	0x3d820b49	0.06349809
152	0xbc868888	-0.016422525
153	0xbdb2f00a	-0.0873719
154	0x3db8f984	0.09031966
155	0xbdf452c8	-0.11929852
156	0xbc5bd07e	-0.013416408
157	0x3cb1a533	0.021685218
158	0xbd8c102e	-0.068390235
159	0x3d3b1b97	0.04568061
160	0xbcee8791	-0.029117377
161	0xbd4befb4	-0.049789146
162	0x3caf99e0	0.021435678
163	0x3db2c1bd	0.08728359
164	0xbdedb463	-0.11606672
165	0x3c376d64	0.011195514
166	0x3d389e8e	0.045073085
167	0x3e04a216	0.12952456
168	0xbd9556f8	-0.072919786
169	0x3d1aafa9	0.03776518
170	0x3daf5f13	0.08563056
171	0xbe002fb6	-0.125182
172	0xbdc63505	-0.096780814
173	0x3d9d66dc	0.076856345
174	0xbcaf5ed2	-0.021407519
175	0x3de9dba7	0.114188485
176	0x3daba456	0.08380954
177	0xbdb3a1af	-0.08771073
178	0x3df24222	0.1182902
179	0xbd450b24	-0.048106328
180	0xbd85241b	-0.06501027
181	0xbd266d2a	-0.04063145
182	0x3d1da87b	0.038490754
183	0x3df0ce31	0.11758078
184	0x3de7309d	0.11288569
185	0xbdb1af36	-0.08675997
186	0x3c80f92b	0.015743813
187	0xbdf9974a	-0.12187059
188	0xbdb8e5d4	-0.09028211
189	0x3de4b680	0.111676216
190	0x3d8f1272	0.0698594
191	0xbddaf51a	-0.10691281
192	0xbdd94c34	-0.10610238
193	0xbd8af359	-0.06784696
194	0x3bd872ec	0.0066054966
195	0xbcad9e58	-0.021193668
196	0x3d8a1449	0.0674215
197	0xbdf8802f	-0.12133824
198	0x3c7c6db5	0.015407016
199	0x3aacbbb9	0.0013178504
200	0xbdc45288	-0.09586054
201	0x3dcaffab	0.09912046
202	0x3dbd3138	0.09237903
203	0x3d5cc6bd	0.05390047
204	0x3dfeab17	0.124349765
205	0x3db457a0	0.08805776
206	0x3cf82c32	0.030294511
207	0xbdeddcd0	-0.11614382
208	0xbd4c61ad	-0.04989784
209	0x3d5b074d	0.05347376
210	0x3c1d7c3d	0.00961214
211	0x3c6037e3	0.013685199
212	0x3ba16d06	0.0049263267
213	0x3d341c67	0.0439724
214	0x3ce8c2b3	0.028413152
215	0xbd94034c	-0.07227191
216	0x3d3bc5aa	0.045842804
217	0x3dcdce2d	0.100490905
218	0x3d0ae9b1	0.03391427
219	0x3c3aa429	0.011391678
220	0xbd9e2f1f	-0.077238314
221	0xbdc3e1ad	-0.095645286
222	0xbd6d864e	-0.05798941
223	0x3da94316	0.08264749
224	0xbd91d84e	-0.07121335
225	0xbcd54878	-0.026035532
226	0x3d48e093	0.049042296
227	0x3d1f7000	0.03892517
228	0x3daad365	0.083411016
229	0x3e02fc92	0.1279166
230	0x3c3f9594	0.011693377
231	0xbdf6b696	-0.12046544
232	0x3dc42995	0.09578244
233	0x3b5235d8	0.003207555
234	0xbdafe3ac	-0.08588347
235	0x3dec1bba	0.11528726
236	0xbdc17c04	-0.09447482
237	0xbd84aab9	-0.06477875
238	0x3de3a9a3	0.1111634
239	0x3b65b87a	0.0035052584
240	0x3ce6ef89	0.028190391
241	0xbd018bb0	-0.031627357
242	0x3cb68351	0.022279413
243	0xbcb76969	-0.02238913
244	0x3ce561e2	0.028000776
245	0xbd1a5652	-0.037679978
246	0x3d2e88ad	0.042610813
247	0xbcd250fe	-0.025673386
248	0xbdc14453	-0.0943686
249	0xbdb05b87	-0.086112075
250	0xbc7b054e	-0.015321089
251	0x3bce2f38	0.00629225
252	0x3dc37f77	0.09545796
253	0xbd805b89	-0.06267459
254	0xbd08daec	-0.033411905
255	0xbd18ee54	-0.037336662

weight f4 [256]
0	0x3f7e144b	0.99249715
1	0x3f80e022	1.00684
2	0x3f801fb5	1.0009676
3	0x3f7e9aed	0.9945515
4	0x3f801aa7	1.0008134
5	0x3f805f68	1.0029116
6	0x3f823124	1.0171247
7	0x3f80def9	1.0068046
8	0x3f7eb25c	0.99490905
9	0x3f7faf04	0.9987643
10	0x3f7d39ac	0.98916125
11	0x3f801af8	1.000823
12	0x3f7cef8d	0.98803025
13	0x3f802c53	1.0013527
14	0x3f8177a9	1.0114642
15	0x3f811089	1.0083171
16	0x3f804f42	1.0024188
17	0x3f8032c9	1.0015498
18	0x3f803820	1.0017128
19	0x3f802422	1.0011027
20	0x3f80a642	1.0050738
21	0x3f806198	1.0029783
22	0x3f7d3110	0.9890299
23	0x3f7d8e74	0.9904549
24	0x3f7c5529	0.98567444
25	0x3f80935e	1.0044973
26	0x3f80483d	1.0022045
27	0x3f7da6de	0.99082744
28	0x3f8008f4	1.0002732
29	0x3f7c52ac	0.9856365
30	0x3f828aab	1.0198568
31	0x3f807409	1.0035411
32	0x3f7cd0ce	0.9875611
33	0x3f7e896b	0.99428433
34	0x3f7fb9b3	0.9989273
35	0x3f7cfb0a	0.98820555
36	0x3f8052f1	1.0025312
37	0x3f806c53	1.0033058
38	0x3f7d1e4a	0.9887434
39	0x3f7d5cdf	0.98969835
40	0x3f7f69ac	0.9977062
41	0x3f805460	1.0025749
42	0x3f80bd06	1.0057685
43	0x3f8094d8	1.0045424
44	0x3f7c247a	0.9849316
45	0x3f810c46	1.008187
46	0x3f7c6743	0.98595065
47	0x3f8014f6	1.0006397
48	0x3f80b30f	1.0054644
49	0x3f7d31f1	0.9890433
50	0x3f7c1154	0.9846394
51	0x3f803f7e	1.0019376
52	0x3f8107e0	1.0080528
53	0x3f7f574e	0.9974259
54	0x3f7d915e	0.9904994
55	0x3f803178	1.0015097
56	0x3f804e88	1.0023966
57	0x3f81378b	1.0095075
58	0x3f7bea5a	0.9840447
59	0x3f8033c8	1.0015802
60	0x3f7eb76c	0.9949863
61	0x3f805eea	1.0028965
62	0x3f815b7c	1.0106044
63	0x3f80a27c	1.0049586
64	0x3f7c79b8	0.9862323
65	0x3f80070e	1.0002153
66	0x3f806d06	1.0033271
67	0x3f80341a	1.00159
68	0x3f801621	1.0006753
69	0x3f7d0684	0.9883807
70	0x3f7d489b	0.9893891
71	0x3f7f0397	0.9961485
72	0x3f80b903	1.0056461
73	0x3f803d5f	1.0018729
74	0x3f80fd0a	1.0077221
75	0x3f80e2ef	1.0069255
76	0x3f7d8e26	0.99045026
77	0x3f82ad91	1.0209218
78	0x3f80d2a0	1.0064278
79	0x3f80ebf8	1.0072012
80	0x3f7fff27	0.99998707
81	0x3f7c11de	0.98464763
82	0x3f807757	1.003642
83	0x3f807d98	1.0038328
84	0x3f7e556f	0.9934911
85	0x3f808bfd	1.0042721
86	0x3f80b70c	1.0055861
87	0x3f808b3c	1.0042491
88	0x3f80520d	1.002504
89	0x3f804267	1.0020264
90	0x3f7cdeca	0.9877745
91	0x3f80708a	1.0034344
92	0x3f7fc1b1	0.99904925
93	0x3f80055e	1.0001638
94	0x3f809534	1.0045533
95	0x3f80a1a3	1.0049328
96	0x3f8024e5	1.0011259
97	0x3f803f3e	1.00193
98	0x3f8019fb	1.0007929
99	0x3f7e1fed	0.99267465
100	0x3f805bc5	1.0028006
101	0x3f80cb9a	1.0062134
102	0x3f7d9ba5	0.9906562
103	0x3f7d3d69	0.9892183
104	0x3f80b7e8	1.0056124
105	0x3f7d19fb	0.9886777
106	0x3f7fec9f	0.9997043
107	0x3f849b4d	1.0359894
108	0x3f7bd378	0.9836955
109	0x3f7d8310	0.9902811
110	0x3f807ceb	1.0038122
111	0x3f803ac9	1.001794
112	0x3f7fd21f	0.99929994
113	0x3f8090b3	1.0044159
114	0x3f8042c7	1.0020379
115	0x3f7fdead	0.9994915
116	0x3f806610	1.0031147
117	0x3f803988	1.0017557
118	0x3f7c3930	0.9852476
119	0x3f7e8421	0.9942036
120	0x3f810434	1.0079408
121	0x3f7c1b90	0.9847956
122	0x3f7f5850	0.9974413
123	0x3f80897f	1.004196
124	0x3f8043f6	1.002074
125	0x3f801fa2	1.0009654
126	0x3f804719	1.0021697
127	0x3f80f270	1.0073986
128	0x3f806e34	1.0033631
129	0x3f811572	1.008467
130	0x3f7edcc6	0.99555624
131	0x3f7d7784	0.9901049
132	0x3f802f3d	1.0014416
133	0x3f7d4d5f	0.98946184
134	0x3f80b114	1.005404
135	0x3f7d4b58	0.9894309
136	0x3f801b38	1.0008307
137	0x3f7ce0a6	0.98780286
138	0x3f80913e	1.0044324
139	0x3f805fbf	1.0029219
140	0x3f80402f	1.0019587
141	0x3f805dea	1.002866
142	0x3f7f8e96	0.99826944
143	0x3f80001b	1.0000032
144	0x3f7d87cc	0.99035335
145	0x3f801fab	1.0009664
146	0x3f8003c5	1.000115
147	0x3f80422a	1.0020192
148	0x3f808b49	1.0042506
149	0x3f7d88a6	0.99036634
150	0x3f80722c	1.0034842
151	0x3f807fae	1.0038965
152	0x3f80c090	1.0058765
153	0x3f7f1a43	0.9964945
154	0x3f80660d	1.0031143
155	0x3f80e83d	1.0070873
156	0x3f807752	1.0036414
157	0x3f7eb0e6	0.99488676
158	0x3f811944	1.0085835
159	0x3f81d7d7	1.0143994
160	0x3f83c7bf	1.0295333
161	0x3f7c0722	0.98448384
162	0x3f7d7aa1	0.9901524
163	0x3f7c3130	0.98512554
164	0x3f7e46c6	0.9932674
165	0x3f7f3a14	0.99697995
166	0x3f8170f6	1.0112598
167	0x3f7bf4b5	0.9842027
168	0x3f7fb04f	0.998784
169	0x3f7e1c4a	0.99261916
170	0x3f809237	1.0044621
171	0x3f8061f1	1.0029889
172	0x3f80b732	1.0055907
173	0x3f7d71cd	0.9900177
174	0x3f7e57fb	0.99353
175	0x3f808d00	1.004303
176	0x3f810613	1.0079979
177	0x3f80a0bf	1.0049056
178	0x3f8137d2	1.009516
179	0x3f80e1b4	1.0068879
180	0x3f8033dd	1.0015827
181	0x3f7e4b75	0.9933389
182	0x3f8072c2	1.0035021
183	0x3f804fba	1.0024331
184	0x3f8011be	1.0005414
185	0x3f8102d7	1.0078992
186	0x3f7f35a0	0.996912
187	0x3f7ed833	0.99548644
188	0x3f815261	1.0103265
189	0x3f806476	1.0030658
190	0x3f7ee107	0.99562114
191	0x3f81c608	1.0138559
192	0x3f7d18a0	0.988657
193	0x3f80fb9e	1.0076787
194	0x3f7bcb7d	0.98357373
195	0x3f7cefd4	0.9880345
196	0x3f80e1ff	1.0068969
197	0x3f802f36	1.0014408
198	0x3f80171e	1.0007055
199	0x3f7d5dce	0.9897126
200	0x3f801306	1.0005805
201	0x3f824102	1.0176089
202	0x3f7dacac	0.990916
203	0x3f80bccb	1.0057615
204	0x3f8113a9	1.0084125
205	0x3f8097b8	1.0046301
206	0x3f7b81ee	0.9824513
207	0x3f7d8320	0.99028206
208	0x3f82515d	1.018108
209	0x3f81ed91	1.0150625
210	0x3f8113ce	1.0084169
211	0x3f805ef3	1.0028976
212	0x3f804cfa	1.0023491
213	0x3f8086fe	1.0041196
214	0x3f809cb2	1.004782
215	0x3f813a89	1.0095989
216	0x3f7fd2df	0.9993114
217	0x3f7fc921	0.99916273
218	0x3f8008ef	1.0002726
219	0x3f7e85aa	0.99422705
220	0x3f80b3c7	1.0054864
221	0x3f7ea438	0.9946933
222	0x3f7f3a96	0.9969877
223	0x3f7d76ef	0.99009603
224	0x3f7d5661	0.9895993
225	0x3f7f5309	0.99736077
226	0x3f7a9ff1	0.979003
227	0x3f7d7d92	0.9901973
228	0x3f7e49c2	0.99331295
229	0x3f820167	1.0156678
230	0x3f8022bd	1.0010601
231	0x3f7e5d73	0.9936134
232	0x3f815d7c	1.0106654
233	0x3f7ff207	0.9997868
234	0x3f7ee2eb	0.99565
235	0x3f7e5d30	0.9936094
236	0x3f808b8e	1.0042589
237	0x3f803de8	1.0018892
238	0x3f80981a	1.0046418
239	0x3f80ddee	1.0067728
240	0x3f7e7781	0.994011
241	0x3f7e6f9a	0.9938904
242	0x3f7f3254	0.9968617
243	0x3f7c2ec6	0.9850887
244	0x3f80846e	1.0040414
245	0x3f804164	1.0019956
246	0x3f807d0c	1.0038161
247	0x3f8202c2	1.0157092
248	0x3f8181ce	1.0117738
249	0x3f7dc7b8	0.9913287
250	0x3f80b3f5	1.0054919
251	0x3f80c951	1.0061437
252	0x3f800042	1.0000079
253	0x3f7e2838	0.9928012
254	0x3f7c5a7a	0.98575556
255	0x3f815963	1.0105404

bias f4 [256]
0	0xba4cadd9	-0.0007807888
1	0x3bcb2197	0.0061990726
2	0x394d7431	0.00019593608
3	0x3bf79f59	0.0075568375
4	0x3bea9ced	0.0071598203
5	0x3bbe5100	0.005807996
6	0x3b8bfa26	0.0042717634
7	0x3b894960	0.004189655
8	0x3b1615cd	0.0022901178
9	0x3bdd73e3	0.0067581995
10	0xbb011209	-0.0019694588
11	0x3b9e1ef5	0.0048254677
12	0xbb5f2e38	-0.0034054648
13	0xbaebf2ae	-0.0018001401
14	0xbb180315	-0.0023195196
15	0x3c389506	0.011265999
16	0xbb8fd60c	-0.00438953
17	0x3b03f864	0.0020137066
18	0xbbef8518	-0.007309567
19	0xbb23105d	-0.002488158
20	0xbb7675b2	-0.0037606773
21	0xba3d2400	-0.0007215142
22	0xbb36415d	-0.0027809956
23	0xbb96eab8	-0.0046056174
24	0xba984808	-0.0011618147
25	0x3b61f490	0.0034478046
26	0x3c06955f	0.008214324
27	0xbb47ded4	-0.0030497806
28	0xbb539e75	-0.0032290493
29	0x3b5cd58f	0.0033696627
30	0x3bf9567f	0.007609188
31	0xbb0e2b89	-0.002169343
32	0xba5e2c06	-0.0008475188
33	0xb9bbe749	-0.0003583974
34	0xba4a275d	-0.0007711554
35	0xbbab6036	-0.005229975
36	0xbb0e6634	-0.0021728398
37	0xba7cad6b	-0.00096388784
38	0xbbcf8630	-0.006333135
39	0xbb0df828	-0.0021662805
40	0xbbaa2ecf	-0.0051935683
41	0x3b071980	0.0020614564
42	0x3bd8794f	0.006606258
43	0x3a61dbb8	0.00086158095
44	0xbad40f28	-0.0016178833
45	0x3bd8af02	0.0066126594
46	0xbc120024	-0.008911166
47	0xbb391373	-0.0028240352
48	0x3c177a4b	0.0092454655
49	0x3b119e9e	0.0022219787
50	0x3bd6a838	0.006550815
51	0x39a969e9	0.000323131
52	0x3c4963d3	0.012291866
53	0x3c017b8a	0.007902989
54	0xbc2bc9e0	-0.0104851425
55	0xba62c85e	-0.0008651073
56	0x3be3327d	0.006933509
57	0x3bba12e8	0.0056785233
58	0xbba58d3d	-0.0050522373
59	0x3b6e728c	0.0036384193
60	0xb97cf7c2	-0.0002412489
61	0x3c229fc7	0.009925789
62	0x3c23436e	0.009964807
63	0x3bfd86f7	0.0077370363
64	0xbb8a877a	-0.004227576
65	0x3b8b76d4	0.004256109
66	0x3af2a7f1	0.0018513185
67	0x3bf5731b	0.0074905283
68	0xbb1783c1	-0.0023119303
69	0x3a018c8d	0.0004941903
70	0x3b47465d	0.003040693
71	0xba98d320	-0.00116596
72	0xb960b259	-0.00021428744
73	0xbc17ea4e	-0.009272171
74	0x3baff9dd	0.005370362
75	0x3c16e25e	0.009209244
76	0xbb24d0b2	-0.0025148806
77	0x3c05e9c9	0.0081734145
78	0x3c744927	0.014910019
79	0x3bd6a8e2	0.006550894
80	0xbb8adafc	-0.0042375308
81	0xbbd5ffbf	-0.0065307315
82	0x3c0d0975	0.008608212
83	0x3bdb5b97	0.006694268
84	0xbc27f377	-0.010250918
85	0x3b82de51	0.0039937873
86	0x3b555c21	0.0032556134
87	0x3ad5e8ec	0.0016320026
88	0x3ae1ba0d	0.0017221585
89	0x3bec252a	0.0072065787
90	0xbab1ef32	-0.0013575314
91	0x386ad5b6	5.598898e-05
92	0xbb79866f	-0.0038074513
93	0xbb0a273a	-0.002108051
94	0x3b2f7132	0.002677035
95	0x3c0df1ab	0.008663575
96	0x3a98b1dd	0.0011649687
97	0x3c144c38	0.009051375
98	0x3a814207	0.0009861597
99	0x3ac52e9c	0.0015043798
100	0x3b52583b	0.0032096046
101	0xb9eb452c	-0.0004487423
102	0xbc0d27c7	-0.008615441
103	0xbc32dec3	-0.010917368
104	0x3c204412	0.009781854
105	0x3b7501b8	0.0037385058
106	0x38aa96a3	8.13429e-05
107	0x3b42ea8e	0.0029741856
108	0x3bcc3e46	0.0062330095
109	0xbb451b0e	-0.003007594
110	0x3be50444	0.006989034
111	0xbb3e9106	-0.002907814
112	0x3b098f2f	0.0020989885
113	0x3bb81096	0.0056172116
114	0xbb828ff6	-0.0039844466
115	0xba13d73e	-0.00056396786
116	0xbb1f0746	-0.002426581
117	0x39c9733f	0.00038423573
118	0xbb8708cc	-0.0041209217
119	0xbaf4a575	-0.0018665033
120	0x3b1c32df	0.0023834032
121	0xbb942b62	-0.004521773
122	0xbbc3e0d7	-0.0059777307
123	0x3ac3cb8d	0.0014937982
124	0x3badd3b8	0.00530478
125	0x3a951cf9	0.0011376432
126	0xbab26387	-0.0013609984
127	0x3b9f050b	0.004852896
128	0xbae12e4b	-0.0017179934
129	0x3b0f1775	0.002183405
130	0x3aac100f	0.0013127344
131	0xbaa16635	-0.0012313785
132	0x3b19c510	0.0023463406
133	0x393d5e97	0.00018059682
134	0x3b970828	0.0046091266
135	0xbb86500a	-0.004098897
136	0xbb1311bc	-0.002244099
137	0xb9a018a5	-0.0003053594
138	0x3bf76bad	0.0075506778
139	0x3c16082d	0.009157223
140	0x3abf8a0a	0.0014613282
141	0x3be4d9b9	0.0069839624
142	0x3a484969	0.00076403335
143	0xbb86a2f2	-0.00410878
144	0xbbea59ed	-0.0071518333
145	0x3a3e8d9b	0.00072690257
146	0x398358d5	0.00025052452
147	0xbb54a898	-0.0032449123
148	0x3bf84da5	0.0075776153
149	0x3a0b1338	0.0005305293
150	0x3bac8e96	0.005266021
151	0x3aa0c924	0.0012266976
152	0x3b91a496	0.004444669
153	0x3a466947	0.0007568788
154	0x3be0e6b0	0.0068634376
155	0xba7a564b	-0.0009549602
156	0x3bbac02e	0.005699179
157	0x3b5be2c3	0.0033551909
158	0x3b8230ce	0.003973103
159	0x3c10aace	0.0088297855
160	0x3b1ccdff	0.0023926494
161	0xbab64943	-0.0013907332
162	0xba9533be	-0.0011383218
163	0xbbfcf6a0	-0.0077198297
164	0x3b9d3c4c	0.0047984477
165	0xbb9936ed	-0.004675737
166	0x3c12b8f7	0.008955232
167	0xbb670114	-0.0035248445
168	0x3bd26ca7	0.006421644
169	0x3b72c2aa	0.0037042298
170	0x3baabdae	0.0052106
171	0x3b0e427f	0.0021707115
172	0x3b7e8572	0.0038836864
173	0xb8dee5e8	-0.00010628608
174	0x3b1984f2	0.002342519
175	0x3ae87923	0.0017736297
176	0x3bca53b9	0.0061745313
177	0x3b1665e2	0.002294891
178	0x3c31215a	0.010811174
179	0x3c58a1be	0.013222156
180	0x3be811b2	0.0070821876
181	0xbc307ca8	-0.010771908
182	0xbafcd8cc	-0.0019290685
183	0x3b2e29a0	0.0026575103
184	0x3bdfe681	0.006832898
185	0x3bdfa66a	0.006825258
186	0x3b98976f	0.004656724
187	0x3bbf50f5	0.0058385083
188	0x3c8b19b3	0.016980028
189	0x3bb0693f	0.00538364
190	0x3b39459f	0.0028270257
191	0x3b3a9535	0.0028470282
192	0x3b7f0de4	0.0038918192
193	0x3c59ffed	0.013305646
194	0xbb15c6d5	-0.0022854109
195	0x3b9a09ec	0.00470089
196	0x3bc05e01	0.005870581
197	0x3a21333d	0.00061492977
198	0xbc2a3fe3	-0.010391208
199	0xbb965cf7	-0.004588719
200	0xbb368eba	-0.0027856068
201	0x3b89579d	0.0041913525
202	0xbb32fc29	-0.0027310944
203	0x3ac33eb7	0.001489601
204	0x3b8330f8	0.0040036403
205	0x3a8314e2	0.001000073
206	0xb824ac26	-3.9260973e-05
207	0x3b532d92	0.0032223207
208	0x3a5a7d64	0.00083347247
209	0x3ba3753e	0.0049883416
210	0x3c0b8db3	0.00851767
211	0x3bb65cb3	0.00556525
212	0xbbf389cd	-0.0074321986
213	0x3ba4430b	0.005012875
214	0x3c0c32fc	0.0085570775
215	0x3c2971c6	0.010342067
216	0x3a3fb88d	0.0007313572
217	0x3bbf3852	0.0058355713
218	0x3ac4763a	0.0014988848
219	0xbb0fd296	-0.0021945587
220	0x3bb06e4b	0.0053842417
221	0xbb375332	-0.0027973172
222	0xbb887ca7	-0.0041652503
223	0xbac0327a	-0.0014663481
224	0xbb2b2c41	-0.0026118907
225	0xbac6a76a	-0.0015156094
226	0x3b77b956	0.0037799678
227	0x3b16a91c	0.002298898
228	0x3add9ec4	0.0016908278
229	0x3c20da12	0.009817617
230	0x3bb75765	0.005595135
231	0xbb12e123	-0.0022412024
232	0x3be3a10d	0.006946689
233	0xbb6691f5	-0.0035182212
234	0xbb3fcba3	-0.0029265664
235	0xbac02922	-0.0014660696
236	0x3bcb0bd4	0.0061964784
237	0xbb2d839f	-0.0026476157
238	0x3b963d70	0.0045849606
239	0x3b73a93a	0.0037179724
240	0xbbb139e2	-0.0054085115
241	0x3acddccd	0.0015706063
242	0x3ad17ebf	0.0015983208
243	0xbbb99bad	-0.00566431
244	0x3c1a3ea0	0.009414345
245	0xbb54858d	-0.0032428235
246	0x3b18bcac	0.0023305817
247	0x3add1f54	0.0016870298
248	0x3bac63f0	0.005260937
249	0x3ab95854	0.0014140704
250	0x3b86e4f8	0.0041166507
251	0x3b83bd09	0.0040203375
252	0xbb8b731d	-0.004255666
253	0x3b973da5	0.004615503
254	0xbc24a183	-0.010048273
255	0x3c2216e0	0.009893149

running_mean f4 [256]
0	0xc21d134c	-39.268845
1	0xc3a035ee	-320.42133
2	0x438e14ff	284.16403
3	0xc35856be	-216.33884
4	0x4393ae98	295.364
5	0xc32ea917	-174.6605
6	0x443779ea	733.9049
7	0x43663604	230.211
8	0x43afa7cf	351.311
9	0x43caf043	405.87704
10	0xc30d9fc0	-141.62402
11	0xc29390cc	-73.78281
12	0xc33f81ad	-191.50655
13	0xc2e09f85	-112.31156
14	0x44225cf1	649.4522
15	0xc359c111	-217.75417
16	0x42d5e224	106.94168
17	0x43cd3ee3	410.4913
18	0xc3927044	-292.87708
19	0x43a90c1b	338.09457
20	0x429ab4ef	77.353386
21	0xc1d794c1	-26.947634
22	0x43688b0c	232.54315
23	0xc3701c00	-240.10938
24	0xc37cb7e8	-252.71838
25	0xc399ed2d	-307.85294
26	0x437c0452	252.01688
27	0x43accd50	345.604
28	0xc307fbfe	-135.98434
29	0x420c6925	35.10268
30	0xc3d89848	-433.1897
31	0xc33e78a0	-190.47119
32	0xc19a4619	-19.284227
33	0xc39b97e3	-311.1866
34	0xc3c563ef	-394.78073
35	0xc285519e	-66.65941
36	0xc1b81187	-23.008558
37	0xc333b7b0	-179.71753
38	0xc07e3008	-3.9716816
39	0x439a3422	308.4073
40	0xc3cd8e0d	-411.10977
41	0x426d9469	59.39493
42	0xc38d4353	-282.52597
43	0x43a717d9	334.1863
44	0xc373c355	-243.76302
45	0x4245d2cf	49.455868
46	0xc2dcc239	-110.37934
47	0x428a3f0e	69.12315
48	0x43b3ae20	359.36035
49	0xc384467b	-264.55063
50	0xc3792fca	-249.18668
51	0x42155c7b	37.340313
52	0xc3574e85	-215.30672
53	0x41f84676	31.034405
54	0x4360f628	224.96155
55	0xc37d4c04	-253.29694
56	0x424088c2	48.133553
57	0x428b7178	69.72162
58	0x42ddf59f	110.97973
59	0x43c1f83b	387.9393
60	0x4226297e	41.54052
61	0x429271ce	73.222275
62	0xc2c76d0b	-99.712975
63	0x43697e43	233.49321
64	0xc36ec27b	-238.75969
65	0xc1d24e03	-26.288092
66	0x41b9e1d8	23.235275
67	0xc1a8b971	-21.090548
68	0x438d6bcb	282.84213
69	0xc22415b7	-41.021206
70	0xc3443e09	-196.24232
71	0x43153a64	149.22809
72	0x4299a3ba	76.81978
73	0x3fdb2b59	1.7122604
74	0xc35743ed	-215.26534
75	0x438d1665	282.17496
76	0x435ccdeb	220.80437
77	0x43e51a28	458.20435
78	0x4149da64	12.615818
79	0xc3027f9a	-130.49844
80	0xc24a1091	-50.51618
81	0x415c4bff	13.768554
82	0x438d7bcf	282.96725
83	0x4320dd8a	160.86539
84	0xc2326f24	-44.608536
85	0xc29e3164	-79.096466
86	0x430f6396	143.389
87	0x4302c55f	130.77098
88	0x42be3b93	95.116356
89	0x434df033	205.93828
90	0xc3667d21	-230.48878
91	0x43c9e7ac	403.80994
92	0x43b584ae	363.03656
93	0x41df26a2	27.893864
94	0xc1a3f3e9	-20.494097
95	0x43547f56	212.4974
96	0xc1f61bf1	-30.763643
97	0x42f92669	124.57502
98	0xc2ec8f24	-118.27957
99	0x432050b4	160.31525
100	0x41951b01	18.638186
101	0xc3887c9c	-272.9735
102	0xc30e323c	-142.19623
103	0x43cdbfa3	411.49716
104	0xc3025953	-130.34892
105	0x431850ec	152.3161
106	0xc3c45cb1	-392.72415
107	0x44333a8d	716.91486
108	0xc370fcaf	-240.98705
109	0x42c0c8dc	96.3923
110	0xc34c67e0	-204.40576
111	0x41efbc69	29.966997
112	0xc3a35e1a	-326.73517
113	0x42a28296	81.25505
114	0x43ef4dd1	478.60794
115	0xc23c148d	-47.02007
116	0x4332e52b	178.89519
117	0x43e0aa34	449.3297
118	0xbe898ca0	-0.268651
119	0xc209bef4	-34.436478
120	0xc3977761	-302.93265
121	0xc3406c89	-192.42397
122	0x4330fdd7	176.99156
123	0x43325f9a	178.37344
124	0x4342c0a6	194.75253
125	0x433532ba	181.19815
126	0xc39aa1a8	-309.26294
127	0x43b9b9b7	371.4509
128	0xc396f48d	-301.91055
129	0xc3a96668	-338.80005
130	0x43b36d23	358.85263
131	0xc2faafb2	-125.343155
132	0x4358b963	216.72417
133	0xc3bde3f7	-379.78098
134	0xc362cc1c	-226.7973
135	0xc2cbcdd8	-101.90204
136	0x438a387c	276.44128
137	0x4394cd27	297.60275
138	0x4239ceef	46.452084
139	0x4378e271	248.88454
140	0xc308fa5a	-136.97794
141	0x42fc9824	126.29715
142	0x43615fa0	225.37354
143	0xc37e8b7c	-254.54486
144	0x43b35357	358.6511
145	0x4378c0af	248.75267
146	0xc3a5c49d	-331.53604
147	0xc3163e25	-150.24275
148	0x4332e20d	178.88301
149	0x4334ea87	180.91612
150	0x42a4da28	82.42609
151	0x437e722d	254.446
152	0xc37a9016	-250.56284
153	0x43597274	217.44708
154	0x4332d814	178.84406
155	0xc3ab1cd9	-342.22537
156	0x42bb702c	93.719086
157	0xc2f0278f	-120.07726
158	0xc39ad27f	-309.6445
159	0xc39cd16d	-313.63614
160	0x43f9bb08	499.46118
161	0x4257d0cf	53.953915
162	0xc345a150	-197.63013
163	0xc3910ec2	-290.1153
164	0xc3838b46	-263.08807
165	0xc357e99f	-215.91258
166	0xc3ce33d5	-412.40494
167	0xc38c5fb7	-280.74777
168	0xc1108e4e	-9.034742
169	0x42d48b15	106.271645
170	0x435338a2	211.22122
171	0xc395611c	-298.75867
172	0x430a6f88	138.43567
173	0x4381fa1a	259.95392
174	0xc28a1119	-69.033394
175	0xc340a751	-192.65358
176	0x4383a54e	263.29144
177	0x432af1a3	170.9439
178	0xc2ad55e9	-86.66779
179	0xc35a4ea6	-218.30722
180	0x419ceb89	19.615007
181	0xc2a35117	-81.65838
182	0xc3b040ab	-352.50522
183	0xc2eddc03	-118.92971
184	0xc2e3a896	-113.82927
185	0xc3b52e52	-362.36188
186	0x43822c17	260.34445
187	0xc356482d	-214.28194
188	0xc2e40f9f	-114.03051
189	0xc3075aed	-135.35518
190	0x431a6345	154.38777
191	0x43dcbf12	441.49274
192	0xc08f0937	-4.469875
193	0xc3a5c163	-331.51083
194	0xc2b9537c	-92.663055
195	0x4209ec2b	34.480633
196	0xc36183ac	-225.51434
197	0xc2f79c3b	-123.80514
198	0x43c2cf1b	389.618
199	0x434ad256	202.82162
200	0x4381e409	259.78152
201	0x43c4e060	393.75293
202	0x43148883	148.53325
203	0xc387af29	-271.36844
204	0xc3b24b3b	-356.58774
205	0xc3839ec6	-263.24042
206	0xc2e9d54c	-116.916595
207	0x42f02108	120.064514
208	0x440ea8af	570.6357
209	0x4422204e	648.50476
210	0x427265fb	60.59959
211	0x42087df7	34.123013
212	0xc2d78ff3	-107.78115
213	0xc3b7e8e8	-367.81958
214	0x4317cdaa	151.80338
215	0x425312a1	52.768192
216	0x430520cd	133.12813
217	0xc3289683	-168.58794
218	0x43e0c996	449.5749
219	0x439a1ec3	308.24033
220	0xc3c44438	-392.53296
221	0xc3520626	-210.02402
222	0x42f6643e	123.195786
223	0x4315a29d	149.63521
224	0x42e5aa8c	114.8331
225	0xc2a48eca	-82.278885
226	0xc3644b59	-228.29433
227	0xc33afef4	-186.99591
228	0x420b4d5c	34.825546
229	0xc36f92ee	-239.57394
230	0x43810c73	258.09726
231	0x432cf6de	172.96432
232	0x4323bef0	163.74585
233	0x432194d2	161.58133
234	0xc2d5fd32	-106.99452
235	0xc0c3c4e7	-6.117786
236	0x42e98395	116.756996
237	0xc383ea2b	-263.82944
238	0xc3809a9f	-257.20798
239	0x42b7b9b5	91.86271
240	0xc36cfb56	-236.98178
241	0xc38ed86f	-285.6909
242	0x43b5d55f	363.66696
243	0x41fe5227	31.790113
244	0xc29cf553	-78.47915
245	0x420a5e65	34.592182
246	0x4333192b	179.09831
247	0xc1cf8a66	-25.942577
248	0xc37895c7	-248.58507
249	0x438d1a33	282.20468
250	0xc32d0145	-173.00496
251	0xc2e80ee4	-116.02908
252	0x43bbf25e	375.8935
253	0xc280c3e7	-64.38262
254	0xc2c5d4b1	-98.91541
255	0x43e75d36	462.7282

running_var f4 [256]
0	0x4237081b	45.757915
1	0x414eea17	12.932151
2	0x4119bf60	9.609222
3	0x411e6a43	9.900943
4	0x42981809	76.04694
5	0x41923796	18.277142
6	0x41fb4f7f	31.413816
7	0x4272a1c4	60.657974
8	0x41f7c769	30.972368
9	0x415f9e3f	13.976134
10	0x4138726a	11.527933
11	0x4093d2bb	4.619474
12	0x427404a2	61.004524
13	0x4218aec5	38.170673
14	0x433330d8	179.1908
15	0x427a29d8	62.540863
16	0x414c1d42	12.757143
17	0x436b452e	235.27023
18	0x43308a46	176.54013
19	0x4185159a	16.635548
20	0x4205fd5a	33.497414
21	0x42a4cfc0	82.40576
22	0x428b4ceb	69.65023
23	0x42e55db8	114.683044
24	0x419970ec	19.180138
25	0x4342bf26	194.74667
26	0x425bc8a2	54.94593
27	0x431e8b43	158.54399
28	0x429ebf64	79.37381
29	0x41312476	11.071402
30	0x41b0c5d7	22.096601
31	0x43558ee3	213.55815
32	0x4148b3a1	12.543855
33	0x419eeec5	19.866587
34	0x4167e240	14.492737
35	0x42a0cc7f	80.39941
36	0x423091f9	44.14255
37	0x428ab7be	69.35887
38	0x41c06910	24.0513
39	0x430b78b5	139.47151
40	0x43d2c986	421.5744
41	0x41a15ce2	20.170353
42	0x41110271	9.063096
43	0x41793fcf	15.578078
44	0x421b6558	38.84897
45	0x40ef5f40	7.480377
46	0x42a1081a	80.51582
47	0x429f174d	79.54551
48	0x42866a3d	67.2075
49	0x42217783	40.36671
50	0x4254aa6b	53.166424
51	0x426ae297	58.72128
52	0x42ddd80f	110.92199
53	0x43082f89	136.18568
54	0x41e4d61f	28.604551
55	0x4268eb48	58.229767
56	0x4278fdd7	62.24789
57	0x4171c96e	15.111677
58	0x424414fc	49.020493
59	0x4211be31	36.435734
60	0x4147ab0b	12.479259
61	0x42b65a9e	91.17699
62	0x40fd03a8	7.9066963
63	0x42216688	40.35013
64	0x42876940	67.70557
65	0x41c6fbd8	24.87297
66	0x41ba132a	23.259357
67	0x41c73433	24.900488
68	0x43260a2f	166.03978
69	0x4262e0fb	56.719707
70	0x42ed7566	118.729294
71	0x417a6867	15.650489
72	0x425f09a2	55.759407
73	0x40f41778	7.627865
74	0x41296353	10.586749
75	0x42472abf	49.791744
76	0x4186b340	16.837524
77	0x4251ddbf	52.46655
78	0x41981861	19.011904
79	0x4231537e	44.331535
80	0x425fdbdd	55.96471
81	0x419ded46	19.740856
82	0x430344ce	131.26877
83	0x41fbc9d8	31.473557
84	0x41a361de	20.422787
85	0x424c2cab	51.04362
86	0x40b709fb	5.7199683
87	0x4122ca69	10.174417
88	0x41b6787a	22.808826
89	0x4210c1e6	36.189354
90	0x42a13420	80.60181
91	0x411b3ee7	9.702857
92	0x421fa415	39.910236
93	0x40b61b80	5.690857
94	0x414e3985	12.889043
95	0x42b82dd1	92.089485
96	0x42612675	56.287556
97	0x429f7c38	79.742615
98	0x41b9754f	23.18228
99	0x429ba4b3	77.82168
100	0x42458f26	49.389793
101	0x4291597a	72.67476
102	0x420cc29a	35.19004
103	0x440cb133	562.76874
104	0x42b7dd11	91.93177
105	0x41f543a6	30.658031
106	0x417189e0	15.096161
107	0x420b5b5a	34.83921
108	0x42a137f0	80.60925
109	0x41d9a7e1	27.206972
110	0x421f71b1	39.861027
111	0x42ab5e33	85.68398
112	0x409fe673	4.996881
113	0x4294e4cd	74.44688
114	0x428a7716	69.23259
115	0x427ae1ac	62.720383
116	0x41b14697	22.159468
117	0x411bb072	9.730577
118	0x42859461	66.7898
119	0x41b23f0b	22.280783
120	0x41bb0715	23.378458
121	0x42915740	72.67041
122	0x427199e1	60.400272
123	0x427e6fd6	63.609215
124	0x41f9ed74	31.240944
125	0x426945c9	58.31815
126	0x41d1330a	26.149921
127	0x43017d01	129.4883
128	0x410a6848	8.650459
129	0x412cbdc2	10.796328
130	0x41ed07cb	29.628805
131	0x4089a17a	4.3009615
132	0x428df5f5	70.980385
133	0x420db818	35.42978
134	0x4189fda6	17.248852
135	0x424cd96f	51.212337
136	0x421f0137	39.751186
137	0x427b9770	62.89789
138	0x4293d582	73.91701
139	0x42133d93	36.81013
140	0x41650c09	14.315438
141	0x41259b91	10.35048
142	0x42c355d6	97.66765
143	0x434445c0	196.27246
144	0x40cbee77	6.3728595
145	0x40d4eede	6.6541586
146	0x41522025	13.132848
147	0x41ec5890	29.543243
148	0x425242d5	52.565266
149	0x4263082e	56.757988
150	0x41b71156	22.883465
151	0x4201f6e2	32.491096
152	0x415db026	13.855505
153	0x4405e27b	535.53876
154	0x41dfd9ef	27.981413
155	0x41997ab5	19.184916
156	0x41e0ee6e	28.11642
157	0x4280367e	64.10643
158	0x4136b789	11.419808
159	0x4121a2d6	10.102255
160	0x420864ef	34.098568
161	0x41143bf0	9.264633
162	0x4286e473	67.44619
163	0x419fdd55	19.983072
164	0x41e6271b	28.769094
165	0x41bb7d0f	23.436064
166	0x41b023ba	22.017445
167	0x427fd900	63.961914
168	0x41c043d0	24.033112
169	0x4233007a	44.750465
170	0x4205dcb6	33.465538
171	0x42357024	45.359512
172	0x4241aae8	48.4169
173	0x429e3369	79.10041
174	0x429f7a1a	79.73848
175	0x40ac5076	5.384822
176	0x4228ddc8	42.216583
177	0x417d1458	15.817467
178	0x413c8080	11.781372
179	0x418366e2	16.425236
180	0x426ad8cc	58.711716
181	0x41ec54f7	29.541487
182	0x412f79aa	10.967203
183	0x4254f20b	53.23637
184	0x4225e320	41.4718
185	0x411c1763	9.75571
186	0x410a827a	8.656855
187	0x4186e7bd	16.863153
188	0x4150dcf5	13.053945
189	0x42814ccc	64.649994
190	0x41e51627	28.635817
191	0x419df119	19.742723
192	0x42614245	56.314716
193	0x42862eba	67.09126
194	0x43b1d5c5	355.67007
195	0x428ad757	69.420586
196	0x4280102c	64.031586
197	0x418c58dd	17.54339
198	0x43924ce2	292.60065
199	0x412ed382	10.926638
200	0x42c8a18f	100.315544
201	0x43d46cd8	424.85034
202	0x42777a0f	61.869198
203	0x41865314	16.790565
204	0x41500947	13.002265
205	0x428814f4	68.040924
206	0x426dd71e	59.460075
207	0x41071cc5	8.444524
208	0x436732e1	231.19875
209	0x42590b4b	54.26103
210	0x439f1280	318.14453
211	0x41ab6d6a	21.428425
212	0x41f3f05f	30.492369
213	0x4296c29e	75.38011
214	0x42416b24	48.35463
215	0x41034981	8.205445
216	0x43abeb75	343.8395
217	0x41155b34	9.334766
218	0x41e55fa5	28.671701
219	0x4188e0e5	17.109812
220	0x42034f8e	32.82769
221	0x411be8d8	9.744347
222	0x41a4ba28	20.590897
223	0x429ba32e	77.81871
224	0x426f9503	59.89552
225	0x42c3ac2a	97.83626
226	0x42995a94	76.67691
227	0x41788ddf	15.5346365
228	0x414c2d8b	12.761119
229	0x40c7fe42	6.2497873
230	0x41b4b45c	22.588066
231	0x428b3f96	69.62419
232	0x41f87121	31.055239
233	0x4234d297	45.205654
234	0x4106c0f1	8.422105
235	0x42503ed1	52.061344
236	0x42b831c5	92.097206
237	0x42ce3f36	103.12346
238	0x41883974	17.028053
239	0x41af9ddb	21.952078
240	0x40e9389a	7.2881594
241	0x41800b2b	16.005453
242	0x42358e89	45.389194
243	0x421bfc90	38.996643
244	0x428defb7	70.96819
245	0x41ee8a22	29.817448
246	0x4237d1fd	45.955067
247	0x421dd288	39.455597
248	0x415c9ac5	13.787786
249	0x419aed7f	19.365965
250	0x41833e82	16.405521
251	0x42481afe	50.02636
252	0x424f8ff1	51.890568
253	0x40ef5348	7.478916
254	0x42194243	38.31471
255	0x41dccacd	27.599024

weight f4 [256, 256]
0	0xbcaac1ff	-0.020844458
1	0xbd5afb32	-0.053462215
2	0x3d757475	0.059925515
3	0xbc999acb	-0.018750569
4	0xbc7d7727	-0.015470303
5	0x3d68ebd1	0.056865517
6	0x3d0ec9cb	0.034860414
7	0xbd55272c	-0.05203931
8	0xbc74620d	-0.014915955
9	0x3a87c14b	0.0010357288
10	0xbc9cfcf4	-0.019163586
11	0x38d05763	9.93449e-05
12	0x3d2799a3	0.040918004
13	0x3d49df85	0.04928543
14	0xbc6fdddd	-0.014640299
15	0xbbe32f48	-0.0069331266
16	0xbd4b5b68	-0.04964772
17	0xbc8b14fe	-0.016977783
18	0xbd26fa28	-0.04076591
19	0x3d232b6c	0.039836332
20	0x3d331dd4	0.04372962
21	0x3d179d90	0.037015498
22	0x3c93717a	0.017998446
23	0x3d7b4f66	0.061355017
24	0xbd2cc155	-0.042176563
25	0x3ccab35d	0.02474373
26	0x393aaade	0.00017801995
27	0xbd044d1c	-0.0323001
28	0xbd6468af	-0.055763897
29	0x3c2ea16e	0.010658605
30	0xbcb7e4c2	-0.022447947
31	0xbd6d4efd	-0.057936657
32	0x3d5691e4	0.052385226
33	0xbc56584e	-0.013082577
34	0x3d2a5850	0.041588128
35	0xbd4d94e4	-0.05019082
36	0xbcbcc707	-0.023044122
37	0xbd5c996f	-0.053857263
38	0x3d41d421	0.047321443
39	0xbd30cf44	-0.043166414
40	0x3d196d0e	0.03745752
41	0x3d4635cf	0.04839116
42	0xbc2bd5bb	-0.010487969
43	0x3c2ff15d	0.010738698
44	0xbd664088	-0.056213886
45	0xbd3bfa7a	-0.04589317
46	0x3d2f5a39	0.042810652
47	0xbcd5df90	-0.02610758
48	0xbcdec5b5	-0.027193883
49	0xbd6c5cea	-0.057705797
50	0x3c964006	0.018341076
51	0xbd3b2693	-0.045691084
52	0x3d402e59	0.0469192
53	0xbcbe4f43	-0.023231154
54	0xbc69259e	-0.01423016
55	0xbcf1946b	-0.029489717
56	0x3cb63ff4	0.022247292
57	0x38d9c962	0.00010384877
58	0xbd424dd8	-0.04743752
59	0x3d593ffa	0.05303953
60	0x3d0f272a	0.03494946
61	0x3d3faea2	0.046797402
62	0x3d20879c	0.039191827
63	0x3b401d47	0.0029314326
64	0xbd2a13ea	-0.041522898
65	0xbd08b667	-0.033377077
66	0xbcd31620	-0.025767386
67	0x3d14e3d8	0.0363501
68	0x39f27a85	0.0004624912
69	0xbd39623e	-0.045259707
70	0x3caa1a56	0.020764511
71	0x3b6d623f	0.003622189
72	0xbcf08478	-0.029360041
73	0xbc5adc9b	-0.0133582605
74	0xbc0a23a5	-0.00843135
75	0x3d4e3abf	0.050348993
76	0xbb9450ac	-0.0045262184
77	0xbca8e46b	-0.02061673
78	0x3c6d8c7d	0.014498827
79	0x3d59236d	0.0530123
80	0xbd30c53d	-0.04315685
81	0xbd71881f	-0.058967706
82	0x3d53a1a5	0.051667828
83	0xbd222227	-0.03958335
84	0xbd08ac0f	-0.033367213
85	0xbc4a7b77	-0.012358538
86	0x3ccafeac	0.02477964
87	0x3bded112	0.0067998255
88	0xbd840b80	-0.06447506
89	0xbc86d4dc	-0.016458921
90	0x3c9d75dc	0.019221239
91	0xbd8277c3	-0.06370499
92	0xbd5bd744	-0.05367209
93	0x3b5ed2ac	0.0034000082
94	0xbd611b46	-0.05495765
95	0xbcd7c5f0	-0.026339501
96	0xbce888e4	-0.028385587
97	0x3cb165e1	0.021655025
98	0x3d1934f5	0.03740402
99	0xbd844406	-0.06458287
100	0x3ccab32f	0.024743645
101	0xbd12d848	-0.035850793
102	0x3bf838ca	0.007575129
103	0x3cfb4c34	0.030675985
104	0xbcd2c3f2	-0.0257282
105	0xbd2f4eb0	-0.04279965
106	0x3d43dabc	0.047816023
107	0xbd03b08c	-0.03215079
108	0x3cd764a2	0.026293103
109	0xbcba7481	-0.022760632
110	0x3d445fc9	0.04794291
111	0xbd5149c2	-0.05109573
112	0x3c831b99	0.01600437
113	0xbd604753	-0.05475552
114	0xbc858253	-0.016297495
115	0x3d26ff3b	0.04077075
116	0x3d35d809	0.04439548
117	0x3d5752d7	0.052569237
118	0x3d52d3bf	0.051471468
119	0x3d8439b1	0.06456316
120	0x3d7511ae	0.059831314
121	0x3bb44ae6	0.0055020927
122	0x3c26e2cd	0.010185909
123	0xbc363211	-0.011120335
124	0x3d1132eb	0.03544895
125	0x3d28ae4f	0.04118186
126	0xbd1a0bdb	-0.037608963
127	0xbd76245c	-0.06009327
128	0xbd0a7673	-0.03380437
129	0x3ab1f1e2	0.0013576115
130	0x3d504b5b	0.050853115
131	0xbc848cf4	-0.016180493
132	0x3cebabab	0.028768381
133	0x3bbb63c0	0.0057186782
134	0x3d68a4ae	0.056797676
135	0xbd2d1b86	-0.042262577
136	0x3d501e28	0.05081001
137	0x3c9498c4	0.01813925
138	0xbc75433e	-0.014969645
139	0x3d35e507	0.04440787
140	0xbd6c348a	-0.057667293
141	0xbc50980b	-0.012731562
142	0x3d0844bf	0.033268686
143	0x3c70b754	0.014692146
144	0x3c0550bc	0.008136924
145	0xbcabda92	-0.020978246
146	0xbd40813e	-0.046998255
147	0xbd03b590	-0.032155573
148	0x3cddb04e	0.027061608
149	0xbc12e0d1	-0.008964733
150	0xbd40324f	-0.046922978
151	0xbcfe0d90	-0.031012326
152	0xbd2ba72d	-0.041907478
153	0xbd801ce7	-0.06255513
154	0x3c19a898	0.009378575
155	0x3d1fa518	0.038975805
156	0xbce6e108	-0.028183475
157	0xbce230cd	-0.02761116
158	0xbd69f159	-0.057114933
159	0x3c5164ca	0.012780378
160	0x3ccc8295	0.02496461
161	0xbd2c4bd9	-0.04206452
162	0x3c78d1cb	0.015186737
163	0x3d251f2b	0.040312927
164	0x3bb3847a	0.005478439
165	0xbd341bb0	-0.043971717
166	0xbcdb1030	-0.026741117
167	0x3d501904	0.050805107
168	0x3c855632	0.016276453
169	0x3c8ffd29	0.01757677
170	0xbc477235	-0.012173225
171	0xbd4eda0d	-0.05050092
172	0xbcad2b00	-0.021138668
173	0x3cc0c030	0.023529142
174	0x3d7d6083	0.06185962
175	0xbd27748a	-0.040882625
176	0x3cf8589e	0.030315693
177	0xbd2d1645	-0.042257566
178	0xbca262d8	-0.019822523
179	0x3d602a41	0.054727796
180	0xbd3d4a69	-0.04621354
181	0xbd5736a5	-0.052542347
182	0xbd699483	-0.057026397
183	0x3d32f4cb	0.043690484
184	0x3d4d9773	0.05019326
185	0xbcf3a8d8	-0.029743597
186	0xbd33a56e	-0.043858938
187	0x3bd043fb	0.00635576
188	0xbcf93445	-0.030420432
189	0xbc291e3a	-0.010322148
190	0xbc98f5fc	-0.018671982
191	0x3d27ffa9	0.0410153
192	0xbd4457d1	-0.04793531
193	0xbd68b01d	-0.05680858
194	0x3cc964eb	0.024584254
195	0x3c80fbfc	0.015745156
196	0xbd1f9b34	-0.038966373
197	0x3bfa07c4	0.0076303203
198	0x3d4390c3	0.047745477
199	0xbd1cc04f	-0.038269337
200	0x3d372913	0.044716906
201	0xbc2056ea	-0.009786347
202	0x3cee5bb4	0.029096462
203	0xbd8111dd	-0.06302235
204	0x3d4eaab8	0.05045578
205	0x3d20e282	0.039278515
206	0xbc093c7c	-0.008376237
207	0x3d039c5e	0.032131545
208	0xbcf1e371	-0.029527398
209	0x3d785344	0.060626283
210	0x3ca1c382	0.019746546
211	0x3c04b084	0.008098725
212	0xbd353578	-0.044240445
213	0x3c8df69a	0.017329503
214	0x3bc864f9	0.0061155525
215	0xbcbf9b18	-0.023389384
216	0x3d09e7ee	0.03366845
217	0x3d40040f	0.04687887
218	0xbd187d32	-0.03722877
219	0x3d6808ca	0.056649007
220	0xbb9a23ea	-0.0047039883
221	0xbc9f896d	-0.01947471
222	0xbd61f272	-0.055162854
223	0xbd33afcb	-0.04386882
224	0xbd686d0e	-0.056744628
225	0x3d0e5f31	0.03475875
226	0xbd0b9336	-0.03407594
227	0x3d160860	0.03662908
228	0xbd2df0cd	-0.042465974
229	0xbd2e9043	-0.042618047
230	0xbc8774d2	-0.016535196
231	0xbc5391fd	-0.012913224
232	0xbd82a7a6	-0.06379633
233	0x3d0af2d3	0.03392298
234	0x3d122a0e	0.035684638
235	0x3d36c8e9	0.044625197
236	0xbd732c26	-0.059368275
237	0xbd82372a	-0.06358178
238	0xbc3cb3ce	-0.011517478
239	0x3d145c9f	0.036221143
240	0xbcd5d1a2	-0.026100937
241	0xbcefe4f5	-0.02928398
242	0xbd63a8e7	-0.055581
243	0x3cc75e81	0.024337055
244	0x3c95d893	0.018291747
245	0xbd0c59ed	-0.034265447
246	0xbc647eb2	-0.013946222
247	0x3d578eb1	0.052626316
248	0x3d4c7898	0.049919695
249	0x3ce7cdb2	0.028296325
250	0xbbaa6712	-0.005200275
251	0xbd6503e8	-0.05591193
252	0xbd15623f	-0.036470648
253	0xbd6ba692	-0.0575319
254	0x3c4d7ad9	0.012541496
255	0xbd6801f4	-0.056642488
