Predict/storage/MLP_256_200_SGD_11/trained_0.pt (torch, 339061 bytes, 13 tensors)

weight f4 [256, 58]
-0.06285336 0.078830905 0.10098296 0.08641313 -0.05270044 0.10736542 0.051652092 -0.06694151
0.07790283 -0.029984424 -0.03026219 0.10884603 -0.037026007 0.11688577 0.052540045 -0.03069674
-0.10923691 -0.11184412 -0.005219474 -0.08081288 -0.102399915 -0.1179296 0.044366244 -0.0909512
0.10287472 -0.012226787 0.05456916 -0.05843064 0.12155385 0.043890655 0.028785225 -0.039160404
0.12952664 -0.049770556 -0.10677999 -0.1287748 -0.11403708 -0.091958344 0.094472624 -0.1056079
-0.019186711 0.1265825 -0.037821107 0.015099931 0.072173074 -0.019257845 -0.034105565 0.02955834
-0.07450239 0.08253254 -0.09838642 -0.066920094 -0.11019374 0.06041202 -0.0040977187 -0.11953547
0.08611835 0.08410779 -0.08706944 0.008093532 -0.041512486 -0.0056726197 0.018968308 -0.12310375
0.06818246 -0.120914124 -0.073395304 0.06779855 0.115489766 0.08072823 0.10524391 -0.05308598
-0.038037 0.02477846 -0.1143896 -0.1153044 0.09547824 -0.10801222 -0.1273758 -0.051823996
-0.050997984 -0.062823094 0.10329497 0.10906175 -0.034541085 0.04796709 -0.029583845 0.022644486
-0.08257003 0.02638181 -0.0047965613 -0.07702856 0.019016638 0.015220739 -0.0921923 -0.09882782
0.11185547 -0.016358182 0.066261895 0.0038060055 -0.04941469 0.031526297 0.040780194 -0.12400229
0.0039493307 0.09983816 0.04087824 0.13078044 0.08642606 -0.10854751 0.0036408412 0.11371997
-0.072210945 0.06477051 0.019440757 0.077154905 -0.0048967507 -0.08680627 -0.033490483 -0.04328681
0.08898038 0.009529127 -0.056197666 0.053288322 -0.12093225 -0.09940662 0.041177273 -0.06821039
-0.03291125 0.03421064 0.0140027935 -0.09019929 -0.09069559 0.11438426 0.030498978 -0.10845485
0.08702168 -0.057069674 0.063537925 0.08919543 -0.07356412 0.011852408 -0.011941785 -0.07858183
0.0541989 -0.0008495755 0.00019762808 -0.08935822 0.021658868 0.09669953 0.013120731 -0.05726399
-0.045579795 0.06529676 -0.09881479 0.055032656 -0.022114152 0.101917736 -0.04460815 -0.13047644
0.07256801 0.093094274 0.12541664 -0.07669689 -0.09541041 -0.08287446 0.043439347 -0.12401244
-0.09726096 -0.1274353 -0.04950738 -0.094974466 -0.04589379 -0.116923235 -0.11711858 -0.038252868
0.051018223 0.07102669 0.093443505 -0.0592013 0.059347227 0.013453468 0.011053925 0.05544251
-0.075507425 -0.051312186 -0.0467678 -0.1292535 0.0495843 0.05676243 0.0122642405 -0.113580406
-0.08764818 0.06367178 -0.045122627 -0.11094565 -0.052208632 -0.07351813 0.057111826 -0.03522702
-0.10109476 -0.055141427 -0.039864533 0.017716404 0.07776516 -0.080873035 -0.09296815 0.041817974
-0.045174967 0.094957486 0.10138166 0.07730856 -0.054345384 0.11302419 0.10891011 -0.07422224
0.12559807 0.12120612 -0.016996238 -0.102201566 0.040350728 -0.060580064 -0.030170437 -0.122796856
0.055856135 -0.026105043 0.06296851 0.12367112 0.055050965 0.04153123 -0.078543566 -0.04268195
-0.07381318 -0.09731494 -0.036756612 -0.060015038 0.12830876 -0.016664164 0.03809536 0.07270159
-0.085758016 -0.065029 -0.06449429 -0.065430336 0.11714795 0.06372703 0.07718341 0.022531386
-0.07926611 0.12023787 0.032425437 0.02108174 -0.110001355 0.06719035 -0.0774688 0.020884812
00000000: 43b9 80bd 1972 a13d 27d0 ce3d 5ef9 b03d
00000010: 6bdc 57bd 67e2 db3d 2591 533d a118 89bd
00000020: 858b 9f3d e5a1 f5bc 6ae8 f7bc abea de3d
00000030: 95a8 17bd ce61 ef3d 3b34 573d bb77 fbbc
00000040: 9ab7 dfbd 880e e5bd 1f08 abbb 3981 a5bd
00000050: 0cb7 d1bd 1385 f1bd 61b9 353d 9f44 babd
00000060: fbaf d23d dd52 48bc e983 5f3d f754 6fbd
00000070: 3af1 f83d b0c6 333d fece eb3c a966 20bd
00000080: a2a2 043e 36dc 4bbd 78af dabd 8bdd 03be
00000090: 468c e9bd a854 bcbd dd7a c13d f448 d8bd
000000a0: 732d 9dbc d89e 013e 4eea 1abd b365 773c
000000b0: 7acf 933d a1c2 9dbc 47b2 0bbd 5524 f23c
000000c0: b694 98bd d206 a93d d27e c9bd 670d 89bd
000000d0: 41ad e1bd 9872 773d 2846 86bb 03cf f4bd
000000e0: d15e b03d b440 ac3d 7651 b2bd bc9a 043c
000000f0: ff08 2abd 62e1 b9bb 6d63 9b3c d21d fcbd
00000100: 3fa3 8b3d d3a1 f7bd 4750 96bd f7d9 8a3d
00000110: e685 ec3d d854 a53d 1e8a d73d af70 59bd
00000120: afcc 1bbd 32fc ca3c 1845 eabd b724 ecbd
00000130: 188a c33d 8335 ddbd cd6e 02be 6645 54bd
00000140: 43e3 50bd 65a9 80bd 508c d33d c45b df3d
00000150: f47a 0dbd 2479 443d d259 f2bc ee80 b93c
00000160: 7a1a a9bd aa1e d83c 792c 9dbb 26c1 9dbd
00000170: c8c8 9b3c 6860 793c 51cf bcbd 3d66 cabd
00000180: 7b14 e53d 9801 86bc 51b4 873d 2d6e 793b
00000190: 0f67 4abd b821 013d 2209 273d eaf4 fdbd
000001a0: 6369 813b f377 cc3d f16f 273d 4feb 053e
000001b0: 2500 b13d 284e debd 2e9b 6e3b 04e6 e83d
000001c0: 55e3 93bd 67a6 843d 3942 9f3c 6403 9e3d
000001d0: ec74 a0bb 7cc7 b1bd 512d 09bd 834d 31bd
000001e0: 583b b63d 0e20 1c3c 862f 66bd db44 5a3d
000001f0: 54ab f7bd b395 cbbd 80a9 283d e4b1 8bbd
00000200: f2cd 06bd 7520 0c3d f96b 653c 68ba b8bd
00000210: 9cbe b9bd 4b42 ea3d fed8 f93c 941d debd
00000220: 6c38 b23d e4c1 69bd 2c20 823d 18ac b63d
00000230: c9a8 96bd 9a30 423c 7aa7 43bc 83ef a0bd
00000240: aaff 5d3d 0cb6 5eba 623a 4f39 7101 b7bd
00000250: f06d b13c 670a c63d 56f8 563c a58d 6abd
00000260: e1b1 3abd 4fba 853d 695f cabd ec69 613d
00000270: bd28 b5bc 3fba d03d 09b7 36bd 9e9b 05be
00000280: 899e 943d 36a8 be3d 386d 003e 4213 9dbd
00000290: 8866 c3bd 16ba a9bd 75ed 313d 3cfa fdbd
000002a0: c130 c7bd 667e 02be 40c8 4abd f981 c2bd
000002b0: 20fb 3bbd 7375 efbd dedb efbd 0aaf 1cbd
000002c0: 7cf8 503d 7176 913d 4f5f bf3d 107d 72bd
000002d0: 1416 733d ef6b 5c3c 861b 353c af17 633d
000002e0: a3a3 9abd ba2c 52bd 988f 3fbd 085b 04be
000002f0: e818 4b3d b97f 683d f4ef 483c d89c e8bd
00000300: e480 b3bd 5a66 823d 81d2 38bd 7937 e3bd
00000310: b8d8 55bd ac90 96bd 17ee 693d 354a 10bd
00000320: c50a cfbd fadb 61bd fe48 23bd fe21 913c
00000330: 5743 9f3d c3a0 a5bd 1666 bebd 5349 2b3d
00000340: 6309 39bd 1279 c23d 30a1 cf3d f353 9e3d
00000350: 4499 5ebd 3a79 e73d 440c df3d d401 98bd
00000360: c89c 003e ea3a f83d b23b 8bbc 0e4f d1bd
00000370: ce46 253d cd22 78bd fe27 f7bc eb7c fbbd
00000380: 67c9 643d 3eda d5bc a2f5 803d 4947 fd3d
00000390: 1f7d 613d a71c 2a3d 73db a0bd 45d3 2ebd
000003a0: 5d2b 97bd 0e4d c7bd 1a8e 16bd 54d2 75bd
000003b0: 5f63 033e 4983 88bc e109 1c3d 92e4 943d
000003c0: e6a1 afbd ed2d 85bd 9515 84bd 5700 86bd
000003d0: 44eb ef3d 5183 823d 5612 9e3d be93 b83c
000003e0: 4556 a2bd 463f f63d 89d0 043d 9db3 ac3c
000003f0: 6448 e1bd 189b 893d f6a7 9ebd a016 ab3c

bias f4 [256]
0.07471278 0.052635495 0.049307004 0.041018706 -0.080298275 0.12007886 0.007140669 -0.04528479
-0.097884424 0.119210325 -0.0945652 -0.025390645 0.07872289 -0.05907773 -0.026254093 -0.088728905
-0.0871841 0.10570839 -0.11877325 -0.01353382 0.009437882 0.117953174 -0.02385949 0.09754358
-0.041567184 -0.08267506 -0.115165606 -0.07560525 0.07789187 -0.0049913335 -0.09087481 0.11939613
0.010623483 -0.03735014 -0.025375258 0.0011731101 -0.011125254 0.013131167 0.13034299 -0.0509608
0.0853806 0.13074239 -0.03958884 -0.12319497 0.114893496 0.0009515896 -0.07795132 -0.12561598
-0.06901452 -0.11996447 0.056053378 0.05001976 0.042097554 -0.07449197 0.06873023 -0.11812548
0.029618038 -0.0017756547 0.014734589 -0.07214869 -0.078324065 -0.04401925 0.036709387 0.048858687
-0.06842918 0.048019923 -0.107866965 -0.03610708 0.11235171 -0.12541766 -0.037049275 0.108514525
-0.013813647 0.09198375 -0.10348142 0.07472 0.0015475284 0.047533367 -0.027279738 0.09883379
0.12896022 0.005857959 -0.1077215 -0.03737351 0.050712075 0.094278924 -0.107415706 -0.007505306
0.11376384 -0.08266508 -0.0779941 0.11996308 0.106272824 0.05537626 0.051124826 -0.02471173
-0.08999329 -0.12657613 0.11700898 0.101726785 0.060791306 0.06222618 -0.009937337 -0.0732202
-0.096561186 -0.11727858 -0.116292775 0.09523734 -0.08547879 -0.00026952813 0.03671571 0.057221416
0.08793616 -0.0018336645 0.006253273 -0.012878541 0.039940983 -0.0069757667 -0.055019733 0.061437257
0.052470762 -0.060722087 0.09836558 0.05428323 0.018865589 0.05100153 -0.09096867 0.0765249
-0.120179586 -0.08173764 -0.06362946 -0.1020014 0.06513104 0.038141083 -0.03168468 0.052864745
-0.105715625 -0.03792554 0.04113898 0.09449827 0.07191723 -0.11245348 -0.08714525 -0.08867816
0.10464121 0.018399727 -0.08482158 0.08571304 -0.06883961 -0.088896655 0.017662708 0.06349809
-0.016422525 -0.0873719 0.09031966 -0.11929853 -0.013416408 0.021685218 -0.068390235 0.04568061
-0.029117394 -0.049789146 0.021435678 0.08728359 -0.11606672 0.01119552 0.045073085 0.12952456
-0.072919786 0.03776518 0.08563056 -0.125182 -0.096780814 0.076856345 -0.021407519 0.114188485
0.08380954 -0.08771073 0.1182902 -0.048106328 -0.06501027 -0.04063145 0.038490754 0.11758078
0.11288569 -0.08675997 0.01574381 -0.12187059 -0.09028211 0.111676216 0.0698594 -0.10691281
-0.10610238 -0.06784696 0.0066054966 -0.021193668 0.0674215 -0.12133824 0.015407022 0.001317853
-0.09586054 0.09912046 0.09237903 0.05390047 0.124349765 0.08805776 0.030294511 -0.11614382
-0.049897857 0.053473756 0.009612146 0.013685199 0.0049263267 0.0439724 0.028413152 -0.07227191
0.045842804 0.100490905 0.03391427 0.011391683 -0.077238314 -0.095645286 -0.05798941 0.08264749
-0.07121335 -0.026035532 0.049042296 0.03892517 0.083411016 0.1279166 0.011693379 -0.12046544
0.09578244 0.0032075837 -0.08588347 0.11528726 -0.09447482 -0.06477875 0.1111634 0.0035052584
0.028190395 -0.03162736 0.022279423 -0.02238913 0.028000776 -0.037679978 0.042610813 -0.025673386
-0.0943686 -0.086112075 -0.015321089 0.00629225 0.09545796 -0.06267459 -0.033411905 -0.037336662
00000000: 0403 993d 5198 573d 24f6 493d 3b03 283d
00000010: 6c73 a4bd e8eb f53d 46fc e93b 8b7c 39bd
00000020: a177 c8bd 8b24 f43d 66ab c1bd 0b00 d0bc
00000030: 7739 a13d 7dfb 71bd d312 d7bc 80b7 b5bd
00000040: 948d b2bd a47d d83d 643f f3bd f5bc 5dbc
00000050: 59a1 1a3c 6f91 f13d fa74 c3bc eec4 c73d
00000060: 5a42 2abd 8b51 a9bd f2db ebbd edd6 9abd
00000070: c685 9f3d 578e a3bb 931c babd f585 f43d
00000080: 1e0e 2e3c 76fc 18bd c6df cfbc 0bc3 993a
00000090: b346 36bc 1b24 573c a278 053e 46bc 50bd
000000a0: 06dc ae3d 55e1 053e e827 22bd a54d fcbd
000000b0: 484d eb3d 1974 793a f1a4 9fbd 7aa1 00be
000000c0: 7c57 8dbd efaf f5bd 3a98 653d 85e1 4c3d
000000d0: 7c6e 2c3d 3f8f 98bd 6fc2 8c3d c6eb f1bd
000000e0: 87a1 f23c 16bd e8ba 5869 713c b1c2 93bd
000000f0: 5e68 a0bd 874d 34bd 955c 163d 0c20 483d
00000100: 9924 8cbd 8ab0 443d 5be9 dcbd 04e5 13bd
00000110: a718 e63d 7d6d 00be fbc0 17bd dd3c de3d
00000120: a352 62bc fa61 bc3d 11ee d3bd cd06 993d
00000130: 70d6 ca3a 59b2 423d c279 dfbc 5f69 ca3d
00000140: 260e 043e 1ff4 bf3b 179d dcbd f714 19bd
00000150: 77b7 4f3d 4f15 c13d c4fc dbbd 12ef f5bb
00000160: 04fd e83d 4f4c a9bd 5fbb 9fbd 34af f53d
00000170: 91a5 d93d 38d2 623d 4468 513d 4170 cabc
00000180: 674e b8bd 2c9d 01be 67a2 ef3d 2256 d03d
00000190: 4e00 793d e1e0 7e3d 36d0 22bc 79f4 95bd
000001a0: dfc1 c5bd c12f f0bd e82a eebd cb0b c33d
000001b0: 810f afbd 744f 8db9 3663 163d 0161 6a3d
000001c0: e017 b43d 9257 f0ba 42e8 cc3b 8400 53bc
000001d0: 2899 233d f994 e4bb 5f5c 61bd a2a5 7b3d
000001e0: 95eb 563d b9b7 78bd e573 c93d 1858 5e3d
000001f0: 028c 9a3c fbe6 503d c84d babd 16b9 9c3d
00000200: b720 f6bd 1066 a7bd 2a50 82bd 1ce6 d0bd
00000210: 6c63 853d d339 1c3d ccc7 01bd b488 583d
00000220: 6f81 d8bd d057 1bbd 5981 283d 4f88 c13d
00000230: 5749 933d 034e e6bd 3579 b2bd e59c b5bd
00000240: 214e d63d 06bb 963c f0b6 adbd 518a af3d
00000250: c8fb 8cbd 730f b6bd 62b1 903c 490b 823d
00000260: 8888 86bc 0af0 b2bd 84f9 b83d ca52 f4bd
00000270: 7ed0 5bbc 33a5 b13c 2e10 8cbd 971b 3b3d
00000280: 9a87 eebc b4ef 4bbd e099 af3c bdc1 b23d
00000290: 63b4 edbd 6a6d 373c 8e9e 383d 16a2 043e
000002a0: f856 95bd a9af 1a3d 135f af3d b62f 00be
000002b0: 0535 c6bd dc66 9d3d d25e afbc a7db e93d
000002c0: 56a4 ab3d afa1 b3bd 2242 f23d 240b 45bd
000002d0: 1b24 85bd 2a6d 26bd 7ba8 1d3d 31ce f03d
000002e0: 9d30 e73d 36af b1bd 2af9 803c 4a97 f9bd
000002f0: d4e5 b8bd 80b6 e43d 7212 8f3d 1af5 dabd
00000300: 344c d9bd 59f3 8abd ec72 d83b 589e adbc
00000310: 4914 8a3d 2f80 f8bd bc6d 7c3c cfbb ac3a
00000320: 8852 c4bd abff ca3d 3831 bd3d bdc6 5c3d
00000330: 17ab fe3d a057 b43d 322c f83c d0dc edbd
00000340: b261 4cbd 4c07 5b3d 437c 1d3c e337 603c
00000350: 066d a13b 671c 343d b3c2 e83c 4c03 94bd
00000360: aac5 3b3d 2dce cd3d b1e9 0a3d 2ea4 3a3c
00000370: 1f2f 9ebd ade1 c3bd 4e86 6dbd 1643 a93d
00000380: 4ed8 91bd 7848 d5bc 93e0 483d 0070 1f3d
00000390: 65d3 aa3d 92fc 023e 9695 3f3c 96b6 f6bd
000003a0: 9529 c43d 5336 523b ace3 afbd ba1b ec3d
000003b0: 047c c1bd b9aa 84bd a3a9 e33d 7ab8 653b
000003c0: 8bef e63c b18b 01bd 5683 b63c 6969 b7bc
000003d0: e261 e53c 5256 1abd ad88 2e3d fe50 d2bc
000003e0: 5344 c1bd 875b b0bd 4e05 7bbc 382f ce3b
000003f0: 777f c33d 895b 80bd ecda 08bd 54ee 18bd

weight f4 [256]
1.0000316 1.0001209 1.0004678 0.9980013 0.9999942 0.99977165 0.998722 1.0000927
1.000983 1.0014602 0.99818236 0.9999079 0.9987194 0.9999708 1.0008675 1.0001963
0.9995075 1.0005791 0.99988776 1.0001885 1.0001491 1.0006201 0.9985745 0.99970764
0.9988366 1.0002676 0.99985135 0.99958664 1.0005046 0.9989854 1.0005445 0.9997132
1.0000454 0.9998131 0.9991792 1.000731 1.0007479 1.0014559 1.000268 0.99874204
0.9985578 1.0001681 1.0014253 0.9984686 0.99948364 1.0005531 1.0002708 1.0006465
1.0001997 0.99961054 0.9983661 1.0004975 1.0004988 0.9988758 1.0004778 1.0000935
0.99995714 1.0024244 0.9986323 0.9997948 0.99809057 1.000037 0.9996065 1.0004098
0.9997458 0.99903744 0.9996417 0.99979097 1.0012872 0.9993565 0.99998856 0.9997473
0.999881 1.0005428 0.9992018 1.0001471 0.9995987 1.0014428 0.99976385 1.0002785
1.0001409 1.0005653 1.0004721 1.0002927 0.99892676 1.0010215 1.0009807 0.9994101
1.0007209 1.0008299 0.9995354 1.0003043 0.9998142 0.9991526 1.0010015 1.0003293
0.99998945 0.9997504 1.0004386 1.0000503 0.9999682 1.0004127 0.9999898 0.9999956
1.0005372 0.9983435 0.9989109 1.0010194 1.0016881 0.99997914 0.99967164 1.0001757
1.0004967 0.9997261 0.9986925 0.99954265 1.0011002 0.9991059 0.9999171 1.000024
0.999944 1.0004591 0.99958897 1.0003691 1.0007358 0.99993354 0.9997794 1.0002066
1.0015398 0.9982362 0.99970174 0.9985114 0.9998436 0.99982536 1.0004379 1.0005987
1.00004 0.99947786 1.0004259 0.99922144 1.0004368 1.0003129 1.0005119 1.000216
1.000193 0.99794585 1.0006757 1.0006386 1.0004838 1.0002512 0.99928117 1.000349
0.9998711 1.0001884 1.0006894 1.0021673 0.9996708 0.99892217 0.99988776 1.0004331
1.0010805 0.9989756 1.0002849 0.99851984 0.99805945 0.99817467 1.0004929 0.9984441
1.00102 0.9995009 1.0003009 1.0002401 1.0002996 0.9981421 0.9995915 0.9999134
1.0022782 1.0006105 1.0009962 0.9992508 0.999908 0.9996361 1.0000606 1.0003587
0.9997132 1.0003237 0.999835 0.9997176 0.99972814 0.9999674 0.9992019 1.0035243
0.9993472 0.9994639 1.0001118 1.002161 1.0000339 0.999962 0.9998124 0.99900424
1.0006114 1.0037287 1.0023012 1.0000961 0.99999744 0.99986786 1.0007044 0.9987191
1.0002282 1.0001341 1.0003096 1.0001421 1.0012085 1.0000519 1.0007677 0.99999744
0.9993504 1.000328 0.99964076 1.0006896 1.0000768 0.9991437 0.99930507 0.9994092
0.9998219 0.9988117 0.99756163 0.9998649 0.9985398 0.9997162 0.99933463 0.999368
1.0006562 0.99993527 1.0001544 1.000906 1.0001341 1.0001134 0.99998635 1.000248
1.000253 1.0002354 0.9979595 0.9990286 1.0000122 0.99965304 1.0002806 1.0002214
1.0001669 1.0002146 1.0006998 1.0002794 1.0009481 1.0019065 1.0002228 0.99935865
00000000: 0901 803f f603 803f 540f 803f 037d 7f3f
00000010: 9fff 7f3f 09f1 7f3f 3fac 7f3f 0a03 803f
00000020: 3620 803f d92f 803f e188 7f3f f7f9 7f3f
00000030: 13ac 7f3f 16fe 7f3f 6d1c 803f 6f06 803f
00000040: b9df 7f3f fa12 803f a5f8 7f3f 2d06 803f
00000050: e304 803f 5214 803f 94a2 7f3f d7ec 7f3f
00000060: c1b3 7f3f c508 803f 42f6 7f3f e9e4 7f3f
00000070: 8910 803f 82bd 7f3f d811 803f 34ed 7f3f
00000080: 7d01 803f c0f3 7f3f 35ca 7f3f f417 803f
00000090: 8218 803f b52f 803f c808 803f 8fad 7f3f
000000a0: 7ca1 7f3f 8205 803f b42e 803f a39b 7f3f
000000b0: 29de 7f3f 2012 803f e008 803f 2f15 803f
000000c0: 8b06 803f 7ae6 7f3f ec94 7f3f 4d10 803f
000000d0: 5810 803f 53b6 7f3f a80f 803f 1003 803f
000000e0: 31fd 7f3f 714f 803f 5ea6 7f3f 8df2 7f3f
000000f0: dd82 7f3f 3601 803f 36e6 7f3f 6e0d 803f
00000100: 57ef 7f3f ebc0 7f3f 85e8 7f3f 4df2 7f3f
00000110: 2e2a 803f d4d5 7f3f 40ff 7f3f 70ef 7f3f
00000120: 34f8 7f3f c911 803f b0cb 7f3f d204 803f
00000130: b3e5 7f3f 472f 803f 86f0 7f3f 2009 803f
00000140: 9e04 803f 8612 803f 780f 803f 9709 803f
00000150: aab9 7f3f 7921 803f 2320 803f 57d9 7f3f
00000160: 9f17 803f 321b 803f 8de1 7f3f f909 803f
00000170: d3f3 7f3f 77c8 7f3f d120 803f ca0a 803f
00000180: 4fff 7f3f a4ef 7f3f 5f0e 803f a601 803f
00000190: eafd 7f3f 860d 803f 55ff 7f3f b6ff 7f3f
000001a0: 9a11 803f 7193 7f3f a0b8 7f3f 6721 803f
000001b0: 5137 803f a2fe 7f3f 7bea 7f3f c205 803f
000001c0: 4710 803f 0dee 7f3f 50aa 7f3f 07e2 7f3f
000001d0: 0d24 803f 67c5 7f3f 91fa 7f3f c900 803f
000001e0: 54fc 7f3f 0b0f 803f 10e5 7f3f 180c 803f
000001f0: 1c18 803f a5fb 7f3f 8bf1 7f3f c506 803f
00000200: 7532 803f 688c 7f3f 74ec 7f3f 719e 7f3f
00000210: c0f5 7f3f 8ef4 7f3f 590e 803f 9e13 803f
00000220: 5001 803f c8dd 7f3f f50d 803f facc 7f3f
00000230: 500e 803f 410a 803f c610 803f 1407 803f
00000240: 5306 803f 6179 7f3f 2416 803f ed14 803f
00000250: da0f 803f 3b08 803f e4d0 7f3f 700b 803f
00000260: 8df7 7f3f 2c06 803f 9716 803f 0547 803f
00000270: 6dea 7f3f 5db9 7f3f a5f8 7f3f 310e 803f
00000280: 6823 803f ddbc 7f3f 5609 803f ff9e 7f3f
00000290: d380 7f3f 6088 7f3f 2710 803f 089a 7f3f
000002a0: 6c21 803f 4adf 7f3f dc09 803f de07 803f
000002b0: d109 803f 3e86 7f3f 3be5 7f3f 53fa 7f3f
000002c0: a74a 803f 0114 803f a520 803f e7ce 7f3f
000002d0: f8f9 7f3f 27e8 7f3f fc01 803f c10b 803f
000002e0: 34ed 7f3f 9b0a 803f 30f5 7f3f 7eed 7f3f
000002f0: 2fee 7f3f ddfd 7f3f b2cb 7f3f 7c73 803f
00000300: 38d5 7f3f dedc 7f3f aa03 803f d046 803f
00000310: 1c01 803f 82fd 7f3f b5f3 7f3f bebe 7f3f
00000320: 0914 803f 2f7a 803f 684b 803f 2603 803f
00000330: d5ff 7f3f 57f7 7f3f 1517 803f 0eac 7f3f
00000340: 7a07 803f 6504 803f 250a 803f a804 803f
00000350: 9a27 803f b301 803f 2819 803f d5ff 7f3f
00000360: 6ed5 7f3f bf0a 803f 75e8 7f3f 9916 803f
00000370: 8402 803f e2c7 7f3f 75d2 7f3f 48d9 7f3f
00000380: 54f4 7f3f 20b2 7f3f 3360 7f3f 25f7 7f3f
00000390: 4ea0 7f3f 67ed 7f3f 65d4 7f3f 95d6 7f3f
000003a0: 8115 803f c2fb 7f3f 0f05 803f b01d 803f
000003b0: 6504 803f b703 803f 1bff 7f3f 2008 803f
000003c0: 4a08 803f b707 803f 467a 7f3f 57c0 7f3f
000003d0: 6600 803f 43e9 7f3f 3209 803f 4107 803f
000003e0: 7805 803f 0807 803f ee16 803f 2809 803f
000003f0: 111f 803f 793e 803f 4d07 803f f8d5 7f3f

bias f4 [256]
0.00039097425 1.551428e-05 0.00041345257 0.00029516334 -7.971095e-05 0.00059937924 -2.7140255e-05 -0.00015415627
0.0010756035 0.0015199463 -0.0005683395 0.00026301225 1.1204779e-05 0.00036676848 0.000121386016 -7.5830525e-05
-0.00079566956 0.0005544553 -3.583046e-06 -0.00056643976 0.000886781 0.0011581739 -0.0001854019 0.000350798
-0.00025588414 0.00040629305 0.0006780179 0.00011410726 0.0009132731 -0.00042863603 0.0005895549 -0.00080969045
0.00029553744 4.3908545e-05 4.021882e-07 -3.6680627e-05 0.00088911137 0.0011647007 -0.0004788832 -0.0002949373
0.0009378785 0.0005136067 0.00085607404 -0.000246689 -0.0002360772 0.00080830697 7.6006604e-06 0.0007895422
0.0003425143 0.00023931348 0.0002439076 0.00092152343 0.0011780962 -0.00037291873 -2.6538008e-05 -0.00012621877
0.00048272952 0.0018950717 -6.272003e-05 0.0003057332 -0.00028996845 0.00050313806 0.00029837966 0.00040238924
-0.0009089019 0.00036514294 0.00019451762 0.000308353 0.0007339794 -0.00048099985 9.503416e-06 -0.0001196473
-0.00037283517 0.00015766898 0.00029116252 0.0004007816 -0.00013019449 0.0011103607 0.00048939657 -6.6296096e-05
-0.00026882484 8.5774256e-05 0.00062047114 0.0006017266 -0.00081105396 0.00079173077 0.00024228009 -0.0003437537
0.00082612835 0.00070564443 0.0005657886 0.0007958385 -0.00033342914 -0.0008713688 -8.596543e-05 0.0006413436
-0.0004397399 -0.0004569651 2.897607e-06 -0.00037124477 9.914339e-05 0.00016533256 -0.0004792543 -1.2410313e-05
0.00063560804 0.00051656965 0.00034975898 8.6837994e-05 0.0009820773 0.00026709642 -0.0002668663 9.615678e-05
0.0010599954 -0.0004259857 -0.00025199063 -0.00087543065 0.00087546586 -9.066641e-06 -0.00041870162 -1.8125222e-05
-0.00025669503 -7.977723e-05 -0.0007542783 0.00016354544 0.0010185373 0.00048763625 -0.000528756 -0.0002923295
0.00010269741 -0.00034364805 -0.00015981308 9.923924e-05 7.244554e-05 -0.00031436107 0.0006992445 0.00012339427
-0.00029708637 -0.00015007597 0.001180185 -0.00047957269 0.001128951 0.0006310263 -0.0006372849 -0.0001658252
0.00031857096 -9.4755706e-05 0.00087228057 0.0008747813 0.0007301384 0.00046739227 0.00079129665 0.0006089785
-0.00053220714 0.0002683139 0.00026448208 -0.00025763258 -0.00013151146 -5.248164e-05 -0.00020935407 0.0004899863
6.505101e-05 0.00031868828 -0.00018645055 -0.0012573324 0.00024051758 -0.00062720774 0.0008715892 -0.00080079655
0.0006988671 5.6222998e-05 0.00032275502 0.0002299555 0.00030653228 -0.000510543 0.0002932889 -0.00010825633
0.0006865606 0.00042375553 0.0010242104 0.00059890014 -1.1396631e-05 -0.00072118 -0.00025844335 0.00038831995
0.00034597144 6.146023e-05 -0.00066817744 6.920234e-06 0.00022132254 -7.5714593e-06 0.0001236882 0.0010751423
0.0003768661 1.4397171e-05 0.0008548399 0.001110358 -0.0002590183 -0.00011908203 -0.00046121553 -0.0008727215
0.0006079522 0.0015226317 0.0013853488 -3.6809968e-05 -0.0007445891 -9.346934e-05 -0.00024120935 -0.00016273122
0.00029400806 -0.00029279242 0.00076203654 0.00062428426 0.00012480412 1.04175615e-05 0.0011757731 -0.00018020073
0.0002574791 0.0008693244 -0.00011925622 0.0005580893 7.614287e-05 8.417463e-05 6.176793e-05 0.0004281599
-0.0002871657 0.000106149346 -0.0001595996 0.0006023116 -0.0010352163 -0.00020274708 0.0001921014 -0.0008357465
0.000711047 -0.0003804075 -0.0004572579 -0.00033577808 0.00014120062 0.00024210436 0.000107965316 0.00035988053
-2.0513005e-05 -0.0002122626 -0.00041520444 -0.00039622537 0.00066258846 0.00048616243 0.0003896188 0.00019315434
-0.00046129018 -0.00029656023 0.00019198374 0.00012872697 0.00058426533 0.0004982551 -8.969824e-06 7.951489e-05
00000000: adfb cc39 aa24 8237 aac4 d839 27c0 9a39
00000010: 7e2a a7b8 a91f 1d3a 41ab e3b7 02a5 21b9
00000020: 44fb 8c3a ef38 c73a 9efc 14ba e8e4 8939
00000030: 29fc 3b37 d54a c039 9f90 fe38 3407 9fb8
00000040: 7b94 50ba de58 113a 4374 70b6 217d 14ba
00000050: de76 683a decd 973a 7268 42b9 50eb b739
00000060: 3028 86b9 bb03 d539 03bd 313a de4c ef38
00000070: b868 6f3a 8eba e0b9 5c8c 1a3a 6841 54ba
00000080: 5df2 9a39 712a 3838 53ec d734 86d9 19b8
00000090: 4113 693a dfa8 983a 9d12 fbb9 d0a1 9ab9
000000a0: f6db 753a 90a3 063a 286a 603a 0956 81b9
000000b0: 7e8b 77b9 90e4 533a 2d09 ff36 48f9 4e3a
000000c0: 7e93 b339 39f0 7a39 73c1 7f39 6492 713a
000000d0: 596a 9a3a 4e84 c3b9 f09d deb7 9859 04b9
000000e0: dc16 fd39 0e64 f83a 8f88 83b8 d14a a039
000000f0: e806 98b9 06e5 033a d76f 9c39 c5f7 d239
00000100: 6043 6eba a870 bf39 6df7 4b39 70aa a139
00000110: 8668 403a b52e fcb9 dc70 1f37 28eb fab8
00000120: 1779 c3b9 f253 2539 2ca7 9839 ff1f d239
00000130: d184 08b9 8689 913a d94a 003a 7208 8bb8
00000140: 0ff1 8cb9 b4e1 b338 1da7 223a 30bd 1d3a
00000150: e99c 54ba 278c 4f3a 910c 7e39 d739 b4b9
00000160: 8990 583a fffa 383a 6e51 143a d19f 503a
00000170: 1ad0 aeb9 926c 64ba 5748 b4b8 d71f 283a
00000180: e48c e6b9 d194 efb9 8274 4236 a1a3 c2b9
00000190: 34eb cf38 1f5d 2d39 6c44 fbb9 e335 50b7
000001a0: ef9e 263a 676a 073a db5f b739 cb1c b638
000001b0: 0cb9 803a 1309 8c39 30ea 8bb9 c7a7 c938
000001c0: 8bef 8a3a d556 dfb9 9c1d 84b9 287d 65ba
000001d0: 857f 653a ed1c 18b7 2e85 dbb9 9e0b 98b7
000001e0: 0695 86b9 134e a7b8 c3ba 45ba 657d 2b39
000001f0: 7180 853a 6ea9 ff39 379c 0aba cd43 99b9
00000200: 415f d738 a92b b4b9 7f93 27b9 a91e d038
00000210: e7ed 9738 d4d0 a4b9 814d 373a 6663 0139
00000220: 42c2 9bb9 b65d 1db9 70b0 9a3a 286f fbb9
00000230: 4ff9 933a 756b 253a 770f 27ba 5de1 2db9
00000240: df05 a739 95b7 c6b8 c2a9 643a 9451 653a
00000250: c266 3f3a 540c f539 056f 4f3a dba3 1f3a
00000260: d183 0bba 7bac 8c39 2faa 8a39 dc12 87b9
00000270: 57e6 09b9 bb1f 5cb8 0e86 5bb9 6d72 003a
00000280: ff6b 8838 9e15 a739 f081 43b9 13cd a4ba
00000290: 7233 7c39 336b 24ba 5c7b 643a 8cec 51ba
000002a0: 2d34 373a fcd0 6b38 7237 a939 3620 7139
000002b0: 11b6 a039 f6d5 05ba 92c4 9939 ad07 e3b8
000002c0: 4dfa 333a 812b de39 cc3e 863a 82ff 1c3a
000002d0: 2834 3fb7 920d 3dba ae7f 87b9 6c97 cb39
000002e0: 8063 b539 36e4 8038 a128 2fba 5b34 e836
000002f0: d112 6839 570e feb6 4cb2 0139 caeb 8c3a
00000300: 1d96 c539 618b 7137 5617 603a 6f89 913a
00000310: d9cc 87b9 aebb f9b8 4dcf f1b9 59c7 64ba
00000320: fb5e 1f3a 0b93 c73a 9894 b53a 6764 1ab8
00000330: 8730 43ba f804 c4b8 24ed 7cb9 d4a2 2ab9
00000340: 1825 9a39 ef81 99b9 68c3 473a 02a7 233a
00000350: dadd 0239 16c7 2e37 661c 9a3a 44f4 3cb9
00000360: 43fe 8639 5fe3 633a 3219 fab8 bd4c 123a
00000370: e4ae 9f38 e986 b038 6889 8138 a67a e039
00000380: ba8e 96b9 7f9c de38 315a 27b9 72e4 1d3a
00000390: 18b0 87ba 8198 54b9 d46e 4939 0016 5bba
000003a0: 8e65 3a3a 6e71 c7b9 1ebc efb9 5f0b b0b9
000003b0: 410f 1439 65dd 7d39 706b e238 59ae bc39
000003c0: 5813 acb7 cf92 5eb9 ccaf d9b9 78bc cfb9
000003d0: 8fb1 2d3a 9ee3 fe39 c045 cc39 7989 4a39
000003e0: 52d9 f1b9 a47b 9bb9 3e4f 4939 e2fa 0639
000003f0: 6229 193a 559d 023a 1a7d 16b7 3bc1 a638

running_mean f4 [256]
32.6461 -248.6947 278.0769 -244.06682 237.58206 -174.73456 400.18054 250.17406
242.0169 312.3009 -159.60362 -41.722015 -171.31255 -102.29441 301.95462 -235.95694
106.96411 366.44366 -309.16977 282.09097 -5.0701833 -25.475565 207.67596 -215.627
-182.60184 -210.93932 197.088 274.34503 -168.61607 20.498959 -203.85237 -131.5354
1.5192378 -270.41257 -251.8571 -30.89486 -76.96535 -224.23047 -23.76251 237.76459
-314.8912 38.153477 -306.5592 290.38428 -217.59477 30.863522 -105.5183 103.78047
369.61124 -250.4275 -253.78947 39.668545 -246.63469 56.03244 186.16283 -236.76561
64.63985 -28.779648 98.8349 316.01013 58.522987 82.50221 -93.312675 215.23297
-241.20766 -9.465808 58.26328 -58.157944 167.77496 -8.546678 -193.24638 160.08228
51.842854 -25.395643 -142.69063 262.69537 227.6517 171.0235 -34.053574 -85.089226
-56.163383 66.0363 233.48553 172.50862 195.60687 -46.37375 101.34561 146.4456
105.885925 140.35158 -210.39879 344.8814 321.534 49.4548 -10.612797 229.35742
0.5274473 161.80145 -138.42432 151.28346 36.449253 -278.45468 -111.288895 406.7545
-120.10876 126.007225 -320.86005 291.613 -215.03383 63.60121 -176.78777 41.698853
-211.22139 72.86301 230.8852 -66.24457 250.31837 374.13614 22.505503 49.92119
-296.1924 -185.72157 134.59148 158.10626 114.21588 156.14436 -291.83505 374.27603
-217.10297 -287.8205 328.83118 -88.48724 222.79272 -358.9473 -238.10156 -134.87628
298.46667 304.12717 60.078682 269.3257 -117.616104 22.016026 147.59872 -224.41705
293.20905 192.99825 -208.52805 -168.28896 157.71194 117.095665 86.779 271.82422
-215.47273 4.3663206 191.7394 -257.54446 73.01109 -151.80746 -283.68527 -317.30276
298.5439 46.677174 -161.46725 -226.57938 -257.2855 -182.19421 -362.5145 -291.77478
-91.54376 93.72109 174.7813 -285.08255 130.91322 255.02917 -36.529472 -157.7451
235.93832 122.73043 -168.37015 -168.64128 39.343597 -51.61137 -281.03308 -85.11453
-132.02707 -345.39987 223.89043 -197.326 -103.90384 -88.03755 55.586502 274.35693
16.235373 -363.68283 -54.903812 8.421347 -221.9787 -142.08607 366.25644 164.1542
271.57556 235.03635 147.96275 -263.12222 -358.85907 -209.12193 -117.198944 -4.048675
395.0724 288.3789 116.46179 46.488136 -13.31764 -375.26163 117.20176 53.39439
-18.810036 -26.726978 360.4211 301.92166 -356.05228 -165.92809 72.56322 156.83882
82.19205 -37.685543 -250.57506 -197.12766 80.62516 -183.39632 249.53287 104.01555
184.60048 160.30547 -52.536747 -28.788153 131.19711 -253.15274 -232.08733 117.70392
-156.95401 -190.79851 266.77042 43.845207 -103.83591 -0.9755525 195.98753 -133.10727
-226.44121 255.93877 -151.27724 -110.73007 210.00906 -45.752445 -72.346375 335.30978
00000000: 9b95 0242 d8b1 78c3 d809 8b43 1b11 74c3
00000010: 0295 6d43 0cbc 2ec3 1c17 c843 8f2c 7a43
00000020: 5404 7243 8426 9c43 879a 1fc3 58e3 26c2
00000030: 0350 2bc3 bd96 ccc2 31fa 9643 faf4 6bc3
00000040: a0ed d542 ca38 b743 bb95 9ac3 a50b 8d43
00000050: f13e a2c0 f5cd cbc1 0cad 4f43 83a0 57c3
00000060: 129a 36c3 77f0 52c3 8716 4543 2a2c 8943
00000070: b79d 28c3 defd a341 35da 4bc3 1089 03c3
00000080: 6276 c23f cf34 87c3 6bdb 7bc3 ac28 f7c1
00000090: 42ee 99c2 003b 60c3 9f19 bec1 bcc3 6d43
000000a0: 1372 9dc3 299d 1842 9447 99c3 3031 9143
000000b0: 4398 59c3 7ee8 f641 5f09 d3c2 9a8f cf42
000000c0: 3dce b843 716d 7ac3 1bca 7dc3 97ac 1e42
000000d0: 7ba2 76c3 3821 6042 af29 3a43 ffc3 6cc3
000000e0: 9a47 8142 b83c e6c1 78ab c542 4c01 9e43
000000f0: 8a17 6a42 2201 a542 17a0 bac2 a43b 5743
00000100: 2935 71c3 f373 17c1 990d 6942 bca1 68c2
00000110: 64c6 2743 31bf 08c1 133f 41c3 1015 2043
00000120: 155f 4f42 472a cbc1 cdb0 0ec3 0259 8343
00000130: d6a6 6343 0406 2b43 dc36 08c2 af2d aac2
00000140: 4ea7 60c2 9612 8442 4c7c 6943 3582 2c43
00000150: 5c9b 4343 b87e 39c2 f4b0 ca42 1372 1243
00000160: 98c5 d342 015a 0c43 1766 52c3 d270 ac43
00000170: 5ac4 a043 b7d1 4542 04ce 29c1 805b 6543
00000180: c906 073f 2ccd 2143 a06c 0ac3 9148 1743
00000190: 09cc 1142 333a 8bc3 ea93 dec2 9360 cb43
000001a0: af37 f0c2 b303 fc42 166e a0c3 77ce 9143
000001b0: a908 57c3 a467 7e42 abc9 30c3 a0cb 2642
000001c0: ad38 53c3 dcb9 9142 9ce2 6643 387d 84c2
000001d0: 8151 7a43 6d11 bb43 450b b441 4caf 4742
000001e0: a118 94c3 b9b8 39c3 6b97 0643 341b 1e43
000001f0: 886e e442 f524 1c43 e3ea 91c3 5523 bb43
00000200: 5c1a 59c3 06e9 8fc3 646a a443 78f9 b0c2
00000210: f0ca 5e43 4179 b3c3 001a 6ec3 54e0 06c3
00000220: bc3b 9543 4710 9843 9250 7042 b1a9 8643
00000230: 723b ebc2 d220 b041 4699 1343 c46a 60c3
00000240: c29a 9243 8dff 4043 2e87 50c3 f949 28c3
00000250: 42b6 1d43 fb30 ea42 d98e ad42 80e9 8743
00000260: 0579 57c3 e6b8 8b40 49bd 3f43 b1c5 80c3
00000270: ae05 9242 b6ce 17c3 b7d7 8dc3 c1a6 9ec3
00000280: 9f45 9543 6db5 3a42 9e77 21c3 5294 62c3
00000290: 8ba4 80c3 b831 36c3 db41 b5c3 2ce3 91c3
000002a0: 6816 b7c2 3371 bb42 03c8 2e43 918a 8ec3
000002b0: c9e9 0243 7807 7f43 2e1e 12c2 bfbe 1dc3
000002c0: 36f0 6b43 fb75 f542 c25e 28c3 2ba4 28c3
000002d0: d85f 1d42 0b72 4ec2 3c84 8cc3 a43a aac2
000002e0: ee06 04c3 2fb3 acc3 f3e3 5f43 7553 45c3
000002f0: c4ce cfc2 3a13 b0c2 9458 5e42 b02d 8943
00000300: 0be2 8141 67d7 b5c3 819d 5bc2 d6bd 0641
00000310: 8cfa 5dc3 0916 0ec3 d320 b743 7a27 2443
00000320: acc9 8743 4e09 6b43 77f6 1343 a58f 83c3
00000330: f66d b3c3 371f 51c3 dc65 eac2 bf8e 81c0
00000340: 4489 c543 8030 9043 70ec e842 daf3 3942
00000350: 0e15 55c1 7da1 bbc3 4d67 ea42 db93 5542
00000360: f47a 96c1 dad0 d5c1 e735 b443 f9f5 9643
00000370: b106 b2c3 97ed 25c3 5e20 9142 bdd6 1c43
00000380: 5462 a442 ffbd 16c2 3793 7ac3 ae20 45c3
00000390: 1540 a142 7565 37c3 6a88 7943 f607 d042
000003a0: b999 3843 334e 2043 a125 52c2 234e e6c1
000003b0: 7632 0343 1a27 7dc3 5b16 68c3 6868 eb42
000003c0: 3af4 1cc3 6bcc 3ec3 9d62 8543 7e61 2f42
000003d0: fcab cfc2 cfbd 79bf cffc 4343 761b 05c3
000003e0: f370 62c3 53f0 7f43 f946 17c3 cc75 ddc2
000003f0: 5202 5243 8102 37c2 58b1 90c2 a7a7 a743

running_var f4 [256]
73.19493 99.086945 40.527615 66.65194 62.489365 25.069563 63.642 159.32565
95.28741 144.95808 75.68166 7.882089 79.04251 107.33503 79.27177 170.65994
18.728357 65.26938 204.47308 81.00269 63.47203 94.17299 111.35937 24.411966
164.399 6.763018 111.70089 49.883858 80.372696 71.36663 9.058783 4.723503
19.947647 55.890957 59.591625 125.07501 86.97694 161.10538 56.456413 30.577824
40.61475 17.135017 89.607056 86.59014 69.01026 51.315514 110.85397 96.63543
124.46283 91.70406 102.25335 42.780323 213.10498 44.55534 72.5478 123.43103
135.72606 40.04399 65.20419 73.15605 33.01594 124.93021 32.330006 52.304905
167.50934 3.4245543 12.172531 15.875118 101.640686 66.11673 204.29774 127.8073
88.04613 18.995457 77.252716 94.68859 78.70819 115.62802 8.573706 106.791626
117.066795 70.70921 86.40396 26.671679 133.67154 104.62971 15.07997 40.722332
121.06712 10.675361 132.75221 67.419266 76.80864 8.750885 3.8890097 124.55529
14.174593 63.251312 125.78263 100.594635 75.47775 145.81644 66.690895 712.10406
87.08282 75.08178 69.34852 32.52991 109.17512 85.27904 70.84605 114.84923
33.40097 142.31917 36.772556 118.05406 34.83566 42.71152 70.63245 24.796736
78.836334 89.28715 79.62438 131.32399 22.729944 72.96351 70.24097 39.56119
35.427643 31.520681 76.01717 30.3056 148.90715 105.77942 102.27832 78.47161
96.059555 105.981995 99.00183 98.363686 97.66868 35.184937 105.92408 11.701432
36.90589 54.608063 62.474552 80.10112 158.33133 4.4005847 43.530167 73.93397
62.187115 7.0535264 33.67118 49.926147 51.63563 22.601772 22.920765 78.261696
107.20607 97.37402 138.84596 69.65701 105.67577 106.87437 87.07979 126.42644
35.924717 79.37274 155.59608 128.72127 80.68493 122.653534 103.88382 6.6368995
43.18936 130.72716 71.77484 68.150505 61.94679 52.920124 28.139639 24.61754
91.71006 60.537342 12.755011 160.01169 75.123924 66.091286 46.356575 50.746956
85.59168 115.200554 52.698612 105.33054 126.80853 153.78615 38.184174 127.06304
147.64568 52.420822 81.55234 86.1851 37.300983 191.01393 130.49432 15.327536
63.672897 119.65897 4.4217935 36.73276 37.553062 147.76012 65.50327 32.44981
27.305355 20.619844 77.74448 37.9377 96.550285 18.940235 21.364614 101.18047
145.6458 15.0172615 102.85177 67.28208 71.27806 9.470551 79.29313 100.79294
155.74834 83.291466 69.32585 63.54551 141.81952 129.24084 37.73573 84.45352
36.79693 146.49692 42.68408 58.138897 113.46242 34.59628 50.890507 101.48123
74.92572 118.45885 99.85854 70.06685 52.855484 29.832787 46.71229 68.66122
00000000: ce63 9242 842c c642 471c 2242 cb4d 8542
00000010: 1cf5 7942 778e c841 6891 7e42 5e53 1f43
00000020: 2793 be42 45f5 1043 035d 9742 133a fc40
00000030: c415 9e42 89ab d642 258b 9e42 f2a8 2a43
00000040: add3 9541 ec89 8242 1c79 4c43 6101 a242
00000050: 5ce3 7d42 9258 bc42 ffb7 de42 b54b c341
00000060: 2566 2443 a56a d840 db66 df42 1289 4742
00000070: d2be a042 b7bb 8e42 c6f0 1041 f026 9740
00000080: c894 9f41 5790 5f42 d35d 6e42 6826 fa42
00000090: 31f4 ad42 fa1a 2143 5ed3 6142 629f f441
000000a0: 8175 2242 8414 8941 d036 b342 272e ad42
000000b0: 4105 8a42 1643 4d42 3cb5 dd42 5745 c142
000000c0: f8ec f842 7b68 b742 b781 cc42 0d1f 2b42
000000d0: e01a 5543 ab38 3242 7918 9142 b0dc f642
000000e0: dfb9 0743 0c2d 2042 8c68 8242 e64f 9242
000000f0: 5310 0442 44dc f942 ed51 0142 3938 5142
00000100: 6482 2743 e62b 5b40 b0c2 4241 7c00 7e41
00000110: 0848 cb42 c43b 8442 394c 4c43 569d ff42
00000120: 9e17 b042 b2f6 9741 6481 9a42 8f60 bd42
00000130: 986a 9d42 8c41 e742 e62d 0941 5095 d542
00000140: 3322 ea42 1e6b 8d42 d4ce ac42 995f d541
00000150: eaab 0543 6942 d142 8f47 7141 abe3 2242
00000160: 5e22 f242 47ce 2a41 91c0 0443 aad6 8642
00000170: 069e 9942 a003 0c41 89e5 7840 4f1c f942
00000180: 22cb 6241 5801 7d42 b590 fb42 7430 c942
00000190: 9cf4 9642 02d1 1143 bd61 8542 a906 3244
000001a0: 672a ae42 df29 9642 71b2 8a42 a11e 0242
000001b0: a959 da42 de8e aa42 2db1 8d42 ceb2 e542
000001c0: 989a 0542 b551 0e43 1917 1342 ae1b ec42
000001d0: b757 0b42 99d8 2a42 d043 8d42 b75f c641
000001e0: 34ac 9d42 0593 b242 af3f 9f42 f152 0343
000001f0: edd6 b541 51ed 9142 607b 8c42 a93e 1e42
00000200: e8b5 0d42 5b2a fc41 cb08 9842 de71 f241
00000210: 3be8 1443 108f d342 808e cc42 77f1 9c42
00000220: 7e1e c042 c8f6 d342 f000 c642 35ba c442
00000230: 5d56 c342 60bd 0c42 21d9 d342 1139 3b41
00000240: a29f 1342 a86e 5a42 f1e5 7942 c633 a042
00000250: d254 1e43 97d1 8c40 e41e 2e42 31de 9342
00000260: 9bbf 7842 7db6 e140 4aaf 0642 60b4 4742
00000270: e38a 4e42 6ed0 b441 ba5d b741 fd85 9c42
00000280: 8269 d642 80bf c242 91d8 0a43 6450 8b42
00000290: ff59 d342 adbf d542 da28 ae42 56da fc42
000002a0: e9b2 0f42 d8be 9e42 9998 1b43 a5b8 0043
000002b0: af5e a142 9c4e f542 84c4 cf42 7b61 d440
000002c0: e8c1 2c42 27ba 0243 b88c 8f42 0f4d 8842
000002d0: 83c9 7742 35ae 5342 fb1d e141 b9f0 c441
000002e0: 8d6b b742 3d26 7242 8614 4c41 fe02 2043
000002f0: 733f 9642 bd2e 8442 226d 3942 e2fc 4a42
00000300: f12e ab42 af66 e642 61cb 5242 3da9 d242
00000310: f89d fd42 41c9 1943 98bc 1842 4720 fe42
00000320: 4ba5 1343 ecae 5142 cc1a a342 c55e ac42
00000330: 3534 1542 9103 3f43 8c7e 0243 963d 7541
00000340: 0cb1 7e42 6551 ef42 557f 8d40 59ee 1242
00000350: 5636 1642 97c2 1343 ad01 8342 9bcc 0142
00000360: 5e71 da41 71f5 a441 2c7d 9b42 34c0 1742
00000370: bf19 c142 9a85 9741 bbea aa41 675c ca42
00000380: 53a5 1143 b446 7041 1bb4 cd42 6d90 8642
00000390: 5e8e 8e42 6087 1741 1596 9e42 fc95 c942
000003a0: 93bf 1b43 3b95 a642 d6a6 8a42 9a2e 7e42
000003b0: ccd1 0d43 a83d 0143 63f1 1642 34e8 a842
000003c0: 0e30 1342 367f 1243 7fbc 2a42 3b8e 6842
000003d0: c2ec e242 9762 0a42 e18f 4b42 64f6 ca42
000003e0: f8d9 9542 eeea ec42 93b7 c742 3a22 8c42
000003f0: 046c 5342 8ca9 ee41 63d9 3a42 8b52 8942

weight f4 [256, 256]
-0.018464608 -0.051864717 0.059313994 -0.027148442 -0.009161272 0.0590429 0.034475673 -0.048134517
-0.009326075 0.0013225714 -0.019442314 0.0026064601 0.042033624 0.044160932 -0.007927251 -0.011374803
-0.04839368 -0.01829982 -0.040687278 0.039398737 0.046931416 0.03950378 0.020348161 0.06225044
-0.045227308 0.031361017 0.009217697 -0.02897741 -0.05432422 0.008539592 -0.013260226 -0.054597642
0.046217397 -0.01847384 0.04049522 -0.050424386 -0.022959664 -0.05532594 0.043534048 -0.04565426
0.040963467 0.04702612 -0.013488584 0.013365734 -0.05926456 -0.038348075 0.040694643 -0.025204627
-0.027174871 -0.059576288 0.015209355 -0.0426438 0.04641878 -0.02825271 -0.014607438 -0.028645733
0.023224328 -0.0032460592 -0.0480396 0.05246609 0.036131922 0.046158824 0.036971774 0.0038070527
-0.042547315 -0.035028987 -0.02763731 0.042499617 0.0022836796 -0.042120233 0.019520428 0.0065260767
-0.027582524 -0.012418806 -0.012007504 0.053216647 -0.0056214505 -0.020505685 0.017989798 0.051482867
-0.045290537 -0.058258906 0.052278116 -0.042630915 -0.030518495 -0.017392617 0.021565761 0.007856894
-0.05970487 -0.011073834 0.017804047 -0.060559224 -0.05139954 0.0066439835 -0.054518327 -0.02443141
-0.02587965 0.022103239 0.03742597 -0.05439443 0.023835532 -0.03485446 0.0069988277 0.031583067
-0.022180818 -0.0366853 0.048509642 -0.027810816 0.023676066 -0.015521927 0.048782058 -0.049638405
0.019245293 -0.0530576 -0.017921794 0.041181233 0.045399778 0.051542148 0.05143835 0.05722539
0.057179537 0.0037525832 0.009533829 -0.010001968 0.040223148 0.040762514 -0.03435859 -0.058417376
-0.036275838 0.009576086 0.0522298 -0.019139849 0.030386817 0.002460726 0.058974303 -0.042759426
0.052979868 0.018937767 -0.0150438575 0.049824793 -0.06250402 -0.006330319 0.03969381 0.020023922
0.0069526383 -0.01610265 -0.049395904 -0.038248975 0.028803939 -0.0066187936 -0.047822792 -0.029413728
-0.041492186 -0.050244622 0.013846968 0.040372863 -0.025993308 -0.028208291 -0.056097098 0.010258869
0.02264171 -0.042831 0.011582517 0.035181515 0.0011683907 -0.047212202 -0.025026489 0.047768224
0.012870043 0.017241793 -0.005356266 -0.050340854 -0.023196358 0.02405096 0.06379023 -0.04078027
0.022762243 -0.03684212 -0.026736958 0.04973633 -0.043736033 -0.049919575 -0.054319 0.045163106
0.04466278 -0.026590133 -0.03384334 0.0024034753 -0.03334216 -0.0056164726 -0.021978222 0.055261247
-0.05118668 -0.05537482 0.022986514 0.016598772 -0.037370607 0.0027169082 0.053050306 -0.035987433
0.04451693 -0.012858205 0.029280625 -0.06022554 0.04856317 0.036756836 -0.011753578 0.028801408
-0.02999372 0.06301454 0.016155193 0.004230167 -0.042007115 0.018322337 0.0049767382 -0.02283835
0.035220448 0.058898732 -0.03166065 0.058732677 -0.0050091646 -0.019068103 -0.05894991 -0.040132355
-0.05759652 0.03816513 -0.03581001 0.034561947 -0.047225088 -0.04617426 -0.010230279 -0.013405212
-0.062491257 0.045382116 0.037409823 0.045427606 -0.058321055 -0.062177245 -0.015610297 0.032971736
-0.026640339 -0.027461885 -0.043851 0.026935657 0.013415773 -0.03801979 -0.016010819 0.046270225
0.04342303 0.033922873 -0.008072655 -0.052938122 -0.03851041 -0.057561785 0.01469789 -0.045493264
00000000: 1743 97bc 1970 54bd 3bf3 723d 6966 debc
00000010: 2919 16bc f8d6 713d 5d36 0d3d b328 45bd
00000020: 65cc 18bc 225a ad3a 7d45 9fbc 25d1 2a3b
00000030: 732b 2c3d 18e2 343d 4de1 01bc 625d 3abc
00000040: 7438 46bd 81e9 95bc b4a7 26bd 9260 213d
00000050: 283b 403d b7ce 213d 30b1 a63c 51fa 7e3d
00000060: 4540 39bd 6974 003d d305 173c 0962 edbc
00000070: 1383 5ebd a5e9 0b3c 6b41 59bc c7a1 5fbd
00000080: 744e 3d3d 7356 97bc 51de 253d cd89 4ebd
00000090: e815 bcbc 749d 62bd c250 323d f6ff 3abd
000000a0: 4fc9 273d 769e 403d 39ff 5cbc f4fb 5a3c
000000b0: 65bf 72bd df12 1dbd 6daf 263d ef79 cebc
000000c0: d69d debc 4406 74bd a930 793c 44ab 2ebd
000000d0: 9e21 3e3d 3a72 e7bc 0954 6fbc 75aa eabc
000000e0: f240 be3c d6bb 54bb 2cc5 44bd afe6 563d
000000f0: 11ff 133d 0911 3d3d b76f 173d bf7f 793b
00000100: 1846 2ebd 8e7a 0fbd a467 e2bc 1414 2e3d
00000110: c9a9 153b 4486 2cbd 4ee9 9f3c b3d8 d53b
00000120: bff4 e1bc 3f78 4bbc 1fbb 44bc b3f9 593d
00000130: 2534 b8bb 8afb a7bc 575f 933c b3df 523d
00000140: 9282 39bd e4a0 6ebd 9421 563d c19d 2ebd
00000150: ec01 fabc f67a 8ebc aeaa b03c 34ba 003c
00000160: 188d 74bd 076f 35bc cbd9 913c f30c 78bd
00000170: 5388 52bd c6b5 d93b 9c4e 5fbd 6124 c8bc
00000180: 8f01 d4bc da11 b53c f94b 193d b2cc 5ebd
00000190: bc42 c33c 8dc3 0ebd 6c56 e53b 3f5d 013d
000001a0: 8cb4 b5bc 5343 16bd 0cb2 463d 82d3 e3bc
000001b0: 4ff4 c13c ae4f 7ebc b2cf 473d a451 4bbd
000001c0: 4ea8 9d3c ed52 59bd bad0 92bc a7ad 283d
000001d0: 1ef5 393d dc1d 533d 05b1 523d 2c65 6a3d
000001e0: 1735 6a3d e6ed 753b c733 1c3c 4bdf 23bc
000001f0: 07c1 243d 98f6 263d 98bb 0cbd 0f47 6fbd
00000200: f995 14bd 04e5 1c3c eaee 553d 2ccb 9cbc
00000210: c6ed f83c 2244 213b 0a8f 713d 8224 2fbd
00000220: 6b01 593d 6023 9b3c 837a 76bc 1515 4c3d
00000230: 1c02 80bd 916e cfbb fa95 223d 3509 a43c
00000240: f5d2 e33b b4e9 83bc 5c53 4abd f5aa 1cbd
00000250: 3df6 eb3c 77e2 d8bb d5e1 43bd 0ff5 f0bc
00000260: b6f3 29bd 4ecd 4dbd 65de 623c 045e 253d
00000270: ebef d4bc 1315 e7bc 12c6 65bd d114 283c
00000280: 1b7b b93c 8f6f 2fbd 99c4 3d3c 7e1a 103d
00000290: b024 993a 9561 41bd 5a04 cdbc 9da8 433d
000002a0: dfdc 523c a93e 8d3c 9e83 afbb 3632 4ebd
000002b0: 4a06 bebc 8506 c53c 74a4 823d 3609 27bd
000002c0: e277 ba3c c3e7 16bd 7707 dbbc 52b8 4b3d
000002d0: 8e24 33bd 7878 4cbd 9a7d 5ebd f3fc 383d
000002e0: 52f0 363d 8dd3 d9bc 509f 0abd a083 1d3b
000002f0: ca91 08bd 630a b8bb ac0b b4bc 9e59 623d
00000300: 20a9 51bd b5d0 62bd 374e bc3c 26fa 873c
00000310: ec11 19bd 280e 323b 474b 593d 8f67 13bd
00000320: 6257 363d 38ab 52bc ecdd ef3c 0eaf 76bd
00000330: 2dea 463d 568e 163d 1492 40bc eef0 eb3c
00000340: 64b5 f5bc c40d 813d e557 843c 369d 8a3b
00000350: a70f 2cbd ba18 963c e813 a33b 7e17 bbbc
00000360: 5143 103d cc3f 713d 99ae 01bd ad91 703d
00000370: eb23 a4bb b634 9cbc 7675 71bd d361 24bd
00000380: 54ea 6bbd 0a53 1c3d 84ad 12bd d490 0d3d
00000390: 186f 41bd 3921 3dbd e69c 27bc 89a1 5bbc
000003a0: d5f6 7fbd 99e2 393d 0b3b 193d 4c12 3a3d
000003b0: 0fe2 6ebd 91ad 7ebd 55c2 7fbc 5f0d 073d
000003c0: d73c dabc bff7 e0bc 1b9d 33bd 2ba8 dc3c
000003d0: d5cd 5b3c a4ba 1bbd 1f29 83bc d985 3d3d
000003e0: 59dc 313d b6f2 0a3d 2b43 04bc a5d5 58bd
000003f0: 17bd 1dbd e8c5 6bbd 6bcf 703c 2557 3abd

bias f4 [256]
0.036257118 -0.046935037 0.007790737 -0.047511376 -0.003311343 0.03452705 -0.023477316 -0.022992052
0.027094565 -0.033335112 0.05001106 0.026733294 0.0032149774 0.041537337 -0.037521586 0.017729804
0.019580305 0.028026968 0.039314345 0.038005464 0.01649464 -0.029033102 0.034004122 -0.043426014
0.011821702 0.0006261847 0.023949951 -0.040705495 0.006475419 0.018320538 -0.058416665 -0.029194154
0.005238101 0.036341496 -0.0018414705 0.03814687 -0.026074544 -0.008599363 -0.0109205395 -0.038060233
-0.050193563 -0.001482211 0.06016031 0.04335416 -0.022127502 -0.0035766507 0.0061833933 0.028559074
-0.036287345 -0.032513455 0.05030661 -0.0054338053 0.023062631 -0.024098925 -0.035060726 0.03782949
0.042569235 0.04644067 -0.01006189 -0.042782433 -0.051988028 0.038917243 -0.06050262 -0.055534318
-0.023320556 0.04864133 -0.036139645 0.01912687 -0.033486776 0.013368212 0.04350692 0.051875606
0.029597089 0.0099722445 -0.037500717 0.012136988 0.023321472 0.04805044 -0.050480284 -0.019003816
-0.007727362 -0.027677074 0.0513201 0.034019418 -0.027426764 0.020776235 0.044835843 -0.051625542
0.056752943 0.032992475 0.026064374 -0.009188995 0.022312239 0.059623428 0.029984504 -0.022034451
-0.009797916 -0.06137617 0.04185278 0.014947966 0.026427649 0.05746592 0.012971468 0.052604504
-0.030046664 0.045924112 -0.051726766 0.045307912 -0.024137989 0.0017460436 -0.005718261 -0.0016000121
0.032955915 -0.013855495 0.028519623 0.029147863 -0.028998882 0.026090167 -0.0459719 -0.057128616
-0.04451233 -0.04799796 0.037471816 0.060004212 0.041989245 0.039861865 -0.002765686 -0.025453992
0.029704973 0.01989393 -0.05283507 -0.00013042967 -0.019716702 -0.007411532 0.02716592 -0.028392121
0.023778558 -0.03069894 0.06061662 -0.028231643 0.0018672347 -0.05090189 0.02423212 0.056667782
-0.04931142 0.015429072 0.058630705 -0.045830302 0.007464467 -0.017404057 0.03684812 -0.037494205
0.059301563 -0.010716535 0.019854225 0.020710133 -0.04939808 0.013242095 0.013581313 0.053548433
-0.0072282627 -0.053953163 -0.05549998 -0.028138123 -0.013181999 0.044410028 -0.052188978 0.032606
-0.014094591 0.003639154 -0.040428035 -0.0034098998 -0.01442045 -0.013566501 0.03994053 0.0101656765
-0.012920469 0.055134058 0.028382853 -0.020056821 -0.014949739 -0.0072070807 -0.002440311 -0.05058319
0.047034025 -0.027269527 0.061379276 -0.03446517 -0.034053005 0.048252024 -0.02127079 -0.0088509545
-0.005119972 0.0028837472 -0.059549622 -0.05233428 -0.016961604 -0.030384079 0.0555968 -0.029818758
-0.030071914 0.027246423 0.01159624 -0.028656088 0.04910916 0.03687609 -0.011738673 -0.016257621
-0.0068023577 -0.060109213 0.020162731 0.035600156 -0.03508742 0.033432372 0.018504933 -0.0039185807
0.017342642 -0.04497263 0.026712492 -0.060963765 -0.0578549 0.0077968985 -0.04872407 0.04119063
-0.027999096 -0.04300292 -0.017683104 -0.051073834 0.027434781 -0.050701365 0.040767476 0.010681383
0.004842475 -0.0049646944 0.023307629 0.059417598 -0.05780697 0.007534109 0.05873639 -0.04726301
0.022009157 0.048004687 0.05639433 -0.057214715 0.015503809 0.042617112 0.033863537 -0.011874355
0.012997344 0.053981423 0.04137785 -0.06076976 0.010463044 0.05975361 -0.029667176 0.055232905
00000000: 5882 143d f43e 40bd 7049 ff3b 4a9b 42bd
00000010: 1e03 59bb 3c6c 0d3d 8053 c0bc d459 bcbc
00000020: 6cf5 dd3c 668a 08bd 66d8 4c3d c8ff da3c
00000030: 5fb2 523b 0e23 2a3d 3cb0 19bd 183e 913c
00000040: e066 a03c d098 e53c 1408 213d 9eab 1b3d
00000050: c41f 873c d4d6 edbc e847 0b3d 7adf 31bd
00000060: d0af 413c 8b26 243a b032 c43c ceba 26bd
00000070: c02f d43b f414 963c 5046 6fbd 9428 efbc
00000080: 60a4 ab3b d2da 143d 7f5d f1ba e43f 1c3d
00000090: 489a d5bc 58e4 0cbc 10ec 32bc 0ce5 1bbd
000000a0: c497 4dbd c046 c2ba a86a 763d 2294 313d
000000b0: bc44 b5bc 3e66 6abb 109e ca3b b8f4 e93c
000000c0: 0aa2 14bd d42c 05bd 4e0e 4e3d 100e b2bb
000000d0: d8ed bc3c 1c6b c5bc d69b 0fbd 18f3 1a3d
000000e0: 145d 2e3d 9238 3e3d a0da 24bc a23c 2fbd
000000f0: 66f1 54bd b067 1f3d 98d1 77bd f477 63bd
00000100: c00a bfbc 223c 473d 2a07 14bd f4af 9c3c
00000110: 6e29 09bd 5806 5b3c 5034 323d 847b 543d
00000120: 9875 f23c a062 233c 5a9a 19bd 38da 463c
00000130: ac0c bf3c 8ad0 443d 6ac4 4ebd e4ad 9bbc
00000140: d035 fdbb 08bb e2bc 0635 523d f257 0b3d
00000150: 18ae e0bc ec32 aa3c caa5 373d 4e75 53bd
00000160: c675 683d 1e23 073d f484 d53c 708d 16bc
00000170: 28c8 b63c b237 743d 10a2 f53c 9881 b4bc
00000180: 7087 20bc 9465 7bbd d26d 2b3d 50e8 743c
00000190: cc7e d83c 6261 6b3d 4886 543c d277 573d
000001a0: 6c24 f6bc ec1a 3c3d 72df 53bd ca94 393d
000001b0: 08bd c5bc 80db e43a 4060 bbbb 7fb7 d1ba
000001c0: c8fc 063d 2802 63bc fca1 e93c 80c7 ee3c
000001d0: 108f edbc 0cbb d53c 084d 3cbd b2ff 69bd
000001e0: 9052 36bd 8299 44bd 0c7c 193d fac6 753d
000001f0: eafc 2b3d 3246 233d 8340 35bb e484 d0bc
00000200: d857 f33c 98f8 a23c 9669 58bd f3c3 08b9
00000210: ec84 a1bc 70dc f2bb 108b de3c 9896 e8bc
00000220: 40cb c23c 587c fbbc 2249 783d 0c46 e7bc
00000230: 00be f43a 807e 50bd 7082 c63c 7a1c 683d
00000240: c6fa 49bd 38ca 7c3c c026 703d 8eb8 3bbd
00000250: 7d98 f43b f492 8ebc 0eee 163d 8693 19bd
00000260: 32e6 723d 6894 2fbc 54a5 a23c 4ca8 a93c
00000270: a455 4abd 5ff5 583c 2884 5e3c 9a55 5b3d
00000280: 10db ecbb fefd 5cbd f253 63bd ec81 e6bc
00000290: 50f9 57bc 4ae7 353d 1cc4 55bd de8d 053d
000002a0: 00ed 66bc df7e 6e3b de97 25bd a078 5fbb
000002b0: c043 6cbc 0846 5ebc ae98 233d f08d 263c
000002c0: 60b0 53bc 40d4 613d 2883 e83c 344e a4bc
000002d0: c0ef 74bc 6029 ecbb a0ed 1fbb 5230 4fbd
000002e0: c0a6 403d 5864 dfbc d668 7b3d 5a2b 0dbd
000002f0: 2a7b 0bbd eaa3 453d 1440 aebc 9803 11bc
00000300: 70c5 a7bb 40fd 3c3b 4eea 73bd 785c 56bd
00000310: 10f3 8abc 08e8 f8bc 78b9 633d 7846 f4bc
00000320: 6059 f6bc e433 df3c 28fe 3d3c 2cc0 eabc
00000330: b026 493d 620b 173d 9053 40bc b42e 85bc
00000340: 50e6 debb 1435 76bd 502c a53c 78d1 113d
00000350: d4b7 0fbd 62f0 083d a897 973c 7067 80bb
00000360: 2812 8e3c 3835 38bd 28d4 da3c 24b5 79bd
00000370: 42f9 6cbd 207d ff3b e492 47bd 82b7 283d
00000380: 5c5e e5bc d423 30bd 28dc 90bc cc32 51bd
00000390: e8be e03c 3cac 4fbd ccfb 263d f800 2f3c
000003a0: a0ad 9e3b e0ae a2bb a4ef be3c de5f 733d
000003b0: 00c7 6cbd b0e0 f63b 9295 703d dc96 41bd
000003c0: 8c4c b43c 90a0 443d befd 663d fa59 6abd
000003d0: b003 7e3c 488f 2e3d 7eb4 0a3d a88c 42bc
000003e0: d0f2 543c a01b 5d3d d27b 293d b6e9 78bd
000003f0: 306d 2b3c 34c0 743d 9408 f3bc e63b 623d
