Predict/storage/MLP_256_200_SGD_11/trained_235.pt (torch, 339061 bytes, 13 tensors)

weight f4 [256, 58]
000000 3c 22 70 bd f6 ca a4 3d 27 28 82 bd 6c 57 a8 3d
       -0.0586264 0.08046524 -0.06355315 0.082197994
000010 a7 a4 53 bd f6 66 de 3d ab 88 4d 3d e3 19 86 bd
       -0.051670697 0.10859482 0.050179165 -0.06547906
000020 8d 96 a1 3d 38 97 05 bd e6 2a e9 bc 9f 03 e1 3d
       0.078900434 -0.032614917 -0.028462838 0.10987019
000030 12 06 4c bd c9 e2 f7 3d 0a 7a 56 3d 58 e0 06 bd
       -0.049810477 0.12103803 0.05236248 -0.032928795
000040 03 bb da bd 0a da e1 bd 66 19 76 bb 64 1d a0 bd
       -0.10680201 -0.11027916 -0.003755176 -0.07818106
000050 2a 9f d3 bd bb 6b ed bd 91 b0 30 3d 92 83 b1 bd
       -0.103330925 -0.115928136 0.043137137 -0.08667673
000060 a0 a8 d3 3d ba f3 5c bc 05 75 5e 3d c7 b4 4e bd
       0.10334897 -0.013485843 0.054310817 -0.05046537
000070 81 03 00 3e ca c4 2d 3d 6c 91 bd 3c 06 4d 25 bd
       0.12501337 0.042424 0.023140632 -0.04035666
000080 fb 08 04 3e 95 db 86 bd b9 dc e3 bd 49 3e 08 be
       0.12894051 -0.06584851 -0.11126084 -0.1330501
000090 19 68 eb bd 96 0f a3 bd 01 69 c0 3d 5f e0 d3 bd
       -0.114944644 -0.07961957 0.09395028 -0.1034553
0000a0 fa a0 92 bc bb ee 01 3e 2d 1c 1d bd 7f 0a 76 3c
       -0.017899025 0.12688725 -0.03835695 0.015017151
0000b0 1f 2c 90 3d 23 92 b1 bd 03 7f 62 bd 82 5b af 3c
       0.070396654 -0.086704515 -0.05529691 0.021405939
0000c0 98 a1 96 bd 2f 30 a7 3d 2e 59 cf bd 4e fb 83 bd
       -0.0735504 0.08163487 -0.101244316 -0.06444417
0000d0 d7 ec d9 bd 7a b0 85 3d 14 19 76 bb da 24 f3 bd
       -0.10640877 0.06527801 -0.0037551569 -0.11872263
0000e0 fb 24 b3 3d 23 64 b6 3d aa 2d a1 bd 58 b3 d6 3b
       0.08747288 0.08905818 -0.07870038 0.006552141
0000f0 5b 61 74 bc f7 d1 4e 3c cc c4 a0 3c 44 22 ff bd
       -0.0149157895 0.012623302 0.01962509 -0.124577075
000100 ed 15 8f 3d 12 6b f7 bd d3 bc 99 bd 71 3b 90 3d
       0.06986604 -0.12080969 -0.075067185 0.070425875
000110 7b 3f e6 3d 07 87 a5 3d 18 4a 03 3e a9 68 56 bd
       0.11242577 0.08082395 0.12821233 -0.052345905
000120 de ac 19 bd 89 00 f3 3c a3 3f f5 bd b3 69 f0 bd
       -0.037518375 0.029663341 -0.11975028 -0.117389105
000130 76 de be 3d ba 29 e1 bd 2b b6 02 be a6 4f 5a bd
       0.09319775 -0.10994287 -0.12764804 -0.053298615
000140 3c e5 4d bd 1d 47 84 bd 55 51 cb 3d 54 5e e0 3d
       -0.050267443 -0.06458876 0.09927622 0.10955492
000150 df b0 13 bd 1e 89 e6 3c 25 d0 11 bd 5f 20 bf 3c
       -0.03605735 0.028141554 -0.035598893 0.023330865
000160 d1 af b7 bd 8f f7 e5 3c 7f 8f b3 bb c4 b5 22 bd
       -0.08969081 0.028072147 -0.0054797526 -0.039724126
000170 0e ae e9 3c ca 4c bd 3c f1 b2 b8 bd 74 7f fd bd
       0.028525379 0.023107905 -0.09018505 -0.123778254
000180 89 b3 e2 3d 3a ed 8e bc 9d e9 7a 3d 8d 0e 51 3b
       0.110694 -0.017447103 0.061257947 0.0031899542
000190 13 71 44 bd b8 47 01 3d 2c 75 ba 3b 61 07 8d be
       -0.0479594 0.031562537 0.0056902375 -0.27544692
0001a0 dc f4 ad 3c 62 0c d3 3d 5a ce 26 3d d0 8a 03 3e
       0.021234922 0.10305096 0.040724136 0.12845922
0001b0 c7 81 c3 3d 99 b4 dd bd dc 1e a3 bb 25 29 bc 3d
       0.095462374 -0.10825462 -0.004978044 0.09187535
0001c0 2b 0b 97 bd 78 69 80 3d f0 ff 59 3c 23 5d 7d 3d
       -0.07375177 0.062701166 0.013305649 0.0618564
0001d0 27 ab 4e 3c b7 a7 b2 bd 71 08 dd bc c9 83 9b bd
       0.012614048 -0.08723395 -0.026981564 -0.075934954
0001e0 63 1a ad 3d 38 6f d2 3b a8 f2 55 bd 27 45 40 3d
       0.084522985 0.0064219497 -0.05223337 0.04694095
0001f0 ea 82 00 be 64 07 cc bd a8 ec d5 3c 21 ab 58 bd
       -0.1254994 -0.09962347 0.026113823 -0.052897576
000200 73 80 ac bd f3 f7 ed 3c 86 12 39 3b e8 b9 90 bd
       -0.08422937 0.029048895 0.00282398 -0.07066709
000210 30 b7 ca bd 23 c6 ed 3d b1 92 02 3d 86 17 07 be
       -0.098982215 0.11610057 0.031878177 -0.13192567
000220 d0 8f 9c 3d 4a e1 93 bd c1 40 63 3d 3f 75 a2 3d
       0.076446176 -0.07220705 0.055481676 0.07932519
000230 ac 6f bb bd 5b 1f e6 b9 5c ff 78 bc 59 f2 f3 bd
       -0.09152159 -0.0004389238 -0.015197601 -0.119114585
000240 b3 f1 1f 3d 69 1c 64 bc fb 44 8e bc b2 f4 bf bd
       0.03904886 -0.013922789 -0.017366877 -0.09372844
000250 c4 07 ed 3c 50 22 d6 3d f0 86 bb 3c f3 6d 3e bd
       0.028934367 0.10455763 0.022891492 -0.046491574
000260 91 c7 34 bd 6f 9e 41 3c a5 f3 db bd 0f 0a 8a 3d
       -0.044135634 0.011817559 -0.10739831 0.067402
000270 fa 94 0c bd fb ac ca 3d c8 1c 29 bd f8 7b 05 be
       -0.034321763 0.09896275 -0.041287214 -0.13035572
000280 fa 82 26 3d 00 42 2e 3d ef 9a 55 3e d3 2b b7 bd
       0.040652253 0.04254341 0.20859884 -0.08943906
000290 f7 a4 ce bd 25 25 ea bd 89 bc 74 3d 24 9a fc bd
       -0.10090058 -0.11432866 0.059750114 -0.123340875
0002a0 54 7a 2e be 89 17 30 be ae e6 5d bd 0e 2a cd bd
       -0.17038852 -0.17196478 -0.05417507 -0.10017787
0002b0 9f cb 85 bd d6 94 24 be 57 27 0b be 5d 2f e8 bc
       -0.06532978 -0.16072401 -0.13589226 -0.028342897
0002c0 ee 3c ac bd 70 72 75 3d fc ad bf 3d f8 93 5c bd
       -0.08410059 0.05992359 0.09359357 -0.05385205
0002d0 94 55 62 3d 3d bc a8 3c 94 32 c7 3c 4c 56 6c 3d
       0.055257395 0.020597572 0.02431611 0.057699487
0002e0 d8 70 84 bd 58 a8 83 bd 73 08 fc 3d 60 05 04 be
       -0.06466836 -0.064285934 0.12306299 -0.12892675
0002f0 5c ea 81 3d 60 1b f6 3c 2b 72 cd 3c 5b e1 e6 bd
       0.06343529 0.03004235 0.025078854 -0.11273452
000300 96 30 b1 bd d5 64 9b 3d e9 99 41 bd 57 0d d3 bd
       -0.08651845 0.075875916 -0.04726592 -0.10305279
000310 47 23 6d bd 67 16 a8 bd c5 26 8d 3d 2e 72 ff bc
       -0.05789497 -0.08207398 0.0689216 -0.031182375
000320 1a c0 ca bd 00 8b 90 3b 41 aa e5 bc b7 3b b3 3c
       -0.09899922 0.0044111013 -0.028035285 0.02187906
000330 99 7c d0 3d c1 8a b2 bd 1a 18 cb bd b2 ab dc 3c
       0.10180015 -0.087178715 -0.099167064 0.02693734
000340 14 10 84 bd 4a 4b 96 3d e8 91 c3 3d d3 2f 11 3e
       -0.06448379 0.07338579 0.09549314 0.141784
000350 3e 2d 3d bd 8d d2 da 3d 93 14 02 3e be c2 92 bd
       -0.046185724 0.106846906 0.12703161 -0.071660504
000360 cf 06 f6 3d fb db f7 3d 33 0e 9a b9 3a 48 8e bd
       0.120130174 0.12102505 -0.00029383748 -0.0694737
000370 53 bb 24 3d b2 0a 29 3d 55 b0 ab bc fb 6c df bd
       0.04021771 0.041269965 -0.020958105 -0.10909458
000380 77 2f c5 3c ae 3b 18 bd 92 45 41 3e ac f6 4f 3e
       0.024070485 -0.03716629 0.18874195 0.20308942
000390 31 1c 7c 3d 82 c8 3b 3d 59 0a 50 bd 5c b7 03 3c
       0.061550323 0.045845516 -0.05079112 0.008039322
0003a0 07 f6 54 bd ce 9e be bd 8d bf 2e bb d9 3f 58 bd
       -0.051992442 -0.09307633 -0.0026664466 -0.052795265
0003b0 d0 9f 03 3e 58 bc 9e bc 4c 40 27 3d d4 d0 97 3d
       0.12853932 -0.019376919 0.040832803 0.07412878
0003c0 19 28 b9 bd 24 5e 83 bd b6 a1 8c bd 32 45 7e bd
       -0.09040851 -0.0641444 -0.068667814 -0.06207771
0003d0 c1 63 05 3e 1f 81 92 3d 4f 22 9f 3d 5a ec cf 3c
       0.13026334 0.07153534 0.07770216 0.025381256
0003e0 b1 47 a9 bd c0 ed f4 3d c6 25 01 3d 43 28 86 3c
       -0.08265627 0.1195941 0.031530164 0.01637662
0003f0 a9 9d d9 bd dc 81 8f 3d 34 a7 95 bd 2e b9 e8 3c
       -0.106257744 0.070071906 -0.07307282 0.028408613

bias f4 [256]
000000 04 03 99 3d 52 98 57 3d 19 f6 49 3d 36 03 28 3d
       0.07471278 0.0526355 0.049306963 0.041018687
000010 6c 73 a4 bd e8 eb f5 3d 50 f9 e9 3b 8b 7c 39 bd
       -0.080298275 0.12007886 0.007140316 -0.04528479
000020 a0 77 c8 bd 8b 24 f4 3d 65 ab c1 bd 0b 00 d0 bc
       -0.09788442 0.119210325 -0.09456519 -0.025390645
000030 77 39 a1 3d 7d fb 71 bd 3c 12 d7 bc 80 b7 b5 bd
       0.07872289 -0.05907773 -0.026253812 -0.088728905
000040 94 8d b2 bd a4 7d d8 3d 64 3f f3 bd e5 bc 5d bc
       -0.0871841 0.10570839 -0.11877325 -0.0135338055
000050 4f a1 1a 3c 6f 91 f1 3d ee 74 c3 bc ee c4 c7 3d
       0.009437873 0.117953174 -0.023859467 0.09754358
000060 5a 42 2a bd 8a 51 a9 bd f2 db eb bd ed d6 9a bd
       -0.041567184 -0.082675055 -0.115165606 -0.07560525
000070 c6 85 9f 3d 53 8e a3 bb 8b 1c ba bd f5 85 f4 3d
       0.07789187 -0.0049913316 -0.090874754 0.11939613
000080 1e 0e 2e 3c 77 fc 18 bd a7 df cf bc 9b c2 99 3a
       0.010623483 -0.037350144 -0.0253752 0.001173097
000090 b3 46 36 bc 1b 24 57 3c a2 78 05 3e 43 bc 50 bd
       -0.011125254 0.013131167 0.13034299 -0.05096079
0000a0 06 dc ae 3d 55 e1 05 3e e8 27 22 bd a5 4d fc bd
       0.0853806 0.13074239 -0.03958884 -0.12319497
0000b0 48 4d eb 3d 94 6f 79 3a f1 a4 9f bd 7a a1 00 be
       0.114893496 0.00095152226 -0.07795132 -0.12561598
0000c0 7c 57 8d bd ef af f5 bd 39 98 65 3d 85 e1 4c 3d
       -0.06901452 -0.11996447 0.056053374 0.05001976
0000d0 7c 6e 2c 3d 3f 8f 98 bd 6f c2 8c 3d c6 eb f1 bd
       0.042097554 -0.07449197 0.06873023 -0.11812548
0000e0 87 a1 f2 3c 98 bc e8 ba 56 69 71 3c b1 c2 93 bd
       0.029618038 -0.0017756401 0.014734587 -0.07214869
0000f0 5e 68 a0 bd 87 4d 34 bd 95 5c 16 3d 0a 20 48 3d
       -0.078324065 -0.04401925 0.036709387 0.04885868
000100 99 24 8c bd 8a b0 44 3d 5b e9 dc bd 04 e5 13 bd
       -0.06842918 0.048019923 -0.107866965 -0.03610708
000110 a7 18 e6 3d 7d 6d 00 be fb c0 17 bd dd 3c de 3d
       0.11235171 -0.12541766 -0.037049275 0.108514525
000120 a3 52 62 bc fa 61 bc 3d 11 ee d3 bd cd 06 99 3d
       -0.013813647 0.09198375 -0.10348142 0.07472
000130 f5 d4 ca 3a 5a b2 42 3d c2 79 df bc 5f 69 ca 3d
       0.0015474843 0.04753337 -0.027279738 0.09883379
000140 26 0e 04 3e 1f f4 bf 3b 17 9d dc bd f7 14 19 bd
       0.12896022 0.005857959 -0.1077215 -0.03737351
000150 79 b7 4f 3d 4f 15 c1 3d c4 fc db bd 08 ef f5 bb
       0.050712083 0.094278924 -0.107415706 -0.0075053014
000160 04 fd e8 3d 4f 4c a9 bd 5f bb 9f bd 33 af f5 3d
       0.11376384 -0.08266508 -0.0779941 0.11996307
000170 90 a5 d9 3d 38 d2 62 3d 44 68 51 3d 41 70 ca bc
       0.10627282 0.05537626 0.051124826 -0.02471173
000180 67 4e b8 bd 2c 9d 01 be 67 a2 ef 3d 22 56 d0 3d
       -0.08999329 -0.12657613 0.11700898 0.101726785
000190 4e 00 79 3d e1 e0 7e 3d 07 d0 22 bc 79 f4 95 bd
       0.060791306 0.06222618 -0.009937293 -0.0732202
0001a0 df c1 c5 bd c1 2f f0 bd e8 2a ee bd cb 0b c3 3d
       -0.096561186 -0.11727858 -0.116292775 0.09523734
0001b0 7d 0f af bd b2 4e 8d b9 39 63 16 3d 01 61 6a 3d
       -0.08547876 -0.00026952248 0.03671572 0.057221416
0001c0 e2 17 b4 3d 92 57 f0 ba 5c e6 cc 3b 84 00 53 bc
       0.08793618 -0.0018336645 0.006253047 -0.012878541
0001d0 29 99 23 3d a9 93 e4 bb 5f 5c 61 bd a2 a5 7b 3d
       0.039940987 -0.0069756103 -0.055019733 0.061437257
0001e0 95 eb 56 3d b8 b7 78 bd e5 73 c9 3d 18 58 5e 3d
       0.052470762 -0.060722083 0.09836558 0.05428323
0001f0 02 8c 9a 3c fb e6 50 3d c8 4d ba bd 16 b9 9c 3d
       0.018865589 0.05100153 -0.09096867 0.0765249
000200 b7 20 f6 bd 0b 66 a7 bd 2a 50 82 bd 1c e6 d0 bd
       -0.120179586 -0.0817376 -0.06362946 -0.1020014
000210 6c 63 85 3d d3 39 1c 3d cc c7 01 bd b4 88 58 3d
       0.06513104 0.038141083 -0.03168468 0.052864745
000220 6f 81 d8 bd d0 57 1b bd 59 81 28 3d 4e 88 c1 3d
       -0.105715625 -0.03792554 0.04113898 0.09449826
000230 57 49 93 3d 03 4e e6 bd 35 79 b2 bd e5 9c b5 bd
       0.07191723 -0.11245348 -0.08714525 -0.08867816
000240 20 4e d6 3d ee ba 96 3c ef b6 ad bd 51 8a af 3d
       0.1046412 0.018399682 -0.084821574 0.08571304
000250 c8 fb 8c bd 73 0f b6 bd 62 b1 90 3c 49 0b 82 3d
       -0.06883961 -0.088896655 0.017662708 0.06349809
000260 84 88 86 bc 0a f0 b2 bd 84 f9 b8 3d c8 52 f4 bd
       -0.016422518 -0.0873719 0.09031966 -0.11929852
000270 7e d0 5b bc 33 a5 b1 3c 2e 10 8c bd 97 1b 3b 3d
       -0.013416408 0.021685218 -0.068390235 0.04568061
000280 91 87 ee bc b3 ef 4b bd e2 99 af 3c bc c1 b2 3d
       -0.029117377 -0.049789142 0.021435682 0.08728358
000290 63 b4 ed bd 5f 6d 37 3c 8e 9e 38 3d 16 a2 04 3e
       -0.11606672 0.01119551 0.045073085 0.12952456
0002a0 f8 56 95 bd a8 af 1a 3d 13 5f af 3d b6 2f 00 be
       -0.072919786 0.037765175 0.08563056 -0.125182
0002b0 05 35 c6 bd dc 66 9d 3d d0 5e af bc a7 db e9 3d
       -0.096780814 0.076856345 -0.021407515 0.114188485
0002c0 56 a4 ab 3d af a1 b3 bd 22 42 f2 3d 24 0b 45 bd
       0.08380954 -0.08771073 0.1182902 -0.048106328
0002d0 1b 24 85 bd 26 6d 26 bd 7b a8 1d 3d 31 ce f0 3d
       -0.06501027 -0.040631436 0.038490754 0.11758078
0002e0 9d 30 e7 3d 36 af b1 bd 22 f9 80 3c 4a 97 f9 bd
       0.11288569 -0.08675997 0.015743796 -0.12187059
0002f0 d4 e5 b8 bd 80 b6 e4 3d 72 12 8f 3d 19 f5 da bd
       -0.09028211 0.111676216 0.0698594 -0.1069128
000300 34 4c d9 bd 59 f3 8a bd ec 72 d8 3b 58 9e ad bc
       -0.10610238 -0.06784696 0.0066054966 -0.021193668
000310 49 14 8a 3d 2f 80 f8 bd b5 6d 7c 3c 78 bb ac 3a
       0.0674215 -0.12133824 0.015407016 0.0013178429
000320 88 52 c4 bd aa ff ca 3d 38 31 bd 3d bd c6 5c 3d
       -0.09586054 0.09912045 0.09237903 0.05390047
000330 17 ab fe 3d a0 57 b4 3d 32 2c f8 3c d0 dc ed bd
       0.124349765 0.08805776 0.030294511 -0.11614382
000340 a8 61 4c bd 54 07 5b 3d 3d 7c 1d 3c e3 37 60 3c
       -0.04989782 0.053473786 0.00961214 0.013685199
000350 05 6d a1 3b 67 1c 34 3d b3 c2 e8 3c 4c 03 94 bd
       0.004926326 0.0439724 0.028413152 -0.07227191
000360 aa c5 3b 3d 2d ce cd 3d b1 e9 0a 3d 13 a4 3a 3c
       0.045842804 0.100490905 0.03391427 0.011391657
000370 1f 2f 9e bd ad e1 c3 bd 4e 86 6d bd 16 43 a9 3d
       -0.077238314 -0.095645286 -0.05798941 0.08264749
000380 4e d8 91 bd 78 48 d5 bc 93 e0 48 3d 00 70 1f 3d
       -0.07121335 -0.026035532 0.049042296 0.03892517
000390 65 d3 aa 3d 92 fc 02 3e 80 95 3f 3c 96 b6 f6 bd
       0.083411016 0.1279166 0.011693358 -0.12046544
0003a0 95 29 c4 3d 01 35 52 3b ac e3 af bd ba 1b ec 3d
       0.09578244 0.003207505 -0.08588347 0.11528726
0003b0 04 7c c1 bd b9 aa 84 bd a3 a9 e3 3d 73 b8 65 3b
       -0.09447482 -0.06477875 0.1111634 0.0035052567
0003c0 88 ef e6 3c ae 8b 01 bd 3c 83 b6 3c 69 69 b7 bc
       0.02819039 -0.03162735 0.022279374 -0.02238913
0003d0 e2 61 e5 3c 52 56 1a bd ad 88 2e 3d e5 50 d2 bc
       0.028000776 -0.037679978 0.042610813 -0.02567334
0003e0 53 44 c1 bd 89 5b b0 bd 4b 05 7b bc 38 2f ce 3b
       -0.0943686 -0.08611209 -0.015321086 0.00629225
0003f0 77 7f c3 3d 89 5b 80 bd ec da 08 bd 53 ee 18 bd
       0.09545796 -0.06267459 -0.033411905 -0.03733666

weight f4 [256]
000000 83 12 7c 3f 35 a5 81 3f 2a d5 82 3f be 29 78 3f
       0.98465747 1.0128542 1.0221303 0.96938694
000010 d9 9f 81 3f 6e 13 82 3f 2c 3c 8a 3f 1a 9d 82 3f
       1.0126907 1.016218 1.0799613 1.0204194
000020 35 3f 77 3f bb b5 76 3f 2c 7f 7e 3f de a5 83 3f
       0.9658082 0.9637105 0.994128 1.0284994
000030 e7 e7 79 3f 2b 22 82 3f 65 9c 91 3f 71 ee 82 3f
       0.9761948 1.0166677 1.1375853 1.0229017
000040 5d b7 82 3f 64 6d 81 3f 41 64 81 3f 77 a6 6d 3f
       1.0212208 1.0111508 1.010872 0.9283213
000050 6f 80 82 3f 83 23 83 3f 0e eb 78 3f 96 c2 75 3f
       1.0195445 1.0245212 0.97233665 0.9600004
000060 02 6c 80 3f f0 e3 81 3f 94 a5 72 3f 3c 0b 64 3f
       1.0032961 1.0147686 0.947839 0.8907964
000070 27 10 81 3f 3a 23 7f 3f 07 90 83 3f 27 f1 81 3f
       1.0083054 0.99663126 1.0278329 1.0151719
000080 b1 30 7c 3f 72 1f 75 3f e2 c9 81 3f 05 64 75 3f
       0.985118 0.95751107 1.0139735 0.9585574
000090 a0 c6 79 3f 23 6d 83 3f 33 c9 79 3f 7b f2 68 3f
       0.975687 1.0267681 0.9757263 0.90994996
0000a0 9b 7b 80 3f cb d2 81 3f e2 0c 84 3f 89 80 84 3f
       1.0037721 1.0142454 1.0316432 1.0351726
0000b0 c5 dd 7d 3f b7 0d 83 3f f4 3c 71 3f 43 f4 81 3f
       0.9916652 1.023856 0.9423363 1.0152668
0000c0 60 2c 83 3f 35 06 7c 3f fa 8a 7c 3f 65 0e 83 3f
       1.0247917 0.9844697 0.9864956 1.0238768
0000d0 fc 64 85 3f 25 0a 7a 3f 62 c7 7d 3f e4 70 82 3f
       1.0421443 0.9767173 0.9913236 1.0190701
0000e0 db c1 83 3f 4c 80 83 3f 3f ef 74 3f 09 5f 81 3f
       1.0293535 1.0273528 0.9567756 1.0107127
0000f0 c6 41 84 3f f4 0e 82 3f 28 d7 87 3f 96 9e 82 3f
       1.0332572 1.0160813 1.0612535 1.0204647
000100 38 d3 7c 3f 86 f4 81 3f 9d ff 81 3f 9a 59 80 3f
       0.98759794 1.0152748 1.0156132 1.0027344
000110 3e 74 7d 3f fe 5e 71 3f b7 59 78 3f e3 a6 75 3f
       0.99005497 0.9428557 0.97011894 0.95957774
000120 ce e2 83 3f 2e 02 82 3f 90 08 85 3f 2a 94 77 3f
       1.030359 1.0156915 1.0393238 0.96710455
000130 65 b5 7e 3f 3f 7e 83 3f 1f 35 84 3f 7c f8 83 3f
       0.99495536 1.0272902 1.0328711 1.0310206
000140 a0 bc 81 3f 40 6c 7d 3f 86 87 81 3f 7d 11 82 3f
       1.0135689 0.989933 1.0119483 1.0161587
000150 5d 64 7f 3f e2 3e 83 3f 06 59 83 3f ec 37 83 3f
       0.9976252 1.0253565 1.0261543 1.0251441
000160 6d 7a 6d 3f 27 20 80 3f ea ed 77 3f 9d a7 7f 3f
       0.9276493 1.0009812 0.96847403 0.9986513
000170 e9 b2 7c 3f 8d c6 83 3f b4 d4 82 3f c9 f9 82 3f
       0.98710495 1.0294968 1.0221162 1.0232478
000180 52 de 82 3f 0e e5 81 3f cf fb 81 3f cf c8 72 3f
       1.0224097 1.0148027 1.0154971 0.9483766
000190 36 de 82 3f 35 99 82 3f 7e 5f 7d 3f 54 37 66 3f
       1.0224063 1.0203005 0.98973835 0.89928174
0001a0 c4 c7 82 3f ce 44 78 3f cf 60 84 3f 67 c7 75 3f
       1.0217214 0.9697999 1.0342044 0.9600739
0001b0 e1 5e 6d 3f ee 6a 7e 3f ee fc 80 3f 41 0e 82 3f
       0.927229 0.9938191 1.0077188 1.01606
0001c0 ce c6 7f 3f 15 ae 81 3f e5 e2 81 3f 73 be 80 3f
       0.99912727 1.0131251 1.0147368 1.005812
0001d0 d2 81 7b 3f 81 ca 82 3f 4d 9c 69 3f 56 55 81 3f
       0.98244965 1.0218049 0.9125412 1.0104167
0001e0 14 a6 85 3f f1 dd 6b 3f 85 b3 80 3f f0 50 83 3f
       1.0441308 0.9213553 1.0054785 1.0259075
0001f0 eb 84 69 3f d5 48 82 3f e1 60 81 3f 52 95 82 3f
       0.9121844 1.0178477 1.010769 1.0201819
000200 65 34 84 3f 91 da 83 3f bb d7 74 3f 47 8c 81 3f
       1.032849 1.0301076 0.9564168 1.0120934
000210 b3 24 81 3f 0b 94 80 3f 7e 75 74 3f 7a 37 7e 3f
       1.0089325 1.0045179 0.9549178 0.993034
000220 9d 69 71 3f 25 9a 64 3f 4b 9b 82 3f cc 2c 82 3f
       0.9430178 0.89297706 1.0203642 1.0169921
000230 25 b9 83 3f 80 be 6d 3f 83 98 6e 3f 82 50 81 3f
       1.0290877 0.92868805 0.93201464 1.0102694
000240 7e b1 7d 3f 50 a5 7a 3f e7 dc 7f 3f 84 90 81 3f
       0.99098957 0.97908497 0.99946445 1.0122228
000250 65 26 83 3f e4 21 6a 3f 93 4c 82 3f 22 a1 82 3f
       1.0246092 0.91457963 1.0179619 1.0205424
000260 1e 30 83 3f aa 1a 65 3f c9 02 7d 3f fe f4 85 3f
       1.0249059 0.8949381 0.98832375 1.0465391
000270 a0 29 83 3f eb e8 71 3f 41 f2 88 3f 56 12 8a 3f
       1.0247078 0.9449603 1.069893 1.0786846
000280 0f ae 71 3f 87 99 65 3f 9d 9e 7b 3f 68 e6 6c 3f
       0.9440622 0.8968739 0.982889 0.9253907
000290 d7 21 81 3f a6 aa 81 3f c3 5d 86 3f 0a 08 76 3f
       1.0088452 1.0130203 1.0497364 0.96106017
0002a0 25 b9 7d 3f 06 86 7d 3f 21 3a 81 3f b3 e0 82 3f
       0.99110633 0.9903263 1.0095865 1.0224823
0002b0 e4 c7 82 3f 52 02 74 3f 9b 83 78 3f ac 85 84 3f
       1.0217252 0.9531604 0.97075814 1.0353293
0002c0 6f 0d 82 3f 8e bf 82 3f 2b b0 85 3f e9 5a 85 3f
       1.016035 1.0214708 1.0444387 1.0418369
0002d0 29 f1 82 3f bb 01 7c 3f c6 fa 84 3f 16 45 7a 3f
       1.0229846 0.9844014 1.038903 0.97761667
0002e0 a3 dc 82 3f 3d a9 81 3f 61 97 76 3f 19 4b 80 3f
       1.0223583 1.0129772 0.96324736 1.0022918
0002f0 1d 7c 85 3f 2c a0 81 3f b2 d3 81 3f 0e 43 6b 3f
       1.0428501 1.0127006 1.0142729 0.9189919
000300 55 58 6f 3f ef af 84 3f c9 55 62 3f d2 d8 74 3f
       0.9349416 1.0366191 0.8841215 0.9564334
000310 1e 1f 84 3f 6b dc 80 3f 76 c1 80 3f dc 18 7f 3f
       1.0321996 1.0067266 1.005904 0.9964731
000320 96 81 81 3f 1c a8 7f 3f e7 9e 7a 3f 2f 16 83 3f
       1.0117671 0.9986589 0.97898716 1.0241145
000330 83 cc 85 3f d0 05 82 3f 87 7a 7b 3f 0a 26 80 3f
       1.0453037 1.0158024 0.98233837 1.0011609
000340 0d 27 86 3f f2 9b 86 3f e1 74 82 3f 9b 84 82 3f
       1.0480667 1.0516341 1.0191919 1.0196718
000350 32 9b 81 3f 95 7a 82 3f 7b e5 82 3f 01 24 85 3f
       1.0125487 1.0193659 1.0226282 1.0401613
000360 66 9f 68 3f 3a ac 7f 3f fc 92 66 3f 72 6e 7f 3f
       0.9086822 0.9987217 0.9006803 0.997779
000370 c7 3c 85 3f 70 cb 81 3f e3 fe 80 3f f4 15 67 3f
       1.0409173 1.0140209 1.0077785 0.9026787
000380 9f 0a 7d 3f 61 44 81 3f 5f 14 73 3f 34 8f 7f 3f
       0.9884433 1.0098993 0.9495296 0.99827886
000390 1c 1a 7f 3f d2 82 83 3f a6 57 69 3f eb 86 81 3f
       0.99649215 1.0274298 0.91149366 1.0119299
0003a0 14 37 85 3f e5 81 7c 3f 50 67 80 3f 14 de 75 3f
       1.0407434 0.98635703 1.0031528 0.9604199
0003b0 1e 1a 83 3f c0 d3 81 3f bf 77 84 3f 28 b6 85 3f
       1.0242345 1.0142746 1.0349044 1.0446215
0003c0 50 bd 84 3f 43 28 80 3f 5d c5 70 3f 47 d0 71 3f
       1.0370274 1.0012287 0.9405115 0.9445843
0003d0 18 4a 82 3f 9f 2d 82 3f 59 76 81 3f 57 58 93 3f
       1.0178862 1.0170172 1.0114242 1.1511334
0003e0 41 4e 88 3f e7 d1 79 3f 8d 3f 83 3f ef ab 83 3f
       1.0648881 0.9758591 1.0253769 1.0286845
0003f0 2c 40 6e 3f 5c 12 7e 3f 87 6a 6d 3f 41 ef 78 3f
       0.9306667 0.99246764 0.9274067 0.9724007

bias f4 [256]
000000 d2 06 98 3b c4 a7 01 3c 5c b5 00 bc f7 e3 29 3c
       0.004639485 0.007913534 -0.007855739 0.010369292
000010 a2 f2 c0 3c 3a 0e 82 3b 35 97 00 bc 8f 30 ff b9
       0.023553196 0.003968981 -0.007848551 -0.0004867357
000020 44 8f d6 38 d8 ba 16 bb 4b e6 20 bc 16 16 d6 ba
       0.000102310005 -0.002299955 -0.009820531 -0.0016333486
000030 c0 8d 98 bc 06 b5 b9 3b ff 03 cc bc 95 7c f6 3c
       -0.01862228 0.0056673316 -0.02490425 0.030088702
000040 4f e2 6b bc b2 08 07 3b 22 60 89 bc ae 0a cf bc
       -0.014397218 0.0020604548 -0.016769473 -0.025273647
000050 e9 a7 17 3b 2f aa 66 3c 50 e5 28 bb 63 25 e1 bc
       0.0023140854 0.014078661 -0.0025771447 -0.027483648
000060 86 95 65 bc 9b e1 86 3b 05 00 c7 bb 8d 25 f7 bc
       -0.0140127 0.0041162497 -0.0060730004 -0.030169273
000070 1a af f9 3a 6e 92 15 bc 64 29 20 3d 80 ed 31 bb
       0.0019049377 -0.00912915 0.039101973 -0.0027149618
000080 a6 3f e9 3b 37 76 fa 39 d6 f5 65 3c 56 d1 2e bc
       0.007118183 0.00047771793 0.014035663 -0.010670027
000090 60 4f 54 bb b2 90 d3 3c 6b cb 4c bc 3e 12 d6 bc
       -0.0032395944 0.025825832 -0.0124996705 -0.026131745
0000a0 24 4e 2d bc 20 be 9e 3c d2 7d b6 3c 60 6d 8b 3b
       -0.010577712 0.019377768 0.022276793 0.004254982
0000b0 3f 08 9d 3b bd 8d c5 3c 8a 0d bd bc 3d ce 0b 3b
       0.004792243 0.024115438 -0.023077745 0.0021332644
0000c0 29 9d 2f 3d 73 8a a3 3c 78 53 a5 3a 06 89 32 3c
       0.04287449 0.019963479 0.0012613377 0.010896927
0000d0 d3 e8 2a 3d f0 40 a8 bb 31 f5 27 3b 31 c3 44 3c
       0.041725945 -0.0051346943 0.0025628323 0.012009428
0000e0 75 93 1f 3d 89 22 03 3c cd 35 86 bc 14 54 91 3c
       0.038958985 0.008003839 -0.016383076 0.017740287
0000f0 f8 a7 e8 ba cc 9e a7 3c 73 24 ef 3c e9 f4 b3 3c
       -0.0017750254 0.020461462 0.029192185 0.021967368
000100 58 93 c7 3b a9 be df 3c 67 1d 6d bc 27 14 00 3d
       0.006090563 0.027312594 -0.014472342 0.03126922
000110 a4 d6 c1 3b 4b 65 0d 3c e6 21 46 3b 55 da 8a bc
       0.0059154797 0.008630107 0.0030232607 -0.016949812
000120 10 07 fc 3c 2b f3 0b bd 6d a8 23 bb ca 0e 15 3c
       0.030765086 -0.03416745 -0.0024972216 0.009097764
000130 9f c4 cd bb 7f 79 f9 3b 24 d6 84 3d 13 87 fa 3b
       -0.0062795426 0.0076133604 0.064861566 0.0076454966
000140 aa 2a dd 3b 83 c3 ae 3b 22 61 04 3c 51 9d 03 3d
       0.0067494707 0.0053333654 0.008079799 0.03213245
000150 82 e3 ea bc cb a4 e2 3c eb 87 5e bc 7f bd f2 3b
       -0.028672937 0.02766647 -0.01358221 0.0074078436
000160 22 45 56 bc 0f 7d 59 3c 23 ee 18 bc cb db 28 3b
       -0.013078006 0.013274445 -0.00933412 0.0025765772
000170 40 66 35 3b 2f 6b f6 bb 99 b4 c2 3c 56 83 40 3d
       0.0027679354 -0.0075201015 0.023767756 0.04700025
000180 df 79 45 3c e3 32 b6 3c d9 20 a2 ba ac 2b 83 bc
       0.012052982 0.022241062 -0.0012369409 -0.016012035
000190 6c 78 1d 3c 98 79 9d 3c 8c 0f e9 bb f9 73 68 bd
       0.00961123 0.01922302 -0.007112449 -0.056751225
0001a0 83 2f 02 3d 19 a7 80 3c a4 01 bf 3b de f7 9d bc
       0.031783592 0.015704678 0.005829053 -0.019283231
0001b0 c3 24 46 bb 54 12 24 3b e2 79 77 3c 48 80 12 3b
       -0.0030234314 0.0025035338 0.015104743 0.0022354294
0001c0 61 09 af 3a ff 18 eb 3c 88 e7 26 bd 08 45 a8 bb
       0.0013354236 0.028698443 -0.04074815 -0.0051351823
0001d0 a7 1a 13 bc 51 a7 ba 3c ca 45 ff bc cd 0a 4d 3c
       -0.008978522 0.02278486 -0.031161208 0.012514782
0001e0 77 ca 81 3c 90 d2 90 bc e2 be a2 bb 54 b2 83 3c
       0.015843613 -0.017678529 -0.0049666027 0.016076244
0001f0 13 ca cb bc d0 1f 92 3c ba 7d 99 3b 96 c7 e1 3b
       -0.02487663 0.017837435 0.004684177 0.0068902476
000200 99 2d ac 3c 8a 96 2f 3a 47 37 92 3b 6a 3d 35 3c
       0.021017836 0.0006698152 0.004462156 0.011062006
000210 af 17 59 3b 06 cd 4f 3c e5 d4 ec 3b fb da 62 bc
       0.0033125689 0.012683159 0.0072275274 -0.013846154
000220 0b 55 04 bd cd 7b 16 bd d6 4f 15 3d bb 5a ce 3c
       -0.032307666 -0.03673916 0.03645309 0.025189748
000230 1a 24 cb 3b 33 9a 81 ba c1 6e 53 bc 8c db 96 bb
       0.006199372 -0.0009887874 -0.012904824 -0.0046038087
000240 14 37 c9 bc f5 03 4a bc cd fe b3 3b bd 82 eb bb
       -0.024562396 -0.012330045 0.005493021 -0.007187216
000250 fe fc 17 3d 9f 59 af bc c0 36 46 3c 39 4e 98 3c
       0.037106507 -0.02140504 0.012098014 0.018591987
000260 39 1e 63 3c 36 95 08 bd 20 99 c1 3c 4e 19 b9 3c
       0.013862186 -0.033345424 0.023632586 0.022595074
000270 70 49 7d 3b 89 00 39 bc 71 39 b5 3b c7 98 f2 3c
       0.0038648508 -0.0112916315 0.005530529 0.029613866
000280 2a 67 e9 bc c8 8c b5 bc a0 81 ed 3b b9 e1 2a bd
       -0.028491575 -0.022161856 0.0072481185 -0.041719172
000290 ea c1 ad bb da 68 92 bc 84 e1 81 3c 8d 8d 88 ba
       -0.0053026574 -0.017872263 0.015854605 -0.0010418162
0002a0 b1 c9 00 3d f2 09 57 bc 5e b7 92 bb 8a 65 46 3c
       0.031442348 -0.01312493 -0.0044774255 0.01210917
0002b0 4a ac 96 3c 5d 84 83 bc 22 60 23 bb fa c6 50 ba
       0.0183927 -0.016054327 -0.0024929126 -0.000796422
0002c0 a7 5d 64 3c dd d0 3d 3c ae 67 4d 3c 37 2f 28 3d
       0.013938344 0.011585441 0.012536926 0.041060653
0002d0 cf fe 18 3d c4 9b c7 bb 65 a4 ab 3c 82 35 82 3b
       0.03735238 -0.0060915668 0.020952413 0.003973664
0002e0 e8 63 69 3c a1 97 a6 ba 19 98 8d 3b 48 25 cd 3a
       0.014245011 -0.0012709984 0.00432111 0.001565137
0002f0 f9 8b 3c 3d 7f 9e 79 3c bf 0a 55 3c d5 f1 b3 bb
       0.046031926 0.015235542 0.01300305 -0.005491475
000300 64 94 1b 3c cf ba 71 3d 65 f4 07 bd dc 62 8b ba
       0.009495828 0.059016045 -0.033192057 -0.0010634321
000310 d2 8c e8 3c 23 be 27 3c d9 ed ea bc 6c 44 a4 3b
       0.02838746 0.010238203 -0.028677868 0.0050130393
000320 a3 ab c3 3a 39 d7 f0 bc 43 c1 95 3b 25 c8 68 3c
       0.0014928471 -0.029399501 0.0045701577 0.014207874
000330 cc 09 b2 3c b1 a8 a7 3b 9e 1b 40 3c 3b e4 a5 3c
       0.021733187 0.005116545 0.011725334 0.02025043
000340 6e 11 2a bc 7a 41 c3 3b b0 d3 8d 3b c3 e6 c6 b8
       -0.010380132 0.005958733 0.0043282136 -9.4843585e-05
000350 69 66 08 bc 84 8b 95 3c bd 98 3f 3d 96 1e 36 3d
       -0.008325198 0.018255003 0.046776522 0.044462763
000360 97 a2 01 bd 55 52 d9 3c 65 7a 41 bc 38 9c 02 bb
       -0.0316492 0.026528517 -0.011808966 -0.001992954
000370 f7 4b b1 3c 07 5b bd 3c 33 51 b2 3b 84 ac 4a bd
       0.021642668 0.023114694 0.0054418086 -0.04948093
000380 5c 49 df ba 0c 56 8e 3c 3c 6b 32 bc 1b 9c 8d 3b
       -0.0017035413 0.017375015 -0.0108898245 0.0043215877
000390 58 b6 a9 3c d9 35 2b 3d d6 fc 02 bd e8 77 b0 bb
       0.020716831 0.0417994 -0.031979404 -0.0053853877
0003a0 ae 31 d8 3c 8f d8 d2 bc de a0 8c bc ea 14 27 bc
       0.026390877 -0.025738029 -0.017166551 -0.010197857
0003b0 ff 97 e3 3c 86 7f 25 3c 51 27 10 3d 91 89 8e 3c
       0.027782438 0.010101205 0.035193745 0.017399581
0003c0 bd 4f a6 3c 3f a9 a6 3c 75 d3 07 3c e2 c0 10 bc
       0.020301694 0.020344375 0.008290161 -0.008835049
0003d0 28 dc 2d 3d a9 21 1a 3c 8e 8d ce 3b 35 05 e5 bc
       0.042446285 0.009407439 0.0063034957 -0.027956584
0003e0 4d c5 30 3d 08 14 15 3d 2c 98 c4 3c 6b aa d4 3c
       0.04315691 0.036396056 0.023998342 0.025960168
0003f0 2b f7 ca bc 76 43 f5 bb e9 23 02 bd ac 3a 26 bb
       -0.024776062 -0.0074848486 -0.031772528 -0.002536456

running_mean f4 [256]
000000 ac e4 0d c3 20 6f 1c c4 5e e3 05 43 78 dc 25 c3
       -141.89325 -625.7363 133.88815 -165.8612
000010 5b 0d 4c 44 f8 b0 66 c3 a6 37 f4 44 f2 7c 5e 43
       816.2087 -230.69128 1953.739 222.48807
000020 98 55 27 44 5d 2e 28 44 e4 ce 06 c4 e7 22 fe c2
       669.3374 672.7244 -539.23267 -127.06817
000030 03 58 b7 c3 17 6c d6 c2 15 0d e1 44 78 7f 5f c3
       -366.6876 -107.21111 1800.4088 -223.49792
000040 8b c3 d6 42 df d9 d0 43 36 5e 9a c3 3a d1 e9 43
       107.38192 417.70212 -308.73602 467.63458
000050 f9 1c b3 43 4f 99 6a c2 9a 9e ab 43 42 fb 09 c4
       358.22635 -58.649715 343.23907 -551.9259
000060 a4 f0 cc c3 6f 1e b4 c3 ae b0 0a 44 e2 ed da 43
       -409.88 -360.23776 554.7606 437.85846
000070 6c 7d 08 c3 cc c6 bd 41 2c f5 5f c4 c2 27 79 c3
       -136.48993 23.722069 -895.8308 -249.1553
000080 f4 3f 2e c2 eb 27 0a c4 a4 9a 1f c4 a9 fa 8b c3
       -43.562454 -552.6237 -638.41626 -279.95828
000090 63 d0 fd 42 32 2f 1b c3 14 f7 bc c1 1b 40 07 44
       126.907005 -155.18436 -23.620644 541.00165
0000a0 7a 78 d8 c3 b0 ba bb 42 68 d8 4e c3 f9 2c c3 43
       -432.94122 93.864624 -206.84534 390.35135
0000b0 25 ee a3 c3 08 d2 99 43 08 88 8f c3 87 19 0c 42
       -327.8605 307.64087 -287.06274 35.02493
0000c0 53 f0 a1 43 69 ae ce c3 77 13 b8 c3 7b 0c 1e 42
       323.87753 -413.36258 -368.15207 39.512188
0000d0 dd 56 0b c3 15 45 db c0 c8 a1 67 43 ef bd 91 c3
       -139.33931 -6.852183 231.63196 -291.48386
0000e0 a6 d6 97 c2 be 5d 9c 43 1f 43 74 41 74 fe a3 43
       -75.919235 312.73236 15.266387 327.9879
0000f0 64 49 25 c3 aa 81 b1 42 d1 6f 73 c2 57 ac ab 43
       -165.28668 88.75325 -60.859196 343.3464
000100 5b 90 e9 c3 db de 00 c0 68 4a 8b 43 3c 0e b2 c2
       -467.12778 -2.013602 278.5813 -89.0278
000110 a1 7f 9a 43 bf 08 5b c3 54 d8 9e c3 0b 3f 6f 43
       308.9971 -219.03416 -317.69006 239.24626
000120 99 8e 93 42 de 3e 28 3d e6 09 ad c3 5c 18 a1 43
       73.77851 0.04107558 -346.07733 322.1903
000130 23 18 16 43 e5 7b a7 43 be 57 b4 c2 76 c6 11 c3
       150.09428 334.96793 -90.17137 -145.77524
000140 41 8a 59 c2 7f 33 d9 c2 ab 1c 97 43 6b 1d 5b 43
       -54.385014 -108.60058 302.22397 219.11491
000150 2f 5d 17 c4 e1 6c fc c2 20 f2 8c c2 01 ab a6 42
       -605.456 -126.212654 -70.4729 83.33399
000160 bf c6 c1 41 17 c7 e4 43 f3 c6 c2 c3 77 74 fd 43
       24.222044 457.5554 -389.5543 506.90988
000170 5c aa 20 44 40 36 b8 c2 a0 31 1b c3 19 fc 01 43
       642.66187 -92.10596 -155.19385 129.98476
000180 88 0b 43 c2 ca fa f1 42 48 de 9e c2 f6 6c 71 43
       -48.76126 120.98982 -79.43414 241.42563
000190 d4 4e 31 c3 14 d4 81 c3 38 ff 0c c4 27 44 e4 43
       -177.30792 -259.65686 -563.9878 456.53244
0001a0 7d 94 4e c3 d7 96 7a c2 10 37 08 c4 0b a6 99 44
       -206.58003 -62.647305 -544.86035 1229.1888
0001b0 45 b6 47 c4 dd b3 8b 42 f5 51 fa c3 5e b9 81 c2
       -798.84796 69.851295 -500.6403 -64.862045
0001c0 c5 0e f8 c3 ea b6 9b 41 00 7d 96 44 d8 48 bc bf
       -496.1154 19.464314 1203.9062 -1.470973
0001d0 e7 89 08 43 f4 2a 53 44 0a 5c 76 c3 b9 84 dc c2
       136.53868 844.67114 -246.35953 -110.259224
0001e0 3c 1a ad c3 9c 06 dc c3 d9 87 6b 43 07 b9 28 43
       -346.20496 -440.05164 235.53065 168.72276
0001f0 f5 fd 99 42 fd d3 2a 43 08 92 03 c4 44 3d c9 43
       76.99601 170.82808 -526.28174 402.47864
000200 32 53 a7 c3 e0 9a 29 c4 01 d7 3a 44 83 41 0f c3
       -334.64996 -678.4199 747.35944 -143.2559
000210 63 b0 3b 43 2a 5f 22 c4 97 d3 0e c3 12 28 15 c3
       187.68901 -649.48694 -142.82652 -149.15652
000220 c7 76 23 43 f7 91 99 43 c2 bf 82 c2 fc 64 0c 44
       163.46397 307.14035 -65.37453 561.5779
000230 05 9a 61 c3 e6 da 89 43 3a a7 7e 43 6a 35 52 c3
       -225.60164 275.71014 254.65323 -210.20865
000240 5a c7 a3 43 aa 60 d6 43 84 1a e5 c3 7b 94 40 c3
       327.55743 428.7552 -458.20715 -192.58
000250 da e1 58 43 f3 c2 eb 43 a4 c4 27 c2 e0 97 43 43
       216.88223 471.52304 -41.94203 195.59326
000260 b9 42 02 c4 56 bc 53 43 0e e9 2e c2 2a 6c 91 c3
       -521.04254 211.73569 -43.727592 -290.84503
000270 c6 b3 96 42 40 a4 b4 c2 72 06 8c c3 f0 d1 b3 c3
       75.35112 -90.3208 -280.05035 -359.64014
000280 f1 26 27 44 ad 2e 31 43 a5 15 b6 c3 2c a8 2f c4
       668.60846 177.18233 -364.1691 -702.6277
000290 cd 44 b0 c3 10 6d b7 c3 0c de 0c c4 cc 1a f4 c3
       -352.5375 -366.85205 -563.4695 -488.20935
0002a0 a3 3f fb c2 61 b5 ef 41 95 83 dd 43 4c 4f 97 c3
       -125.62429 29.963564 443.02798 -302.6195
0002b0 82 5a 13 43 17 5c b5 43 a4 9e 4d c3 54 09 b2 c3
       147.35355 362.71945 -205.61969 -356.07288
0002c0 c8 bd 85 43 2b 53 0b 43 ac c1 0e c3 c0 9d c6 c3
       267.48267 139.32487 -142.75653 -397.23242
0002d0 ff c9 19 41 24 b8 54 c3 7a 22 e8 c3 ad fa 84 c3
       9.611815 -212.7193 -464.26935 -265.9584
0002e0 c5 9c 8c c2 5c 41 c8 c3 df 27 50 44 ea 3a a1 c3
       -70.30619 -400.51062 832.623 -322.46027
0002f0 af 77 c4 c2 3b 67 4a c3 83 af 0a 43 47 68 3a 44
       -98.23376 -202.40324 138.6856 745.62933
000300 a3 98 0b c2 f3 6b a2 c3 b4 85 7b c3 6b c0 ef c2
       -34.89906 -324.84335 -251.52228 -119.87582
000310 4b 3e 80 c3 05 41 81 c3 03 65 b4 43 72 bc 90 43
       -256.48666 -258.50797 360.78915 289.47223
000320 13 0b 66 43 0b 4d 99 44 23 0c 02 43 9f 75 a0 c3
       230.04326 1226.4076 130.04741 -320.9189
000330 ee a9 bd c3 60 fb 98 c3 5e 6d 3a c3 48 02 00 43
       -379.32758 -305.96387 -186.42722 128.00891
000340 86 19 44 44 6e 6c 81 44 04 6d 75 42 8d 9a 0f 41
       784.3988 1035.3884 61.35646 8.975232
000350 81 7d 3c c3 06 91 b6 c3 e2 cd 32 43 be 1b e7 c2
       -188.49025 -365.133 178.80423 -115.554184
000360 27 e2 0b 43 38 0e e5 c3 cb fa 0a 44 a1 5f b2 43
       139.8834 -458.11108 555.91864 356.7471
000370 43 cf 0d c4 be fc c6 c3 52 91 52 43 67 9d ec c1
       -567.23846 -397.97455 210.56766 -29.576857
000380 7a 8c 39 43 6c ba 10 c3 4e a7 4b c3 dd 90 19 c3
       185.54874 -144.72821 -203.65353 -153.56587
000390 b5 27 6e 3f 65 60 a4 c3 e8 ec a9 43 7c 30 a9 43
       0.9302934 -328.75308 339.85083 338.37878
0003a0 c0 69 f2 41 da 52 3f c1 a0 17 9b c3 93 fa 94 c2
       30.301636 -11.957727 -310.18457 -74.4894
0003b0 5a dc 9e 41 72 d7 8e c3 52 9f 8b c3 9a 81 ff 41
       19.857594 -285.68317 -279.2447 31.938282
0003c0 ec 7e b0 c3 8f f2 9c c3 0c 85 2f c3 eb 2a 57 c1
       -352.99158 -313.895 -175.51971 -13.447978
0003d0 ee 58 a9 c2 18 eb 3e c2 92 88 54 43 ab 25 5f 44
       -84.67369 -47.729584 212.53348 892.58856
0003e0 e2 9f b0 c3 04 3c 2f 44 b7 7b 73 c2 d5 cc d2 c2
       -353.24908 700.93774 -60.870815 -105.40006
0003f0 a6 89 1d 44 31 47 ed c2 79 07 ec c2 f8 40 5b 41
       630.15076 -118.639046 -118.014595 13.7033615

running_var f4 [256]
000000 ab 33 09 42 88 2f ab 41 cb 14 76 41 de 72 55 42
       34.300457 21.398209 15.380076 53.362175
000010 76 3f 13 42 d3 01 75 43 8d 97 46 43 00 25 8f 42
       36.811974 245.00713 198.592 71.572266
000020 23 14 0b 43 e2 76 77 43 6f 0a 9f 42 d5 40 1c 41
       139.07866 247.46439 79.52038 9.765828
000030 ff 7c a0 41 20 46 24 42 72 ea 58 44 84 4d 5e 42
       20.061033 41.06848 867.6632 55.5757
000040 b3 fb 15 41 d3 6b 8a 43 97 95 3d 43 cf 63 ad 43
       9.37395 276.84238 189.58434 346.77975
000050 aa f8 9a 43 4f a6 a0 42 c6 3b 2e 41 4d 7e 26 42
       309.9427 80.32482 10.889593 41.62334
000060 9b cf ec 41 80 b8 65 43 9e 1b 15 42 75 af 9b 42
       29.60137 229.7207 37.27697 77.84269
000070 3e c2 1b 43 16 cb 6c 44 8c 81 1a 44 c3 9d 67 43
       155.75876 947.1732 618.0242 231.61626
000080 67 c1 e8 40 a2 45 32 42 46 b0 f7 41 7f 49 0d 42
       7.2736087 44.568 30.961071 35.321774
000090 c6 3d 21 42 77 9f 62 42 cc ad ec 40 08 dd b3 43
       40.310326 56.655727 7.3962154 359.7268
0000a0 bd 9f 0d 44 7c 74 99 41 07 b2 75 41 13 ef d4 41
       566.4959 19.181877 15.355964 26.616735
0000b0 66 bc 84 41 bd 04 24 42 27 8b 95 42 45 13 66 42
       16.591991 41.004627 74.77178 57.518818
0000c0 7a 60 f6 42 28 0b 21 42 61 ec 56 41 ef 52 53 42
       123.18843 40.260895 13.43271 52.83099
0000d0 07 2c 12 43 46 3a 83 42 aa 9b cc 42 76 06 08 41
       146.17198 65.613815 102.30403 8.501577
0000e0 40 01 6d 41 74 10 01 43 7d df 2d 41 99 13 a8 42
       14.812805 129.06427 10.867063 84.03828
0000f0 41 f8 c3 41 43 6e ee 42 56 19 5e 41 77 e8 99 43
       24.496218 119.215355 13.881186 307.81613
000100 f8 d0 ab 41 69 ae 0a 42 3b 31 26 42 5a 05 14 42
       21.477036 34.670322 41.548077 37.005226
000110 94 f1 5d 42 21 23 92 42 f3 2f 94 41 92 b0 5f 42
       55.485916 73.06861 18.523413 55.922432
000120 0f 2b 67 42 ab 92 03 41 e2 51 aa 41 4d d6 50 41
       57.79205 8.223308 21.289982 13.05232
000130 93 79 a6 41 f0 61 4f 42 e3 19 b0 41 a0 11 ff 40
       20.809362 51.845642 22.01264 7.9709015
000140 66 56 3c 41 ac b6 1c 42 b8 a5 1b 43 83 26 e3 43
       11.771093 39.17839 155.64734 454.30087
000150 49 e8 eb 43 2d 99 c1 41 7e 36 84 41 86 8f 15 41
       471.81473 24.199793 16.526608 9.34754
000160 da 07 35 42 20 6c fe 41 32 4c d0 41 24 6d 78 42
       45.257668 31.802795 26.037205 62.106583
000170 29 f1 7c 42 db 3f 22 41 8c 70 6f 41 4e bc b5 42
       63.235508 10.14059 14.964977 90.86778
000180 7f 82 cb 41 10 1b 0b 43 d3 b5 fa 41 12 60 9b 42
       25.438719 139.10571 31.338781 77.68764
000190 21 fc b8 41 37 17 df 41 d3 88 f5 42 6a 5c 21 44
       23.12311 27.886335 122.767235 645.444
0001a0 e3 fe df 42 ad c7 1b 42 47 e7 bd 41 67 b8 30 43
       111.997826 38.944996 23.737928 176.72032
0001b0 08 2e 08 42 13 9f 00 43 73 1c c5 42 fe 93 8b 42
       34.044952 128.62138 98.555565 69.78905
0001c0 37 1a 72 43 a4 8f d8 42 40 29 fd 43 36 b5 20 42
       242.1024 108.28055 506.32227 40.176964
0001d0 c6 d8 32 42 e4 86 4a 43 ca f5 1b 41 7f 14 12 42
       44.711693 202.52692 9.747507 36.520016
0001e0 46 f0 bc 41 93 f2 18 43 45 81 93 41 ed 23 e7 42
       23.617321 152.94756 18.43812 115.57017
0001f0 b5 f2 81 42 bb e8 95 42 f5 94 2f 43 0f e4 00 43
       64.97404 74.95455 175.58186 128.89085
000200 90 84 2d 42 c5 94 f6 42 60 8b 84 43 47 5c 0c 41
       43.379456 123.290565 265.08887 8.772529
000210 a0 35 04 43 ce cc a7 41 44 cd 06 42 e9 bf 00 42
       132.20947 20.975002 33.700455 32.187412
000220 e4 c7 41 42 91 24 5e 41 2b 5e e5 41 63 bb 8f 42
       48.445206 13.883927 28.67098 71.86599
000230 2e 17 84 41 b9 24 27 43 75 0b 55 41 68 9b 6f 43
       16.511318 167.14345 13.315297 239.60706
000240 86 71 83 41 13 02 6f 41 d9 0e 3f 42 e8 82 67 42
       16.430431 14.938006 47.7645 57.87784
000250 c8 2f 2e 42 17 9f 96 43 91 19 db 41 b1 bb 9a 42
       43.54666 301.2429 27.387484 77.366585
000260 3d 1b 86 41 ba 4d 24 44 3a 24 75 43 4a 0a b4 41
       16.7633 657.2145 245.14151 22.505024
000270 96 be 88 41 27 7b ef 43 a6 60 03 42 30 5f f8 41
       17.09306 478.96213 32.844383 31.046478
000280 04 43 2b 43 65 c8 be 43 27 c5 c2 41 b1 a7 2e 42
       171.26178 381.56558 24.346266 43.66376
000290 d5 60 8e 41 51 74 bf 41 29 ef a2 41 48 52 33 42
       17.797281 23.931795 20.366777 44.830353
0002a0 4b 2a 2c 43 98 3f 38 41 d7 ef 2e 42 e0 08 9e 41
       172.1652 11.515526 43.73422 19.754333
0002b0 64 95 b1 41 ee 69 95 42 9f 29 38 41 1a 95 5a 41
       22.197945 74.706894 11.510161 13.661402
0002c0 d0 fe 93 42 7c d1 8c 43 d8 b1 b5 41 19 90 a2 41
       73.99768 281.6366 22.711838 20.32036
0002d0 fc dc 49 42 90 a0 41 45 28 c1 e2 41 04 f5 1a 42
       50.465805 3098.0352 28.344315 38.739273
0002e0 ac 38 7d 42 07 a5 98 43 e4 55 29 42 14 4a c1 41
       63.305344 305.28928 42.333878 24.161171
0002f0 cd 32 c0 41 f2 a5 9b 42 48 db b1 41 c7 b8 91 44
       24.024805 77.82411 22.23207 1165.7743
000300 ee 44 58 41 e2 62 39 42 35 1f ae 43 e4 00 07 42
       13.516829 46.346565 348.2438 33.75087
000310 f4 b3 dc 41 81 93 0f 43 f2 ef cc 43 55 66 96 42
       27.587868 143.57619 409.87457 75.19987
000320 b1 30 11 43 70 9d 84 43 fb 5c 55 42 2a 21 50 41
       145.1902 265.22998 53.3408 13.008097
000330 2e ee b7 41 28 a9 8f 42 7c f5 f5 42 eb 04 bd 41
       22.991299 71.83038 122.97946 23.627401
000340 a0 aa a9 42 2f 1a 22 44 34 26 c5 43 bb 64 42 41
       84.83325 648.4091 394.29846 12.149592
000350 2d 43 6c 41 66 22 69 42 25 d2 e0 41 e6 64 09 41
       14.7664 58.283592 28.10261 8.587133
000360 43 1c e2 42 6d be b5 42 f2 a4 95 43 a4 e6 cc 43
       113.0552 90.871925 299.28864 409.80188
000370 63 f7 88 41 9a 88 8c 41 d4 db d8 41 01 2b 24 41
       17.120794 17.5667 27.107338 10.260499
000380 39 d9 36 42 bb 0f 30 42 03 04 d7 41 c7 b0 77 41
       45.71213 44.01536 26.876959 15.480659
000390 5c 33 92 41 ed 0e c8 42 88 ee 10 44 61 07 56 42
       18.275078 100.02915 579.72705 53.507206
0003a0 dc a4 fa 41 7f d1 3c 42 67 94 9a 41 df f5 00 43
       31.330498 47.204586 19.322462 128.96043
0003b0 dc f7 bd 42 22 82 16 43 23 dd 87 41 62 49 96 41
       94.9841 150.50833 16.982977 18.785831
0003c0 e3 a4 cf 41 ab 1a 38 42 c1 dc 60 44 10 4c c0 41
       25.955511 46.026043 899.4493 24.03714
0003d0 9d df e4 41 53 20 78 41 e1 37 6a 42 c6 0c 73 43
       28.609186 15.507892 58.55457 243.0499
0003e0 b9 f4 f4 41 a9 f5 01 42 e3 4b 9c 41 75 08 82 42
       30.619493 32.489902 19.537054 65.01652
0003f0 f3 c7 76 42 b9 1f 13 41 f8 98 cd 41 dc 45 3c 42
       61.695263 9.195245 25.699692 47.068222

weight f4 [256, 256]
000000 86 2a cd bc 8a 6b 40 bd e2 29 72 3d 51 1a d4 bc
       -0.02504469 -0.046977557 0.059121974 -0.025891455
000010 2e f3 d4 3b 49 96 6b 3d 5a 43 20 3d 60 35 5b bd
       0.006498716 0.05751637 0.03912673 -0.0535177
000020 1d 20 6d bc b0 8c 12 bb f7 bf 88 bc 49 4d 24 bb
       -0.014472988 -0.0022361688 -0.016693098 -0.002507048
000030 26 f1 36 3d ed 57 26 3d c8 8c 42 3b e3 7f 5b bc
       0.04466357 0.040611196 0.0029685963 -0.01339719
000040 a3 24 7a bd 72 be b7 bc 64 5d 2b bd 2b d3 8b 3c
       -0.061070096 -0.022429679 -0.04183711 0.017068466
000050 b5 8b 61 3d a6 56 07 3d 37 2a 47 3c ab dc 89 3d
       0.055064876 0.03304162 0.012156061 0.06731542
000060 a5 9e 30 bd 33 0b c1 3c 50 0b d8 bc f1 6a 27 bd
       -0.043120045 0.02356491 -0.026372582 -0.04087347
000070 ee 3b 66 bd 70 6c ab 3c 0e 92 a4 bc 0b 5d 73 bd
       -0.056209497 0.02092573 -0.020089176 -0.059414905
000080 7b 58 48 3d d2 1c 0a bd b8 7d 2a 3d 6e 03 36 bd
       0.048912507 -0.03371889 0.0416238 -0.044436865
000090 ac 0f f8 bc 2b c0 6e bd a7 99 2e 3d 27 a9 89 bd
       -0.03028091 -0.058288734 0.042627003 -0.067217164
0000a0 f6 e5 1c 3d 68 a9 1a 3d f1 5a 13 bc 9e c3 bb 3b
       0.038305245 0.037759215 -0.00899385 0.0057301065
0000b0 d6 78 6a bd 2b 5e 28 bd 09 ea 17 3d d6 92 e7 bc
       -0.057244144 -0.04110543 0.037088428 -0.028268259
0000c0 4d 0a 0c bd 4e 20 62 bd 43 df a7 3c b2 5b 48 bd
       -0.03418951 -0.05520659 0.020492202 -0.048915572
0000d0 2e 78 2d 3d 05 b0 d9 bc d7 cf 9e bc 6a 37 34 bc
       0.04235094 -0.02657319 -0.019386215 -0.01099954
0000e0 ac 1e 76 3c 91 f2 cd 3a 73 7b 4d bd ba 6f 44 3d
       0.015021961 0.0015712549 -0.05016656 0.047958113
0000f0 92 ed cb 3c 13 c6 2e 3d 19 00 6c 3d df a7 53 ba
       0.024893556 0.042669367 0.05761728 -0.0008074026
000100 61 1d 14 bd 8e 3a fd bc 3b 90 ed bc 5e 71 2d 3d
       -0.03616083 -0.03091171 -0.028999439 0.042344444
000110 1e d4 18 3b 7c e9 30 bd cc 0d 6a 3c 87 89 d6 bb
       0.002331979 -0.043191418 0.014285516 -0.0065471563
000120 78 cf 0f bd bc ff b0 bc 83 d6 63 bc e9 9e 14 3d
       -0.035109967 -0.021606319 -0.013906124 0.03628436
000130 00 af 29 bc 51 6c 9e bc 28 d0 32 3c 3d 86 4e 3d
       -0.010356665 -0.019338759 0.010913886 0.05042099
000140 79 d4 44 bd d8 f3 82 bd e5 f2 3e 3d a6 09 45 bd
       -0.048054192 -0.06394166 0.04661836 -0.048104905
000150 fd 00 24 bd eb 04 82 bc 3a 8e 81 3c 71 b8 b1 b9
       -0.040040005 -0.015871486 0.01581489 -0.0003389749
000160 90 3f b2 bd c7 31 8b b8 44 1a b5 3c 88 27 8a bd
       -0.0870353 -6.637308e-05 0.022107251 -0.06745821
000170 92 f5 2e bd aa cb 9e 3a e4 fe 61 bd d6 d4 0b bd
       -0.042714663 0.001211514 -0.055174723 -0.034138523
000180 82 f7 04 bd 1b de 82 3c f4 c1 f5 3c 40 8d 87 bd
       -0.032462604 0.015975049 0.02999971 -0.06618738
000190 00 13 94 3c 00 2a fc bc 83 cd 0d 3c 34 89 31 3c
       0.018075466 -0.030781746 0.008654955 0.010835934
0001a0 d9 61 cd bc e8 5e 2e bd 19 98 3d 3d c0 45 14 bd
       -0.025071071 -0.04257098 0.04628763 -0.03619933
0001b0 ac 79 08 3c a7 0a 90 bc b4 9e 5a 3d 11 ef 61 bd
       0.00832979 -0.017583204 0.053374007 -0.055159632
0001c0 46 80 87 3c 0b 0f 6e bd 2e 1c 6a bc ce 08 1e 3d
       0.016540658 -0.058119815 -0.014288945 0.038582616
0001d0 34 0c 0d 3d 8b 29 53 3d ef 47 15 3d 76 2e 66 3d
       0.034435466 0.05155329 0.036445554 0.056196652
0001e0 27 bd 78 3d 79 dd 3d bc 55 94 dd 3a 37 1a 87 bc
       0.060727265 -0.011588448 0.0016905168 -0.016491992
0001f0 80 dc c4 3c 2b 20 09 3d 19 7e 16 bd 77 7d 89 bd
       0.024030924 0.033477943 -0.03674135 -0.06713384
000200 3f 0f 1a bd 34 6a f8 3a 9a c6 7d 3d 3d 10 97 bc
       -0.037612196 0.001895255 0.06195698 -0.01844036
000210 d5 17 d5 3c 59 25 4a 3c 09 a2 3b 3d 5c ef 18 bd
       0.02601234 0.012338006 0.045808826 -0.037337646
000220 00 5e f3 3c a9 86 03 bc a0 07 a1 bc 07 1d 8e 3d
       0.029707909 -0.008027711 -0.019656956 0.0693913
000230 d2 13 74 bd 2d 35 47 bc a3 3c ca 3c e6 41 58 3c
       -0.059589215 -0.012158674 0.024687117 0.013199305
000240 a4 7f 4f 3a c3 29 19 bc 85 57 54 bd 5c 5a d9 bc
       0.0007915443 -0.009348336 -0.051841278 -0.026532345
000250 18 92 b9 3c 53 a2 ca bc ea eb 4a bd 26 f3 17 bd
       0.02265267 -0.024735605 -0.04954139 -0.03709712
000260 41 8d 28 bd 1b f7 97 bd 4e e4 28 3b 6d 9b 16 3d
       -0.041150335 -0.074201785 0.0025770846 0.03676932
000270 83 7b 0b bd ea 61 22 bd ae 9a 8b bd 2a 88 21 3c
       -0.034053337 -0.03964416 -0.06816612 0.009859124
000280 14 33 57 3c c2 89 83 bd 66 6d 60 3c c9 42 25 3c
       0.013134737 -0.064227596 0.013697958 0.010086724
000290 d4 6e c9 3b b9 f1 3d bd ad 54 e9 bc a0 e3 56 3d
       0.006147245 -0.046373103 -0.02848276 0.052463174
0002a0 c8 90 86 3c c6 f4 92 3c 8d 3f d6 38 06 c9 47 bd
       0.016426459 0.017938983 0.000102161524 -0.048775695
0002b0 7e d1 b4 bc ef 20 8a 3c 70 b9 88 3d 46 4d 33 bd
       -0.02207255 0.016861407 0.066759944 -0.043774866
0002c0 c7 8f c6 3c e5 27 38 bd 22 f0 a1 bc 1d f4 3b 3d
       0.02423848 -0.04495992 -0.019767825 0.0458871
0002d0 6d ff 49 bd 90 b5 60 bd 4a 7d 76 bd 40 b2 19 3d
       -0.04931586 -0.05486065 -0.06017808 0.037523508
0002e0 6c a3 34 3d 34 b0 de bc c7 d6 1c bd 92 3a 16 3c
       0.044101164 -0.02718363 -0.038290765 0.009169238
0002f0 dd 49 06 bd 5e 12 c2 bb d4 4a d9 bc 63 56 a3 3c
       -0.032785285 -0.0059225997 -0.026524939 0.019938653
000300 a4 bc a4 bd 78 f3 60 bd 94 11 09 3c ca 90 21 3c
       -0.08043793 -0.05491969 0.008366007 0.009861181
000310 0f d7 0c bd d4 c9 0b 3b be be 2d 3d 67 c4 1c bd
       -0.034384783 0.0021330016 0.042418234 -0.03827324
000320 fd f3 1f 3d 14 02 52 bc 49 b8 c1 3c fe 00 52 bd
       0.039051045 -0.012817878 0.023647444 -0.051270477
000330 0b 4d 2e 3d 16 3b 0b 3d 3f 3a 58 bc 6c 9b f5 3c
       0.042553943 0.033991896 -0.013197481 0.029981337
000340 bb 0f 56 bc db 4c 83 3d b5 44 7a 3c 27 e6 05 3b
       -0.013065274 0.064111434 0.01527517 0.002043137
000350 c3 41 4a bd 9c e4 98 3c 28 ae 0c ba 9b 77 02 bd
       -0.04937912 0.018663697 -0.00053665275 -0.031852346
000360 3b a9 e6 3c fd 1b 54 3d d6 43 5d bd 58 57 58 3d
       0.028156867 0.051784504 -0.05401977 0.052817672
000370 5f c1 de bb 53 12 99 bc 14 ce 7d bd c9 2e 57 bd
       -0.006797954 -0.018685495 -0.06196411 -0.052534852
000380 9b ae 60 bd d8 ac 08 3d 62 23 b9 bc 3b bb 3f 3d
       -0.054854017 0.03336796 -0.02259988 0.046809416
000390 22 67 80 bd 57 10 72 bd ee 84 de bc af cd c9 bb
       -0.06269671 -0.059097614 -0.027162995 -0.0061585526
0003a0 b2 47 8b bd cd 38 dd 3c 1d f6 f9 3c 97 b6 49 3d
       -0.06800784 0.027004624 0.030512864 0.049246397
0003b0 01 2a 82 bd e9 90 81 bd 0f da 8a bc bd bb e7 3c
       -0.06355668 -0.063264675 -0.016949682 0.028287763
0003c0 b7 9a ec bc 9f 95 0a bd 10 90 71 bd 9d 1a b4 3c
       -0.028882368 -0.033834096 -0.05897528 0.021985346
0003d0 bc f4 4e 3c 32 93 21 bd 14 71 c5 bc d6 5d 89 3d
       0.012631591 -0.039447017 -0.024101771 0.06707351
0003e0 80 92 38 3d d9 3e 30 3d 1c c2 b2 bb 5c b8 5f bd
       0.04506159 0.043028686 -0.0054552685 -0.05461918
0003f0 95 61 8e bd 47 a6 61 bd b7 e5 c6 3b 4d cb 8a bd
       -0.06952206 -0.055090215 0.0060698646 -0.06777058
