Predict/storage/MLP_256_200_SGD_11/trained_54.pt (torch, 339061 bytes, 13 tensors)

weight f4 [256, 58]
-0.06369216 0.07959066 0.074640684 0.087180845 -0.052624807 0.10756808 0.05145176 -0.066311084
0.07851146 -0.029406553 -0.02964192 0.10763171 -0.02435873 0.11743746 0.052978948 -0.032065254
-0.1083013 -0.11184246 -0.0052232593 -0.07929137 -0.10149917 -0.11675463 0.044928912 -0.09020913
0.104247265 -0.011231651 0.05493471 -0.054739267 0.122803316 0.04508194 0.02624977 -0.040112916
0.12902966 -0.052092403 -0.107587114 -0.13022599 -0.11408105 -0.087611794 0.095089324 -0.1056161
-0.017940534 0.12676196 -0.038204394 0.015101023 0.08171136 -0.061156325 -0.045082234 0.031792372
-0.074214034 0.08390763 -0.09989891 -0.067433186 -0.1004853 0.06556555 -0.0035982695 -0.1190398
0.08801291 0.08811089 -0.08265947 0.0071892 -0.010534673 0.0011993508 0.019469067 -0.12362272
0.06845743 -0.120022796 -0.074219406 0.06860073 0.11399309 0.08136493 0.106776 -0.052630737
-0.038336165 0.026377328 -0.11567953 -0.115507096 0.095199324 -0.109336734 -0.12720716 -0.051361892
-0.05132943 -0.06254179 0.10188084 0.1093018 -0.035147388 0.0414064 -0.031460524 0.022976404
-0.0854669 0.027262645 -0.0051405123 -0.06183306 0.022829007 0.018240504 -0.09202009 -0.10672224
0.11147309 -0.017329853 0.06428323 0.0037007118 -0.04887805 0.03152535 0.022989314 -0.16796425
0.02282875 0.09549274 0.041087613 0.13095231 0.09024577 -0.10753506 -0.0005651434 0.10413924
-0.07274296 0.064329684 0.017121049 0.07250295 -0.00032965606 -0.08716158 -0.015693264 -0.056669686
0.08771455 0.008813809 -0.055481687 0.05122361 -0.12301406 -0.10057929 0.03707399 -0.06291216
-0.06317145 0.032070346 0.010167179 -0.08366797 -0.09337613 0.11523028 0.03127833 -0.11626608
0.08339044 -0.06215767 0.06075816 0.086393595 -0.07946866 0.0074933073 -0.013102591 -0.09196342
0.049613282 -0.0059554684 -0.004442591 -0.089709096 0.023489496 0.08869353 0.016114693 -0.053794425
-0.045802854 0.04801079 -0.1012449 0.05876067 -0.02602956 0.10113631 -0.043453794 -0.13046463
0.06330879 0.10879011 0.13467415 -0.08067461 -0.097047046 -0.092272446 0.04975176 -0.12297103
-0.12811728 -0.14520897 -0.05136604 -0.09693389 -0.05323641 -0.13273595 -0.12343305 -0.039517414
0.029496925 0.075224325 0.09373405 -0.058285806 0.058579646 0.015408551 0.014218219 0.05592644
-0.07286662 -0.054459136 -0.018902617 -0.1296198 0.053447332 0.049259733 0.015890993 -0.113971695
-0.08805795 0.06713546 -0.044813313 -0.10774728 -0.051991366 -0.07387425 0.06064323 -0.033391207
-0.10110576 -0.040085 -0.035928104 0.020815821 0.08511294 -0.0821803 -0.0946566 0.04725528
-0.047879938 0.09008032 0.10026488 0.09096715 -0.05192657 0.110097945 0.11350415 -0.07367041
0.1244489 0.12118248 0.00093835057 -0.093954444 0.029652959 -0.021306532 -0.028416347 -0.12166563
0.04868134 -0.029097494 0.09525995 0.1423297 0.05660915 0.042474624 -0.07187436 -0.031072918
-0.070684426 -0.09680048 0.099071614 -0.064796366 0.12798564 -0.017186085 0.038455736 0.0727232
-0.08679274 -0.06537754 -0.06620783 -0.06335644 0.113098495 0.06432235 0.076386474 0.024002057
-0.07994486 0.12033239 0.032494333 0.01923758 -0.11009062 0.06656059 -0.07758268 0.021363206
00000000: 0971 82bd 6e00 a33d 37dd 983d df8b b23d
00000010: 1c8d 57bd a74c dc3d 15bf 523d 1bce 87bd
00000020: 9eca a03d 03e6 f0bc 9dd3 f2bc 046e dc3d
00000030: f68b c7bc 0d83 f03d 7400 593d db56 03bd
00000040: 12cd ddbd a90d e5bd e027 abbb 8463 a2bd
00000050: ccde cfbd 0d1d efbd 6107 383d 90bf b8bd
00000060: 977f d53d f504 38bc 3803 613d 4836 60bd
00000070: 4e80 fb3d d7a7 383d c209 d73c 714d 24bd
00000080: 5a20 043e d85e 55bd a256 dcbd f659 05be
00000090: 53a3 e9bd d06d b3bd 31be c23d 414d d8bd
000000a0: 07f8 92bc e3cd 013e 367c 1cbd 486a 773c
000000b0: 4958 a73d 0e7f 7abd 26a8 38bd b838 023d
000000c0: 87fd 97bd c3d7 ab3d cd97 ccbd 691a 8abd
000000d0: 3dcb cdbd 3b47 863d f2d0 6bbb 23cb f3bd
000000e0: 1d40 b43d 7b73 b43d 5e49 a9bd 6193 eb3b
000000f0: 9f99 2cbc 8933 9d3a 987d 9f3c e92d fdbd
00000100: 6933 8c3d 83ce f5bd 5800 98bd 8a7e 8c3d
00000110: 3675 e93d a8a2 a63d 60ad da3d 5493 57bd
00000120: 6206 1dbd 4415 d83c 64e9 ecbd fc8e ecbd
00000130: ddf7 c23d f0eb dfbd 9842 02be d960 52bd
00000140: cf3e 52bd e915 80bd e7a6 d03d 9fd9 df3d
00000150: b5f6 0fbd c299 293d c0dc 00bd 0339 bc3c
00000160: 4509 afbd e955 df3c be71 a8bb aa44 7dbd
00000170: e603 bb3c 1c6d 953c 0775 bcbd 3191 dabd
00000180: 014c e43d 56f7 8dbc eda6 833d a487 723b
00000190: 5a34 48bd ba20 013d 1654 bc3c d2fe 2bbe
000001a0: 5c03 bb3c b391 c33d 7c4b 283d 5d18 063e
000001b0: c6d2 b83d 573b dcbd 2226 14ba f446 d53d
000001c0: 43fa 94bd 48bf 833d 7141 8c3c 6d7c 943d
000001d0: b0d5 acb9 c581 b2bd 298f 80bc 791e 68bd
000001e0: b0a3 b33d cb67 103c c440 63bd d9cf 513d
000001f0: ccee fbbd 84fc cdbd e5da 173d 17d8 80bd
00000200: 0860 81bd 325c 033d 3d94 263c 1d5a abbd
00000210: fc3b bfbd dafd eb3d b51d 003d e91c eebd
00000220: 9bc8 aa3d 0a99 7ebd 8cdd 783d 20ef b03d
00000230: 77c0 a2bd 6b8a f53b 40ac 56bc 5157 bcbd
00000240: 4c37 4b3d 1726 c3bb 2893 91bb 67b9 b7bd
00000250: 0b6d c03c f4a4 b53d f602 843c 8b57 5cbd
00000260: c69b 3bbd f6a6 443d 7c59 cfbd 07af 703d
00000270: f23b d5bc 8e20 cf3d 9bfc 31bd 8598 05be
00000280: 0aa8 813d 59cd de3d 05e8 093e bb38 a5bd
00000290: 9ac0 c6bd 56f9 bcbd 80c8 4b3d 3cd8 fbbd
000002a0: 2d31 03be a9b1 14be 3265 52bd 4685 c6bd
000002b0: 6c0e 5abd efeb 07be 78ca fcbd 03dd 21bd
000002c0: 89a3 f13c 360f 9a3d a3f7 bf3d 19bd 6ebd
000002d0: 36f1 6f3d 2674 7c3c 88f3 683c 1f13 653d
000002e0: 183b 95bd 8b10 5fbd a9d9 9abc 0ebb 04be
000002f0: 97eb 5a3d 93c4 493d d42d 823c fe69 e9bd
00000300: ba57 b4bd 517e 893d 2a8e 37bd 9baa dcbd
00000310: e6f4 54bd 624b 97bd 0965 783d 38c5 08bd
00000320: 8910 cfbd 2b30 24bd 5929 13bd f185 aa3c
00000330: b14f ae3d 254e a8bd 52db c1bd c18e 413d
00000340: c11d 44bd 087c b83d ac57 cd3d fc4c ba3d
00000350: f4b0 54bd 087b e13d dd74 e83d 83e0 96bd
00000360: 11df fe3d 852e f83d a4fb 753a 306b c0bd
00000370: c3ea f23c 098b aebc 66c9 e8bc d42b f9bd
00000380: 1666 473d de5d eebc a617 c33d e0be 113e
00000390: ffde 673d dff9 2d3d dd32 93bd a28c febc
000003a0: ffc2 90bd 543f c6bd 0fe6 ca3d f5b3 84bd
000003b0: ab0e 033e d5c9 8cbc c383 1d3d e7ef 943d
000003c0: 64c0 b1bd a9e4 85bd f997 87bd 05c1 81bd
000003d0: 2fa0 e73d 70bb 833d 8370 9c3d f69f c43c
000003e0: 21ba a3bd d470 f63d c718 053d 2198 9d3c
000003f0: 3177 e1bd eb50 883d abe3 9ebd e401 af3c

bias f4 [256]
0.07471278 0.052635495 0.049306974 0.041018706 -0.080298275 0.12007886 0.0071405605 -0.04528479
-0.097884424 0.119210325 -0.0945652 -0.025390645 0.07872289 -0.05907773 -0.026254052 -0.088728905
-0.0871841 0.10570839 -0.11877325 -0.01353381 0.009437882 0.117953174 -0.02385949 0.09754358
-0.041567184 -0.082675055 -0.115165606 -0.07560525 0.07789187 -0.0049913335 -0.0908748 0.11939613
0.010623483 -0.03735014 -0.02537522 0.0011731101 -0.011125254 0.013131167 0.13034299 -0.050960794
0.0853806 0.13074239 -0.03958884 -0.12319497 0.114893496 0.000951584 -0.07795132 -0.12561598
-0.06901452 -0.11996447 0.056053378 0.05001976 0.042097554 -0.07449197 0.06873023 -0.11812548
0.029618038 -0.0017756528 0.014734589 -0.07214869 -0.078324065 -0.04401925 0.036709387 0.048858687
-0.06842918 0.048019923 -0.107866965 -0.03610708 0.11235171 -0.12541766 -0.037049275 0.108514525
-0.013813647 0.09198375 -0.10348142 0.07472 0.001547511 0.04753337 -0.027279738 0.09883379
0.12896022 0.005857959 -0.1077215 -0.03737351 0.050712075 0.094278924 -0.107415706 -0.0075053046
0.11376384 -0.08266508 -0.0779941 0.11996308 0.106272824 0.05537626 0.051124826 -0.02471173
-0.08999329 -0.12657613 0.11700898 0.101726785 0.060791306 0.06222618 -0.009937337 -0.0732202
-0.096561186 -0.11727858 -0.116292775 0.09523733 -0.08547879 -0.00026952507 0.03671571 0.057221416
0.08793616 -0.0018336645 0.006253237 -0.012878541 0.039940983 -0.006975743 -0.055019733 0.061437257
0.052470762 -0.060722087 0.09836558 0.05428323 0.018865589 0.05100153 -0.09096867 0.0765249
-0.120179586 -0.08173762 -0.06362946 -0.1020014 0.06513104 0.03814108 -0.03168468 0.052864745
-0.105715625 -0.03792554 0.04113898 0.09449827 0.07191723 -0.11245348 -0.08714525 -0.08867816
0.1046412 0.018399727 -0.084821574 0.08571304 -0.06883961 -0.088896655 0.017662708 0.06349809
-0.016422525 -0.0873719 0.09031966 -0.11929852 -0.013416408 0.021685218 -0.068390235 0.04568061
-0.02911738 -0.049789146 0.021435678 0.08728359 -0.11606672 0.011195514 0.045073085 0.12952456
-0.072919786 0.03776518 0.08563056 -0.125182 -0.096780814 0.076856345 -0.021407519 0.114188485
0.08380954 -0.08771073 0.1182902 -0.048106328 -0.06501027 -0.04063145 0.038490754 0.11758078
0.11288569 -0.08675997 0.015743813 -0.12187059 -0.09028211 0.111676216 0.0698594 -0.10691281
-0.10610238 -0.06784696 0.0066054966 -0.021193668 0.0674215 -0.12133824 0.015407016 0.0013178473
-0.09586054 0.09912046 0.09237903 0.05390047 0.124349765 0.08805776 0.030294511 -0.11614382
-0.04989784 0.053473767 0.00961214 0.013685199 0.0049263267 0.0439724 0.028413152 -0.07227191
0.045842804 0.100490905 0.03391427 0.011391678 -0.077238314 -0.095645286 -0.05798941 0.08264749
-0.07121335 -0.026035532 0.049042296 0.03892517 0.083411016 0.1279166 0.011693376 -0.12046544
0.09578244 0.003207555 -0.08588347 0.11528726 -0.09447482 -0.06477875 0.1111634 0.0035052584
0.028190391 -0.03162735 0.022279413 -0.02238913 0.028000776 -0.037679978 0.042610813 -0.025673386
-0.0943686 -0.086112075 -0.015321089 0.00629225 0.09545796 -0.06267459 -0.033411905 -0.037336662
00000000: 0403 993d 5198 573d 1cf6 493d 3b03 283d
00000010: 6c73 a4bd e8eb f53d 5dfb e93b 8b7c 39bd
00000020: a177 c8bd 8b24 f43d 66ab c1bd 0b00 d0bc
00000030: 7739 a13d 7dfb 71bd bd12 d7bc 80b7 b5bd
00000040: 948d b2bd a47d d83d 643f f3bd eabc 5dbc
00000050: 59a1 1a3c 6f91 f13d fa74 c3bc eec4 c73d
00000060: 5a42 2abd 8a51 a9bd f2db ebbd edd6 9abd
00000070: c685 9f3d 578e a3bb 911c babd f585 f43d
00000080: 1e0e 2e3c 76fc 18bd b2df cfbc 0bc3 993a
00000090: b346 36bc 1b24 573c a278 053e 44bc 50bd
000000a0: 06dc ae3d 55e1 053e e827 22bd a54d fcbd
000000b0: 484d eb3d b973 793a f1a4 9fbd 7aa1 00be
000000c0: 7c57 8dbd efaf f5bd 3a98 653d 85e1 4c3d
000000d0: 7c6e 2c3d 3f8f 98bd 6fc2 8c3d c6eb f1bd
000000e0: 87a1 f23c 05bd e8ba 5869 713c b1c2 93bd
000000f0: 5e68 a0bd 874d 34bd 955c 163d 0c20 483d
00000100: 9924 8cbd 8ab0 443d 5be9 dcbd 04e5 13bd
00000110: a718 e63d 7d6d 00be fbc0 17bd dd3c de3d
00000120: a352 62bc fa61 bc3d 11ee d3bd cd06 993d
00000130: dad5 ca3a 5ab2 423d c279 dfbc 5f69 ca3d
00000140: 260e 043e 1ff4 bf3b 179d dcbd f714 19bd
00000150: 77b7 4f3d 4f15 c13d c4fc dbbd 0fef f5bb
00000160: 04fd e83d 4f4c a9bd 5fbb 9fbd 34af f53d
00000170: 91a5 d93d 38d2 623d 4468 513d 4170 cabc
00000180: 674e b8bd 2c9d 01be 67a2 ef3d 2256 d03d
00000190: 4e00 793d e1e0 7e3d 36d0 22bc 79f4 95bd
000001a0: dfc1 c5bd c12f f0bd e82a eebd ca0b c33d
000001b0: 810f afbd 0b4f 8db9 3663 163d 0161 6a3d
000001c0: e017 b43d 9257 f0ba f4e7 cc3b 8400 53bc
000001d0: 2899 233d c694 e4bb 5f5c 61bd a2a5 7b3d
000001e0: 95eb 563d b9b7 78bd e573 c93d 1858 5e3d
000001f0: 028c 9a3c fbe6 503d c84d babd 16b9 9c3d
00000200: b720 f6bd 0e66 a7bd 2a50 82bd 1ce6 d0bd
00000210: 6c63 853d d239 1c3d ccc7 01bd b488 583d
00000220: 6f81 d8bd d057 1bbd 5981 283d 4f88 c13d
00000230: 5749 933d 034e e6bd 3579 b2bd e59c b5bd
00000240: 204e d63d 06bb 963c efb6 adbd 518a af3d
00000250: c8fb 8cbd 730f b6bd 62b1 903c 490b 823d
00000260: 8888 86bc 0af0 b2bd 84f9 b83d c852 f4bd
00000270: 7ed0 5bbc 33a5 b13c 2e10 8cbd 971b 3b3d
00000280: 9287 eebc b4ef 4bbd e099 af3c bdc1 b23d
00000290: 63b4 edbd 646d 373c 8e9e 383d 16a2 043e
000002a0: f856 95bd a9af 1a3d 135f af3d b62f 00be
000002b0: 0535 c6bd dc66 9d3d d25e afbc a7db e93d
000002c0: 56a4 ab3d afa1 b3bd 2242 f23d 240b 45bd
000002d0: 1b24 85bd 2a6d 26bd 7ba8 1d3d 31ce f03d
000002e0: 9d30 e73d 36af b1bd 2bf9 803c 4a97 f9bd
000002f0: d4e5 b8bd 80b6 e43d 7212 8f3d 1af5 dabd
00000300: 344c d9bd 59f3 8abd ec72 d83b 589e adbc
00000310: 4914 8a3d 2f80 f8bd b56d 7c3c 9ebb ac3a
00000320: 8852 c4bd abff ca3d 3831 bd3d bdc6 5c3d
00000330: 17ab fe3d a057 b43d 322c f83c d0dc edbd
00000340: ad61 4cbd 4f07 5b3d 3d7c 1d3c e337 603c
00000350: 066d a13b 671c 343d b3c2 e83c 4c03 94bd
00000360: aac5 3b3d 2dce cd3d b1e9 0a3d 29a4 3a3c
00000370: 1f2f 9ebd ade1 c3bd 4e86 6dbd 1643 a93d
00000380: 4ed8 91bd 7848 d5bc 93e0 483d 0070 1f3d
00000390: 65d3 aa3d 92fc 023e 9395 3f3c 96b6 f6bd
000003a0: 9529 c43d d835 523b ace3 afbd ba1b ec3d
000003b0: 047c c1bd b9aa 84bd a3a9 e33d 7ab8 653b
000003c0: 89ef e63c ae8b 01bd 5183 b63c 6969 b7bc
000003d0: e261 e53c 5256 1abd ad88 2e3d fe50 d2bc
000003e0: 5344 c1bd 875b b0bd 4e05 7bbc 382f ce3b
000003f0: 777f c33d 895b 80bd ecda 08bd 54ee 18bd

weight f4 [256]
0.9879906 1.0077153 1.0010946 0.9900486 0.99525946 1.003752 1.022521 1.0077102
0.9936496 0.9981698 0.987125 1.001989 0.984846 1.0014445 1.012133 1.0095599
1.0037715 1.001706 1.0022626 1.00357 1.0047159 1.0041599 0.9847744 0.9856303
0.98555183 1.0051497 1.0031776 0.98802394 1.000917 0.98448414 1.0210881 1.0044187
0.9854232 0.9933089 1.0009391 0.9857366 1.0039436 1.0041962 0.9881457 0.9877191
0.9980218 1.0030841 1.0079882 1.006464 0.98130506 1.0108138 0.9832547 1.0005636
1.0059059 0.9842774 0.985608 1.0035073 1.0101376 0.99443513 0.99049646 1.0024182
1.0041624 1.0105033 0.9800084 1.0020816 0.99652606 1.003816 1.0136971 1.0058794
0.98192465 1.0008805 1.0044326 1.0027739 0.9975014 0.98582304 0.9849787 0.9957198
1.0077043 1.0022242 1.009983 1.0081769 0.9885365 1.0191563 1.0074357 1.0081143
0.9996123 0.98281854 1.0045344 1.0047513 0.9944442 1.0052817 1.0046978 1.0061028
1.004667 1.0030166 0.9872528 1.0014409 1.0004026 1.001169 1.0055513 1.0060568
1.0023289 1.0024207 1.001348 0.98920804 1.003781 1.006622 0.98883003 0.98867226
1.0066117 0.9887569 1.001786 1.0353377 0.9795668 0.9901757 1.005138 1.0032146
1.0005127 1.0054042 1.0016049 0.99989897 1.0037836 1.0010376 0.9809425 0.9940525
1.0100888 0.9800067 0.9973725 1.0057725 0.9978533 1.0021933 1.0030509 1.0091844
1.0058898 1.0097632 0.99318355 0.9917227 1.0019244 0.9905743 1.0059483 0.98504066
1.0013304 0.98276514 1.0053594 1.0046184 1.0031888 1.0014871 0.9970325 1.0002587
0.9881219 1.0015888 1.0005352 1.0020674 1.0052041 0.9877184 1.0044056 1.0046818
1.0080379 0.99227154 0.999397 1.0082636 1.004159 0.9973026 1.0113621 1.0181798
1.0221719 0.98363364 0.985421 0.9841702 0.9923801 0.99697375 1.0143054 0.9803148
0.9948618 0.99166507 1.006639 1.0038702 1.0071284 0.988728 0.98880196 1.0063223
1.0083575 1.0061086 1.0129864 1.0077136 1.0026276 0.992598 1.0038583 1.0006542
1.0019238 1.0079317 0.9971946 0.99744374 1.0118179 1.0039039 0.9954886 1.0152875
0.9847423 1.0090282 0.98103446 0.9866197 1.0083555 1.0026957 1.0010375 0.98989064
1.0009854 1.01666 0.98925173 1.0069469 1.0094296 1.0046978 0.979758 0.9907974
1.0174003 1.02618 1.009794 1.0033251 1.0036219 1.0050405 1.0058948 1.0119101
0.9967801 1.0009812 1.0004277 0.9950389 1.0073469 0.9946103 0.99769986 0.9862808
0.9853999 0.9972053 0.9780731 0.99055904 0.9935725 1.0186496 1.0022938 0.9929517
1.0135274 1.0006988 0.99564177 0.9902717 1.0063367 1.0022894 1.0053791 1.0084045
0.99597317 0.9930298 0.99255794 0.9793034 1.0047078 1.0032684 1.0047688 1.0255079
1.0137067 0.9930624 1.0070779 1.007511 0.9971909 0.9924487 0.981493 1.007176
00000000: f4ec 7c3f d1fc 803f de23 803f d373 7d3f
00000010: 53c9 7e3f f27a 803f f8e1 823f a6fc 803f
00000020: d25f 7e3f 0e88 7f3f 39b4 7c3f 2d41 803f
00000030: de1e 7c3f 552f 803f 938d 813f 4239 813f
00000040: 967b 803f e737 803f 244a 803f fb74 803f
00000050: 889a 803f 5088 803f 2d1a 7c3f 4452 7c3f
00000060: 204d 7c3f bfa8 803f 2068 803f 23ef 7c3f
00000070: 0c1e 803f 2707 7c3f 04b3 823f cb90 803f
00000080: b244 7c3f 7e49 7e3f c61e 803f 3c59 7c3f
00000090: 3981 803f 8089 803f 1ef7 7c3f 29db 7c3f
000000a0: 5b7e 7f3f 0f65 803f c205 813f d0d3 803f
000000b0: cf36 7b3f 5962 813f 94b6 7b3f 7812 803f
000000c0: 86c1 803f 9bf9 7b3f ce50 7c3f ed72 803f
000000d0: 304c 813f 4d93 7e3f 2d91 7d3f 3d4f 803f
000000e0: 6588 803f 2c58 813f d5e1 7a3f 3644 803f
000000f0: 551c 7f3f 0b7d 803f d4c0 813f a8c0 803f
00000100: 6a5f 7b3f da1c 803f 3f91 803f e55a 803f
00000110: 405c 7f3f e65e 7c3f 9027 7c3f 7ee7 7e3f
00000120: 74fc 803f e248 803f 1f47 813f f10b 813f
00000130: ba10 7d3f b773 823f a7f3 803f e409 813f
00000140: 97e6 7f3f ff99 7b3f 9594 803f b19b 803f
00000150: e593 7e3f 12ad 803f f099 803f fac7 803f
00000160: ee98 803f d962 803f 99bc 7c3f 372f 803f
00000170: 310d 803f 4e26 803f e8b5 803f 78c6 803f
00000180: 504c 803f 524f 803f 2c2c 803f bd3c 7d3f
00000190: e57b 803f fdd8 803f f723 7d3f a019 7d3f
000001a0: a7d8 803f 2c1f 7d3f 863a 803f f285 843f
000001b0: e4c4 7a3f 287c 7d3f 5da8 803f 5669 803f
000001c0: cd10 803f 16b1 803f 9734 803f 61f9 7f3f
000001d0: fb7b 803f 0022 803f 0c1f 7b3f 3a7a 7e3f
000001e0: 974a 813f b8e1 7a3f ce53 7f3f 27bd 803f
000001f0: 5073 7f3f df47 803f f963 803f f42c 813f
00000200: ffc0 803f ec3f 813f 4741 7e3f 8ae1 7d3f
00000210: 0f3f 803f 4796 7d3f eac2 803f a02b 7c3f
00000220: 982b 803f 7f96 7b3f 9eaf 803f 5697 803f
00000230: 7e68 803f bb30 803f 863d 7f3f 7a08 803f
00000240: 8ff5 7c3f 1034 803f 8a11 803f bf43 803f
00000250: 87aa 803f 1ddb 7c3f 5d90 803f 6a99 803f
00000260: 6307 813f 8205 7e3f 7bd8 7f3f c80e 813f
00000270: 4888 803f 394f 7f3f 5074 813f b753 823f
00000280: 87d6 823f 6acf 7b3f 8d44 7c3f 94f2 7b3f
00000290: 9f0c 7e3f ac39 7f3f c2d4 813f e9f5 7a3f
000002a0: 43af 7e3f c3dd 7d3f 8cd9 803f d27e 803f
000002b0: 95e9 803f 471d 7d3f 2022 7d3f 2bcf 803f
000002c0: dc11 813f 2bc8 803f 8aa9 813f c2fc 803f
000002d0: 1a56 803f e71a 7e3f 6e7e 803f 7015 803f
000002e0: 0a3f 803f e803 813f 2548 7f3f 7958 7f3f
000002f0: 4083 813f ec7f 803f 57d8 7e3f f1f4 813f
00000300: 1218 7c3f d627 813f 1325 7b3f 1c93 7c3f
00000310: cb11 813f 5558 803f ff21 803f 7969 7d3f
00000320: 4a20 803f ea21 823f 9a3f 7d3f a3e3 803f
00000330: fd34 813f f099 803f 6cd1 7a3f e6a4 7d3f
00000340: 2c3a 823f de59 833f ee40 813f f56c 803f
00000350: af76 803f 2ba5 803f 29c1 803f 4586 813f
00000360: fb2c 7f3f 2720 803f 040e 803f dfba 7e3f
00000370: bef0 803f c89e 7e3f 4269 7f3f e67c 7c3f
00000380: 2b43 7c3f d948 7f3f 0063 7a3f 4795 7d3f
00000390: c45a 7e3f 1c63 823f 2a4b 803f 1532 7e3f
000003a0: 44bb 813f e616 803f 61e2 7e3f 7282 7d3f
000003b0: a4cf 803f 054b 803f 43b0 803f 6613 813f
000003c0: 19f8 7e3f 3337 7e3f 4718 7e3f a1b3 7a3f
000003d0: 449a 803f 196b 803f 449c 803f d843 833f
000003e0: 24c1 813f 5639 7e3f eee7 803f 1ff6 803f
000003f0: e747 7f3f 1e11 7e3f 2043 7b3f 25eb 803f

bias f4 [256]
-0.0021789377 0.0052223373 -0.00042743678 0.009588519 0.0080373995 0.0050922805 0.0059059793 0.004351735
0.0011341247 0.0068842713 -0.0032997467 0.0058383625 -0.0050260564 -0.001970204 -0.0018448196 0.012149779
-0.004189367 0.0012209938 -0.007964863 -0.0011861786 -0.0050022905 -0.0008260284 -0.0036227445 -0.0074985675
-0.0013975749 0.0032603398 0.011623075 -0.0041193673 -0.003357088 0.003214351 0.006508518 -0.0021784047
-0.0012932016 -8.007326e-05 -0.0019236142 -0.0065706125 -0.0016568591 -0.00021639501 -0.0071850196 -0.0036565615
-0.0073545743 0.0024445106 0.008116859 0.00180391 -0.002698524 0.008892291 -0.010079375 -0.0033949171
0.01029976 0.0013397732 0.008913969 0.0015705094 0.014854491 0.006957227 -0.013754915 -9.601627e-05
0.009924875 0.005099033 -0.007588984 0.0050177393 0.00019724609 0.010816671 0.011081866 0.0082337
-0.0053450563 0.0056808665 0.0013876966 0.007915463 -0.004208837 0.0005256669 0.0024624646 -0.0021470194
0.0010860632 -0.0116269775 0.0055870106 0.0104452465 -0.0036479167 0.005244171 0.01809973 0.0068012746
-0.0047847475 -0.009017368 0.008771939 0.009435225 -0.010351646 0.004973399 0.0039117783 0.0033060694
0.0040183123 0.009146119 -0.00043000196 0.002866333 -0.002249906 -0.0019999475 0.0038196654 0.009865292
0.001733041 0.011012984 0.000948002 0.0009476827 0.0040034675 -0.0019498079 -0.009834815 -0.013853857
0.011599098 0.0048620505 0.001911696 0.0030914212 0.007002441 -0.0039190794 0.0078016166 -0.0027297735
0.0029205577 0.007805739 -0.0057127206 -0.0012265752 -0.0021423586 0.0030231543 -0.0055910833 -0.0016355576
0.00472056 -0.0054139905 -0.00631778 0.0020295237 0.0054371147 0.0023160677 -0.0013053184 0.006672628
-0.0016537094 0.0023232284 0.0019532633 0.00011875394 0.0020048774 -1.5241764e-05 0.0038253856 -0.004650338
-0.0025465302 -0.0016752909 0.009876364 0.011679412 0.0011125518 0.0056088557 0.00047376315 -0.005691219
-0.008840848 0.0019624897 0.0016826994 -0.0035070677 0.0089949155 -0.001264369 0.00636906 0.0017245018
0.0058973613 -0.0011683456 0.0072651706 0.00019417604 0.006033887 0.0043893643 0.005199721 0.009500769
-0.000706705 -0.0013928341 -0.0024376782 -0.007836942 0.0069921375 -0.004542929 0.011478771 -0.0038584997
0.0070064035 0.005256321 0.006869927 0.002490137 0.003229799 -0.00065445184 0.00030367394 0.0031681312
0.0072485367 0.0019586384 0.011905836 0.0143680535 0.008292537 -0.013060856 -0.0021463535 0.0022705903
0.008673204 0.006473505 0.0052108136 0.006160333 0.019095663 0.0063343 0.001842347 0.0020551581
0.003027624 0.016349755 -0.003257197 0.0043531326 0.0059501724 0.0010887687 -0.010876123 -0.004542777
-0.0028870823 0.003601633 -0.0033668762 0.0018318748 0.0046081613 -0.00033747198 -0.00023206443 0.0040382906
-0.00048343124 0.009831835 0.008827965 0.0054460275 -0.0063363947 0.0059676208 0.010741385 0.013167133
0.0016246426 0.0075638923 0.0017295509 -0.001095326 0.0071791937 -0.0021780562 -0.0022265546 -0.0026781177
-0.005067843 -0.0012082165 0.0049303584 0.0030234389 0.0014824849 0.010978307 0.0070440634 -0.0035530608
0.007843369 -0.0035963026 -0.0050335475 -0.0025280747 0.008972007 -0.0032437828 0.005171398 0.0052678683
-0.004621002 0.003157398 0.0031101713 -0.0073069795 0.0115340855 -0.0023766125 0.0032007536 -0.0004919338
0.0069533754 0.0035481062 0.0054746363 0.005316271 -0.0049948874 0.0043013045 -0.011929448 0.012377634
00000000: 82cc 0ebb 2420 ab3b 9819 e0b9 2a19 1d3c
00000010: 4caf 033c 25dd a63b f286 c13b 0099 8e3b
00000020: e9a6 943a 7495 e13b 9040 58bb bc4f bf3b
00000030: 9eb1 a4bb 8a1e 01bb e0cd f1ba de0f 473c
00000040: f546 89bb c109 a03a 0f7f 02bc 8d79 9bba
00000050: 41ea a3bb d489 58ba 916b 6dbb 8bb6 f5bb
00000060: d52e b7ba 6dab 553b b66e 3e3c c2fb 86bb
00000070: 9702 5cbb dca7 523b 6845 d53b 91c3 0ebb
00000080: a580 a9ba 01ed a7b8 c821 fcba 4b4e d7bb
00000090: f72a d9ba 18e8 62b9 5070 ebbb eca2 6fbb
000000a0: a4fe f0bb 1534 203b 93fc 043c 2d71 ec3a
000000b0: b8d9 30bb f9b0 113c f623 25bc 427d 5ebb
000000c0: 53c0 283c 549b af3a e50b 123c 8dd9 cd3a
000000d0: 4060 733c 73f9 e33b 4c5c 61bc 585c c9b8
000000e0: f19b 223c ca15 a73b 03ad f8bb d96b a43b
000000f0: d8d3 4e39 6838 313c b790 353c a4e6 063c
00000100: 9525 afbb 9026 ba3b 5fe3 b53a dcaf 013c
00000110: 49ea 89bb e9cc 093a 4d61 213b 02b5 0cbb
00000120: 3c5a 8e3a 147f 3ebc 3e13 b73b 8a22 2b3c
00000130: e311 6fbb 4bd7 ab3b e345 943c 3add de3b
00000140: 5fc9 9cbb 95bd 13bc 2eb8 0f3c 3496 1a3c
00000150: f399 29bc e5f7 a23b 602e 803b a4aa 583b
00000160: 0cac 833b 9ad9 153c e371 e1b9 16d9 3b3b
00000170: 2973 13bb 8d11 03bb 5a53 7a3b 09a2 213c
00000180: 3527 e33a ce6f 343c 5683 783a e96d 783a
00000190: 852f 833b b290 ffba 3422 21bc 4afb 62bc
000001a0: 250a 3e3c d651 9f3b e091 fa3a 7199 4a3b
000001b0: bc74 e53b 9f6b 80bb b4a4 ff3b 00e6 32bb
000001c0: d466 3f3b 49c7 ff3b c631 bbbb 09c5 a0ba
000001d0: d066 0cbb 1d20 463b 6835 b7bb 3560 d6ba
000001e0: edae 9a3b d867 b1bb 6105 cfbb c201 053b
000001f0: d329 b23b 2bc9 173b 3817 abba 10a6 da3b
00000200: 48c1 d8ba 4e41 183b 5202 003b 890b f938
00000210: 4364 033b e1b6 7fb7 52b3 7a3b dd61 98bb
00000220: b0e3 26bb 6f95 dbba 79d0 213c 015b 3f3c
00000230: 0bd3 913a 7eca b73b 6a63 f839 687d babb
00000240: 34d9 10bc 1d9d 003b 068e dc3a d5d6 65bb
00000250: 695f 133c 2fb9 a5ba 8cb3 d03b ae08 e23a
00000260: a73e c13b 2c23 99ba ab10 ee3b bc9b 4b39
00000270: eab7 c53b a8d4 8f3b 6c62 aa3b 1da9 1b3c
00000280: 2b42 39ba c28f b6ba 74c1 1fbb 8466 00bc
00000290: 4d1e e53b dadc 94bb 7511 3c3c e2de 7cbb
000002a0: f995 e53b 373d ac3b 201d e13b 9131 233b
000002b0: 09ab 533b 858f 2bba 6d36 9f39 6ca0 4f3b
000002c0: 2285 ed3b 805c 003b b210 433c fc67 6b3c
000002d0: 6cdd 073c 33fd 55bc d6a9 0cbb 2fce 143b
000002e0: 0e1a 0e3c b21f d43b 79bf aa3b 9edc c93b
000002f0: 826e 9c3c f68f cf3b e87a f13a d5af 063b
00000300: 1a6b 463b ecef 853c b376 55bb b9a4 8e3b
00000310: aaf9 c23b 04b5 8e3a c431 32bc 93db 94bb
00000320: 3435 3dbb 6009 6c3b cfa6 5cbb 851b f03a
00000330: 0f00 973b b9ee b0b9 5256 73b9 a353 843b
00000340: 0b75 fdb9 b415 213c 2ba3 103c 9774 b23b
00000350: 88a1 cfbb 088c c33b a2fc 2f3c f5ba 573c
00000360: f6f1 d43a 87da f73b 19b2 e23a 0b91 8fba
00000370: 713f eb3b b8bd 0ebb 63eb 11bb 5c83 2fbb
00000380: 2610 a6bb 055d 9eba d88e a13b e324 463b
00000390: f04f c23a 5bde 333c e3d1 e63b 78da 68bb
000003a0: 7981 003c f2af 6bbb 75f0 a4bb 0eae 25bb
000003b0: 53ff 123c a595 54bb d574 a93b 159e ac3b
000003c0: c66b 97bb 59ec 4e3b 04d4 4b3b 636f efbb
000003d0: 76f9 3c3c f1c0 1bbb bcc3 513b 1ef5 00ba
000003e0: 24d9 e33b 5887 683b 9464 b33b 1d34 ae3b
000003f0: 27ac a3bb f5f1 8c3b bb73 43bc 8fcb 4a3c

running_mean f4 [256]
-56.680187 -363.2842 307.4888 -209.87813 309.66266 -170.05931 856.3065 225.96605
387.02405 460.57126 -172.5579 -68.16907 -201.1906 -108.757576 676.27515 -218.27507
103.31725 409.2036 -280.8749 347.7373 76.71653 -9.048254 240.2199 -247.86427
-260.17914 -318.13803 252.69542 353.19293 -133.48044 56.929184 -518.8117 -194.89716
-0.3526004 -301.9891 -446.21225 -63.796867 -12.035318 -182.13881 -4.76666 315.40677
-414.8246 61.6061 -269.6319 333.17325 -254.70187 59.394745 -115.02147 65.63979
361.1544 -266.38327 -259.17642 38.05504 -208.32658 35.17878 242.86615 -255.81978
42.498367 77.79361 109.22986 380.74042 14.61339 69.82784 -92.745514 235.94559
-253.64531 -26.354702 16.295689 -18.329956 296.4079 -55.451004 -205.18294 141.908
80.39483 -7.305956 -231.06883 282.83792 234.89255 430.73807 4.4547806 -131.02412
-48.149357 1.7202369 284.47528 154.1982 -1.1815653 -89.11206 160.1862 123.05382
115.49552 221.12231 -239.53569 420.7932 371.6159 -3.7054315 -32.17723 214.39311
-23.805502 108.45575 -104.84519 148.02441 28.77866 -272.74466 -156.88466 412.52246
-131.16296 140.57497 -402.08255 862.728 -254.30734 85.87253 -201.71881 30.242796
-374.45187 86.17285 543.89264 -43.087963 169.44301 513.0729 7.541512 -42.58167
-302.31982 -184.47363 175.2163 187.27939 158.06555 185.80988 -303.5835 377.28506
-320.66724 -330.6901 393.55225 -142.06345 213.99496 -410.45984 -201.07756 -71.104836
280.27255 287.94296 43.3308 269.94742 -127.600334 75.51855 242.59267 -251.76892
349.9259 269.85074 -340.15295 -163.72052 178.12218 163.2652 86.293846 247.22896
-261.7581 217.71786 114.75916 -333.21793 99.30554 -127.29531 -298.1676 -304.479
574.2926 102.56104 -207.90948 -333.8067 -244.55548 -243.64984 -420.13806 -284.10583
-32.548397 116.5653 208.43542 -303.805 167.10036 264.7837 -99.18855 -199.05534
263.2014 178.81374 -59.0881 -234.95274 22.744453 -90.10163 -354.9785 -140.06648
-115.079285 -382.4912 288.77048 -209.73073 -104.200836 -143.9624 150.20908 496.47543
-2.2824898 -330.2481 -93.02704 50.545223 -229.47903 -92.35595 389.85367 216.31573
255.89398 400.25958 118.08484 -266.33887 -359.14203 -266.49597 -122.200584 176.66194
586.27277 763.95575 63.148888 28.136625 -105.97661 -365.91055 151.50719 29.305073
129.68037 -163.39413 438.2669 290.41806 -399.0833 -183.41861 90.57969 126.25474
131.02893 -87.0816 -210.82126 -211.63864 28.574297 -266.51395 282.25214 187.1984
166.59267 184.68788 -157.46141 -4.4257646 115.13926 -258.7454 -268.19043 101.95075
-223.95882 -318.5592 337.0254 24.276964 -79.52201 25.823984 166.21967 47.5996
-253.47173 311.3315 -180.7977 -115.6048 362.24503 -94.37238 -115.74539 399.49002
00000000: 83b8 62c2 61a4 b5c3 91be 9943 cde0 51c3
00000010: d2d4 9a43 2f0f 2ac3 9e13 5644 4ff7 6143
00000020: 1483 c143 1f49 e643 d38e 2cc3 9056 88c2
00000030: cb30 49c3 e183 d9c2 9c11 2944 6b46 5ac3
00000040: 6fa2 ce42 109a cc43 fd6f 8cc3 60de ad43
00000050: dd6e 9942 a6c5 10c1 4b38 7043 41dd 77c3
00000060: ee16 82c3 ab11 9fc3 07b2 7c43 b298 b043
00000070: fe7a 05c3 7cb7 6342 f3b3 01c4 ace5 42c3
00000080: 0a88 b4be 9bfe 96c3 2b1b dfc3 fe2f 7fc2
00000090: aa90 40c1 8923 36c3 7b88 98c0 11b4 9d43
000000a0: 8c69 cfc3 a56c 7642 e2d0 86c3 2d96 a643
000000b0: aeb3 7ec3 3894 6d42 fe0a e6c2 9347 8342
000000c0: c393 b443 0f31 85c3 9596 81c3 5c38 1842
000000d0: 9b53 50c3 12b7 0c42 bcdd 7243 ddd1 7fc3
000000e0: 54fe 2942 5496 9b42 b075 da42 c65e be43
000000f0: 72d0 6941 dba7 8b42 b47d b9c2 12f2 6b43
00000100: 33a5 7dc3 6ed6 d2c1 925d 8241 c0a3 92c1
00000110: 3634 9443 d4cd 5dc2 d52e 4dc3 73e8 0d43
00000120: 27ca a042 64ca e9c0 9f11 67c3 416b 8d43
00000130: 7ee4 6a43 795e d743 908d 8e40 2d06 03c3
00000140: f198 40c2 b930 dc3f d63c 8e43 bd32 1a43
00000150: 883d 97bf 6039 b2c2 ab2f 2043 8e1b f642
00000160: b5fd e642 501f 5d43 2389 6fc3 8865 d243
00000170: d6ce b943 ca25 6dc0 7cb5 00c2 a364 5643
00000180: ab71 bec1 58e9 d842 bdb0 d1c2 4006 1443
00000190: b23a e641 515f 88c3 79e2 1cc3 e042 ce43
000001a0: b829 03c3 3193 0c43 910a c9c3 98ae 5744
000001b0: ae4e 7ec3 bcbe ab42 04b8 49c3 3ff1 f141
000001c0: d739 bbc3 8058 ac42 21f9 0744 135a 2cc2
000001d0: 6971 2943 aa44 0044 1154 f140 a153 2ac2
000001e0: f028 97c3 4079 38c3 5f37 2f43 8647 3b43
000001f0: c810 1e43 54cf 3943 b0ca 97c3 7da4 bc43
00000200: 6855 a0c3 5558 a5c3 b0c6 c443 3e10 0ec3
00000210: b6fe 5543 dc3a cdc3 db13 49c3 ad35 8ec2
00000220: e322 8c43 b3f8 8f43 bd52 2d42 45f9 8643
00000230: 5f33 ffc2 7f09 9742 b997 7243 d8c4 7bc3
00000240: 84f6 ae43 e5ec 8643 9413 aac3 74b8 23c3
00000250: 471f 3243 e443 2343 7396 ac42 9d3a 7743
00000260: 09e1 82c3 c6b7 5943 b184 e542 e59b a6c3
00000270: 709c c642 3397 fec2 7415 95c3 503d 98c3
00000280: ba92 0f44 411f cd42 d4e8 4fc3 42e7 a6c3
00000290: 348e 74c3 5ca6 73c3 ac11 d2c3 8c0d 8ec3
000002a0: 8f31 02c2 6f21 e942 786f 5043 0ae7 97c3
000002b0: b119 2743 5064 8443 8a60 c6c2 2b0e 47c3
000002c0: c799 8343 51d0 3243 375a 6cc2 e7f3 6ac3
000002d0: a4f4 b541 0934 b4c2 3f7d b1c3 0511 0cc3
000002e0: 9828 e6c2 e03e bfc3 9f62 9043 11bb 51c3
000002f0: d466 d0c2 60f6 0fc3 8635 1643 db3c f843
00000300: 5014 12c0 c21f a5c3 d80d bac2 4f2e 4a42
00000310: a27a 65c3 3fb6 b8c2 45ed c243 d450 5843
00000320: dce4 7f43 3a21 c843 702b ec42 602b 85c3
00000330: 2e92 b3c3 7c3f 85c3 b366 f4c2 75a9 3043
00000340: 7591 1244 2bfd 3e44 7698 7c42 cf17 e141
00000350: 06f4 d3c2 8df4 b6c3 d781 1743 ca70 ea41
00000360: 2dae 0143 e664 23c3 2a22 db43 8335 9143
00000370: aa8a c7c3 2a6b 37c3 cd28 b542 6d82 fc42
00000380: 6807 0343 c729 aec2 3ed2 52c3 7ea3 53c3
00000390: 2998 e441 c941 85c3 4620 8d43 ca32 3b43
000003a0: b997 2643 19b0 3843 1f76 1dc3 dd9f 8dc0
000003b0: 4d47 e642 695f 81c3 6018 86c3 c9e6 cb42
000003c0: 75f5 5fc3 9447 9fc3 4083 a843 3937 c241
000003d0: 450b 9fc2 8597 ce41 3c38 2643 fe65 3e42
000003e0: c378 7dc3 6faa 9b43 36cc 34c3 a835 e7c2
000003f0: 5d1f b543 a9be bcc2 a47d e7c2 b9be c743

running_var f4 [256]
41.92843 9.40047 8.637964 9.918761 71.04474 15.431522 868.6098 67.54579
11.810137 24.709293 16.571238 9.107328 65.65868 44.489773 143.55478 71.70193
14.045684 282.13998 230.39613 8.460806 38.70027 99.52135 74.00225 123.528
17.321121 236.45688 58.114403 194.74335 101.306465 6.062798 44.524307 259.9422
7.4551396 12.716954 11.17995 100.16108 55.27975 78.96325 19.895203 163.80618
538.5023 27.660376 10.746496 12.03782 34.065174 10.427536 96.80998 90.867485
82.04026 46.012493 47.331886 71.194046 133.32784 141.21344 11.526025 69.483574
71.03332 21.71545 64.57563 48.042385 14.190226 106.245834 7.894228 50.217945
60.821655 28.21232 21.350576 31.311235 169.79607 67.85022 130.8699 19.422878
62.074272 10.220361 15.772525 63.236767 18.314655 64.12953 23.33618 48.37488
60.45889 7.994589 149.37112 40.245678 12.8610735 56.238194 6.208611 10.9152775
11.631132 10.936651 94.84996 24.853798 35.013798 5.5087376 15.613031 104.197464
61.04837 102.65056 26.060694 91.65365 55.987503 90.40964 23.225027 705.1266
114.98771 38.093784 17.050724 1300.1849 91.93234 29.152138 48.541836 99.01349
13.3495455 86.02104 18.408503 77.83565 21.02549 11.474128 84.70981 25.13984
23.800495 79.78404 71.467964 69.30793 61.629753 69.514984 24.941057 149.41324
18.797966 20.172647 123.193794 4.6667657 85.96632 16.61635 15.596242 42.25191
38.19304 88.439575 94.85367 19.933754 13.980535 5.7040296 105.13661 247.16025
21.144964 28.118809 10.087326 37.53978 59.056995 47.788006 25.436373 42.80476
9.607544 669.22235 32.207645 22.318516 27.123905 14.178845 14.204845 14.870172
1027.4445 12.641787 77.24196 9.0281315 23.481127 18.561888 18.148338 70.493385
30.977324 41.98426 11.52877 60.045536 45.864372 98.55449 92.25663 5.863927
52.297512 220.22467 15.319905 13.612047 71.47082 29.453375 14.335524 60.50356
49.40572 25.420328 9.072271 15.211096 14.818157 84.45311 17.021519 15.833773
65.99869 77.64188 442.85187 79.936424 71.03358 14.802643 360.2571 11.206036
124.54339 498.62863 71.63945 17.258812 11.781292 86.407455 61.56673 5.396075
245.73935 32.816284 388.75275 25.376678 43.500248 94.6308 59.422245 9.292691
401.1515 12.390247 50.992 25.292885 29.309902 16.064482 28.56419 96.7611
58.833206 118.54688 91.36406 15.791363 11.286203 9.846428 9.610245 49.29048
30.774296 29.349007 5.703143 57.67241 107.59481 137.2872 14.090387 17.606926
8.280019 33.748997 69.952225 49.699394 88.463036 36.069134 62.983223 30.39938
16.31836 7.8802567 9.062197 60.44439 80.348404 9.21933 41.88548 93.49215
00000000: b6b6 2742 5368 1641 1a35 0a41 3fb3 1e41
00000010: e816 8e42 84e7 7641 0727 5944 7217 8742
00000020: 52f6 3c41 a2ac c541 e591 8441 9eb7 1141
00000030: 3f51 8342 87f5 3142 068e 0f43 6367 8f42
00000040: 1fbb 6041 eb11 8d43 6965 6643 765f 0741
00000050: 14cd 1a42 ee0a c742 2701 9442 560e f742
00000060: a891 8a41 f674 6c43 2675 6842 4cbe 4243
00000070: e99c ca42 7102 c240 e418 3242 9af8 8143
00000080: 8190 ee40 a578 4b41 13e1 3241 7952 c842
00000090: 771e 5d42 2fed 9d42 6029 9f41 62ce 2343
000000a0: 26a0 0644 7348 dd41 a6f1 2b41 e99a 4041
000000b0: bd42 0842 30d7 2641 b69e c142 27bc b542
000000c0: 9d14 a442 cb0c 3842 da53 3d42 5a63 8e42
000000d0: ed53 0543 a436 0d43 996a 3841 97f7 8a42
000000e0: 0f11 8e42 3eb9 ad41 b926 8142 672b 4042
000000f0: 2a0b 6341 de7d d442 849d fc40 2ddf 4842
00000100: 6049 7342 d5b2 e141 fbcd aa41 697d fa41
00000110: cbcb 2943 50b3 8742 b2de 0243 0e62 9b41
00000120: 0e4c 7842 9986 2341 435c 7c41 73f2 7c42
00000130: 6a84 9241 5242 8042 7fb0 ba41 e17f 4142
00000140: e7d5 7142 acd3 ff40 025f 1543 93fb 2042
00000150: f5c6 4d41 e9f3 6042 f1ac c640 faa4 2e41
00000160: 1e19 3a41 86fc 2e41 2eb3 bd42 94d4 c641
00000170: 210e 0c42 9447 b040 face 7941 1a65 d042
00000180: 8831 7442 164d cd42 4d7c d041 ab4e b742
00000190: 34f3 5f42 bcd1 b442 dbcc b941 1a48 3044
000001a0: b5f9 e542 0960 1842 e267 8841 eb85 a244
000001b0: 5cdd b742 9437 e941 d72a 4242 e806 c642
000001c0: bd97 5541 c60a ac42 9d44 9341 daab 9b42
000001d0: 3434 a841 0796 3741 6c6b a942 641e c941
000001e0: 6a67 be41 6e91 9f42 99ef 8e42 a99d 8a42
000001f0: de84 7642 ac07 8b42 4987 c741 ca69 1543
00000200: 3c62 9641 9561 a141 3963 f642 2556 9540
00000210: c1ee ab42 49ee 8441 358a 7941 f501 2942
00000220: acc5 1842 10e1 b042 14b5 bd42 5478 9f41
00000230: 45b0 5f41 6987 b640 f245 d242 0629 7743
00000240: e328 a941 52f3 e041 b065 2141 bc28 1642
00000250: 5d3a 6c42 eb26 3f42 b17d cb41 1338 2b42
00000260: 80b8 1941 3b4e 2744 a1d4 0042 528c b241
00000270: c2fd d841 8ddc 6241 0c47 6341 39ec 6d41
00000280: 396e 8044 c244 4a41 e27b 9a42 3a73 1041
00000290: 59d9 bb41 bf7e 9441 cc2f 9141 9dfc 8c42
000002a0: 8fd1 f741 e2ef 2742 d875 3841 a12e 7042
000002b0: 1e75 3742 e61b c542 6583 b842 4aa5 bb40
000002c0: a730 5142 8439 5c43 551e 7541 f2ca 5941
000002d0: 0ff1 8e42 83a0 eb41 4e5e 6541 a503 7242
000002e0: 759f 4542 d55c cb41 0628 1141 a660 7341
000002f0: 2c17 6d41 fee7 a842 122c 8841 2257 7d41
00000300: 54ff 8342 a448 9b42 0a6d dd43 73df 9f42
00000310: 3111 8e42 a0d7 6c41 e920 b443 ec4b 3341
00000320: 3716 f942 7750 f943 6647 8f42 0c12 8a41
00000330: 2c80 3c41 9ed0 ac42 5544 7642 a5ac ac40
00000340: 46bd 7543 e043 0342 5a60 c243 7003 cb41
00000350: 4100 2e42 f842 bd42 61b0 6d42 ddae 1441
00000360: 6493 c843 743e 4641 cff7 4b42 d457 ca41
00000370: ae7a ea41 0f84 8041 7683 e441 af85 c142
00000380: 3455 6b42 0118 ed42 66ba b642 6ca9 7c41
00000390: 4a94 3441 f88a 1d41 90c3 1941 7429 4542
000003a0: c231 f641 c4ca ea41 2680 b640 8cb0 6642
000003b0: 8b30 d742 8649 0943 3a72 6141 fcda 8c41
000003c0: f57a 0441 f9fe 0642 8ae7 8b42 2ecc 4642
000003d0: 13ed b042 cb46 1042 d2ee 7b42 ee31 f341
000003e0: 008c 8241 102b fc40 c2fe 1041 0ec7 7142
000003f0: 62b2 a042 6082 1341 bb8a 2742 fbfb ba42

weight f4 [256, 256]
-0.02165258 -0.053365227 0.06010478 -0.019571086 -0.01624031 0.056991786 0.03387944 -0.051986497
-0.015437536 0.00034268084 -0.019066082 0.00019814262 0.040059384 0.049414907 -0.015445642 -0.00677383
-0.04957851 -0.01689661 -0.04065935 0.04001716 0.04378126 0.03709077 0.017219398 0.06050012
-0.042679854 0.02483561 0.00026308282 -0.033135034 -0.055646434 0.010049473 -0.022310156 -0.057860013
0.051715337 -0.013892089 0.041322224 -0.05102491 -0.022911573 -0.053719997 0.04654445 -0.04395705
0.037550855 0.04850478 -0.010286325 0.010855675 -0.0571593 -0.04588505 0.04201048 -0.02603442
-0.02712517 -0.058586795 0.0175307 -0.04560476 0.047058716 -0.024031833 -0.014980899 -0.029341955
0.022376195 0.00014866068 -0.04826717 0.053084828 0.035013795 0.046909 0.03936246 0.003003357
-0.042344917 -0.03327731 -0.025665702 0.03644965 -0.00038670644 -0.046131007 0.01994228 0.0036439209
-0.029289104 -0.013254222 -0.008452365 0.050444197 -0.005148929 -0.02091798 0.014599392 0.053151913
-0.043001857 -0.05957686 0.051761795 -0.03949912 -0.033207 -0.012192943 0.024619054 0.006868479
-0.06437512 -0.01719475 0.018342804 -0.06451156 -0.053576093 0.003530793 -0.05487085 -0.026273016
-0.028273534 0.021734148 0.037532046 -0.065399066 0.024860196 -0.035721056 0.0066607683 0.029849214
-0.025640773 -0.0435615 0.047897037 -0.033087682 0.025494194 -0.022683857 0.04805004 -0.050994705
0.015887326 -0.054636754 -0.017068375 0.040905725 0.044479426 0.051956385 0.050644558 0.06470541
0.059915025 0.0045984755 0.010252765 -0.011026151 0.034620866 0.041250747 -0.037467267 -0.060029525
-0.033640742 0.0013152016 0.04998462 -0.016035927 0.028848995 0.0048544807 0.056888357 -0.043192577
0.050880082 0.017386632 -0.014889426 0.044451002 -0.057545986 -0.013327345 0.032471586 0.014782005
0.0077774813 -0.021218158 -0.04687247 -0.032020796 0.027145326 -0.009784415 -0.04683473 -0.030954588
-0.041764453 -0.06340631 0.008639514 0.039108526 -0.028076522 -0.028595166 -0.05698152 0.012935632
0.024139278 -0.042952355 0.014379577 0.039499696 0.004709882 -0.043834373 -0.026604932 0.049946148
0.0154675525 0.01677399 -0.011964211 -0.050334945 -0.02100698 0.022784803 0.061009746 -0.040729176
0.030403355 -0.04231439 -0.019683573 0.05486499 -0.04612486 -0.053373154 -0.056952666 0.042852145
0.050337628 -0.029712241 -0.043831177 0.005615822 -0.030301945 -0.010225823 -0.018714758 0.040878184
-0.04871687 -0.056672975 0.023741087 0.014919834 -0.03883477 0.0077618565 0.047810256 -0.038311288
0.044809055 -0.01066639 0.028207652 -0.062913254 0.050579987 0.039449222 -0.009187464 0.031535942
-0.030352654 0.059695296 0.01985626 0.008271088 -0.044126738 0.017462125 0.006188658 -0.023286592
0.032805566 0.04705656 -0.038034663 0.05670015 -0.0045608575 -0.019390082 -0.05507925 -0.04470514
-0.057558272 0.034877975 -0.034925807 0.035696745 -0.04231606 -0.042579044 -0.016357768 -0.013699892
-0.06369538 0.034040947 0.035769988 0.043814987 -0.059275977 -0.06345973 -0.011360732 0.036398333
-0.025972104 -0.029406907 -0.056378298 0.023529185 0.018432684 -0.034090582 -0.013849775 0.05158017
0.049956113 0.02742415 -0.004843686 -0.05580422 -0.03717316 -0.057389725 0.011698096 -0.057426527
00000000: c060 b1bc 7f95 5abd 6e30 763d 8b53 a0bc
00000010: 660a 85bc 3870 693d 2bc5 0a3d cbef 54bd
00000020: b8ed 7cbc d8a9 b339 7930 9cbc 81c4 4f39
00000030: 4f15 243d 4967 4a3d b80f 7dbc 01f7 ddbb
00000040: d612 4bbd c26a 8abc 6b8a 26bd 09e9 233d
00000050: fa53 333d 7eec 173d b20f 8d3c f9ce 773d
00000060: 12d1 2ebd 0d74 cb3c 61ee 8939 9ab8 07bd
00000070: 84ed 63bd 8ba6 243c cac3 b6bc 9ffe 6cbd
00000080: 76d3 533d a59b 63bc 7e41 293d 7fff 50bd
00000090: 0db1 bbbc 8009 5cbd 65a5 3e3d 4f0c 34bd
000000a0: edce 193d f3ac 463d f987 28bc 00dc 313c
000000b0: df1f 6abd f6f1 3bbd 2e13 2c3d 2346 d5bc
000000c0: 9b35 debc b5f8 6fbd 8b9c 8f3c 0fcc 3abd
000000d0: a4c0 403d 68de c4bc 7272 75bc 8a5e f0bc
000000e0: 484e b73c cce1 1b39 ccb3 45bd 7a6f 593d
000000f0: a06a 0f3d a723 403d 883a 213d f8d3 443b
00000100: dd71 2dbd ca4d 08bd e140 d2bc 3a4c 153d
00000110: dcbe cab9 def3 3cbd fe5d a33c d9ce 6e3b
00000120: b4ef efbc 3d28 59bc ca7b 0abc 939e 4e3d
00000130: 59b8 a8bb 2f5c abbc 4a32 6f3c d2b5 593d
00000140: b722 30bd de06 74bd 2d04 543d d4c9 21bd
00000150: 1004 08bd e9c4 47bc e6ad c93c fa10 e13b
00000160: 1ad7 83bd 01dc 8cbc a643 963c a31e 84bd
00000170: 9b72 5bbd e064 673b 42c0 60bd 823a d7bc
00000180: e69d e7bc d00b b23c 34bb 193d f2ef 85bd
00000190: 9ca7 cb3c 3e50 12bd 9342 da3b 5786 f43c
000001a0: 990c d2bc 8b6d 32bd af2f 443d f386 07bd
000001b0: 33d9 d03c 7fd3 b9bc 1ed0 443d d3df 50bd
000001c0: 2326 823c caca 5fbd fad2 8bbc c38c 273d
000001d0: 0f30 363d 38d0 543d ab70 4f3d 4584 843d
000001e0: 7569 753d cfae 963b 37fb 273c 07a7 34bc
000001f0: 9cce 0d3d 8bf6 283d 4777 19bd 85e1 75bd
00000200: e0ca 09bd d862 ac3a acbc 4c3d c75d 83bc
00000210: ba54 ec3c 5612 9f3b c403 693d b3ea 30bd
00000220: a267 503d 696e 8e3c c7f2 73bc 4112 363d
00000230: 57b5 6bbd f05a 5abc ed00 053d 3930 723c
00000240: 3eda fe3b b4d1 adbc 59fd 3fbd 3d28 03bd
00000250: e05f de3c d04e 20bc c6d5 3fbd 7a94 fdbc
00000260: 3411 2bbd 2bdb 81bd c08c 0d3c 4330 203d
00000270: bc00 e6bc 6940 eabc 7465 69bd f9ef 533c
00000280: bcbf c53c cfee 2fbd 5198 6b3c 6fca 213d
00000290: 5b55 9a3b ac8b 33bd 96f2 d9bc 5594 4c3d
000002a0: 9e6b 7d3c 9b69 893c 8a05 44bc 042c 4ebd
000002b0: d516 acbc 32a7 ba3c 5be5 793d a3d3 26bd
000002c0: 7510 f93c db51 2dbd 723f a1bc 1dba 603d
000002d0: 6ced 3cbd cf9d 5abd 3347 69bd bb85 2f3d
000002e0: d42e 4e3d 1667 f3bc 5288 33bd ee04 b83b
000002f0: c93b f8bc 368a 27bc b14f 99bc e26f 273d
00000300: 578b 47bd ec21 68bd ab7c c23c 5272 743c
00000310: 3511 1fbd 2c57 fe3b b0d4 433d 4cec 1cbd
00000320: b389 373d 15c2 2ebc bc13 e73c aad8 80bd
00000330: f62c 4f3d 8295 213d 0487 16bc d52b 013d
00000340: 21a6 f8bc 0e83 743d 98a9 a23c 7583 073c
00000350: 3dbe 34bd bb0c 8f3c 3aca ca3b 86c3 bebc
00000360: 215f 063d 61be 403d 3cca 1bbd 6b3e 683d
00000370: 3f73 95bb f3d7 9ebc c89a 61bd bd1c 37bd
00000380: 39c2 6bbd 35dc 0e3d 5d0e 0fbd c036 123d
00000390: 9b53 2dbd 5d67 2ebd ba00 86bc 8375 60bc
000003a0: b972 82bd 856e 0b3d 8d83 123d 5877 333d
000003b0: 5ecb 72bd 2df7 81bd 5d22 3abc 6b16 153d
000003c0: 73c3 d4bc c1e6 f0bc eeec 66bd 47c0 c03c
000003d0: 2400 973c 91a2 0bbd 2bea 62bc ba45 533d
000003e0: c89e 4c3d 9ca8 e03c c8b7 9ebb f792 64bd
000003f0: e242 18bd 7d11 6bbd 5fa9 3f3c 1438 6bbd

bias f4 [256]
0.036257118 -0.046935037 0.0077907355 -0.047511376 -0.0033113419 0.03452705 -0.023477316 -0.022992052
0.027094565 -0.033335112 0.05001106 0.026733294 0.0032149756 0.041537337 -0.037521586 0.017729804
0.019580305 0.028026968 0.039314345 0.038005464 0.01649464 -0.029033102 0.034004122 -0.043426014
0.011821702 0.00062618544 0.023949951 -0.040705495 0.006475419 0.018320538 -0.058416665 -0.029194154
0.005238099 0.036341496 -0.0018414749 0.03814687 -0.026074544 -0.008599363 -0.0109205395 -0.038060233
-0.050193563 -0.0014822102 0.06016031 0.04335416 -0.022127502 -0.0035766468 0.00618339 0.028559074
-0.036287345 -0.032513455 0.05030661 -0.0054338067 0.023062631 -0.024098925 -0.035060726 0.03782949
0.042569235 0.04644067 -0.01006189 -0.042782433 -0.051988028 0.038917243 -0.06050262 -0.055534318
-0.023320554 0.04864133 -0.036139645 0.019126868 -0.033486776 0.013368212 0.04350692 0.051875606
0.029597089 0.009972244 -0.037500717 0.012136986 0.023321472 0.04805044 -0.050480284 -0.019003816
-0.007727362 -0.027677074 0.0513201 0.034019418 -0.027426764 0.020776235 0.044835843 -0.051625542
0.056752943 0.032992475 0.026064374 -0.009188991 0.022312239 0.059623428 0.029984504 -0.022034451
-0.009797916 -0.06137617 0.04185278 0.014947965 0.026427649 0.05746592 0.012971467 0.052604504
-0.030046664 0.045924112 -0.051726766 0.045307912 -0.024137989 0.0017460436 -0.005718261 -0.001600013
0.032955915 -0.013855495 0.028519623 0.029147863 -0.028998882 0.026090167 -0.0459719 -0.057128616
-0.04451233 -0.04799796 0.037471816 0.060004212 0.041989245 0.039861865 -0.0027656914 -0.025453992
0.029704973 0.01989393 -0.05283507 -0.00013042545 -0.019716702 -0.0074115284 0.02716592 -0.028392121
0.023778558 -0.03069894 0.06061662 -0.028231643 0.0018672248 -0.05090189 0.02423212 0.056667782
-0.04931142 0.015429066 0.058630705 -0.045830302 0.0074644606 -0.017404057 0.03684812 -0.037494205
0.059301563 -0.010716534 0.019854225 0.020710133 -0.04939808 0.013242095 0.013581313 0.053548433
-0.0072282623 -0.053953163 -0.05549998 -0.028138123 -0.013181999 0.044410028 -0.052188978 0.032606
-0.014094591 0.0036391537 -0.040428035 -0.0034098998 -0.01442045 -0.013566501 0.03994053 0.0101656765
-0.012920469 0.055134058 0.028382853 -0.020056821 -0.014949739 -0.0072070807 -0.002440311 -0.05058319
0.047034025 -0.027269525 0.061379276 -0.03446517 -0.034053005 0.048252024 -0.02127079 -0.008850955
-0.005119972 0.0028837454 -0.059549622 -0.05233428 -0.016961604 -0.030384079 0.0555968 -0.029818758
-0.030071914 0.027246423 0.01159624 -0.028656088 0.04910916 0.03687609 -0.011738674 -0.016257621
-0.0068023596 -0.060109213 0.020162731 0.035600156 -0.03508742 0.033432372 0.018504933 -0.003918582
0.017342642 -0.04497263 0.026712492 -0.060963765 -0.0578549 0.0077968985 -0.04872407 0.04119063
-0.027999096 -0.04300292 -0.017683104 -0.051073834 0.027434781 -0.050701365 0.040767476 0.010681383
0.004842475 -0.004964695 0.023307629 0.059417598 -0.05780697 0.007534109 0.05873639 -0.04726301
0.022009157 0.048004687 0.05639433 -0.057214715 0.015503809 0.042617112 0.033863537 -0.011874355
0.0129973395 0.053981423 0.04137785 -0.06076976 0.010463044 0.05975361 -0.029667176 0.055232905
00000000: 5882 143d f43e 40bd 6d49 ff3b 4a9b 42bd
00000010: 1903 59bb 3c6c 0d3d 8053 c0bc d459 bcbc
00000020: 6cf5 dd3c 668a 08bd 66d8 4c3d c8ff da3c
00000030: 57b2 523b 0e23 2a3d 3cb0 19bd 183e 913c
00000040: e066 a03c d098 e53c 1408 213d 9eab 1b3d
00000050: c41f 873c d4d6 edbc e847 0b3d 7adf 31bd
00000060: d0af 413c 9826 243a b032 c43c ceba 26bd
00000070: c02f d43b f414 963c 5046 6fbd 9428 efbc
00000080: 5ca4 ab3b d2da 143d a55d f1ba e43f 1c3d
00000090: 489a d5bc 58e4 0cbc 10ec 32bc 0ce5 1bbd
000000a0: c497 4dbd b946 c2ba a86a 763d 2294 313d
000000b0: bc44 b5bc 2d66 6abb 099e ca3b b8f4 e93c
000000c0: 0aa2 14bd d42c 05bd 4e0e 4e3d 130e b2bb
000000d0: d8ed bc3c 1c6b c5bc d69b 0fbd 18f3 1a3d
000000e0: 145d 2e3d 9238 3e3d a0da 24bc a23c 2fbd
000000f0: 66f1 54bd b067 1f3d 98d1 77bd f477 63bd
00000100: bf0a bfbc 223c 473d 2a07 14bd f3af 9c3c
00000110: 6e29 09bd 5806 5b3c 5034 323d 847b 543d
00000120: 9875 f23c 9f62 233c 5a9a 19bd 35da 463c
00000130: ac0c bf3c 8ad0 443d 6ac4 4ebd e4ad 9bbc
00000140: d035 fdbb 08bb e2bc 0635 523d f257 0b3d
00000150: 18ae e0bc ec32 aa3c caa5 373d 4e75 53bd
00000160: c675 683d 1e23 073d f484 d53c 6c8d 16bc
00000170: 28c8 b63c b237 743d 10a2 f53c 9881 b4bc
00000180: 7087 20bc 9465 7bbd d26d 2b3d 4fe8 743c
00000190: cc7e d83c 6261 6b3d 4786 543c d277 573d
000001a0: 6c24 f6bc ec1a 3c3d 72df 53bd ca94 393d
000001b0: 08bd c5bc 80db e43a 4060 bbbb 87b7 d1ba
000001c0: c8fc 063d 2802 63bc fca1 e93c 80c7 ee3c
000001d0: 108f edbc 0cbb d53c 084d 3cbd b2ff 69bd
000001e0: 9052 36bd 8299 44bd 0c7c 193d fac6 753d
000001f0: eafc 2b3d 3246 233d 9a40 35bb e484 d0bc
00000200: d857 f33c 98f8 a23c 9669 58bd d1c2 08b9
00000210: ec84 a1bc 68dc f2bb 108b de3c 9896 e8bc
00000220: 40cb c23c 587c fbbc 2249 783d 0c46 e7bc
00000230: abbd f43a 807e 50bd 7082 c63c 7a1c 683d
00000240: c6fa 49bd 31ca 7c3c c026 703d 8eb8 3bbd
00000250: 6f98 f43b f492 8ebc 0eee 163d 8693 19bd
00000260: 32e6 723d 6794 2fbc 54a5 a23c 4ca8 a93c
00000270: a455 4abd 5ff5 583c 2884 5e3c 9a55 5b3d
00000280: 0fdb ecbb fefd 5cbd f253 63bd ec81 e6bc
00000290: 50f9 57bc 4ae7 353d 1cc4 55bd de8d 053d
000002a0: 00ed 66bc de7e 6e3b de97 25bd a078 5fbb
000002b0: c043 6cbc 0846 5ebc ae98 233d f08d 263c
000002c0: 60b0 53bc 40d4 613d 2883 e83c 344e a4bc
000002d0: c0ef 74bc 6029 ecbb a0ed 1fbb 5230 4fbd
000002e0: c0a6 403d 5764 dfbc d668 7b3d 5a2b 0dbd
000002f0: 2a7b 0bbd eaa3 453d 1440 aebc 9903 11bc
00000300: 70c5 a7bb 38fd 3c3b 4eea 73bd 785c 56bd
00000310: 10f3 8abc 08e8 f8bc 78b9 633d 7846 f4bc
00000320: 6059 f6bc e433 df3c 28fe 3d3c 2cc0 eabc
00000330: b026 493d 620b 173d 9153 40bc b42e 85bc
00000340: 54e6 debb 1435 76bd 502c a53c 78d1 113d
00000350: d4b7 0fbd 62f0 083d a897 973c 7367 80bb
00000360: 2812 8e3c 3835 38bd 28d4 da3c 24b5 79bd
00000370: 42f9 6cbd 207d ff3b e492 47bd 82b7 283d
00000380: 5c5e e5bc d423 30bd 28dc 90bc cc32 51bd
00000390: e8be e03c 3cac 4fbd ccfb 263d f800 2f3c
000003a0: a0ad 9e3b e1ae a2bb a4ef be3c de5f 733d
000003b0: 00c7 6cbd b0e0 f63b 9295 703d dc96 41bd
000003c0: 8c4c b43c 90a0 443d befd 663d fa59 6abd
000003d0: b003 7e3c 488f 2e3d 7eb4 0a3d a88c 42bc
000003e0: cbf2 543c a01b 5d3d d27b 293d b6e9 78bd
000003f0: 306d 2b3c 34c0 743d 9408 f3bc e63b 623d
